code/outputs/gradient_comparison/pg/models/pg_checkpoint.pt (torch, 30111 bytes, 4 tensors)

fc1.weight f4 [81, 5]
0	0x3dc84f7d	0.09780786
1	0x3ebca39f	0.36843583
2	0xbcd5d50d	-0.026102567
3	0xbda7f52a	-0.08201058
4	0x3d9c5f9e	0.07635425
5	0xbe835b1b	-0.25655445
6	0x3d2a78e6	0.041619204
7	0xbee59897	-0.4484298
8	0x3e29ef80	0.16595268
9	0x3d41cb43	0.047312986
10	0xbe1477d9	-0.14498843
11	0x3dfb8c58	0.12282628
12	0xbd0cbdc5	-0.034360666
13	0x3ee43ae1	0.4457617
14	0x3e2a6eef	0.1664388
15	0x3e129e6b	0.14318244
16	0x3eac4250	0.33644342
17	0xbd536265	-0.05160751
18	0xbd9e2967	-0.077227406
19	0xbe9b0713	-0.30278835
20	0xbdebf730	-0.11521757
21	0xbece49ce	-0.40290684
22	0xbe00c2a2	-0.12574247
23	0x3eda46f0	0.42632246
24	0xbe3f57bc	-0.18685812
25	0xbc9f7564	-0.019465156
26	0x3ec9469e	0.3931169
27	0xbe42ae34	-0.19011766
28	0xbe6a2ee8	-0.22869456
29	0x3e342ad7	0.17594467
30	0x3d97ad12	0.074060574
31	0x3e7e7f1c	0.24853176
32	0x3d855017	0.065094166
33	0x3ea5eb65	0.32406154
34	0x3e9de6b4	0.30840075
35	0xbec79aca	-0.38985282
36	0x3ef32a2a	0.47493106
37	0xbe3953aa	-0.18098322
38	0x3c862be1	0.016378345
39	0x3dfba41b	0.1228716
40	0xbd01fa98	-0.031733125
41	0xbd9180dc	-0.07104656
42	0x3e6391c0	0.22223568
43	0xbe0e1ea4	-0.13878876
44	0xbecf930b	-0.40541872
45	0xbcd3fa1a	-0.025876094
46	0x3e86a09b	0.26294407
47	0xbdaae1cb	-0.08343848
48	0x3effc969	0.4995835
49	0x3deb7432	0.11496772
50	0xbdd0eca0	-0.10201383
51	0xbe3a3cb4	-0.18187219
52	0xbee2667d	-0.44218817
53	0x3ec1a194	0.37818587
54	0xbec82301	-0.39089206
55	0xbe85af38	-0.26110244
56	0x3ea6fc5e	0.32614416
57	0x3ebbf6b6	0.36711663
58	0x3ef8033c	0.48439968
59	0xbc2f333e	-0.010693369
60	0xbe84aec6	-0.25914592
61	0xbe1281b2	-0.14307287
62	0xbdf4a86d	-0.11946187
63	0x3e703d94	0.2346099
64	0xbea9e1db	-0.33180127
65	0xbe63f0bd	-0.22259803
66	0xbeb5402c	-0.35400522
67	0xbd926bfc	-0.07149503
68	0x3de70f60	0.112822294
69	0xbec89db7	-0.39182827
70	0x3e0fb0f2	0.14032343
71	0x3df20f96	0.11819379
72	0xbe3956ce	-0.1809952
73	0x3d63127e	0.055437557
74	0x3e88182d	0.26580945
75	0x3c8123cc	0.01576414
76	0xbe529be2	-0.20567277
77	0xbef7bf6b	-0.48388228
78	0x3e6d9651	0.23201872
79	0xbe7c7b80	-0.24656487
80	0xbe449271	-0.19196488
81	0x3ddfde03	0.10931017
82	0xbe621faa	-0.22082391
83	0xbeda373a	-0.4262026
84	0x3edbe3a1	0.42947105
85	0x3ed465b6	0.4148385
86	0x3ecc2376	0.39870805
87	0x3e7c9b9b	0.24668734
88	0x3f1c033f	0.60942453
89	0xbcd43522	-0.025904242
90	0x3d7d8ac6	0.061899923
91	0xbe5e6b55	-0.21720631
92	0x3d3a9dca	0.045560636
93	0xbe864804	-0.2622682
94	0x3e069765	0.1314369
95	0x3eab8a3d	0.33503905
96	0x3e6bc837	0.23025595
97	0x3ee1ab46	0.44075984
98	0x3ec73816	0.38909978
99	0xbe41289e	-0.1886315
100	0xbec8b346	-0.39199275
101	0x3e7b04fb	0.24513619
102	0x3c7a9329	0.015293875
103	0x3e5e41de	0.21704814
104	0xbe2e1abe	-0.17002389
105	0x3eee7869	0.4657624
106	0x3ecc4fd6	0.3990466
107	0xbdc9d29f	-0.09854626
108	0x3c9b44d1	0.018953713
109	0xbe8a0d0c	-0.2696308
110	0x3f0a0615	0.5391553
111	0x3f10a55c	0.5650232
112	0x3e879f33	0.26488647
113	0x3eb480b2	0.35254437
114	0x3e112f21	0.14178135
115	0xbd787256	-0.060655914
116	0xbe68d9fe	-0.22739407
117	0xbd4f1f63	-0.050567042
118	0xbe2de178	-0.16980541
119	0x3e01f172	0.1268976
120	0xbeaec199	-0.34132078
121	0xbe328322	-0.17432836
122	0xbe39fa14	-0.18161803
123	0xbc8e9910	-0.01740697
124	0xbeae80ad	-0.34082547
125	0x3e7050a6	0.23468265
126	0x3e066177	0.13123117
127	0xbe595a7a	-0.2122592
128	0x3d811f0f	0.06304752
129	0x3ccf1d03	0.025282389
130	0x3e86e378	0.2634542
131	0xbedfd081	-0.43713763
132	0xbdb4f628	-0.08836013
133	0xbce89ea0	-0.02839595
134	0x3ebc978f	0.3683438
135	0x3e68e2a7	0.22742711
136	0x3eb74cda	0.3580082
137	0xbde1bd18	-0.11022395
138	0xbd83dbcb	-0.064384066
139	0xbb8cf88d	-0.0043020905
140	0x3ec058c8	0.37567735
141	0xbe2f437a	-0.17115584
142	0xbe1652db	-0.14680044
143	0x3e8abfb6	0.2709939
144	0x3e409d4e	0.18810007
145	0x3db6d7eb	0.08927902
146	0xbe125c7a	-0.1429309
147	0xbeb60a27	-0.3555462
148	0xbd935880	-0.071946144
149	0x3f130884	0.5743487
150	0xbeb856fc	-0.36003864
151	0xbe83da5c	-0.25752532
152	0xbe919af8	-0.28438544
153	0x3e948aee	0.29012245
154	0x3e4bd9c7	0.19907294
155	0xbe893b1e	-0.26802915
156	0xbd445668	-0.047933966
157	0x3e2da544	0.16957575
158	0xbc5906a0	-0.013246208
159	0xbedd6789	-0.43243054
160	0x3d3e3069	0.046432886
161	0x3e21f396	0.15815577
162	0x3de6b307	0.112646155
163	0xbec266fa	-0.3796919
164	0xbea26f01	-0.31725314
165	0xbe2cc504	-0.1687203
166	0xbe9baf56	-0.30407208
167	0xbef54216	-0.47901982
168	0x3da63f0d	0.08117495
169	0x3e9a24df	0.30106255
170	0xbc4074b1	-0.011746571
171	0x3ef006f5	0.46880308
172	0xbe113bb7	-0.14182936
173	0xbe0e8bcf	-0.1392052
174	0x3ebb8685	0.36626068
175	0xbeeb6b9b	-0.45980534
176	0x3d6a036c	0.05713217
177	0xbf00ad94	-0.5026486
178	0xbea56c7b	-0.32309327
179	0x3d986ca1	0.07442594
180	0x3eed1d5d	0.46311465
181	0x3f218530	0.63093853
182	0x3e15ff72	0.14648226
183	0xbe904122	-0.28174692
184	0xbd759d74	-0.059964612
185	0xbe66bd13	-0.22533064
186	0x3e8e5908	0.278023
187	0xbc55283f	-0.013010084
188	0xbe3ce620	-0.1844716
189	0xbeb36ae8	-0.350425
190	0x3e8422ac	0.25807703
191	0x3eb75255	0.35805002
192	0x3d96a903	0.07356455
193	0xbec8a269	-0.3918641
194	0xbdb42ce3	-0.08797624
195	0x3e1957c8	0.14974892
196	0xbf066d79	-0.5251079
197	0xbe78f1ea	-0.24311033
198	0x3e3b96a2	0.1831918
199	0x3e48bea3	0.19603972
200	0xbac49d00	-0.0015000403
201	0xbc15bda0	-0.009139448
202	0x3ee21640	0.441576
203	0xbc5d6500	-0.01351285
204	0xbe9867da	-0.29766732
205	0xbe3ca82a	-0.18423524
206	0xbe8da087	-0.27661535
207	0x3d8285c8	0.06373173
208	0xbd827034	-0.06369057
209	0x3dc61c85	0.096734084
210	0xbee4d906	-0.44696826
211	0xbebe27c9	-0.3713973
212	0x3d965998	0.073413074
213	0xbe941504	-0.28922284
214	0xbe3ca304	-0.1842156
215	0x3e83ec72	0.2576633
216	0xbeb1f503	-0.34757242
217	0xbda6a3d8	-0.081367195
218	0xbea05a46	-0.31318873
219	0x3e63d097	0.2224754
220	0x3ec916e0	0.39275265
221	0xbdd0ceae	-0.10195671
222	0xbe54d05b	-0.20782606
223	0xbdcb4b57	-0.09926479
224	0x3e17491e	0.14773986
225	0x3ea1a648	0.31572175
226	0x3d91efbb	0.07125803
227	0x3efb8d9a	0.4913147
228	0x3ea5b50b	0.32364687
229	0x3e7c74bc	0.24653906
230	0xbdca9238	-0.0989117
231	0xbeb668d9	-0.35626867
232	0xbedd0622	-0.4316874
233	0x3ca6cb80	0.020360708
234	0xbeee2fed	-0.4652094
235	0x3bd25ac0	0.0064195096
236	0xbebca272	-0.36842686
237	0x3ec6c222	0.38819987
238	0xbe30f948	-0.17282593
239	0x3ec45638	0.3834703
240	0x3e7bf0d3	0.24603586
241	0x3ce8674e	0.028369572
242	0x3daf1658	0.085491836
243	0x3df3fc44	0.1191335
244	0x3e0bee01	0.1366501
245	0xbe6753e9	-0.22590603
246	0xbd83841c	-0.06421682
247	0x3e4ea9e4	0.20181996
248	0x3eb3e59c	0.35136116
249	0xbe788ba3	-0.24272017
250	0xbef6251b	-0.48075184
251	0xbd2a94f7	-0.04164597
252	0xbe178b0b	-0.14799134
253	0xbf0b892b	-0.54506177
254	0x3ef09422	0.46988016
255	0xbf04cc8e	-0.51874626

fc1.bias f4 [81]
0	0x3e87b3a4	0.26504242
1	0xbe26ed3f	-0.1630144
2	0x3f33c2ae	0.7021893
3	0x3d8cc8e5	0.06874255
4	0xbd41c4f0	-0.047306955
5	0xbe8cceab	-0.27501425
6	0xbcf4c763	-0.029880231
7	0xbefe69d0	-0.49690104
8	0xbe54165b	-0.20711653
9	0xbe2958c4	-0.16537768
10	0xbee310ff	-0.44348904
11	0xbd4e5d3f	-0.050381895
12	0x3ea8aed9	0.32945898
13	0xbdb200f8	-0.08691591
14	0x3e43da56	0.19126257
15	0xbee94258	-0.4555843
16	0x3ed230ac	0.4105276
17	0x3e774130	0.24145961
18	0xbe3b2081	-0.18274118
19	0xbe4979a6	-0.19675311
20	0xbe9072f1	-0.28212693
21	0x3e0abff1	0.13549782
22	0xbe597a26	-0.21238002
23	0x3e800aab	0.2500814
24	0x3d66a490	0.056309283
25	0x3e205db3	0.15660743
26	0x3e0bfa17	0.1366962
27	0xbacbd9fa	-0.0015552633
28	0xbe77ee77	-0.24212061
29	0xbcd6cd15	-0.026220838
30	0xbea97549	-0.33097294
31	0xbeb06d04	-0.34458172
32	0x3d41d31c	0.04732047
33	0xbdf4e850	-0.119583726
34	0xbc42b1d6	-0.01188322
35	0x3f03bdb0	0.51461315
36	0x3c91f093	0.01781491
37	0xbe818c0e	-0.25302166
38	0xbed47d23	-0.41501722
39	0x3f10cfd4	0.5656712
40	0xbe9577e0	-0.2919302
41	0xbe987e1a	-0.29783708
42	0xbea8cfad	-0.32970944
43	0xbc9a793d	-0.018856639
44	0x3e4b4208	0.19849408
45	0x3f048864	0.51770616
46	0x3eac7cc7	0.33688948
47	0x3f13672a	0.5757929
48	0xbe672c85	-0.22575577
49	0xbe114164	-0.14185101
50	0x3f20e4e5	0.62849265
51	0xbe49c41c	-0.19703716
52	0x3ebd6109	0.36988094
53	0xbf08351f	-0.53206056
54	0x3efd2d65	0.49448696
55	0x3f2e1b7d	0.68010694
56	0x3e1e1fe9	0.1544186
57	0x3f139e66	0.5766357
58	0x3c837c91	0.016050609
59	0x3f0b6504	0.5445101
60	0x3c0eb460	0.008709997
61	0x3e88d957	0.26728317
62	0x3e8980bb	0.26856026
63	0xbc7bd9c0	-0.01537174
64	0x3e86a0ff	0.26294705
65	0x3f185dcb	0.59518117
66	0xbe912293	-0.2834669
67	0x3e5a102e	0.21295235
68	0x3d1e6642	0.03867174
69	0xbf08b451	-0.5340014
70	0x3b9ace40	0.004724294
71	0xbeb8f3c4	-0.36123478
72	0x3f0d7d56	0.5526937
73	0xbf02dcc4	-0.5111811
74	0x3e0f9ef7	0.14025484
75	0xbdf03d8c	-0.11730489
76	0xbe29b974	-0.16574651
77	0x3d95c7d2	0.07313503
78	0x3f2a2614	0.6646435
79	0xbeae77b8	-0.34075713
80	0xbeac3937	-0.336374

fc2.weight f4 [81, 81]
0	0xbc8d0675	-0.017214993
1	0xbe516e1a	-0.20452157
2	0xbdeed2ad	-0.11661277
3	0xbe193b21	-0.14963962
4	0xbd54830e	-0.051882796
5	0xbcdc5c18	-0.026899382
6	0xbdb4b1a1	-0.088229425
7	0x3e38f5f1	0.18062569
8	0xbcbaae6c	-0.022788249
9	0x3d9fa0a1	0.077943094
10	0xbd2f5320	-0.042803884
11	0x3ce3d89f	0.027813254
12	0xbe3c8c77	-0.18412958
13	0xbcea7338	-0.028619394
14	0xbda30ff7	-0.079620294
15	0xbd2ae37a	-0.041720845
16	0x3b538827	0.0032277198
17	0xbc951230	-0.018197149
18	0xbe0cefba	-0.13763323
19	0xbe082e39	-0.13298883
20	0x3df60aeb	0.12013801
21	0xbe054976	-0.13016304
22	0xbe34517a	-0.17609206
23	0xbe45bb11	-0.19309641
24	0x3d382095	0.044952948
25	0xbe31bd77	-0.17357431
26	0xbd8a55b4	-0.06754628
27	0xbe03734d	-0.12836953
28	0xbe5368d5	-0.20645459
29	0xbd79f5b0	-0.06102532
30	0xbe48c466	-0.1960617
31	0xbbe9ddb0	-0.007137023
32	0xbe35c5a4	-0.17751175
33	0xbdebe8a4	-0.11518982
34	0xbd13d6a9	-0.036093388
35	0xbd8f8482	-0.07007696
36	0xbde65154	-0.11245981
37	0xbe011c87	-0.12608539
38	0xbe5166af	-0.20449327
39	0xbdf07591	-0.11741174
40	0xbddbe560	-0.10737109
41	0xbd8fb496	-0.07016866
42	0x3de1583b	0.11003157
43	0xbe2d45be	-0.16921136
44	0xbe4d9df7	-0.2007979
45	0xbe4ca33a	-0.19984141
46	0xbdcc3225	-0.09970502
47	0xbe9cd721	-0.3063288
48	0xbd39dce6	-0.04537668
49	0xbd0186c0	-0.03162265
50	0xbe97700b	-0.2957767
51	0x3e158388	0.14600956
52	0xbd3da472	-0.046299405
53	0xbd89b7e6	-0.06724529
54	0xbe819089	-0.25305584
55	0xbe9fa1fe	-0.31178278
56	0xbdc3ac11	-0.095543034
57	0xbe94fc3c	-0.2909869
58	0xbda376be	-0.07981633
59	0xbe066e91	-0.13128115
60	0xbdc2537e	-0.09488581
61	0x3d99141c	0.07474539
62	0xbe2d12ac	-0.16901654
63	0x3e2c5215	0.16828187
64	0xbdc56523	-0.09638431
65	0xbd31025a	-0.043215133
66	0xbdcd8c44	-0.10036519
67	0xbe958a30	-0.2920699
68	0xbd373627	-0.044729378
69	0xbda9fdc1	-0.08300353
70	0xbd12f1fc	-0.035875306
71	0xbdad8756	-0.08473079
72	0xbeb792e6	-0.35854262
73	0xbd85ebdc	-0.06539127
74	0xbd0cd9ed	-0.034387518
75	0xbd7703b9	-0.060306285
76	0x3caa3134	0.020775415
77	0x3cc0bf41	0.023528697
78	0xbd96f81e	-0.07371543
79	0x3d6aa0fe	0.05728244
80	0xbd203bca	-0.03911952
81	0x3dcac255	0.09900347
82	0x3ddf4180	0.10901165
83	0x3e611e55	0.21984227
84	0x3c89f70a	0.01684143
85	0x3d7ff5ba	0.062490202
86	0x3e3463c1	0.17616178
87	0x3e3079eb	0.17234008
88	0x3c8410f5	0.016121367
89	0x3d6111ea	0.054948725
90	0xbdc5f446	-0.09665732
91	0xbd5981f2	-0.05310244
92	0xbd73fc17	-0.059566583
93	0x3e18c706	0.14919671
94	0x3da813b5	0.08206884
95	0x3e6fabb9	0.2340535
96	0xbd900dd3	-0.07033887
97	0x3dbcf86f	0.092270724
98	0x3da5f1f4	0.081027895
99	0x3d327164	0.04356517
100	0x3e6a634c	0.22889441
101	0xbd401364	-0.046893492
102	0x3e600a3f	0.21878909
103	0x3dd0924d	0.10184155
104	0x3e0bd186	0.13654146
105	0xbd082946	-0.033242486
106	0x3d3088ec	0.04309933
107	0x3ca64332	0.020295713
108	0x3d9ce391	0.07660592
109	0x3e163449	0.14668383
110	0xbce63bd6	-0.028104704
111	0x3dd42e4f	0.10360395
112	0xbcd89f38	-0.026443109
113	0x3e021c12	0.1270602
114	0xbda8c544	-0.082407504
115	0x3e1887cc	0.14895552
116	0x3e23fa82	0.1601353
117	0x3e23f753	0.16012315
118	0x3e01df4b	0.12682836
119	0x3d9f2f9c	0.07772753
120	0x3e63576f	0.22201322
121	0xbb958390	-0.0045628026
122	0x3dda948a	0.10672863
123	0x3d91dcd1	0.071221955
124	0x3d98af14	0.074552685
125	0x3dc8ecd9	0.098108
126	0x3d86242c	0.06549868
127	0x3d4c434b	0.049868863
128	0x3d5c3800	0.053764343
129	0x3da3c14f	0.07995855
130	0xbdb2c83b	-0.08729597
131	0x3d963336	0.073339865
132	0xbba03890	-0.0048895553
133	0x3e6895c5	0.22713383
134	0x3a076e80	0.0005166307
135	0x3e580d29	0.2109877
136	0xbc2f9fef	-0.0107192835
137	0x3e400d98	0.18755186
138	0x3c9cabc9	0.019124882
139	0xbe9f3103	-0.3109208
140	0xbbb63c36	-0.005561377
141	0x3c58e1f0	0.013237461
142	0x3d2885ae	0.041143112
143	0xbc80b2c6	-0.015710246
144	0x3dffe3ad	0.124945976
145	0x3cb4c496	0.022066396
146	0x3ce68250	0.02813831
147	0x3d2b867a	0.041876294
148	0x3dd34ccf	0.103173845
149	0x3ca25629	0.019816475
150	0xbe4b65d5	-0.19863065
151	0xbb153e80	-0.0022772849
152	0x3cd65ed4	0.026168264
153	0x3e9e7199	0.30946043
154	0x3d9e35d1	0.077251084
155	0x3dbffee8	0.093747914
156	0x3d1e4c86	0.038647197
157	0xbd561055	-0.05226167
158	0x3db19ca4	0.08672455
159	0x3e2e00c1	0.16992475
160	0xba2a8800	-0.0006505251
161	0xbc88fff0	-0.016723603
162	0xbcec12a0	-0.028817475
163	0xbd2317a9	-0.039817486
164	0x3c675a3b	0.014120634
165	0xbe360798	-0.17776334
166	0x3c8376bc	0.016047828
167	0xbdcfab9e	-0.10140155
168	0xbe4288b5	-0.18997462
169	0xbdcb10a1	-0.09915281
170	0x3dcca601	0.099926
171	0xbe2c6deb	-0.16838805
172	0xbd8a55e9	-0.06754667
173	0xbe2c0cf3	-0.16801815
174	0x3cec0af6	0.02881382
175	0x3c84d1ec	0.01621338
176	0xbe73abce	-0.23796007
177	0x3ddbe5f7	0.10737222
178	0x3dd99298	0.10623664
179	0xbcfb66d7	-0.030688686
180	0x3df3ce63	0.119045995
181	0xbe1aa099	-0.15100326
182	0xbdf7a219	-0.120914645
183	0xbe5623e7	-0.20912133
184	0xbd75c759	-0.060004566
185	0x3dcc372a	0.09971459
186	0x3d3571cc	0.04429798
187	0xbc395df0	-0.0113139
188	0x3ca98abb	0.020696035
189	0xbe204e28	-0.15654814
190	0xbe222e4c	-0.15837973
191	0xbe339543	-0.17537408
192	0x3d8c2d62	0.068445936
193	0x3dce15af	0.100627296
194	0xbcb135f3	-0.02163217
195	0x3d04fa8d	0.032465506
196	0xbdd426ad	-0.10358939
197	0xbcf4b5d7	-0.029871864
198	0xbe3b8455	-0.183122
199	0xbcff6914	-0.031178035
200	0xbdec653e	-0.11542748
201	0xbb360cf8	-0.0027778726
202	0xbd8aa257	-0.06769245
203	0x3d1606aa	0.03662745
204	0xbdcde509	-0.100534506
205	0x3d4650fd	0.04841708
206	0xbd2deaad	-0.042460132
207	0xbdbadde5	-0.09124354
208	0x3dd4c58f	0.10389244
209	0x3db4760a	0.08811577
210	0xbe084b9b	-0.13310091
211	0xbdc69db4	-0.09698048
212	0xbd5bf31a	-0.053698637
213	0x3d804b65	0.0626438
214	0xbdc38655	-0.09547106
215	0xbded0f81	-0.11575223
216	0x3d5e50c2	0.054276235
217	0xbd48540c	-0.04890828
218	0xbd96f07b	-0.07370087
219	0x3b0ba3c0	0.002130732
220	0xbe576ec8	-0.21038353
221	0x3dfe31b9	0.124118276
222	0xbd4d3d4e	-0.050107293
223	0x3bb7e170	0.005611591
224	0x3cbe0e94	0.02320031
225	0xbc0763ff	-0.008263587
226	0xbe2e466c	-0.17019051
227	0xbc372e01	-0.011180402
228	0xbda8d5d6	-0.08243911
229	0x3dd83343	0.105566524
230	0xbe036346	-0.12830839
231	0xbe61a465	-0.22035368
232	0xbda8ee66	-0.08248596
233	0x3cca5f84	0.024703749
234	0xbe49df53	-0.19714098
235	0xbe420006	-0.18945321
236	0xbcebda85	-0.028790722
237	0xbdbc758e	-0.09202109
238	0xbbc6dbb0	-0.0060686693
239	0x3e6447fe	0.22293088
240	0x3dd922b1	0.1060232
241	0x3db4b84b	0.088242136
242	0x3d3b1056	0.045669876
243	0x3e833940	0.25629616
244	0x3d0923b1	0.033481304
245	0x3f50fc32	0.8163482
246	0xbecb1d9c	-0.39671028
247	0x3dbfa271	0.09357155
248	0xbf00623a	-0.5014988
249	0x3e3c151c	0.18367428
250	0xbeac4b76	-0.33651322
251	0xbd18dcc0	-0.0373199
252	0xbf23b6d4	-0.6395085
253	0xbc967648	-0.018366948
254	0xbef1e71c	-0.47246635
255	0x3ee78adb	0.45223126

fc2.bias f4 [81]
0	0xbe12de2f	-0.14342569
1	0x3e0d7727	0.13814984
2	0xbd7bb886	-0.061455272
3	0x3f378919	0.7169357
4	0x3c8e79b0	0.01739201
5	0xbddcfb29	-0.107900925
6	0x3e2b0288	0.16700184
7	0x3d941701	0.0723095
8	0xbd1f24b7	-0.038853373
9	0xbd1785ce	-0.03699284
10	0xbda8b865	-0.082382955
11	0xbe0ae81a	-0.13565102
12	0x3e46329b	0.19355242
13	0xbc6be8e2	-0.014398785
14	0x3e374a86	0.17899522
15	0xbda575e1	-0.08079124
16	0x3e9033aa	0.28164417
17	0xbe11dab0	-0.14243579
18	0x3dc50fb1	0.096221335
19	0xbcf5116d	-0.029915536
20	0xbda45615	-0.08024231
21	0xbe701b89	-0.23448004
22	0xbe32ab09	-0.17448057
23	0xbd0e864b	-0.03479604
24	0x3dc69d61	0.096979864
25	0x3d470158	0.048585266
26	0xbd4cdbdb	-0.050014358
27	0xbd521abf	-0.05129504
28	0x3cb860cf	0.0225071
29	0xbe10e875	-0.14151175
30	0xbeb13c24	-0.34616196
31	0x3e660976	0.22464547
32	0x3e798913	0.24368696
33	0xbce66b65	-0.028127382
34	0x3e229796	0.15878138
35	0x3bbca1f8	0.005756613
36	0x3ea87942	0.32905012
37	0xbe39cb3e	-0.18143937
38	0xbe0badb5	-0.13640483
39	0xbd54355a	-0.051808693
40	0x3e5800a1	0.2109399
41	0x3d203e55	0.039121944
42	0x3e084143	0.13306145
43	0xbe1a4c50	-0.15068173
44	0xbbdd3358	-0.0067505054
45	0x3ea8d108	0.32971978
46	0xbe024691	-0.12722231
47	0xbd208c06	-0.039196037
48	0x3d32a5c5	0.04361512
49	0x3deaa6d7	0.114576034
50	0x3d798287	0.060915496
51	0xbe54f710	-0.20797372
52	0x3e4df3b5	0.20112498
53	0xbe01bcfb	-0.12669747
54	0xbce812b2	-0.028329227
55	0xbe8333e9	-0.25625542
56	0xbdd53f75	-0.10412494
57	0x3eb3cbd8	0.35116458
58	0xbdf6ced4	-0.12051168
59	0xbe3857b7	-0.1800221
60	0xbddb81f9	-0.1071815
61	0xbe83665f	-0.2566404
62	0xbd83d387	-0.0643683
63	0xbe0cce03	-0.13750462
64	0xbe309bd2	-0.1724694
65	0x3dbe7a34	0.09300652
66	0x3d668228	0.05627647
67	0x3dbe8fb9	0.09304757
68	0xbd77c187	-0.060487296
69	0x3dc847ec	0.09779343
70	0x3e3de40f	0.18544029
71	0x3cd666d8	0.026172087
72	0x3d88ce1b	0.066799365
73	0xbc8c7c34	-0.017149068
74	0xbe061a9d	-0.1309609
75	0xbe8afc45	-0.2714559
76	0xbb758e40	-0.003746882
77	0xbd5a0b3b	-0.053233366
78	0x3e3394ab	0.17537181
79	0x3d9cb514	0.076517254
80	0xbe57c2cb	-0.21070401
