code/outputs/Individual_Station/20220428-101612/models/dqn_checkpoint.pth (torch, 288165 bytes, 6 tensors)

fc1.weight f4 [256, 3]
-0.4055649 0.27399135 0.29893777 -0.532328 0.29479745 0.61495525 0.29203206 1.0291257
1.8106842 0.60384905 0.45752752 -0.52402437 -0.30911446 0.32761014 0.52227515 0.37006724
0.16703366 0.86478525 -0.50366956 -0.5482495 -0.4779896 0.7047863 1.0815091 -0.103007145
-0.051352527 0.3550777 0.46426785 0.26666087 -0.19393164 -0.21692057 -0.32374048 -0.1255259
0.11291872 0.15969409 -0.19254719 1.8248839 -0.34052053 0.209012 0.4092287 -0.08850241
0.13328707 1.9218843 -0.35875148 -0.017353803 0.21115592 0.59399015 0.44503778 0.6849669
-0.18553852 0.14972699 1.5344034 0.15660685 0.15342179 -0.8283347 -0.1311979 -0.0069314237
-0.26896116 0.34120363 -0.19345985 1.5581243 1.0277709 1.3757303 -0.43763852 -0.24044545
-0.338333 0.106988914 -0.08603396 -0.15741253 0.64700353 0.2131587 0.0926977 1.2382989
0.49659672 -0.39480624 -0.7495729 -0.16474998 -0.93143946 3.0521252 0.27073374 -0.18799517
1.5907949 -0.24757524 0.42619345 0.017384904 -0.25653204 -0.005105916 -0.5679817 0.016975263
0.26854318 0.87940687 0.1609354 0.5127672 0.5440797 -0.022300659 -0.018539835 0.51261777
0.28186432 0.14384373 0.12696643 0.7442225 1.061465 -0.22774258 0.15961696 -0.40837124
-0.25729206 0.25038368 -0.8653319 2.0858724 -0.12663743 -0.3488373 -0.35211155 -0.3529317
-0.018791117 -0.4438878 -0.11331167 -0.021388493 0.21583042 0.30891383 -0.08683138 1.49541
0.06739716 -0.088877454 0.75380945 0.43258137 0.27791125 0.5527013 0.053066302 -0.07072065
1.699934 -0.060229287 -0.027037196 1.2354337 -0.30178335 0.19620001 -0.04796081 0.3082766
-0.2453737 1.7228649 -0.55482394 -0.2237382 -0.34364083 -0.43654937 0.31279385 -0.4261208
-0.5514341 -0.53421354 2.938716 -0.5559444 -0.41705433 -0.24165463 0.55176467 0.4883781
0.65150636 -0.07996052 -0.21932612 -0.519025 -0.81388354 -0.30952126 0.59495217 -0.48517248
-0.14363201 0.19755799 -0.54935765 0.3909762 -0.029757576 -0.0036165176 -0.67699885 1.1046842
0.20971598 -0.1657711 0.26469612 0.059716932 -0.11237344 1.0122373 0.050369848 -0.07961516
-0.038569156 0.087281145 -0.17782007 -0.20947886 0.749354 -0.44454017 -1.0115287 0.0422475
-0.053144276 -0.2456114 0.4777013 -0.37975508 -0.9232396 0.16205521 0.20676395 0.71166927
0.056533758 0.013058129 0.50570303 -0.045558657 -0.06022635 0.120270595 -0.05278752 -0.037563704
0.09471903 -1.0545053 -0.9073197 -0.16936661 -0.17423232 0.0027637314 1.8137801 -0.41613194
0.38781887 0.61585927 -0.011735356 -0.20208989 1.3544666 -0.39349812 0.40214714 0.20044763
-0.48930317 -0.4757854 -0.56173176 -0.03666933 -0.12402797 -0.019110037 -0.29621518 -0.17157526
-0.496257 -0.532897 -0.05045265 -0.8481174 0.7009042 -0.44546935 0.07143406 0.11643503
-0.41663477 1.3459568 0.49757662 -0.22838387 1.12286 0.6832023 1.0517132 1.5686523
0.63705164 0.31951407 1.5873716 0.12150962 0.024484755 -1.3976494 0.07211236 0.03874461
0.1398151 0.5258669 -0.049471732 1.7724847 -0.005798392 -0.094056875 0.16679038 0.8851468
00000000: 34a6 cfbe 9848 8c3e 5f0e 993e a646 08bf
00000010: b1ef 963e b56d 1d3f 3a85 953e 64ba 833f
00000020: 80c4 e73f da95 1a3f 0c41 ea3e 7626 06bf
00000030: 4044 9ebe 84bc a73e d3b3 053f 7479 bd3e
00000040: df0a 2b3e 9162 5d3f 7df0 00bf 145a 0cbf
00000050: 0ebb f4be e06c 343f e46e 8a3f 69f5 d2bd
00000060: 0757 52bd bfcc b53e 84b4 ed3e c687 883e
00000070: 0496 46be 6d20 5ebe 50c1 a5be dd89 00be
00000080: ee41 e73d d986 233e 172b 45be cc95 e93f
00000090: b558 aebe 3e07 563e 6d86 d13e c040 b5bd
000000a0: 687c 083e 4e00 f63f 46ae b7be 9029 8ebc
000000b0: 4239 583e bd0f 183f fedb e33e fe59 2f3f
000000c0: cffd 3dbe 0852 193e 5567 c43f 8c5d 203e
000000d0: 9a1a 1d3e be0d 54bf be58 06be ff20 e3bb
000000e0: 47b5 89be 3eb2 ae3e 571a 46be 9e70 c73f
000000f0: ff8d 833f ee17 b03f 2812 e0be 5537 76be
00000100: fc39 adbe 011d db3d 9332 b0bd c030 21be
00000110: 06a2 253f 4646 5a3e 4bd8 bd3d 9480 9e3f
00000120: ed41 fe3e 0b24 cabe 02e4 3fbf 38b4 28be
00000130: d172 6ebf 0556 4340 9d9d 8a3e ce81 40be
00000140: 2b9f cb3f 5d84 7dbe 0736 da3e c96a 8e3c
00000150: 2b58 83be 874f a7bb 4067 11bf b50f 8b3c
00000160: 7e7e 893e cf20 613f 40cc 243e b644 033f
00000170: cf48 0b3f dfaf b6bc dae0 97bc eb3a 033f
00000180: 8550 903e c54b 133e 7d03 023e 5e85 3e3f
00000190: 16de 873f 5a35 69be a172 233e 0916 d1be
000001a0: c9bb 83be 4a32 803e 6486 5dbf ef7e 0540
000001b0: 3ead 01be cd9a b2be f747 b4be 77b3 b4be
000001c0: d4ef 99bc 4345 e3be f30f e8bd ec36 afbc
000001d0: a602 5d3e f429 9e3e a7d4 b1bd 9869 bf3f
000001e0: 8607 8a3d 6205 b6bd a8f9 403f 4e7b dd3e
000001f0: 624a 8e3e d57d 0d3f 0d5c 593d fdd5 90bd
00000200: 7097 d93f fcb2 76bd 1c7d ddbc b122 9e3f
00000210: 5983 9abe a8e8 483e 8e72 44bd 6ed6 9d3e
00000220: 3e43 7bbe d686 dc3f f108 0ebf a01b 65be
00000230: b1f1 afbe 6683 dfbe 8426 a03e 812c dabe
00000240: c92a 0dbf 38c2 08bf ec13 3c40 5f52 0ebf
00000250: 2588 d5be 5074 77be 7340 0d3f b20c fa3e
00000260: 1fc9 263f 57c2 a3bd 0797 60be d3de 04bf
00000270: ac5a 50bf 9279 9ebe c94e 183f 8768 f8be
00000280: 4514 13be a44c 4a3e b4a2 0cbf 082e c83e
00000290: 29c6 f3bc 1903 6dbb cc4f 2dbf 4b66 8d3f
000002a0: c9bf 563e e6bf 29be 4086 873e be99 743d
000002b0: 0c24 e6bd fe90 813f 9d50 4e3d 460d a3bd
000002c0: b1fa 1dbd 75c0 b23d 7716 36be a081 56be
000002d0: aad5 3f3f c59a e3be c679 81bf b70b 2d3d
000002e0: d0ad 59bd 8e81 7bbe 4495 f43e 426f c2be
000002f0: 6e59 6cbf cdf1 253e eeb9 533e f52f 363f
00000300: f18f 673d c3f1 553c c175 013f b79b 3abd
00000310: e8af 76bd 6e50 f63d ba37 58bd 66dc 19bd
00000320: 0dfc c13d 08fa 86bf 1b46 68bf 716e 2dbe
00000330: f569 32be b81f 353b f229 e83f 3f0f d5be
00000340: 3290 c63e f4a8 1d3f a745 40bc a7f0 4ebe
00000350: 295f ad3f 9678 c9be 3be6 cd3e 2542 4d3e
00000360: f285 fabe 259a f3be a7cd 0fbf 9432 16bd
00000370: 6002 febd a78c 9cbc 84a9 97be 6db1 2fbe
00000380: 6615 febe f06b 08bf 70a7 4ebd 391e 59bf
00000390: 756e 333f 8f14 e4be 054c 923d 7d75 ee3d
000003a0: 2751 d5be 5048 ac3f 5dc2 fe3e 76dd 69be
000003b0: e0b9 8f3f 59e6 2e3f 8a9e 863f 99c9 c83f
000003c0: d115 233f 5997 a33e fe2e cb3f 09da f83d
000003d0: 4194 c83c 2de6 b2bf a5af 933d abb2 1e3d
000003e0: b12b 0f3e 379f 063f dfa2 4abd c7e0 e23f
000003f0: 7000 bebb e4a0 c0bd 19cb 2a3e fb98 623f

fc1.bias f4 [256]
2.4788966 2.100082 3.1612318 1.2207478 -0.58021814 -0.6326502 -0.5453551 1.6679019
-0.81248105 -0.8406861 -0.17848617 -0.13672756 2.1911895 0.1319933 -0.3558538 1.5746781
0.23902063 1.3224379 0.40865967 -0.5457567 0.90104765 -0.23821446 1.4414611 -1.0234474
-0.5973097 1.9228423 -0.5471767 -0.01205483 0.33628744 -0.6448533 2.3103182 1.0643507
-0.38249448 1.2686179 -0.28162953 0.26283577 -0.11252352 0.21528606 2.022444 -0.50868064
1.1423002 2.6742442 0.6404384 2.1386137 1.2389287 -0.45775875 0.07629597 1.5824552
2.523078 -0.2797219 2.108091 -0.18684173 1.810023 1.2214805 1.6529201 -0.5439855
1.537088 2.0639048 1.4048103 -0.53854924 0.338705 0.876461 -0.48155585 2.6735568
1.763511 0.69094646 1.5970495 1.6913068 1.1925285 -0.547956 -0.0005375037 -0.14609347
0.9103809 1.3801001 -0.2222146 0.51905376 -0.3736619 0.07724128 2.3178728 0.968803
-0.4564711 0.34661788 -0.10199218 -0.4850583 -0.20608021 -1.5686831 -0.08476771 -0.5869025
1.2300223 2.0634997 -0.5145687 0.86428875 -0.28995672 -0.25940943 -0.8550117 -0.717075
-1.2991103 1.8720609 0.6329564 -0.37573472 1.7373669 2.6394405 -0.0995146 0.79595405
-0.24778719 -0.2390864 -0.09178712 1.1859138 0.29588822 -0.072726004 -0.26988626 0.23086348
-0.18206897 -0.35656777 -0.48759413 1.1074303 1.3519958 2.4706867 1.1794338 1.0477308
0.5532039 0.91075236 -0.7252451 0.024426382 1.6788722 0.7710094 2.6828902 0.0747938
-0.18841968 -1.0025856 0.018900631 2.313717 -0.31418112 -0.68021584 -0.34636548 -0.48830834
2.5317051 -0.5018472 -0.0063432246 2.1529858 1.2648771 -1.0955209 -0.28173882 0.5002188
-0.03422861 0.5074685 2.6285734 -0.27053684 -0.08534921 -0.5197734 -0.025483059 1.8316985
-0.08518575 1.295119 2.4018073 -0.2667294 -1.1349535 -0.41427204 0.24192853 -0.99596214
-0.14387886 -0.38152584 -1.0848737 -1.120442 -0.8985897 -0.68930614 2.3458965 -0.49524197
0.61446387 -1.1720555 0.8449839 1.255675 -0.16731173 -0.58910626 -0.2769755 0.083034046
0.38049123 -0.056393113 2.1080463 -0.3872154 -0.5640701 -0.2881871 2.1485367 1.3792704
-0.13689698 -0.14666717 -0.43312195 0.052806836 0.9322169 -0.37973198 0.49994645 0.061328765
1.5894538 -0.007481492 1.1197121 0.5591912 -0.79890126 -0.97774136 1.2300606 0.8111332
1.4708071 -1.1152331 0.9575134 1.4487252 2.8124542 1.449508 2.41845 -0.57211566
0.07242431 -0.3981046 -0.66527 1.8639367 0.59047794 2.7156017 -0.59667146 1.5538702
1.1248786 0.605496 -0.45894203 1.6409146 1.4627008 2.6954298 1.7136508 2.8925316
1.2209811 -0.38433808 1.7165773 -0.58184564 1.2700269 2.094644 -0.29074278 -0.20435362
-0.43098605 -0.6299225 2.4073787 1.323414 1.1554558 -0.17462981 1.4292338 -0.07979059
-0.05524631 0.3255136 -0.4247815 2.8111973 -0.45669818 -0.41735545 2.0839043 -0.5596673
2.652401 2.5243402 0.2652732 2.0439272 0.3680192 0.15114771 1.9425399 -0.38010302
00000000: 3ea6 1e40 be67 0640 9f51 4a40 7741 9c3f
00000010: 2d89 14bf 5df5 21bf 649c 0bbf cf7d d53f
00000020: c2fe 4fbf 3437 57bf 14c5 36be 4f02 0cbe
00000030: 733c 0c40 4029 073e 7832 b6be 0d8f c93f
00000040: d3c1 743e a545 a93f d73b d13e b6b6 0bbf
00000050: 0fab 663f 7eee 73be cc81 b83f 5300 83bf
00000060: 4ae9 18bf b21f f63f c613 0cbf 9f81 45bc
00000070: de2d ac3e 1b15 25bf 41dc 1340 a53c 883f
00000080: 51d6 c3be 1262 a23f bf31 90be 6992 863e
00000090: bb72 e6bd f373 5c3e b96f 0140 e538 02bf
000000a0: e536 923f d126 2b40 c5f3 233f 0cdf 0840
000000b0: 3795 9e3f 5b5f eabe 1041 9c3d e48d ca3f
000000c0: 1c7a 2140 b537 8fbe f7ea 0640 7053 3fbe
000000d0: d5ae e73f 7959 9c3f e392 d33f a242 0bbf
000000e0: 4dbf c43f 0417 0440 d3d0 b33f 5dde 09bf
000000f0: be6a ad3e c05f 603f 7d8e f6be 8e1b 2b40
00000100: baba e13f dee1 303f 1e6c cc3f be7c d83f
00000110: c6a4 983f d846 0cbf 43e7 0cba 8799 15be
00000120: b90e 693f 1fa7 b03f 398c 63be b5e0 043f
00000130: 9d50 bfbe ad30 9e3d 0758 1440 7903 783f
00000140: 94b6 e9be e677 b13e 47e1 d0bd 9059 f8be
00000150: b106 53be 9cca c8bf b19a adbd 3e3f 16bf
00000160: 5f71 9d3f 6110 0440 c6ba 03bf 0742 5d3f
00000170: 3575 94be 50d1 84be 0ce2 5abf 3a92 37bf
00000180: 3f49 a6bf b19f ef3f 6e09 223f 4d60 c0be
00000190: 0a62 de3f 98ec 2840 50ce cbbd a5c3 4b3f
000001a0: edbb 7dbe 11d3 74be e3fa bbbd 06cc 973f
000001b0: a97e 973e 5ff1 94bd 882e 8abe 7a67 6c3e
000001c0: 4a70 3abe 0d90 b6be f0a5 f9be 47c0 8d3f
000001d0: 330e ad3f bb1f 1e40 b0f7 963f 0b1c 863f
000001e0: c59e 0d3f 1127 693f aaa9 39bf d619 c83c
000001f0: 49e5 d63f df60 453f 79b4 2b40 7e2d 993d
00000200: 17f1 40be ba54 80bf 7fd5 9a3c f013 1440
00000210: 59dc a0be a022 2ebf d156 b1be 8d03 fabe
00000220: 7507 2240 0f79 00bf d3da cfbb 85ca 0940
00000230: 7ee7 a13f 073a 8cbf 1240 90be 570e 003f
00000240: 4d33 0cbd 75e9 013f 8c3a 2840 ce83 8abe
00000250: 91cb aebd df0f 05bf d9c1 d0bc 1975 ea3f
00000260: de75 aebd 76c6 a53f 36b7 1940 c290 88be
00000270: 2846 91bf 771b d4be 1dbc 773e 60f7 7ebf
00000280: fb54 13be 5b57 c3be 24dd 8abf a56a 8fbf
00000290: f909 66bf 5e76 30bf 2b23 1640 5b90 fdbe
000002a0: 814d 1d3f ea05 96bf dd50 583f f5b9 a03f
000002b0: c453 2bbe abcf 16bf bccf 8dbe c10d aa3d
000002c0: bfcf c23e 77fc 66bd 3bea 0640 1941 c6be
000002d0: e666 10bf 428d 93be a081 0940 ef8b b03f
000002e0: b92e 0cbe eb2f 16be 29c2 ddbe fb4b 583d
000002f0: c4a5 6e3f 3b6c c2be fbf8 ff3e df33 7b3d
00000300: 3973 cb3f 4e27 f5bb ba52 8f3f 2827 0f3f
00000310: cb84 4cbf 424d 7abf a072 9d3f 6da6 4f3f
00000320: 6843 bc3f f5bf 8ebf 991f 753f d46f b93f
00000330: 40ff 3340 7a89 b93f e3c7 1a40 2c76 12bf
00000340: 3253 943d 5ed4 cbbe 224f 2abf 7a95 ee3f
00000350: 9029 173f 6bcc 2d40 76bf 18bf 38e5 c63f
00000360: 06fc 8f3f c901 1b3f 73fa eabe 7d09 d23f
00000370: c839 bb3f ec81 2c40 e958 db3f 3d1f 3940
00000380: 1c49 9c3f f6c7 c4be ceb8 db3f d6f3 14bf
00000390: 3e90 a23f a60e 0640 3ddc 94be 1342 51be
000003a0: 34aa dcbe 9a42 21bf 7e12 1a40 a165 a93f
000003b0: fae5 933f 28d2 32be 22f1 b63f 4069 a3bd
000003c0: f449 62bd b8a9 a63e f67c d9be a8ea 3340
000003d0: 58d4 e9be 9daf d5be b05e 0540 5b46 0fbf
000003e0: f0c0 2940 ca8e 2140 e4d1 873e b4cf 0240
000003f0: 036d bc3e 77c6 1a3e 26a5 f83f dd9c c2be

fc2.weight f4 [256, 256]
-0.101709254 -0.21317007 0.015681047 0.0835904 -0.012272593 -0.013049437 0.0054790154 -0.013325827
0.0017288137 -0.36736712 0.029017061 -0.7763441 -0.1795751 -0.40732533 -0.050180875 0.054781962
-0.24685964 0.04546509 -0.78354585 -0.20142433 0.00485546 0.0057339 -0.1723483 -0.039069712
-0.17009714 0.2950561 -0.11293131 0.08650114 1.0570081 0.030666422 -0.041085415 -0.10796356
-0.02042011 0.06101874 0.008078456 0.6507714 -0.055100203 -0.27185667 -0.005504967 -0.039196465
-0.012547278 0.04753661 0.16549301 -0.07652532 0.058462992 -0.20996279 0.03408225 -0.024065057
0.26481065 -0.0460622 0.04112108 -0.04140532 -1.6377608 -0.5364681 -0.3928433 -0.19031453
1.182969 0.14906159 -0.17764834 -0.0049371496 0.20424365 0.25074324 -0.0084558055 0.01461006
1.0207802 -0.2021272 -0.19602096 -0.57429427 -0.16642419 0.21733904 -1.2596306 0.23777366
-0.5319071 -0.09606092 0.038763598 -0.14572938 0.30566394 0.015258685 -0.04344744 -0.057792526
-0.05906896 -0.16093397 0.07572231 0.0048396783 1.1042378 -0.3040869 -0.027613409 -0.035758864
-0.09790757 0.43339553 -0.060075447 0.029802954 -1.0966852 0.26267806 -0.034846704 -0.14902668
-0.1231072 0.15923643 0.65150666 0.009913887 0.45264256 0.3926809 -0.00657358 0.33434144
-0.004152268 0.085959524 -0.41827255 0.09561287 0.090064034 0.050582837 0.0585092 0.18714613
0.02772166 -0.027483365 -0.5672731 -0.14918804 -0.05095346 0.020861302 -0.04785015 0.0057899384
0.21365117 -0.010917862 -0.09605765 0.029736862 -0.31746632 0.01669485 0.07382517 1.0716422
-0.003612049 -0.04137829 0.83109283 0.067550406 0.4064487 -0.0044075283 0.21271475 0.009272128
-0.0599646 -0.025486648 -0.046188183 0.18759914 0.28746855 -0.28930345 0.03013096 0.42963228
-0.6190979 0.03827335 -0.018090803 -0.017452054 0.056457877 -0.023371354 0.028958254 -0.07563872
0.044658102 -0.0661189 0.010645314 -0.0023726523 -0.107339464 1.243051 -0.19137749 0.049003556
-0.43048212 -0.04992637 -0.03497691 -0.027218292 -0.16819 -0.07271936 -0.19992764 0.003957577
0.022353653 -0.056181233 0.5539355 0.15416396 -0.47186747 0.69848126 0.22642213 0.45831016
0.14342642 0.41693294 0.018906144 0.95125216 -0.059167676 -0.011694118 -0.15876369 -0.34088042
-0.04993119 -0.05142337 0.055525623 0.015974022 -0.18508299 -0.0039376765 0.061675485 0.06256514
-0.36588833 0.124994 -0.057757065 -0.006273513 0.3561349 -0.025297107 -0.010564026 -0.079673134
0.018932344 -0.14493465 0.6048987 1.0350271 0.079717666 1.8806244 -0.09501957 0.20839849
1.1797345 -0.11019091 0.18366037 -0.01698315 -0.16413115 -0.06237347 0.43349954 -0.37143642
0.017342793 0.051216234 -0.052842863 -0.12942009 -0.21073854 -0.014238863 -0.5048092 0.28628084
0.6771955 0.39814094 -0.23643753 -0.15212998 -0.123100035 -0.15735617 0.0021914989 -0.02636458
0.048868865 -0.044807114 0.23186477 0.00829998 -0.34364238 0.006084621 0.011795414 0.059964523
0.011597894 -0.20870447 -0.08550224 0.33701283 0.014815792 -0.010505721 -0.18226345 0.39650637
-0.000581929 0.0048841755 0.03859422 -0.014393261 -0.113611884 -0.7144837 -0.009804722 0.008892403
00000000: f14c d0bd 4149 5abe 8a75 803c 7231 ab3d
00000010: fc12 49bc 4ecd 55bc 5089 b33b 9254 5abc
00000020: 5d99 e23a 8b17 bcbe 30b5 ed3c 7dbe 46bf
00000030: 89e2 37be f28c d0be 768a 4dbd 0d63 603d
00000040: c6c8 7cbe 9a39 3a3d 7696 48bf 2e42 4ebe
00000050: 8d1a 9f3b 70e3 bb3b 137c 30be 9007 20bd
00000060: f22d 2ebe 9811 973e 8848 e7bd 8227 b13d
00000070: 0b4c 873f 2638 fb3c 2e49 28bd 001c ddbd
00000080: 1348 a7bc c9ee 793d 805b 043c f498 263f
00000090: c0b0 61bd cc30 8bbe 0363 b4bb 798c 20bd
000000a0: 1993 4dbc c0b5 423d 0077 293e 4fb9 9cbd
000000b0: e476 6f3d 7c00 57be d499 0b3d 1524 c5bc
000000c0: 4395 873e b8ab 3cbd 946e 283d a098 29bd
000000d0: 25a2 d1bf f955 09bf c222 c9be d0e1 42be
000000e0: 876b 973f 9aa3 183e 72e9 35be d0c7 a1bb
000000f0: 3f25 513e 6b61 803e 388a 0abc 085f 6f3c
00000100: eda8 823f 6ffa 4ebe b8b9 48be f304 13bf
00000110: 1a6b 2abe 208e 5e3e 933b a1bf f07a 733e
00000120: 102b 08bf 96bb c4bd 94c6 1e3d 153a 15be
00000130: fc7f 9c3e 90ff 793c f1f5 31bd dbb7 6cbd
00000140: 4bf2 71bd e0cb 24be 4c14 9b3d 2a96 9e3b
00000150: aa57 8d3f 47b1 9bbe 8435 e2bc e377 12bd
00000160: c483 c8bd 05e6 dd3e ac11 76bd 5325 f43c
00000170: 2e60 8cbf bd7d 863e 6bbb 0ebd 739a 18be
00000180: a11f fcbd e00e 233e 24c9 263f db6d 223c
00000190: c4c0 e73e 790d c93e 3067 d7bb cd2e ab3e
000001a0: c00f 88bb 8c0b b03d d227 d6be aed0 c33d
000001b0: 7e73 b83d f32f 4f3d 58a7 6f3d 3ca3 3f3e
000001c0: 8918 e33c cb24 e1bc cf38 11bf c0c4 18be
000001d0: 93b4 50bd 52e5 aa3c 85fe 43bd 86b9 bd3b
000001e0: 5fc7 5a3e d5e0 32bc e0b9 c4bd b89a f33c
000001f0: f28a a2be a3c3 883c a731 973d 922b 893f
00000200: 20b8 6cbb 487c 29bd 80c2 543f de57 8a3d
00000210: 0b1a d03e 076d 90bb e5d1 593e 20ea 173c
00000220: 719d 75bd 60c9 d0bc d22f 3dbd fd19 403e
00000230: 142f 933e 951f 94be 34d5 f63c c3f8 db3e
00000240: 337d 1ebf 84c4 1c3d 2a33 94bc 9cf7 8ebc
00000250: 6040 673d 4875 bfbc dc39 ed3c 79e8 9abd
00000260: 6aeb 363d 5969 87bd af69 2e3c 807e 1bbb
00000270: cbd4 dbbd 4c1c 9f3f 76f8 43be f4b7 483d
00000280: 2768 dcbe 987f 4cbd f343 0fbd e5f8 debc
00000290: 003a 2cbe e3ed 94bd d5b9 4cbe 90ae 813b
000002a0: 021f b73c 4b1e 66bd b8ce 0d3f 28dd 1d3e
000002b0: 9d98 f1be abcf 323f 34db 673e a1a7 ea3e
000002c0: 60de 123e 3c78 d53e 0fe1 9a3c 4385 733f
000002d0: ce59 72bd b098 3fbc f392 22be e187 aebe
000002e0: a684 4cbd 50a1 52bd d66e 633d f4db 823c
000002f0: 6586 3dbe a007 81bb 6f9f 7c3d 2722 803d
00000300: b755 bbbe dbfc ff3d ac92 6cbd 0b92 cdbb
00000310: 5057 b63e e13b cfbc bd14 2dbc ab2b a3bd
00000320: 0118 9b3c c069 14be a4da 1a3f c57b 843f
00000330: 0443 a33d 4db8 f03f 9f99 c2bd 6a66 553e
00000340: 8a01 973f c6ab e1bd 7711 3c3e 3f20 8bbc
00000350: ff11 28be 537b 7fbd a7f3 dd3e ea2c bebe
00000360: 7912 8e3c 1dc8 513d c271 58bd b386 04be
00000370: d8cb 57be 1f4a 69bc 2d3b 01bf 6793 923e
00000380: af5c 2d3f 21d9 cb3e ae1c 72be f6c7 1bbe
00000390: df1b fcbd fa21 21be 409f 0f3b 88fa d7bc
000003a0: b82a 483d aa87 37bd f56d 6d3e a4fc 073c
000003b0: e5f1 afbe 8061 c73b 8d41 413c 5c9d 753d
000003c0: 1805 3e3c a0b6 55be cc1b afbd f28c ac3e
000003d0: f0bd 723c 3020 2cbc 45a3 3abe e202 cb3e
000003e0: 988c 18ba 6f0b a03b f914 1e3d b6d1 6bbc
000003f0: 59ad e8bd 67e8 36bf fca3 20bc 71b1 113c

fc2.bias f4 [256]
0.85103625 1.2739377 -0.02488954 0.85284173 2.1329062 0.43716392 0.9301766 0.011230272
-0.061547436 -0.050123747 -0.056773692 -0.1697582 0.03694179 -0.17112072 1.5619159 1.3026288
1.4577379 -0.059625115 0.25733283 -0.036576193 -0.042752344 -0.04275025 -0.108571276 1.0708121
1.0189407 -0.024763752 -0.020649843 0.11036992 0.6575793 0.7230738 0.57848585 0.015057967
1.239824 0.044403046 1.465631 -0.031822257 -0.9808195 0.028140446 -0.25424987 -0.057604134
0.45427608 -0.13674016 0.810949 0.31363818 1.7435018 -0.8688821 -0.054397248 -0.038301736
2.265269 -0.008009368 1.2537141 -0.7260688 0.28311187 1.8212022 0.7555328 2.137113
-0.5811589 0.37488303 -0.75136757 0.009013805 2.1850748 0.8435848 -0.05813282 0.5510815
0.8071039 -0.007445531 1.2894961 0.64056534 -0.01755543 1.9577025 1.3114051 -0.032311883
-0.055409167 0.6602889 0.004859455 0.0022675511 -0.033901084 0.88670164 0.69492185 0.8815294
-0.49573374 -0.5168855 1.1413099 1.9499642 0.9164582 0.006179419 -0.05978275 1.1189007
-0.051354486 0.6361759 -0.01253336 1.2367483 1.1836768 -0.17362486 1.0008177 0.50359213
-0.055019073 -0.05852936 0.8346477 -0.052240312 0.0071276757 -0.035551164 -0.23494479 0.48794857
-0.01084454 -0.56614196 0.022462036 0.85892737 0.56361055 1.1998262 -0.7068988 0.84612876
0.7359996 0.007151348 2.4176328 -0.03361614 0.8004912 1.3605901 0.3402203 1.7526445
-0.032115363 -0.043074694 1.2544527 -0.14458951 -0.06873811 -0.008298192 0.06722699 0.4646256
1.6575661 0.045089684 1.0761333 -0.40296474 1.4617895 0.7463287 -0.0037709544 -0.017591866
-0.05288173 0.0087773185 -0.0074519375 1.116972 -0.01805769 1.8614321 0.6452061 0.80865157
0.031050801 0.8058852 0.037053585 1.2405525 1.0419885 -0.010636232 0.84600836 1.538929
0.48536605 0.867985 0.05962442 0.6576088 0.009186755 -0.20853946 0.49896947 -0.02045178
0.9761174 0.05457316 -0.39726683 0.9605967 0.6705538 -0.28852242 -0.17881636 0.7134428
-1.2257285 -0.58054525 1.2186548 -0.7965058 0.025059544 1.1514643 0.77132523 0.9096957
0.4845482 0.052065354 0.37335417 -0.06884632 -0.83101517 0.7362747 -0.010916516 2.0849965
0.5396398 0.37206176 -0.7619625 -0.046368167 -0.5128557 -0.033862464 0.92446864 0.04743455
1.0809718 1.9413853 0.019127885 -1.1632338 1.9698639 -0.04078571 0.58276993 -0.006065869
0.5503082 0.16511402 -0.032456826 -0.2818653 0.7300741 0.28059113 0.04083191 1.1022682
-0.031111425 -0.6079674 0.5887823 -0.057870436 -0.31952775 1.5431119 0.69861245 0.9652
1.0618045 -0.02730879 1.3889902 -0.5701366 -0.025618859 1.2930315 -0.024331743 0.5100684
-0.23930664 0.051251125 -0.001623912 0.9816539 1.7441492 0.036098134 0.58091927 -0.00023594171
0.75621796 1.519848 -0.15135904 0.99161166 -0.0048031635 1.3853382 -0.04927739 0.94811225
0.0007843061 0.017527245 -0.52338916 0.021206006 0.13535637 0.09677463 0.6530197 0.20073271
-0.31629327 1.6982973 0.23635784 0.3258071 0.5963581 -0.0010118884 1.7838238 -0.32614833
00000000: 83dd 593f 6410 a33f 26e5 cbbc d653 5a3f
00000010: 8981 0840 f3d3 df3e 0e20 6e3f 2dff 373c
00000020: 2a19 7cbd 8f4e 4dbd 888b 68bd 18d5 2dbe
00000030: 4650 173d 453a 2fbe dcec c73f 8abc a63f
00000040: 2897 ba3f 7739 74bd 21c1 833e ebd0 15bd
00000050: 151d 2fbd e31a 2fbd 9e5a debd 5f10 893f
00000060: a66c 823f 5add cabc dc29 a9bc a009 e23d
00000070: 1e57 283f 5d1b 393f a617 143f b1b5 763c
00000080: 8eb2 9e3f f8df 353d cc99 bb3f 0e58 02bd
00000090: fd16 7bbf cb86 e63c 0a2d 82be 50f2 6bbd
000000a0: e096 e83e 9d05 0cbe 5b9a 4f3f 2f95 a03e
000000b0: 112b df3f 0f6f 5ebf a6cf 5ebd 48e2 1cbd
000000c0: 2bfa 1040 b939 03bc b479 a03f a5df 39bf
000000d0: 0af4 903e 271d e93f 996a 413f 76c6 0840
000000e0: d4c6 14bf abf0 bf3e a059 40bf a3ae 133c
000000f0: 44d8 0b40 2cf5 573f ae1c 6ebd ad13 0d3f
00000100: 5c9e 4e3f a4f9 f3bb 350e a53f 17fc 233f
00000110: 68d0 8fbc ff95 fa3f 1fdc a73f 7759 04bd
00000120: b9f4 62bd b108 293f 103c 9f3b 329b 143b
00000130: dddb 0abd e1fe 623f 66e6 313f e9ab 613f
00000140: d0d0 fdbe 9c52 04bf 7116 923f 6d98 f93f
00000150: 019d 6a3f b97c ca3b c2de 74bd 2338 8f3f
00000160: 1559 52bd 6cdc 223f b958 4dbc c54d 9e3f
00000170: b982 973f b7ca 31be cb1a 803f 6aeb 003f
00000180: ae5b 61bd 7bbc 6fbd 79ab 553f f0f9 55bd
00000190: 478f e93b 199e 11bd 5e95 70be 65d4 f93e
000001a0: 4cad 31bc aeee 10bf 4e02 b83c aae2 5b3f
000001b0: c848 103f e893 993f 52f7 34bf e59b 583f
000001c0: 786a 3c3f db55 ea3b 7fba 1a40 14b1 09bd
000001d0: feec 4c3f d127 ae3f 5b31 ae3e a856 e03f
000001e0: 668b 03bd 176f 30bd e891 a03f 460f 14be
000001f0: 91c6 8cbd 24f5 07bc 4eae 893d 68e3 ed3e
00000200: 202b d43f f6af 383d bcbe 893f 6551 cebe
00000210: eb1b bb3f 660f 3f3f 1e22 77bb d11c 90bc
00000220: 839a 58bd bece 0f3c 622f f4bb f0f8 8e3f
00000230: b8ed 93bc 6843 ee3f 3a2c 253f ca03 4f3f
00000240: 405e fe3c 7e4e 4e3f 80c5 173d 6dca 9e3f
00000250: e15f 853f 9743 2ebc 0194 583f a0fb c43f
00000260: e681 f83e 4434 5e3f bc38 743d 0d59 283f
00000270: 0b84 163c 5e8b 55be ed78 ff3e 7e8a a7bc
00000280: d4e2 793f 1b88 5f3d 8f66 cbbe aae9 753f
00000290: 6aa9 2b3f 36b9 93be a31b 37be 30a4 363f
000002a0: ace4 9cbf 9d9e 14bf e1fc 9b3f cee7 4bbf
000002b0: ac49 cd3c 2f63 933f 9275 453f d1e1 683f
000002c0: b416 f83e 7b42 553d 4728 bf3e 4dff 8cbd
000002d0: 69bd 54bf 807c 3c3f 30db 32bc 9570 0540
000002e0: d525 0a3f e17e be3e f90f 43bf 8cec 3dbd
000002f0: 834a 03bf 5eb3 0abd faa9 6c3f bb4a 423d
00000300: 495d 8a3f 507f f83f 15b2 9c3c d8e4 94bf
00000310: 8024 fc3f eb0e 27bd 6930 153f 32c4 c6bb
00000320: 00e1 0c3f a613 293e 73f1 04bd a650 90be
00000330: 23e6 3a3f a4a9 8f3e 5c3f 273d 2017 8d3f
00000340: 63dd febc c0a3 1bbf 70ba 163f 8d09 6dbd
00000350: 2499 a3be b184 c53f 44d8 323f 5917 773f
00000360: 36e9 873f afb6 dfbc 6eca b13f 79f4 11bf
00000370: a4de d1bc 0e82 a53f 5d53 c7bc d893 023f
00000380: cd0c 75be b3ec 513d 72d9 d4ba ac4d 7b3f
00000390: 4840 df3f a3db 133d 20b7 143f 1f67 77b9
000003a0: 8097 413f 618a c23f ddfd 1abe 43da 7d3f
000003b0: db63 9dbb c352 b13f 17d7 49bd 7cb7 723f
000003c0: e499 4d3a 4c95 8f3c d5fc 05bf 38b8 ad3c
000003d0: dc9a 0a3e c731 c63d 4d2c 273f e08c 4d3e
000003e0: 31f1 a1be ce61 d93f ca07 723e 30d0 a63e
000003f0: edaa 183f 57a1 84ba 5754 e43f eafc a6be

fc3.weight f4 [18, 256]
0.041648265 -0.27575478 0.058834262 -0.124822 0.050635535 0.07677923 -0.054980688 0.018882887
0.042007387 -0.036467157 0.03812729 0.19222853 0.050570555 0.053187866 0.02979097 -0.10697731
0.11570003 0.06572069 -0.016172215 -0.05019373 0.05758217 0.033621833 -0.7441545 -0.05283939
-0.098564565 -0.023596868 -0.05869682 0.1173207 -0.107858576 0.6556418 0.4214963 0.045314442
-0.110098094 0.031987213 0.06344193 0.008896534 -0.17132317 0.020168606 -0.0912264 0.044087723
-0.03661201 -0.13674577 -0.0024722018 -7.006594e-05 0.05097501 -0.062231798 0.04780475 -0.038823172
-0.2746089 -0.0118813785 0.2362669 0.09299136 0.18035428 0.12789653 0.64592785 0.06109696
0.11732321 -0.3672224 -0.030454291 -0.065089814 0.031652104 -0.13375631 -0.039939404 0.0366904
-0.09870488 -0.03646507 -0.15024728 0.20622897 0.03916332 0.080853455 -0.34606808 0.006396696
0.03761889 0.68947124 0.018677488 0.09271945 -0.029384881 0.08204118 0.22320184 -0.06298352
0.023175409 0.30368912 -0.076617084 -0.018272033 0.058222067 -0.0058427877 -0.05989975 -0.18496184
-0.030825352 0.04119283 -0.060000855 0.24143782 0.13082859 -0.24849461 0.02004756 0.15589772
-0.04535134 -0.0035800487 0.18292311 0.057565793 -0.0375874 -0.03778646 0.031634588 -0.24864751
0.049571775 -0.096754156 0.0045317505 0.22440526 0.05934292 0.1185901 0.05225797 0.31556365
0.73199534 -0.03714105 -0.07558593 -0.014911085 -0.029665198 -0.06394179 -0.0056950743 -0.08868293
-0.058494613 -0.052209325 -0.21416807 -0.10800555 -0.047003955 -0.037378613 0.13230766 0.06536177
-0.0040268144 -0.022654518 -0.045095183 0.039521262 -0.2337266 0.100165084 0.03705725 0.061730154
0.057207536 0.1411516 -0.026851758 -0.12011902 -0.48189667 0.033450905 0.73223263 0.12369223
-0.02456887 0.21690457 -0.0148095265 0.15191047 -0.3423495 -0.008878993 0.122537315 -0.055478994
0.070775114 -0.010315667 -0.04112391 0.5664665 -0.047902066 0.04478278 -0.14088257 -0.01246997
-0.071863726 0.04106556 -0.14482254 -0.03315644 0.15600224 0.08402876 -0.10220204 0.8333652
0.081509106 -0.06002184 0.00035446056 0.13600227 0.042085454 -0.0022493969 0.051518 -0.10921843
0.07468035 0.06258057 0.20371217 0.14185423 -0.026477722 0.63504213 -0.03612096 0.18383643
0.80046576 -0.11168422 0.0066990824 -0.030112363 -0.06594064 0.03343179 0.10193447 -0.025354603
-0.053934675 0.05465351 -0.010995072 0.33152145 -0.07783024 -0.013502094 -0.025334354 0.11986902
0.006542303 -0.54483026 0.060960285 0.40691096 0.33712727 0.07112737 -0.04162999 -0.16973998
-0.051024366 -0.07362242 0.002382837 0.011195876 0.04442033 -0.089514956 0.40789065 0.018237354
-0.17380355 0.039196357 -0.059050802 0.07611657 -0.047726743 -0.09546662 0.09170013 -0.22919086
0.043204825 -0.021763507 0.04043059 -0.06784466 -0.032001123 -0.023106562 0.5507071 0.0076311124
-0.041186165 -0.021313397 0.11090839 -0.39386976 -0.05658154 -0.14993587 0.03222514 0.08878422
0.031527877 0.06549032 0.07175388 0.048146963 -0.18179226 -0.06629544 0.9562879 -0.4101014
0.060275342 -0.09471787 0.030851778 0.03233196 0.70018953 0.049717046 0.0038797504 -0.30075243
00000000: 5f97 2a3d bb2f 8dbe 32fc 703d ada2 ffbd
00000010: 3567 4f3d 6e3e 9d3d 6e33 61bd 49b0 9a3c
00000020: f00f 2c3d 965e 15bd 5c2b 1c3d 8ed7 443e
00000030: 1223 4f3d 85db 593d 310c f43c eb16 dbbd
00000040: 23f4 ec3d 9298 863d 987b 84bc f197 4dbd
00000050: 48db 6b3d 0cb7 093d e980 3ebf 1e6e 58bd
00000060: 38dc c9bd 384e c1bc 146c 70bd d645 f03d
00000070: f5e4 dcbd 24d8 273f 5dce d73e a39b 393d
00000080: 1c7b e1bd 0605 033d d8ed 813d c5c2 113c
00000090: 576f 2fbe a238 a53c e8d4 babd 5495 343d
000000a0: 7af6 15bd 1507 0cbe aa04 22bb 5df0 92b8
000000b0: 2ccb 503d c5e6 7ebd eace 433d 0c05 1fbd
000000c0: 8a99 8cbe 1daa 42bc f3ef 713e 4172 be3d
000000d0: cbae 383e 4ff7 023e 875b 253f ce40 7a3d
000000e0: 2747 f03d 9304 bcbe 477b f9bc cf4d 85bd
000000f0: a3a5 013d 6af7 08be 8097 23bd ac48 163d
00000100: c925 cabd 665c 15bd 6cda 19be b02d 533e
00000110: b869 203d 7f96 a53d d62f b1be 609b d13b
00000120: 4416 1a3d 3081 303f 8801 993c b2e3 bd3d
00000130: 90b8 f0bc 3505 a83d 068f 643e 81fd 80bd
00000140: 5bda bd3c 247d 9b3e 6be9 9cbd 3baf 95bc
00000150: 437a 6e3d db74 bfbb 7159 75bd a366 3dbe
00000160: 7385 fcbc d0b9 283d 75c3 75bd 7a3b 773e
00000170: eef7 053e 5f75 7ebe c83a a43c a7a3 1f3e
00000180: 54c2 39bd 409f 6abb 3250 3b3e 1cca 6b3d
00000190: 3ff5 19bd fac5 1abd 4593 013d 749d 7ebe
000001a0: c60b 4b3d 0b27 c6bd 147f 943b 7eca 653e
000001b0: 9011 733d 5edf f23d 740c 563d 8f91 a13e
000001c0: 0c64 3b3f 3721 18bd cccc 9abd a04d 74bc
000001d0: 6e04 f3bc eaf3 82bd bf9d babb 659f b5bd
000001e0: 0c98 6fbd 72d9 55bd e04e 5bbe 0432 ddbd
000001f0: 3887 40bd 511a 19bd a97b 073e 64dc 853d
00000200: 5ef3 83bb f895 b9bc bab5 38bd 0ce1 213d
00000210: 0756 6fbe 5a23 cd3d 58c9 173d c2d8 7c3d
00000220: 7352 6a3d 0c8a 103e 38f8 dbbc f600 f6bd
00000230: 29bb f6be d103 093d 9973 3b3f 5a52 fd3d
00000240: a844 c9bc 3b1c 5e3e a8a3 72bc 6b8e 1b3e
00000250: 6f48 afbe 3279 11bc d8f4 fa3d f13d 63bd
00000260: 8bf2 903d 0b03 29bc 8c71 28bd f303 113f
00000270: f534 44bd 266e 373d 8543 10be d84e 4cbc
00000280: 4a2d 93bd 5c34 283d 5c4c 14be 0ccf 07bd
00000290: 0dbf 1f3e 4517 ac3d 4e4f d1bd 6c57 553f
000002a0: 3fee a63d 76d9 75bd e4d6 b939 2e44 0b3e
000002b0: cc61 2c3d 9e6a 13bb 8a04 533d eaad dfbd
000002c0: 03f2 983d 3e2a 803d ec99 503e 3c42 113e
000002d0: cfe7 d8bc 1f92 223f 92f3 13bd 9e3f 3c3e
000002e0: 53eb 4c3f b2ba e4bd fa83 db3b 34ae f6bc
000002f0: e30b 87bd c6ef 083d 05c3 d03d 75b4 cfbc
00000300: 9bea 5cbd 5cdc 5f3d ad24 34bc 2ebd a93e
00000310: 7665 9fbd e337 5dbc fe89 cfbc e47d f53d
00000320: d160 d63b ff79 0bbf 7eb1 793d a256 d03e
00000330: f29b ac3e 3aab 913d 3584 2abd 51d0 2dbe
00000340: edfe 50bd 5ac7 96bd 5f29 1c3b e86e 373c
00000350: 18f2 353d 9e53 b7bd 0bd7 d03e 8166 953c
00000360: 8ff9 31be 5c8c 203d 41df 71bd 01e3 9b3d
00000370: 1e7d 43bd 0184 c3bd 47cd bb3d 02b1 6abe
00000380: 8bf7 303d 6249 b2bc 8c9a 253d 24f2 8abd
00000390: 9c13 03bd f949 bdbc 24fb 0c3f 690e fa3b
000003a0: d3b2 28bd 6f99 aebc f023 e33d 4ca9 c9be
000003b0: 0bc2 67bd ca88 19be 82fe 033d 80d4 b53d
000003c0: 6023 013d ca1f 863d b3f3 923d c035 453d
000003d0: c027 3abe e7c5 87bd 49cf 743f d0f8 d1be
000003e0: 47e3 763d 71fb c1bd debc fc3c 846e 043d
000003f0: 9f3f 333f 1aa4 4b3d 6943 7e3b 39fc 99be

fc3.bias f4 [18]
1.1745615 0.8807843 1.4926543 2.226282 1.522687 0.76927876 0.16755496 1.4872141
-0.5540798 1.4744757 0.70721877 0.64595747 1.435466 1.3768761 3.7093387 0.6550007
1.6060379 1.2317492
00000000: 0858 963f 147b 613f 4c0f bf3f 677b 0e40
00000010: 68e7 c23f 74ef 443f 8793 2b3e 085d be3f
00000020: 2cd8 0dbf 9fbb bc3f 4a0c 353f 785d 253f
00000030: 5abd b73f 7a3d b03f ce65 6d40 20ae 273f
00000040: a692 cd3f f5a9 9d3f
