code/outputs/price_comparison/2stations/theta1/models/dqn_checkpoint.pth (torch, 354981 bytes, 6 tensors)

fc1.weight f4 [256, 5]
0	0xbe84e4ab	-0.2595571
1	0x3f3ce849	0.7379194
2	0x3ff34728	1.900609
3	0x3f9d4e1c	1.2289462
4	0x3fe9506d	1.8227669
5	0xbe06fe89	-0.13183035
6	0x3eb32fef	0.34997508
7	0x3fbd289d	1.4778019
8	0x3f9c1618	1.2194242
9	0x3fcb7295	1.5894343
10	0x3e813cf4	0.25241816
11	0x3e71a058	0.23596323
12	0x3f382551	0.7193194
13	0xbe01b1e1	-0.12665512
14	0xbff06c6d	-1.8783089
15	0xbe264111	-0.16235758
16	0xbed95107	-0.4244463
17	0x3e89038d	0.26760522
18	0x3ec37cda	0.38181192
19	0x3e732d79	0.23747815
20	0x3d109365	0.035296816
21	0x3e129182	0.1431332
22	0x3f47d0d1	0.78053004
23	0x3eebf6b3	0.46086654
24	0xbfb2c41e	-1.39661
25	0x3d7b2b7e	0.061320774
26	0x3f40021b	0.7500321
27	0x40315cfc	2.7713003
28	0x3fdad241	1.7095414
29	0xbe0d650e	-0.1380808
30	0x3e99c43c	0.30032527
31	0x3e99194c	0.29902112
32	0x3f929ff9	1.145507
33	0x3fa346f3	1.2756027
34	0x3e79bd9a	0.24388734
35	0xbc0513ec	-0.0081224255
36	0x3e9628a2	0.29327875
37	0x3ece6851	0.40313962
38	0x3f0fc53a	0.5616032
39	0x3f8f3833	1.1189026
40	0xbe9fd6d0	-0.31218576
41	0x3e927ec9	0.28612354
42	0x3f89bcc1	1.0760728
43	0x3f0d778e	0.5526055
44	0xbfa83a03	-1.3142704
45	0x3e4af169	0.19818653
46	0xbe81a2a5	-0.253194
47	0x3ef20813	0.47271785
48	0x3e9a3748	0.301203
49	0x3e6cf61a	0.23140755
50	0x3d4f0fcc	0.050552174
51	0x3eaf2d94	0.3421446
52	0x3f5ccce2	0.86250126
53	0x3d340f71	0.04396004
54	0x3f8fd45d	1.1236683
55	0xbe99002f	-0.29882953
56	0x3efcede2	0.4940024
57	0x3f99ccff	1.2015685
58	0x3f740c70	0.9533148
59	0xbe5b0888	-0.21389973
60	0x3e4bf979	0.19919385
61	0x3e692027	0.22766171
62	0x3fc9bcfe	1.5760801
63	0x3fef2b11	1.8685018
64	0xbf041479	-0.5159374
65	0x3d9b6b38	0.0758881
66	0x3e6adb0c	0.22935122
67	0x3ebcc492	0.3686872
68	0xbce91a09	-0.028454797
69	0xbfc3612b	-1.5264028
70	0x3e8f54cd	0.27994385
71	0xbdc1e8ef	-0.09468257
72	0xbf8b3257	-1.0874738
73	0xbdc20de3	-0.09475305
74	0x3ee3b029	0.44470337
75	0xbe4a4a7f	-0.1975498
76	0xbe5addd7	-0.21373688
77	0xbe86ef6a	-0.26354533
78	0xbe45d0b8	-0.19317901
79	0xbeaf0424	-0.34182847
80	0xbe12de6e	-0.14342663
81	0x3f1f6200	0.6225891
82	0x3f89b131	1.07572
83	0x3feac615	1.83417
84	0xbf14761b	-0.57992715
85	0x3e19eb23	0.15031104
86	0xbd3e9c73	-0.04653592
87	0x3eb8a70e	0.36064953
88	0x3f132062	0.5747129
89	0xbf4d96fb	-0.803085
90	0x3e79d72d	0.2439849
91	0xbe1b8ef5	-0.15191253
92	0x3f4128c5	0.75452834
93	0x3f127244	0.57205606
94	0x3ef81c54	0.48459113
95	0xbda24655	-0.07923571
96	0x3ee47c1e	0.44625944
97	0x3ffb8e17	1.9652737
98	0x4014912b	2.3213603
99	0xbee47a93	-0.44624767
100	0x3e6870c2	0.22699264
101	0xbec32bf9	-0.38119486
102	0xbdc92083	-0.09820654
103	0xbe118e4c	-0.14214438
104	0x3e04cfab	0.12969844
105	0x3d74d596	0.059774004
106	0x3ddb340c	0.107032865
107	0x3f541a86	0.8285297
108	0x3f4e97e2	0.80700505
109	0x3deda176	0.11603062
110	0xbc835a53	-0.01603428
111	0xbdbc29d3	-0.09187665
112	0x3ee2abd4	0.4427172
113	0x3dc61a46	0.0967298
114	0xbe1e7983	-0.1547604
115	0x3e9bff34	0.30468142
116	0x3e558933	0.20853119
117	0x3f9ea894	1.2395196
118	0xbd36c6eb	-0.044623297
119	0xbf1a3e1c	-0.6025102
120	0x3e52620c	0.20545214
121	0x3eb3a3c4	0.3508588
122	0x3f872a9e	1.0559881
123	0x3ff986bb	1.9494241
124	0xbf278ca7	-0.65448993
125	0x3da6e8c0	0.08149862
126	0x3ed2e210	0.41188097
127	0x3fbde6b0	1.4836025
128	0x3fcc868b	1.5978559
129	0xbf5031a0	-0.8132572
130	0xbe945f58	-0.28978992
131	0xbe4cb0f0	-0.19989371
132	0x3e841280	0.25795364
133	0x3e8bb61e	0.27287382
134	0x3e225f51	0.15856673
135	0xbf3e23d3	-0.74273413
136	0xbf76cf12	-0.96409714
137	0xbe0aa296	-0.13538584
138	0xbf6246da	-0.8838936
139	0x3f87fe27	1.0624436
140	0x3f0fc843	0.5616495
141	0xbe819f05	-0.25316635
142	0xbf38e7c4	-0.72228646
143	0xbf689f17	-0.9086775
144	0xbf0baa8f	-0.54557127
145	0x3c8db4d7	0.017298145
146	0x3ee5fd30	0.4491973
147	0x3fe5e6b3	1.7961029
148	0x3f7172f8	0.94316053
149	0x3fc54fe7	1.5415009
150	0x3cb48ee1	0.022040786
151	0xbeb2c8df	-0.34918877
152	0xbeb6fa53	-0.35737857
153	0xbe4c3492	-0.19941929
154	0xbe9a8a80	-0.30183792
155	0x3e7d745a	0.24751416
156	0xbe2bd45b	-0.16780226
157	0x3f1a614f	0.6030473
158	0xbf0a4496	-0.54010904
159	0x3f37f696	0.71860635
160	0xbe585325	-0.21125467
161	0xbe83fc40	-0.2577839
162	0x3df571d1	0.119845994
163	0x3dd7016d	0.10498319
164	0x3e833541	0.25626567
165	0x3ee24786	0.44195193
166	0x3e9ad7b5	0.30242696
167	0x3fbb7d01	1.4647523
168	0x3f9a52ff	1.2056578
169	0xbefefeba	-0.49803716
170	0xbe4f2f01	-0.20232774
171	0xbe8eb993	-0.27875957
172	0x3e8ff80e	0.28118938
173	0xbe72d987	-0.23715793
174	0xbee85f83	-0.4538537
175	0x3f017e4e	0.5058335
176	0x3eb6f405	0.35733047
177	0x3fec7ae8	1.8475008
178	0x3ff90407	1.9454354
179	0xbed0b76c	-0.4076494
180	0x3ecf18da	0.40448648
181	0x3e5eadb0	0.21745944
182	0xbf7f67be	-0.99767673
183	0xbfa736c2	-1.3063586
184	0x3fb414cc	1.4068847
185	0xbed71c81	-0.42013934
186	0xbddc4d68	-0.107569516
187	0x3e5cd621	0.21566059
188	0xbe9fad78	-0.31187034
189	0x3e6f6ff8	0.23382556
190	0xbe8b015c	-0.27149475
191	0xbd1a4f1a	-0.037673093
192	0x3ee2253b	0.4416903
193	0xbb39bf54	-0.00283428
194	0xbe965de5	-0.2936851
195	0xbe415da7	-0.18883382
196	0xbe225977	-0.1585444
197	0xbe4340cb	-0.19067685
198	0x3e83c2a0	0.25734425
199	0x3d9df549	0.077128
200	0x3e288272	0.16456011
201	0x3de37ba0	0.11107564
202	0x3f4fe89b	0.812143
203	0xbe2f0aa2	-0.170939
204	0xbf92bfe8	-1.1464815
205	0x3dc85df2	0.09783544
206	0xbe8d82ca	-0.27638847
207	0x3e0edeb1	0.13952138
208	0xbe2bc0e1	-0.16772796
209	0x3dd7cbea	0.105369404
210	0xbd312ec3	-0.043257486
211	0x3f646d61	0.892294
212	0x402adf2d	2.6698716
213	0x401bb60e	2.4329867
214	0x3fc9271a	1.5715058
215	0xbe35633a	-0.17713633
216	0x3eecca9e	0.46248335
217	0x3fe5e7f8	1.7961416
218	0x3ffb3e23	1.9628338
219	0xbe0c5078	-0.13702571
220	0x3eec9d97	0.46213982
221	0x3e5f5fc2	0.21813872
222	0xbfc48d16	-1.5355556
223	0xbfa2887d	-1.2697903
224	0xbf69fd94	-0.91402555
225	0xbe462d31	-0.19353177
226	0xbcead860	-0.028667629
227	0x3e917a1b	0.28413472
228	0x3e641f77	0.22277628
229	0x3e82f69a	0.25578767
230	0xbe9c0935	-0.30475774
231	0x3f10a95f	0.5650844
232	0xbe7e2337	-0.24818121
233	0xbe6d4528	-0.23170912
234	0x3f997d50	1.1991367
235	0x3ec0935e	0.37612432
236	0x3d0aedee	0.033918314
237	0x3e86ce90	0.2632947
238	0xbe270a62	-0.16312554
239	0xbf41a6ec	-0.7564533
240	0x3e4a19fa	0.19736472
241	0x3ef58663	0.4795409
242	0xbe3880d0	-0.18017888
243	0xbe8b7681	-0.2723885
244	0xbda4a760	-0.08039737
245	0x3e734c2f	0.2375953
246	0x3e6b76bd	0.22994514
247	0xbf90cbc4	-1.1312184
248	0xbfad3609	-1.3532115
249	0xbdb2ce41	-0.08730746
250	0x3f1371ad	0.5759533
251	0xbe693175	-0.22772773
252	0xbf1f7744	-0.6229136
253	0xbe5b5c52	-0.21421936
254	0x3f0932e1	0.5359326
255	0xbd9f9ec3	-0.07793953

fc1.bias f4 [256]
0	0x3fd8344c	1.689096
1	0x4015423f	2.3321683
2	0xbedcd1e8	-0.43128896
3	0xbeb3c904	-0.351143
4	0x3b595331	0.0033161158
5	0x3f24735e	0.64238536
6	0x3fac5d6c	1.346601
7	0x40037417	2.0539606
8	0x3d9637ba	0.07334848
9	0xbed6978d	-0.419125
10	0x40082ec5	2.1278546
11	0x3f8ebfb0	1.1152248
12	0x3f430aea	0.7618853
13	0xbe2b38d6	-0.167209
14	0xbf538b1c	-0.8263414
15	0xbe4b6cd6	-0.19865736
16	0x3f388719	0.7208114
17	0x3f8a29d8	1.079402
18	0x3fcb0106	1.5859687
19	0x3f6f7109	0.9353185
20	0xbe451bf5	-0.19248946
21	0x3fdc007b	1.7187647
22	0xbeb8b633	-0.36076507
23	0x3ceadb29	0.028668957
24	0x3f7711f6	0.9651178
25	0x3f999765	1.1999327
26	0xbec7d052	-0.39026123
27	0x402c591d	2.692939
28	0xbf69e9df	-0.91372484
29	0x400a3d8b	2.1600063
30	0xbe7e2783	-0.2481976
31	0x3f87d574	1.0612016
32	0xbec4c043	-0.38427934
33	0x3f3db46b	0.7410342
34	0x3ecdaa1f	0.40168855
35	0x3f1b872c	0.6075313
36	0x3e27bf9a	0.16381684
37	0xbeb0b275	-0.34511152
38	0xbc96ae13	-0.018393552
39	0xbde9abc8	-0.11409718
40	0xbed29c66	-0.41134948
41	0xbe208772	-0.15676668
42	0x401649a5	2.348245
43	0x3fb9a9f2	1.4504988
44	0xbfa13da6	-1.2596939
45	0xbec705fc	-0.38871753
46	0x3fd160ad	1.6357628
47	0x3f2ca9d8	0.6744666
48	0xbf498667	-0.78720707
49	0xbfad9008	-1.355958
50	0xbef1d2d8	-0.47231174
51	0xbe3d968f	-0.18514465
52	0xbe7d38b0	-0.24728656
53	0xbedec170	-0.43506956
54	0xbf3f8ac5	-0.7482112
55	0xbec5b1eb	-0.38612303
56	0xbcd4c094	-0.025970735
57	0xbe50631e	-0.2035031
58	0xbe917a1c	-0.28413475
59	0xbfbf0b44	-1.4925313
60	0xbec4bf91	-0.38427404
61	0x3fe97ec4	1.8241811
62	0x3fd10f3f	1.6332778
63	0x3f679a85	0.90470153
64	0x3eb70408	0.35745263
65	0x3fda1db2	1.7040312
66	0xbf0b7774	-0.54479146
67	0xbf3f905f	-0.7482967
68	0xbc8dd968	-0.017315581
69	0x400c21fd	2.1895745
70	0xbdd7987a	-0.105271295
71	0x3fc0985e	1.5046499
72	0x3f8de34b	1.1084989
73	0xbf18025d	-0.59378606
74	0xbf056b3a	-0.5211674
75	0xbf05a9ca	-0.522122
76	0xbed48516	-0.41507787
77	0x400f579b	2.239722
78	0x3fc81e1c	1.5634189
79	0x3fe9b32b	1.8257803
80	0x3f9bd21a	1.2173493
81	0x3fce82a1	1.6133615
82	0x3fba9688	1.4577188
83	0x3f8c0c23	1.0941204
84	0xbf2b2779	-0.66857105
85	0xbe8abd18	-0.27097392
86	0xbe8af2f1	-0.27138475
87	0xbfb75065	-1.432141
88	0x3d9008ab	0.07032903
89	0x40051f88	2.0800495
90	0x3e0fc551	0.14040114
91	0xbedb7c0d	-0.4286808
92	0xbed6cca1	-0.41952994
93	0xbfb6f992	-1.4294913
94	0x3fa33d0d	1.2753006
95	0x3fbdbc4a	1.4823086
96	0x3f7ce0d5	0.98780566
97	0xbed84754	-0.4224192
98	0xbd3405d6	-0.043950878
99	0xbe1e3c18	-0.15452611
100	0xbe978572	-0.29593998
101	0xbf00c80b	-0.5030524
102	0x3f9d791a	1.2302582
103	0x3e3b1c8e	0.18272611
104	0x4007a1c5	2.1192486
105	0xbf3446f8	-0.7042079
106	0x3fb32685	1.399613
107	0xbec0dddb	-0.37669262
108	0xbecc0d2d	-0.39853802
109	0x4003c1ab	2.0586956
110	0xbedc273d	-0.42998686
111	0x3fb1b94b	1.3884672
112	0xbf4d4c68	-0.8019471
113	0xbe7d1576	-0.24715218
114	0x3f1273c9	0.57207924
115	0xbec4f4eb	-0.38468108
116	0xbd4cd91b	-0.050011735
117	0xbefc0754	-0.4922434
118	0xbd93ad48	-0.07210785
119	0xbeb35df8	-0.3503263
120	0x3fef1d07	1.8680733
121	0x3fdaa873	1.7082657
122	0xbdd284bb	-0.102792226
123	0xbf372cca	-0.7155272
124	0x40134df1	2.3016322
125	0x3fb1515b	1.3852953
126	0x3ff3ac20	1.9036903
127	0xbce247b0	-0.027622074
128	0xbd001a93	-0.031275343
129	0x3f0d60f4	0.55226064
130	0xbe7ef644	-0.2489863
131	0xbec85daa	-0.3913396
132	0x3f5a94b8	0.85383177
133	0xbeb775d1	-0.35832074
134	0x4002fc6d	2.0466568
135	0x3fd59944	1.6687398
136	0x3f8406c7	1.0314568
137	0xbdf58264	-0.11987761
138	0x3f4b6d33	0.794635
139	0x3fad27c1	1.3527757
140	0x3fb89152	1.4419348
141	0x3fa923d2	1.3214056
142	0xbe25b1bf	-0.16181086
143	0x3f816f16	1.0112026
144	0x3e26e851	0.16299559
145	0xbf6ffd83	-0.93746203
146	0xbc7dc527	-0.015488899
147	0xbef33e97	-0.4750869
148	0x3e53f5f4	0.20699292
149	0xbeea1fbd	-0.4572734
150	0xbe9187e3	-0.28423986
151	0xbda6cc0a	-0.08144386
152	0x3f9433a0	1.1578255
153	0x3e467da3	0.19383864
154	0xbe8ca537	-0.274698
155	0x3fe58995	1.7932612
156	0x3f0a8143	0.5410349
157	0x40009bf4	2.0095186
158	0xbef9056e	-0.48636955
159	0xbdf3f02e	-0.11911045
160	0xbeb84b1f	-0.35994813
161	0x3dccdea3	0.10003402
162	0x3ffacf42	1.95945
163	0xbee2379c	-0.44183052
164	0xbefbed87	-0.49204656
165	0xbea89e7c	-0.32933414
166	0xbee179a8	-0.4403813
167	0xbf38574e	-0.72008216
168	0xbea51300	-0.32241058
169	0xbf0ad394	-0.5422909
170	0xbe93eec1	-0.28893092
171	0xbecdb566	-0.4017746
172	0x400c5c2e	2.1931262
173	0x3fa6c192	1.3027823
174	0x400e2ea4	2.2215967
175	0xbed9e25e	-0.42555517
176	0x3ed2afb3	0.41149673
177	0xbebdf12d	-0.37098065
178	0x3d19eea0	0.037581086
179	0x3fd3b6a3	1.6540111
180	0xbe8c2204	-0.27369702
181	0x40072ef5	2.112241
182	0x3eddf6d6	0.43352383
183	0xbedc40b2	-0.4301811
184	0x3e9bb0d0	0.30408335
185	0xbf1466c6	-0.5796932
186	0xbe9df95c	-0.3085431
187	0xbf0f307a	-0.55933344
188	0xbee8aac1	-0.45442775
189	0x3faee305	1.3663031
190	0x3fa88f89	1.3168803
191	0x3fc131a1	1.509327
192	0xbc5e4543	-0.013566318
193	0xbf0f3774	-0.5594399
194	0xbe4cb9f7	-0.19992815
195	0xbebec327	-0.37258264
196	0xbe16008b	-0.14648645
197	0xbe090e8c	-0.13384455
198	0x3fd0cc12	1.6312277
199	0xbe595c5b	-0.21226637
200	0x3f4b6193	0.7944576
201	0x400fff9a	2.2499757
202	0x3ea26b7e	0.31722635
203	0x3fffa787	1.9973
204	0x3eda1126	0.42591208
205	0x3fd6c90f	1.6780108
206	0xbeebc261	-0.46046737
207	0x3d43e4a2	0.047825463
208	0x3f8b28bb	1.0871805
209	0x3f80dc4a	1.0067227
210	0xbedad2b8	-0.4273889
211	0x3fcec55f	1.6153983
212	0x3f236277	0.6382212
213	0x3d75671d	0.05991279
214	0xbebc8635	-0.36821142
215	0xbe66aec5	-0.22527607
216	0x3f4179b2	0.7557632
217	0xbea55aed	-0.32295933
218	0x3f915c15	1.1356226
219	0x3eb4dd4f	0.35325095
220	0xbee4c8e3	-0.44684514
221	0xbf1bd958	-0.60878515
222	0xbe6af85c	-0.22946304
223	0xbe9d1492	-0.30679756
224	0xbe304132	-0.1721237
225	0x3ffb884b	1.9650968
226	0xbefb1648	-0.49040437
227	0x3fea9cf5	1.832915
228	0xbfc244b0	-1.5177212
229	0x3f8ccd4c	1.1000152
230	0x3eee883d	0.46588317
231	0xbe8c6044	-0.27417195
232	0xbe8cd4c4	-0.27506077
233	0xbf8527b0	-1.0402737
234	0xbee936af	-0.45549533
235	0x3fde25e3	1.7355312
236	0x3f59d316	0.85087717
237	0xbf0ed2ce	-0.5579041
238	0x3ec28fd4	0.38000357
239	0xbf85ff8c	-1.0468612
240	0x3fc5de81	1.5458528
241	0x3fc99303	1.574799
242	0xbee4d066	-0.44690245
243	0xbd7d6a42	-0.061868913
244	0xbeda5dec	-0.42649782
245	0x3fcfbdc9	1.6229793
246	0x3ffcffbe	1.9765546
247	0xbeede15c	-0.46460998
248	0x4003d3df	2.0598066
249	0xbf22da91	-0.63614756
250	0x4030f2fb	2.7648304
251	0xbe949160	-0.29017162
252	0xbea415e8	-0.32047963
253	0x3f8e3115	1.1108729
254	0xbed2e3a5	-0.41189304
255	0xbc2bd545	-0.010487859

fc2.weight f4 [256, 256]
0	0x3e54b3bf	0.20771693
1	0x3e0c59e5	0.13706167
2	0x3d892213	0.06695952
3	0x3dc89e49	0.097958155
4	0x3ea1b570	0.31583738
5	0x3e1a7cbc	0.15086645
6	0x3e5f5bfc	0.21812433
7	0x3d96eec1	0.073697574
8	0x3ec0c290	0.3764844
9	0x3fb3b4ee	1.403959
10	0x3e0b3fa3	0.13598494
11	0x3e4a93a5	0.19782884
12	0x3e62ca2b	0.22147433
13	0x3e8a48fb	0.27008805
14	0xbe3e4bd8	-0.1858362
15	0xbd24c2e4	-0.040224925
16	0x3e80255a	0.25028497
17	0x3e5d7e5a	0.2163023
18	0x3e52266c	0.2052247
19	0x3e93d6fc	0.28874958
20	0x3f09da86	0.53849065
21	0x3e50afd0	0.20379567
22	0xbd06cc4c	-0.032909676
23	0x3e2a6989	0.16641821
24	0x3e07c60a	0.1325914
25	0x3e1b2adc	0.15153068
26	0xbc7bb960	-0.015364021
27	0xbebfc01e	-0.3745126
28	0x3da948e2	0.082658544
29	0x3dd300d3	0.103028916
30	0x3c40cd50	0.0117677
31	0xbe238c60	-0.15971518
32	0x3ca875a0	0.0205639
33	0x3e56e086	0.20984086
34	0x3f9fd9aa	1.2488301
35	0x3e39efa5	0.18157823
36	0xbc8fac94	-0.017538346
37	0x3e1f7d18	0.15575063
38	0x3d688b3c	0.05677341
39	0x3fa0629e	1.2530096
40	0x3e1c76ec	0.1527974
41	0x3f158632	0.5840789
42	0x3e369189	0.17828955
43	0x3e715d21	0.23570682
44	0xbe968f13	-0.29406032
45	0x3f3ca0b7	0.7368273
46	0x3e05907b	0.13043396
47	0x3e744863	0.23855738
48	0x3dcfd735	0.10148469
49	0xbe9c0afc	-0.3047713
50	0x3db04f3b	0.08608862
51	0x3e6978f7	0.2280005
52	0xbc9307d0	-0.017948061
53	0x3e265dcc	0.16246718
54	0xbe522fb9	-0.20526017
55	0x3e516b56	0.20451102
56	0xbbc581a0	-0.0060274154
57	0xbcfac82c	-0.030613028
58	0xbcafbb6c	-0.021451674
59	0xbe785c00	-0.24253845
60	0x3e19eb5e	0.15031192
61	0x3d0a5106	0.033768676
62	0x3e10e232	0.14148787
63	0x3e4518ed	0.1924779
64	0x3e6c5122	0.23077825
65	0x3e0f6b53	0.14005785
66	0x3d95beb2	0.07311763
67	0x3d6412b6	0.055681907
68	0x3b041b60	0.0020157918
69	0xbf53e241	-0.8276711
70	0x3e6e8b50	0.23295331
71	0x3e12dc84	0.14341933
72	0x3f270003	0.6523439
73	0x3d864173	0.06555452
74	0xbea86eec	-0.32897127
75	0x3f823d5f	1.0174979
76	0x3f58790c	0.845597
77	0x3e374fec	0.17901582
78	0x3d6d7eeb	0.057982367
79	0x3e49a6c1	0.19692518
80	0xbe93b213	-0.28846797
81	0x3e654334	0.22388917
82	0x3f47d25e	0.7805537
83	0x3e5c63a6	0.21522388
84	0x3e855461	0.26040938
85	0xbca0df7d	-0.019637818
86	0x3e01f68f	0.12691711
87	0xbe8b195c	-0.27167785
88	0x3ebcd6df	0.36882684
89	0x3e024ac5	0.12723835
90	0x3f6fa167	0.93605655
91	0x3dac1878	0.084031045
92	0x3dead1cc	0.11465797
93	0xbe8e6c64	-0.2781707
94	0x3e07ceaf	0.13262437
95	0xbe70ce4a	-0.23516193
96	0xbf6da94e	-0.92836463
97	0x3e067a55	0.13132603
98	0xbcedb39e	-0.029016312
99	0x3e164fa9	0.14678825
100	0x3f2c8b1c	0.67399764
101	0x3f5fab8e	0.87371147
102	0x3e8edd0c	0.2790302
103	0x3ef4c27d	0.47804633
104	0xbf50adc9	-0.81515175
105	0xbcc74d4a	-0.024328846
106	0x3f1a402b	0.6025416
107	0x3fc75d31	1.5575315
108	0x3ccdc635	0.025118927
109	0x3dd9ea74	0.106404215
110	0x3d82757f	0.06370067
111	0xbd27069d	-0.04077779
112	0xbe600da1	-0.21880199
113	0x3e3a9c24	0.18223625
114	0x3e299836	0.1656197
115	0x3e5a4e28	0.21318877
116	0x3d1a552c	0.037678882
117	0x3f40bc6c	0.7528751
118	0xbfa8143a	-1.3131173
119	0x3f6dc9c3	0.9288599
120	0x3da51281	0.0806017
121	0x3f29b06b	0.6628482
122	0x3d2a22a6	0.04153695
123	0x3e019c34	0.12657243
124	0x3e1dd3b6	0.15412793
125	0x3e88358d	0.26603356
126	0x3e1d3cd3	0.15355234
127	0x3ea05ec8	0.31322312
128	0x3fd8ac8a	1.6927655
129	0x3e56c93e	0.20975205
130	0xbd760760	-0.060065627
131	0x3d20d15a	0.039262153
132	0x3e455b44	0.19273096
133	0x3f1f8c75	0.62323695
134	0x3db88b1b	0.09010907
135	0x3d9856c1	0.07438422
136	0x3ed53f2c	0.4164976
137	0x3d4e173c	0.050315127
138	0x3f6d30ba	0.92652476
139	0x3f20ea1b	0.62857217
140	0x3e57477d	0.21023364
141	0x3e71c52b	0.2361037
142	0x3cf6b36c	0.030114852
143	0x3e55c005	0.20874031
144	0xbdb275f5	-0.08713905
145	0x3ddd5272	0.10806741
146	0x3d0f4b10	0.034983695
147	0x3f8d7ea4	1.1054273
148	0x3fc77167	1.5581483
149	0x3c0a1d00	0.008429766
150	0x3e2876f0	0.16451621
151	0x3e9a7d93	0.3017393
152	0x3dfcbeb2	0.1234106
153	0x3e0cc0f5	0.13745482
154	0xbd6a4c50	-0.057201684
155	0x3e22e93b	0.15909283
156	0x3f3f4665	0.7471679
157	0x3e0075aa	0.12544885
158	0xbeab7072	-0.33484226
159	0xbd3c056a	-0.0459036
160	0x3f2acdaf	0.667201
161	0x3f8cf420	1.1012001
162	0x3e259934	0.16171724
163	0x3c71ee18	0.014766239
164	0xbdd39bdd	-0.10332463
165	0x3f3ef104	0.7458651
166	0x3fbb8ed7	1.4652966
167	0x3d562df6	0.052289926
168	0x3f93f770	1.1559887
169	0x3dc70cc7	0.09719234
170	0x3f42f6b0	0.76157665
171	0x3f2fdc7e	0.6869582
172	0x3e1cd4ec	0.15315598
173	0x3e252ed5	0.16131146
174	0x3df21152	0.1181971
175	0xbcc969dc	-0.02458661
176	0x3dcc698c	0.09981069
177	0x3d4f5cc8	0.050625592
178	0xbde01391	-0.10941232
179	0xbc206b75	-0.009791245
180	0x3d437c0a	0.047725715
181	0xbf082068	-0.5317445
182	0x3e8b656b	0.27225813
183	0x3f38aae6	0.7213577
184	0x3ee84406	0.45364398
185	0x3fd9919f	1.6997565
186	0x3dbd32d2	0.09238209
187	0x3f858c50	1.0433445
188	0x3dac8c96	0.08425252
189	0x3e7a64cf	0.24452518
190	0x3e6dd8ff	0.23227309
191	0x3e374bf3	0.17900066
192	0x3f29d0e8	0.6633439
193	0x3f93fc88	1.1561441
194	0x3ee433d2	0.44570786
195	0xbc2f61e8	-0.010704495
196	0x3f460eec	0.7736652
197	0x3d67b8b8	0.056572646
198	0x3e686623	0.22695212
199	0xbd7291e6	-0.05922117
200	0x3e4961e1	0.19666244
201	0x3d5834f9	0.052784894
202	0x3e838b99	0.25692442
203	0x3dd8116b	0.10550197
204	0x3f68622f	0.90774816
205	0x3e37975c	0.17928833
206	0x3daa8bef	0.083274715
207	0xbd56333e	-0.052294962
208	0x3dbc933b	0.092077695
209	0x3e4b060e	0.19826528
210	0x3d9001bf	0.07031583
211	0xbc3b6b37	-0.011439136
212	0x3e7588ce	0.23977968
213	0xbd768908	-0.060189277
214	0x3cad8e98	0.021186158
215	0x3e3903b3	0.18067817
216	0x3e5f8970	0.21829772
217	0xbd2a47d0	-0.041572392
218	0x3e9090b6	0.28235406
219	0x3f4d77ee	0.80261123
220	0x3f56a47a	0.8384472
221	0x3e7b443f	0.24537753
222	0x3f9412f0	1.1568279
223	0x3fad30c4	1.3530507
224	0x3df83456	0.12119357
225	0x3d8c4813	0.068496846
226	0x3fb80bc9	1.4378597
227	0x3d8e882a	0.06959565
228	0xbea18064	-0.31543267
229	0x3da5cc3c	0.08095595
230	0x3e47f24e	0.19526026
231	0x3dba5152	0.09097542
232	0x3daa0e34	0.0830349
233	0xbe7664b3	-0.24061851
234	0xbe14a519	-0.14516105
235	0x3dc012d0	0.09378588
236	0x3e53ecbb	0.20695774
237	0x3d2b03a1	0.041751508
238	0x3f86421c	1.0488925
239	0xbe6c5ad3	-0.23081522
240	0x3d754e2f	0.059889015
241	0x3da0795c	0.078356475
242	0xbc2e1f28	-0.010627545
243	0x3bce2da0	0.00629206
244	0x3c0df0b8	0.008663349
245	0x3dc6dd8e	0.09710227
246	0x3e04794b	0.12936895
247	0x3e72cfeb	0.23712127
248	0xbf4373ff	-0.7634887
249	0xbd92a0ec	-0.071596
250	0xbed68f99	-0.4190643
251	0x3df6f4a5	0.12058381
252	0x3f973955	1.1814371
253	0x3e62ab0c	0.22135562
254	0x3ccda4d9	0.02510302
255	0xbcce12b8	-0.02515541

fc2.bias f4 [256]
0	0x3ef94292	0.48683602
1	0x3fc966d4	1.5734506
2	0x3ef9d587	0.4879572
3	0x3e868418	0.26272655
4	0x3f07d8c3	0.5306513
5	0x3fd16463	1.635876
6	0x3c1636c7	0.009168333
7	0x3f18972a	0.5960566
8	0x3d022b92	0.031779833
9	0x3d4be8e1	0.049782638
10	0x3f96ea09	1.1790172
11	0x3d6fc74c	0.058539674
12	0x3c95e8d9	0.018299507
13	0x3eb1cbd3	0.34725818
14	0x3eadcf9c	0.33947456
15	0x3f05e4c0	0.5230217
16	0x3f8e4912	1.1116049
17	0xbd4276dc	-0.047476634
18	0x3f53524b	0.82547444
19	0xbd962cb6	-0.07332747
20	0x3b9c5110	0.0047704056
21	0xbf759799	-0.95934445
22	0x3fae7df1	1.3632184
23	0x3fc90932	1.5705931
24	0x3fa3740c	1.276979
25	0xbcbf4340	-0.023347497
26	0xbd371506	-0.044697784
27	0x3d390f1b	0.04518042
28	0x3ee9a238	0.45631576
29	0xbc3dbc30	-0.011580512
30	0x3fe83b8b	1.8143171
31	0x3f9c5501	1.2213441
32	0xbdfa2033	-0.12213173
33	0xbddd51b8	-0.10806602
34	0x3eb2472c	0.34819925
35	0x3fd5bbbe	1.6697919
36	0x3e765339	0.24055184
37	0x3ecf303f	0.40466496
38	0x3f54c828	0.83117914
39	0xbc961ec4	-0.018325217
40	0x3faaedd3	1.3353828
41	0x3fd149e2	1.6350672
42	0x3fd9f1ba	1.7026894
43	0xbd86dd81	-0.06585217
44	0x3bd033ab	0.0063538156
45	0xbd3285b4	-0.04358454
46	0x3f667542	0.9002267
47	0x3eb5cf85	0.35509887
48	0x3fced823	1.615971
49	0xbd0482e7	-0.0323514
50	0x3de3ebae	0.11128937
51	0x3d72c886	0.059273265
52	0x3d3bab6a	0.04581777
53	0xbd23891c	-0.03992568
54	0xbce7f118	-0.028313205
55	0x3bd8d93d	0.0066176937
56	0x3fac0bb9	1.3441077
57	0x3f099355	0.53740436
58	0x3e8c15d4	0.27360404
59	0x3f8e7eed	1.1132485
60	0xbd023180	-0.031785488
61	0x3d3ab4fb	0.045582753
62	0x3f6f998f	0.93593687
63	0x3fc93676	1.5719745
64	0x3eccc400	0.39993286
65	0x3f591d2c	0.8481014
66	0x3ea251b2	0.31702954
67	0x3d086d7c	0.033307537
68	0x3e8873e3	0.26650915
69	0x3f2fb6f5	0.68638545
70	0x3e889673	0.26677284
71	0x3fb637a1	1.4235727
72	0xbd1d629e	-0.038424127
73	0xbd5c1bac	-0.053737327
74	0xbb5187f4	-0.0031971904
75	0xbd76e398	-0.060275644
76	0xbcc3f854	-0.023922123
77	0x3f12d797	0.57360214
78	0x3d437d41	0.047726873
79	0x3fb73f8d	1.4316269
80	0xbd056ea7	-0.03257623
81	0x3c255a9c	0.010092404
82	0x3d0a6131	0.033784095
83	0xbd51c700	-0.05121517
84	0x3f0970d5	0.53687793
85	0x3cd36cb7	0.025808675
86	0x3d11c518	0.035588354
87	0xbd29fc02	-0.0415001
88	0x3d32af43	0.043624174
89	0x3ea0fda1	0.31443503
90	0x3e03be30	0.1286552
91	0x3f3be759	0.73399884
92	0xbe165c86	-0.14683732
93	0x3f9708ad	1.1799523
94	0x3ff6c9c4	1.9280324
95	0x3e5342b5	0.20630915
96	0x3eef5d83	0.4675103
97	0x3fb1080b	1.383058
98	0x3ec00db0	0.37510443
99	0xbd3b9ba5	-0.04580273
100	0xbcab58c5	-0.020916352
101	0xbca0f803	-0.019649511
102	0xbd7eaf21	-0.062178735
103	0x3d29598b	0.04134516
104	0xbee9257a	-0.45536405
105	0x3e06304c	0.13104361
106	0x3c9d1d10	0.019178897
107	0x3edfdede	0.43724722
108	0xbd95d08a	-0.07315166
109	0xbf1313ec	-0.57452273
110	0x3cf021d9	0.029313015
111	0xbc02b061	-0.007976622
112	0x3f9df330	1.233984
113	0x3fa0de6c	1.2567878
114	0x3e74bf27	0.23901044
115	0x3f4c61e0	0.79836845
116	0xbd7c0b93	-0.061534476
117	0x3d72954f	0.059224423
118	0x3e6a3a9d	0.22873922
119	0x3cf489df	0.029850898
120	0x3f7ac2c4	0.9795344
121	0x3f67ffd0	0.90624714
122	0x3d0f4a1d	0.03498279
123	0xbcfcbab4	-0.030850746
124	0x3f9eedf4	1.2416368
125	0x3fd8f1d3	1.6948799
126	0x3e8e2be4	0.2776786
127	0xbd7bbc00	-0.061458588
128	0x3f888a1a	1.0667145
129	0xbd305a24	-0.043054715
130	0x3eb0337f	0.34414288
131	0x3fade039	1.3584052
132	0x3fd73036	1.6811588
133	0x3fbfbded	1.4979836
134	0xbc957c38	-0.018247709
135	0xbc9a5987	-0.018841518
136	0x3ef5e046	0.4802267
137	0x3d5349d0	0.051584065
138	0xbd40d3b7	-0.047076907
139	0x3fda3105	1.704621
140	0x3d3b300d	0.04570012
141	0x3f047a2a	0.5174891
142	0x3f172d0c	0.5905311
143	0xbd6020f7	-0.054718938
144	0x3c9cac82	0.019125227
145	0xbb7efdf5	-0.0038908694
146	0x3b72888c	0.0037007658
147	0x3cc5cd18	0.024145648
148	0x3eb586c1	0.35454372
149	0x3d1286eb	0.0357732
150	0x3f226b46	0.63444936
151	0x3e77ac24	0.2418676
152	0x3ea7b993	0.3275877
153	0x3f29e005	0.6635745
154	0x3f60761e	0.8768023
155	0x3f8cf932	1.1013548
156	0x3f25c745	0.64757186
157	0xbd6b4d67	-0.057446864
158	0x3f2a5106	0.6652988
159	0x3f349103	0.7053377
160	0x3cac650d	0.021044279
161	0x3f67cae3	0.90543956
162	0x3f60cff1	0.87817293
163	0x3f042adb	0.5162789
164	0x3d08417e	0.033265583
165	0xbe1f7e6b	-0.15575568
166	0x3fc7268a	1.5558636
167	0xbca946f7	-0.020663721
168	0x3f372494	0.7154019
169	0x3f1f96ae	0.62339294
170	0x3fb99489	1.4498454
171	0x3f8d72c5	1.105065
172	0xbd6b1a22	-0.05739797
173	0xbbb0162f	-0.0053737382
174	0x3ca2c254	0.019868053
175	0x3eda06a3	0.42583188
176	0xbd854e09	-0.06509025
177	0x3fd5860d	1.6681534
178	0xbdaadb16	-0.083425686
179	0x3f1dec74	0.61688924
180	0x3fa8d802	1.319092
181	0x3fa7c561	1.310711
182	0x3df9d428	0.12198669
183	0xbe76c660	-0.24099112
184	0x3d4b4573	0.04962678
185	0x3fcd5d78	1.6044149
186	0x3ee69947	0.45038816
187	0x3ea2c03c	0.31787288
188	0x3d6456e8	0.055746943
189	0x3e90f25c	0.28309906
190	0xbd6242a4	-0.055239335
191	0x3f3e1946	0.74257314
192	0x3ee663ca	0.44998008
193	0xbe9f00b3	-0.3105522
194	0xbc1a6870	-0.009424314
195	0xbd541f60	-0.051787734
196	0xbe301f86	-0.17199525
197	0x3f81c5b9	1.0138465
198	0xbd4b3168	-0.049607664
199	0x3ecfc5ee	0.40580696
200	0x3f31bcf9	0.69428974
201	0x3dd5936b	0.10428508
202	0x3fd300da	1.6484635
203	0x3e0cbcf0	0.13743949
204	0x3fa95b20	1.3230934
205	0x3faffd16	1.3749111
206	0xbcc65910	-0.02421239
207	0xbcfc18c7	-0.030773534
208	0x3cb50dd4	0.02210132
209	0x3f7fbcd9	0.99897534
210	0x3fc4b471	1.5367566
211	0x3d15dfb0	0.03659028
212	0x3fa220b9	1.2666236
213	0xbd3f6f20	-0.046736836
214	0x3d8fee98	0.0702793
215	0xbd1ebe67	-0.0387558
216	0x3f825198	1.018115
217	0xbc6319db	-0.013861145
218	0x3eed1b82	0.4631005
219	0x3c973b2c	0.018460833
220	0xbcf1bb50	-0.029508263
221	0x3ecc4b30	0.39901114
222	0x3e06addd	0.13152261
223	0x3f9e6fe8	1.2377901
224	0xbf0dbf1a	-0.5536972
225	0xbae71a74	-0.0017631785
226	0x3c6c2b6d	0.01441465
227	0x3dcaec79	0.09908385
228	0xbd193e86	-0.037413143
229	0xbd1d4c36	-0.03840276
230	0x3e9d65f5	0.3074185
231	0x3f419c7b	0.75629395
232	0x3ef9f357	0.48818466
233	0x3efa5c7a	0.4889868
234	0x3fab64ae	1.33901
235	0xbde0b28e	-0.109715566
236	0x3f1715f7	0.5901789
237	0xbe18c7a8	-0.14919913
238	0x3ec61731	0.3868957
239	0x3d14d993	0.036340307
240	0x3d45e52f	0.04831427
241	0xbeab1d11	-0.33420613
242	0xbd460a4e	-0.04834967
243	0xbc4dc173	-0.012558329
244	0x3f7ad8c8	0.9798703
245	0xbc1c7348	-0.00954897
246	0x3eaf3729	0.3422177
247	0x3cf62620	0.030047476
248	0x3fd0377e	1.6266935
249	0x3f6dbb66	0.9286407
250	0x3f74b97f	0.95595545
251	0x3ead2ce3	0.33823308
252	0x3fa3d532	1.2799437
253	0xbe2264bb	-0.15858738
254	0x3fcf070d	1.6174027
255	0xbd225b58	-0.039637893

fc3.weight f4 [81, 256]
0	0xbd09611e	-0.033539884
1	0x3d60344e	0.05473738
2	0x3e2b2800	0.16714478
3	0xbe5a0baf	-0.2129352
4	0xbe33ff8d	-0.17577954
5	0x3c3f4e79	0.011676424
6	0xbd40418a	-0.046937503
7	0xbcb4ce69	-0.02207108
8	0x3d06d4f2	0.032917924
9	0x3cc20c68	0.023687556
10	0x3b9e379e	0.0048284074
11	0xbc232c3a	-0.009959275
12	0x3d4116ea	0.047140993
13	0xbec098c3	-0.37616548
14	0xbda04f32	-0.07827605
15	0xbda2564b	-0.07926615
16	0xbd3065a4	-0.043065682
17	0x3c764578	0.015031211
18	0xbdd38204	-0.10327533
19	0xbe47625c	-0.19471115
20	0xbbc40380	-0.0059818625
21	0xbe127064	-0.14300686
22	0xbbb2b0d6	-0.0054532094
23	0x3d0d1dfe	0.03445243
24	0x3cc3bc5a	0.023893524
25	0x3cec8f2c	0.028876863
26	0x39ef7f00	0.00045680255
27	0x3c9c608d	0.019089008
28	0xbdca93ef	-0.09891497
29	0xbc9c5078	-0.01908134
30	0x3d985e27	0.07439833
31	0xbd951dd9	-0.072810836
32	0x3de0dcf6	0.10979645
33	0xbe88fcdc	-0.26755416
34	0xbd92416c	-0.071413845
35	0x3e0d04bf	0.13771342
36	0xbebf3592	-0.37345558
37	0x3cd70603	0.026247984
38	0xbe2cfcba	-0.16893283
39	0xbca7b6e0	-0.020472944
40	0xbd454edc	-0.04817091
41	0x3c97957e	0.0185039
42	0x3da2e2dc	0.07953426
43	0x3d25a122	0.04043687
44	0xbcfb3c34	-0.030668356
45	0x3d1f8b42	0.038951166
46	0xbeca0f42	-0.39464766
47	0xbea722c0	-0.326437
48	0x3d372182	0.04470969
49	0x3d61ac72	0.055096097
50	0x3e36a3cc	0.17835921
51	0x3c6570c8	0.01400394
52	0xbd133f18	-0.035948843
53	0x3d43f298	0.047838777
54	0xbce15ccc	-0.02751007
55	0x3a14f500	0.000568226
56	0x3e02aa0b	0.12760179
57	0x3e2dd3da	0.16975346
58	0xbe2919a4	-0.16513687
59	0xbd13a09b	-0.036041837
60	0x3d3cc002	0.04608155
61	0xbd0f54a4	-0.03499283
62	0xbdfc26a6	-0.12312059
63	0x3d352204	0.044221893
64	0x3e32fe61	0.1747985
65	0xbce9149b	-0.028452208
66	0xbe4f9301	-0.20270921
67	0x3a037600	0.0005014837
68	0x3c712035	0.014717151
69	0xbdc5efa0	-0.096648455
70	0x3da58b2f	0.08083188
71	0xbc87f5d5	-0.016596714
72	0x3d1edb44	0.038783327
73	0xbd5cf6bc	-0.05394624
74	0xbcc3915c	-0.023873024
75	0x3b989d02	0.0046573887
76	0xbce70000	-0.028198242
77	0xbe037e57	-0.12841164
78	0x3d45e3ae	0.048312835
79	0xbd902ba9	-0.070395775
80	0x3c213bf0	0.00984095
81	0x3d1bea90	0.038065493
82	0xbc830698	-0.015994355
83	0xbc7ba4b0	-0.015359089
84	0xbefeffdd	-0.49804583
85	0xbc62f338	-0.013851933
86	0x3c832020	0.01600653
87	0xbc8d5878	-0.0172541
88	0x3e943cda	0.28952676
89	0x3c482f19	0.01221826
90	0x3e1c8113	0.15283613
91	0xbe8e1475	-0.27749982
92	0x3d96691e	0.07344268
93	0xbce50563	-0.02795667
94	0x3e054e3a	0.13018122
95	0xbe219667	-0.1578003
96	0xbd095d90	-0.033536494
97	0x3d40668c	0.046972796
98	0xbe65b0df	-0.22430752
99	0x3d82f587	0.06394487
100	0x3d18e708	0.037329704
101	0x3d6b36e9	0.057425413
102	0xbcf51fec	-0.029922448
103	0xbcd933f8	-0.026514038
104	0xbe5b765b	-0.21431868
105	0x3c13cfca	0.009021709
106	0xbd48370c	-0.04888062
107	0x3c8eea4e	0.01744571
108	0x3cfccf38	0.030860528
109	0x3ceddb21	0.029035153
110	0xbd9fdc18	-0.078056514
111	0xbb7e9a20	-0.003884919
112	0x3e15477a	0.14578047
113	0x3d0bfbcb	0.034175675
114	0xbd87c4c6	-0.066293284
115	0xbe1546f1	-0.14577843
116	0x3d9dbf0f	0.07702457
117	0x3d07d866	0.033165358
118	0xbcd8eab0	-0.026479095
119	0x3d79f7fc	0.061027512
120	0xbd907dac	-0.0705522
121	0x3cb8842c	0.022523962
122	0x3d56abe0	0.052410007
123	0x3cc968a4	0.02458603
124	0xbd64e287	-0.055880096
125	0x3d708b8f	0.058726843
126	0x3f1540c0	0.58301926
127	0x3c4d5be8	0.012534119
128	0xbe344af6	-0.1760672
129	0xbc79f6f0	-0.015256628
130	0xbc94d8d2	-0.018169794
131	0xbc56d8f5	-0.01311325
132	0x3d3b9e02	0.045804985
133	0x3d6f9197	0.058488455
134	0x3d5143db	0.051090103
135	0xbd0ad04e	-0.03389006
136	0xbe010702	-0.1260033
137	0x3d239990	0.03994137
138	0xbcf23d30	-0.029570192
139	0x3dd9a297	0.10626715
140	0x3c6d35b0	0.014478132
141	0xbe1b0d14	-0.15141708
142	0xbd8443d2	-0.06458248
143	0xbba244a2	-0.0049520293
144	0xbbb02060	-0.005374953
145	0xbdf175b5	-0.11790029
146	0x3deee353	0.116644524
147	0xbd5585aa	-0.052129425
148	0xbe2d0383	-0.16895871
149	0x3b4318a0	0.0029769316
150	0xbccdb5e3	-0.025111144
151	0x3ee97647	0.4559805
152	0xbd065747	-0.032798078
153	0xbe497fbf	-0.19677638
154	0xbe25134f	-0.16120647
155	0xbe0cd622	-0.1375356
156	0xbe3053ff	-0.17219542
157	0xbd18b967	-0.03728619
158	0xbcb1a595	-0.021685401
159	0xbd2f0487	-0.042728927
160	0xbb865bd0	-0.0041003004
161	0xbe415c34	-0.18882829
162	0x3d80815f	0.062746756
163	0xbdcb5a27	-0.099293046
164	0xbd0ed2e6	-0.034869097
165	0xbe300a2e	-0.17191383
166	0x3e2e4286	0.17017564
167	0xbcfb5d4c	-0.030684136
168	0xbd980993	-0.07423701
169	0xbe47b27b	-0.19501679
170	0xbc9f7dbe	-0.019469138
171	0x3d80f98d	0.06297598
172	0xbd477102	-0.048691757
173	0xbd2cee1e	-0.042219274
174	0x3b5159c0	0.0031944364
175	0xbe11d772	-0.14242342
176	0xbca061e8	-0.019577935
177	0x3c4cae1e	0.012492685
178	0xbdf7f096	-0.12106435
179	0xbe5b3f57	-0.21410881
180	0xbe14f446	-0.14546308
181	0x3dfa57c5	0.12223772
182	0xbe5cdaee	-0.2156789
183	0x3dc60d93	0.09670558
184	0x3b06bb80	0.0020558536
185	0xbcd205ab	-0.025637468
186	0xbdbd9179	-0.09256262
187	0x3efa19e5	0.4884788
188	0xbda0f771	-0.07859696
189	0x3e419824	0.18905693
190	0x3d1eb060	0.038742423
191	0xbd9418ce	-0.072312936
192	0xbe0a9849	-0.13534655
193	0xbd34cb59	-0.04413924
194	0xbe142144	-0.14465815
195	0xbd0d1455	-0.03444322
196	0xbf0763b7	-0.5288653
197	0xbd981c5c	-0.07427284
198	0x3c8b1ed8	0.01698248
199	0x3e0cefed	0.137634
200	0xbe0714aa	-0.13191476
201	0xbd8d774e	-0.06907521
202	0x3d9ec0e5	0.077516355
203	0x3cf5d822	0.030010287
204	0xbd00e497	-0.031468
205	0x3bcbb9ab	0.0062172017
206	0xbce525e8	-0.027972177
207	0xbbaa7170	-0.005201511
208	0xbc51d5e0	-0.012807339
209	0xbe0d0db5	-0.1377476
210	0x3c1f32cc	0.009716701
211	0xbd0ce390	-0.034396708
212	0xbcd8ae26	-0.026450228
213	0x3d61b1e3	0.055101287
214	0xbdafbb1e	-0.08580612
215	0x3cc473ac	0.023980938
216	0x3d2106b4	0.039313033
217	0xbcb6ee80	-0.022330523
218	0xbd97e169	-0.074160405
219	0x3b5068e0	0.0031800792
220	0xbd35154c	-0.044209763
221	0xbe403129	-0.18768753
222	0x3e8d3fb9	0.2758768
223	0xbe03a7fa	-0.12857047
224	0xbdb4a6e6	-0.08820896
225	0xbc74b798	-0.01493635
226	0xbbc18ec0	-0.0059069097
227	0xbecfa4ea	-0.40555507
228	0xbcb343ba	-0.02188288
229	0xbdaef2d6	-0.08542411
230	0xbe56c5ee	-0.20973942
231	0xbe240493	-0.1601737
232	0xbd719c32	-0.05898685
233	0xbd62bbfe	-0.055355065
234	0x3d1e6a92	0.038675852
235	0xbdefc36e	-0.11707197
236	0xbe131e46	-0.14367017
237	0xbdb5d312	-0.08878149
238	0x3d058867	0.032600787
239	0xbc10f371	-0.008847103
240	0x3d196cd4	0.037457302
241	0xbda28c11	-0.07936872
242	0xbd196fc6	-0.03746011
243	0x3dfe588b	0.12419232
244	0x3bcf8f67	0.0063342336
245	0xbd763cda	-0.060116626
246	0x3f8feed4	1.124476
247	0xbd4d998e	-0.05019527
248	0x3e1ca865	0.15298612
249	0xbd3e9601	-0.046529774
250	0xbb07bd09	-0.002071204
251	0x3dd2534a	0.102697924
252	0xbdaf414d	-0.08557377
253	0xbdd008fc	-0.10157964
254	0x3c08ca34	0.00834899
255	0xbcd54e40	-0.02603829

fc3.bias f4 [81]
0	0x3ece2e3c	0.4026965
1	0x3f030ed0	0.5119448
2	0x3e5f343c	0.2179727
3	0x3e05f5df	0.13082074
4	0x3f111909	0.56678826
5	0x3e8c9d3c	0.2746371
6	0x3dd0c258	0.10193318
7	0x3e90f4d8	0.283118
8	0x3e4e81fc	0.20166773
9	0x3dd1db24	0.10246876
10	0x3f045432	0.5169097
11	0x3ef41090	0.47668886
12	0x3f185080	0.59497833
13	0x3e94f685	0.2909433
14	0x3e8c46cd	0.27397767
15	0x3ea52843	0.3225728
16	0x3e95d0a0	0.2926073
17	0x3e2e7cce	0.17039797
18	0x3f0833a0	0.53203773
19	0x3e304387	0.1721326
20	0x3e4b5fb3	0.19860725
21	0x3f3fedd2	0.7497226
22	0x3e572e07	0.21013652
23	0x3e8a2027	0.26977655
24	0x3e55c82a	0.20877138
25	0x3e90cfeb	0.2828363
26	0x3e121749	0.14266695
27	0x3e094955	0.1340688
28	0x3f079900	0.52967834
29	0x3eeebf69	0.4663041
30	0x3e97eadb	0.29671368
31	0x3e6b3c55	0.22972234
32	0x3ec97c24	0.39352524
33	0x3f23e5c0	0.64022446
34	0x3e8d6d89	0.2762263
35	0x3e80894c	0.2510475
36	0x3e4be790	0.19912553
37	0x3f086011	0.53271586
38	0x3edd6d0f	0.43247268
39	0x3f3aedcd	0.73019105
40	0x3f4036b1	0.7508345
41	0x3e711a10	0.23545098
42	0x3f439057	0.7639212
43	0x3e975b57	0.29561874
44	0x3ed63810	0.41839647
45	0x3ea9ab57	0.33138534
46	0x3f0dfcba	0.55463755
47	0x3e74bcc9	0.23900141
48	0x3effcb54	0.49959815
49	0x3f08908c	0.5334556
50	0x3e97b8ce	0.29633182
51	0x3f0973e2	0.5369245
52	0x3e863f21	0.2622004
53	0x3ec5dc39	0.3864458
54	0x3da75865	0.08171157
55	0x3e663197	0.22479855
56	0x3f12ed40	0.57393265
57	0x3e98ecbb	0.2986811
58	0x3ea7149c	0.3263291
59	0x3cc0ec86	0.023550283
60	0x3dde0aa7	0.108418755
61	0xb8892f7e	-6.541515e-05
62	0x3ed6e258	0.41969562
63	0x3ea2fd42	0.31833845
64	0x3f083f49	0.53221565
65	0x3e8222b6	0.25417107
66	0x3f7718a2	0.9652196
67	0x3ed49d37	0.41526195
68	0xbc259c18	-0.010108016
69	0xbd86415e	-0.065554366
70	0x3f01041c	0.50396895
71	0x3e90e6ca	0.28301078
72	0x3e210402	0.15724185
73	0x3e30f28d	0.17280026
74	0x3eca426b	0.39503798
75	0x3e08a671	0.13344742
76	0x3e2d5c63	0.16929774
77	0x3dbc6af8	0.0920009
78	0x3ef27de4	0.47361672
79	0x3edbf6d8	0.42961764
80	0x3e442a36	0.19156727
