code/outputs/seed/1/models/dqn_checkpoint.pth (torch, 354981 bytes, 6 tensors)

fc1.weight f4 [256, 5]
-0.12999089 0.61687875 2.154537 1.6491377 1.3535001 0.16612138 0.40334818 2.1834965
0.604297 0.86217064 -0.7162171 -1.1627054 -1.1717417 -0.42629376 1.8777081 0.13219585
0.012868415 1.3464739 1.1036087 1.117296 -0.7150292 -0.76486737 -0.3899827 -0.56037253
1.3378876 -0.068541914 0.8779771 2.8854356 1.6444317 1.922815 -0.040457547 -0.28096524
-0.054264273 -0.50459296 1.985988 -0.2798962 0.20831111 0.09716647 0.77832747 1.5641476
0.20777495 0.06785155 1.7861724 1.0672135 0.26922518 0.023680424 0.2589639 1.669536
1.0721537 0.8631443 -0.56887376 -0.25715587 -0.25395253 -0.15367192 0.17162627 -0.3345193
0.23808897 1.471271 0.7361831 0.9903151 -0.23000221 -0.3089846 -0.25881037 -0.30013508
-0.287758 0.26638234 0.74622655 1.2272102 1.9123152 2.7839196 -0.050497755 -0.024344478
1.8929728 0.9722215 0.9163055 -0.25693473 0.16586864 2.1391182 0.6250175 1.4944038
0.29382208 -0.83176756 -0.5770441 -0.894205 2.720062 -0.15408894 0.38677785 2.2820787
1.2285454 1.0044625 -0.0070858565 -0.024492826 0.94269305 0.63479066 -1.5640676 -0.20105083
0.22631744 1.571789 1.2319762 1.2997931 -0.19528034 0.104645446 -0.626531 0.44558632
1.172764 -0.09799526 0.6546172 2.8470323 1.7840316 1.1781005 -0.40790963 0.07151734
0.48978835 0.81122804 -0.5153479 0.8428027 0.20545882 -1.185368 -1.0912491 -0.49233145
-0.13364813 0.82919586 0.7866763 1.7968208 2.7020903 -0.23662142 -0.12194061 0.4880649
0.7832428 1.4438663 0.50556874 -0.039160363 -1.384899 -1.1592782 -0.96779925 -0.19349982
0.16528264 1.4199598 0.9782911 0.9959844 -0.27086943 -0.18032682 0.060583293 0.3132284
-0.41308868 0.13863313 0.47413978 2.687499 1.4690934 1.2647971 -0.12579046 0.43893617
1.9235814 1.6961635 1.2589117 0.14188398 -0.1398594 1.6453743 0.8178429 0.48922044
0.55576324 -0.24457677 -1.0404688 -0.6917361 -0.15711713 -0.040026713 -0.19490936 -0.17978224
0.40951335 -0.19928686 0.35385165 0.31806934 2.3113356 0.8472785 -1.1082759 -0.40400645
-0.023707107 0.029925473 0.11342302 -0.030488342 0.18140014 -0.116054304 1.4492091 0.9893723
-0.062096886 -0.009436746 -0.02820847 1.1727499 0.9563149 0.24524446 -0.017713588 -1.2408
-0.6350944 -1.1437159 2.6336787 0.13394825 0.026041733 1.7228208 0.65296495 0.8440483
-0.10229621 0.99213165 2.8107574 2.255225 3.3378205 -0.4192392 -0.6457921 -0.5726582
-0.09362711 0.8255081 0.3643757 -0.1481323 -0.8698721 -1.0076188 -0.2753523 -0.39408588
0.11348585 0.1190864 0.7583622 -0.6840211 -0.10423469 0.14776883 1.6754603 0.9021948
0.28658193 -0.04501774 0.177647 2.009201 1.2035722 0.96360785 0.028310604 -0.08376378
-0.4312763 1.09962 1.0099692 0.5890189 0.92380816 2.4481664 0.5888929 -0.9886446
-0.22233024 -0.4079503 -0.39889452 0.028722914 0.6296789 -0.051432565 -0.08520073 -0.35671753
0.60182875 0.8775588 0.6168129 0.093546174 0.046734378 -0.120621786 1.0202364 -0.41537157
00000000: 551c 05be c4eb 1d3f efe3 0940 f216 d33f
00000010: 7e3f ad3f b91b 2a3e a783 ce3e 68be 0b40
00000020: 35b3 1a3f 37b7 5c3f 015a 37bf 88d3 94bf
00000030: a2fb 95bf 2d43 dabe bd58 f03f 595e 073e
00000040: 0bd6 523c 4259 ac3f 0d43 8d3f 8e03 8f3f
00000050: 270c 37bf 59ce 43bf d0ab c7be 9374 0fbf
00000060: e73f ab3f b45f 8cbd 1bc3 603f faaa 3840
00000070: bd7c d23f cd1e f63f d0b6 25bd adda 8fbe
00000080: 3744 5ebd 012d 01bf db34 fe3f 8e4e 8fbe
00000090: 824f 553e 37ff c63d 7840 473f fd35 c83f
000000a0: f5c2 543e c1f5 8a3d 4ca1 e43f 749a 883f
000000b0: e2d7 893e 73fd c13c eb96 843e 5bb3 d53f
000000c0: 553c 893f 06f7 5c3f b6a1 11bf efa9 83be
000000d0: 1106 82be 2c5c 1dbe ccbe 2f3e 1d46 abbe
000000e0: 98cd 733e 9c52 bc3f 7f76 3c3f 4a85 7d3f
000000f0: b385 6bbe 3b33 9ebe cb82 84be 4eab 99be
00000100: 0455 93be 4463 883e b408 3f3f 3915 9d3f
00000110: bfc6 f43f bd2b 3240 bcd6 4ebd 126e c7bc
00000120: ef4c f23f 82e3 783f ff92 6a3f f38c 83be
00000130: 78d9 293e 50e7 0840 2601 203f a048 bf3f
00000140: d96f 963e b8ee 54bf 2ab9 13bf 9eea 64bf
00000150: 7f15 2e40 7ec9 1dbe bf07 c63e 940d 1240
00000160: fa40 9d3f 3a92 803f 7930 e8bb 2ea5 c8bc
00000170: 5554 713f a481 223f 5e33 c8bf 45e0 4dbe
00000180: c2bf 673e 6230 c93f 65b1 9d3f 9f5f a63f
00000190: 92f7 47be 5a50 d63d 5664 20bf e423 e43e
000001a0: 211d 963f bdb1 c8bd fe94 273f c735 3640
000001b0: 265b e43f ffcb 963f 88d9 d0be af77 923d
000001c0: 8ac5 fa3e a4ac 4f3f d7ed 03bf ebc1 573f
000001d0: cc63 523e 23ba 97bf 0dae 8bbf de12 fcbe
000001e0: 0edb 08be 2e46 543f 9e63 493f 39fe e53f
000001f0: 0cef 2c40 e34c 72be 00bc f9bd a4e3 f93e
00000200: 9a82 483f 9cd0 b83f f46c 013f 9e66 20bd
00000210: 5f44 b1bf 3a63 94bf b1c1 77bf d124 46be
00000220: da3f 293e 3ec1 b53f 4971 7a3f d5f8 7e3f
00000230: 66af 8abe 98a7 38be 3026 783d 795f a03e
00000240: 5c80 d3be d8f5 0d3e 73c2 f23e fcff 2b40
00000250: 410b bc3f dfe4 a13f 37cf 00be 3ebc e03e
00000260: ea37 f63f e31b d93f 0524 a13f 094a 113e
00000270: 4d37 0fbe a09b d23f 275e 513f 1a7b fa3e
00000280: 8046 0e3f 5572 7abe 152e 85bf 9e15 31bf
00000290: 50e3 20be 0df3 23bd 5296 47be d618 38be
000002a0: bcab d13e db11 4cbe 0b2c b53e fcd9 a23e
000002b0: ecec 1340 3ee7 583f fcdb 8dbf efd9 cebe
000002c0: 6835 c2bc 4426 f53c 544a e83d b0c2 f9bc
000002d0: f5c0 393e e1ad edbd af7f b93f 8147 7d3f
000002e0: 4e59 7ebd 959c 1abc 7315 e7bc ab1c 963f
000002f0: 0ed1 743f 5d21 7b3e 161c 91bc 89d2 9ebf
00000300: 8c95 22bf 4865 92bf 318e 2840 bb29 093e
00000310: 7955 d53c 6485 dc3f b628 273f 8d13 583f
00000320: ad80 d1bd 57fc 7d3f 73e3 3340 9b55 1040
00000330: da9e 5540 85a6 d6be a252 25bf ba99 12bf
00000340: 92bf bfbd 8054 533f 748f ba3e feaf 17be
00000350: f0af 5ebf a7f9 80bf fafa 8cbe a0c5 c9be
00000360: 456b e83d 92e3 f33d 0624 423f 021c 2fbf
00000370: ff78 d5bd b650 173e 7c75 d63f 3df6 663f
00000380: deba 923e 8664 38bd 18e9 353e c096 0040
00000390: a70e 9a3f 01af 763f a4eb e73c 588c abbd
000003a0: 3fd0 dcbe 59c0 8c3f ac46 813f f1c9 163f
000003b0: b17e 6c3f c2ae 1c40 afc1 163f d017 7dbf
000003c0: 8aaa 63be ddde d0be e73b ccbe 514c eb3c
000003d0: a332 213f f4aa 52bd b87d aebd aea3 b6be
000003e0: 7311 1a3f b2a7 603f 73e7 1d3f 2395 bf3d
000003f0: 8c6c 3f3d 8e08 f7bd 1b97 823f 95ab d4be

fc1.bias f4 [256]
3.3034508 2.1763847 1.7569509 2.1590114 1.2062383 3.9714193 1.7316642 -0.016545905
2.2342207 2.3795867 -0.21170296 2.7302005 0.07997202 3.026196 2.0641956 2.581628
2.723874 2.6431348 1.386996 2.7066646 -0.010094862 3.0408065 0.7190863 -1.175933
3.3365953 1.4267212 -1.2722051 2.7502172 -0.13893558 2.6606274 3.0769925 2.0827136
-1.2929884 0.031163698 0.7445334 -0.29359993 2.022065 2.4156477 2.7466667 2.0246315
4.511221 0.9648715 -0.79558855 0.358413 2.4792945 2.4694858 -0.37056434 0.8431785
-0.09640591 1.3560925 -0.7485765 0.3297273 2.6043122 3.1510956 -0.50045323 -0.19573966
1.6588268 2.3019896 1.7594308 -0.3051014 -0.1183273 2.2468095 3.9961627 2.6348546
-0.42449474 -0.36111218 2.873511 -0.195583 0.29415724 2.8685832 0.99078274 3.9959848
-0.38124755 2.1473284 0.39932132 1.8607827 2.4303956 -0.87433565 0.3230827 -0.10427691
1.337905 -0.18410587 3.961075 1.720817 1.9715773 3.1354399 -0.12293057 -0.63497454
0.90549403 2.3130488 -0.3315186 1.7886686 2.2980273 -0.7547903 -0.8003204 1.740152
2.6330044 -0.604918 -0.7984324 1.2843866 -0.15357165 2.170477 -0.16472338 -0.29290286
1.830547 -1.1815269 2.7890425 1.0724251 -0.35925686 -0.21553056 -0.27960536 -0.5151647
1.9383705 3.089479 -0.85112417 0.048416853 -1.1318337 1.1828535 2.0821962 -0.3314989
-0.364368 2.9652727 -0.15007816 2.7372468 2.0751503 2.968075 1.7231518 -0.1287422
2.9776297 -0.036857158 -0.1564526 -0.06611532 2.3281715 3.1482232 2.5746408 1.3599521
3.3955002 0.13166009 0.009254646 2.436482 2.206481 -0.56849825 3.6935143 -0.47018406
-0.19564734 -0.07574331 0.44484836 0.34364763 -0.4573117 2.1375751 -0.77787256 -0.2045123
0.10005322 2.4791405 -0.06817973 -0.23616034 0.19185358 1.1267743 2.1298108 0.58136624
3.175407 1.8833904 -0.24968965 0.09761836 2.521625 2.852656 1.9438657 -1.3254352
-1.3053548 2.3184981 1.8870014 2.2097483 1.8015325 1.1530331 2.8032413 -0.4223555
-0.13797054 -0.06027842 0.112202115 -0.15902056 1.7788293 -0.7396257 1.3628168 3.578355
1.5398338 -0.14868748 1.9500446 3.274175 2.3450954 -0.35114732 0.3172839 0.8495607
2.6669264 3.3132172 1.9482856 -0.056384478 0.09442522 -0.39456794 1.0241861 -0.8012709
3.4689872 -0.2673326 0.91399467 2.2274437 1.8401775 1.7912552 2.5327735 3.712672
-0.830565 0.006761243 1.9589777 0.5337103 -0.22322679 3.378497 3.1714377 2.704131
1.5075028 -0.5525651 -0.43978184 3.2556608 3.1773362 -0.36317065 3.0500457 1.5744272
0.23033573 2.7825916 3.2970343 1.9670206 2.4784856 0.24634832 -0.7374075 2.851736
-0.9641303 2.9180179 -0.65715206 1.9036171 -0.37763646 -0.42921323 -0.22891705 1.4520075
2.1698685 2.678216 2.0912144 -0.11175611 2.7968237 0.58304864 0.24200465 -0.14470933
-0.12322287 3.8643758 2.7028935 -0.33285478 3.1046367 -1.0099739 1.5665962 1.7648163
00000000: bd6b 5340 e349 0b40 c4e3 e03f 3e2d 0a40
00000010: 0466 9a3f bc2b 7e40 2ca7 dd3f 478b 87bc
00000020: 79fd 0e40 264b 1840 a9c8 58be 9bbb 2e40
00000030: 5fc8 a33d 32ad 4140 c81b 0440 6539 2540
00000040: f453 2e40 1f29 2940 1689 b13f fe39 2d40
00000050: ec64 25bc 939c 4240 0a16 383f f984 96bf
00000060: c78a 5540 cd9e b63f 9ed7 a2bf 8f03 3040
00000070: 2145 0ebe b847 2a40 72ed 4440 2e4b 0540
00000080: a580 a5bf 034b ff3c be99 3e3f bb52 96be
00000090: 8369 0140 f999 1a40 63c9 2f40 9093 0140
000000a0: ec5b 9040 d201 773f b1ab 4bbf e981 b73e
000000b0: c3ac 1e40 0e0c 1e40 9cba bdbe 8cda 573f
000000c0: 7670 c5bd 7094 ad3f b6a2 3fbf 04d2 a83e
000000d0: 0dad 2640 8dab 4940 b41d 00bf fa6f 48be
000000e0: 7054 d43f cc53 1340 0735 e13f 4036 9cbe
000000f0: 9555 f2bd bacb 0f40 21c1 7f40 75a1 2840
00000100: 6057 d9be b2e3 b8be 9be7 3740 e946 48be
00000110: c79b 963e de96 3740 f0a3 7d3f 37be 7f40
00000120: e132 c3be d46d 0940 d873 cc3e 212e ee3f
00000130: 9a8b 1b40 76d4 5fbf 186b a53e 228f d5bd
00000140: 7940 ab3f 4086 3cbe 4182 7d40 bb43 dc3f
00000150: a55c fc3f 0cab 4840 06c3 fbbd b18d 22bf
00000160: 75ce 673f fe08 1440 cebc a9be 18f3 e43f
00000170: e112 1340 f039 41bf cce1 4cbf 4dbd de3f
00000180: 2583 2840 e8db 1abf 1166 4cbf c866 a43f
00000190: e341 1dbe 18e9 0a40 3fad 28be 5df7 95be
000001a0: 5d4f ea3f 463c 97bf ac7f 3240 3a45 893f
000001b0: 84f0 b7be 0bb4 5cbe 6f28 8fbe d5e1 03bf
000001c0: 861c f83f 06ba 4540 46e3 59bf c050 463d
000001d0: eddf 90bf be67 973f b442 0540 39ba a9be
000001e0: 718e babe 07c7 3d40 17ae 19be 0d2f 2f40
000001f0: 43cf 0440 f1f4 3d40 3d90 dc3f ffd4 03be
00000200: 7c91 3e40 88f7 16bd 1c35 20be 7867 87bd
00000210: c300 1540 7d7c 4940 eac6 2440 e912 ae3f
00000220: e04f 5940 e7d1 063e cca0 173c 52ef 1b40
00000230: fc36 0d40 1a89 11bf 8a62 6c40 f7bb f0be
00000240: c757 48be 4f1f 9bbd 2ac3 e33e 95f2 af3e
00000250: c224 eabe 08ce 0840 a822 47bf ac6b 51be
00000260: b4e8 cc3d 3daa 1e40 d0a1 8bbd 04d4 71be
00000270: 4475 443e 243a 903f d24e 0840 6bd4 143f
00000280: de39 4b40 f012 f13f a5ae 7fbe 22ec c73d
00000290: 4e62 2140 ea91 3640 97d0 f83f dca7 a9bf
000002a0: de15 a7bf 4662 1440 4389 f13f 846c 0d40
000002b0: 9e98 e63f 9796 933f 4e68 3340 fb3e d8be
000002c0: 2648 0dbe 81e6 76bd 39ca e53d 49d6 22be
000002d0: aeb0 e33f 1c58 3dbf c870 ae3f c503 6540
000002e0: 4619 c53f 8841 18be 109b f93f 158c 5140
000002f0: 0b16 1640 95c9 b3be 0973 a23e cf7c 593f
00000300: ecae 2a40 c00b 5440 6c61 f93f 69f3 66bd
00000310: 0262 c13d cf04 cabe 8818 833f 1720 4dbf
00000320: e303 5e40 d2df 88be 8efb 693f 708e 0e40
00000330: f08a eb3f da47 e53f f618 2240 6b9c 6d40
00000340: e89f 54bf 6b8d dd3b c8bf fa3f 3da1 083f
00000350: 9095 64be 4b39 5840 d6f8 4a40 7b10 2d40
00000360: daf5 c03f e874 0dbf 162b e1be bf5c 5040
00000370: 7a59 4b40 81f1 b9be f333 4340 d586 c93f
00000380: 21dd 6b3e fb15 3240 9c02 5340 55c7 fb3f
00000390: 829f 1e40 bc42 7c3e bdc6 3cbf d882 3640
000003a0: 3ed1 76bf cec0 3a40 1e3b 28bf baa9 f33f
000003b0: 9159 c1be d6c1 dbbe 3b69 6abe 62db b93f
000003c0: 20df 0a40 e467 2b40 75d6 0540 63e0 e4bd
000003d0: 29ff 3240 ad42 153f 11d0 773e af2e 14be
000003e0: 465c fcbd ef51 7740 35fc 2c40 f16b aabe
000003f0: 5eb2 4640 d346 81bf 3986 c83f 80e5 e13f

fc2.weight f4 [256, 256]
0.20686859 -0.011693575 2.7666914 0.19941515 2.852547 0.17632046 2.631442 -0.5175366
0.13586633 0.10227074 3.1713974 0.42223376 0.04616064 0.040829137 0.5853659 0.5406582
2.298867 0.13162926 1.9261882 0.25283486 0.40167788 0.09609089 0.99363035 -0.25138918
0.07666261 1.7666907 -0.26999423 0.24425332 -0.0010382533 0.0114857275 0.13297786 0.3280629
-0.3041537 -0.039585598 -0.0043660873 0.002505228 0.31363654 1.0880016 2.2007792 0.2162761
0.20560998 2.8679695 -0.3622015 0.84945315 0.11407442 0.15447903 0.33243683 -0.0644907
3.4486148 0.95962536 -0.30637378 2.9876919 -0.052193966 0.19986494 -0.13940617 3.210619
1.3123118 0.11027423 0.10747758 -0.044440493 0.043056607 0.11089191 0.14992614 0.39560688
-0.015029661 0.4553907 0.169341 3.0995302 0.021235287 0.12294821 -0.02198081 0.26131374
-0.052038863 1.3437805 0.9096792 2.7993143 -0.091147706 -0.7415973 2.9410667 0.051472254
0.5732642 -0.2142904 0.2604824 0.056551225 0.7094563 0.19837992 0.05794049 -0.2466494
-0.07056103 0.8485346 0.43052107 2.7051318 0.105489515 -0.2581348 -0.196696 0.27372205
0.1373385 -0.15495844 -0.123458944 1.1265775 3.3006756 0.36805496 3.293426 -0.009215064
2.1827817 -0.24130993 2.1979134 1.5581249 -0.33137748 3.1576471 -0.273914 -0.58148885
1.3611407 0.12545523 -0.30141813 -0.011684261 -0.23964328 -0.082757555 0.24723296 -0.061434723
0.060555935 0.010343366 3.3644464 -0.0020858704 0.82193893 0.18318827 2.7389684 -0.105814986
0.3766201 3.1104374 3.417243 -0.0023141354 0.3489467 0.17691821 0.2703224 1.5107577
0.082118355 0.35237652 0.062086716 0.114059106 0.2044886 -0.5617518 0.025571847 -0.13635798
-0.2035901 -0.027952038 0.75275964 0.2930082 0.40025553 0.32775483 -0.6136698 -0.062224403
-0.24313006 2.384295 3.1060462 3.3287804 -0.0008944536 -0.114238255 1.5687659 -0.047172144
0.1154357 0.3254124 3.283355 -0.16494597 0.20696653 0.18416712 0.018996615 -0.30172387
-0.23965813 0.12229506 0.28834313 0.5444482 2.697154 -0.103074916 0.3105295 -0.35181642
3.3651059 0.23272175 -0.040618256 3.393289 0.33040872 -0.27287486 1.2102622 0.15415642
-0.10285679 0.042080276 2.519156 0.27873695 0.054642044 -0.10910327 0.018232256 -0.053557903
0.100359775 0.3196825 -0.005176806 -0.3377666 -0.88201886 0.033863083 2.9114788 0.10290601
0.040366635 0.004057966 -0.09794434 2.511514 0.10609934 2.6163042 0.3429397 0.22778639
-0.24494576 -0.06179689 0.26861814 -0.30674663 -0.058602087 0.14605914 0.19430281 0.12681268
0.35310617 -0.13357332 -0.03149547 -0.0024245863 0.21594118 -0.009844132 0.14396887 1.1442564
0.20564134 -0.02543853 0.102473214 0.17902756 0.1222948 0.9381525 0.13020433 0.3742045
-0.22435836 0.059657447 -0.3697772 0.7550294 0.19845968 0.03146392 -0.05100914 0.2140396
0.49340248 0.034309205 0.119633585 0.013116188 0.091275625 -0.2910997 0.13671833 3.3297899
3.3723016 0.14190766 0.12799409 -0.31200573 0.29480752 -0.29926133 -0.073140904 0.17042163
00000000: 5cd5 533e 6996 3fbc 7911 3140 7c33 4c3e
00000010: 2190 3640 5a8d 343e 8c69 2840 477d 04bf
00000020: 8b20 0b3e 5273 d13d 2df8 4a40 062f d83e
00000030: f012 3d3d 743c 273d 8ada 153f 9368 0a3f
00000040: a320 1340 d2c9 063e 568d f63f 9273 813e
00000050: b9a8 cd3e 4dcb c43d 8f5e 7e3f 15b6 80be
00000060: 4901 9d3d ec22 e23f af3c 8abe 8b1d 7a3e
00000070: 0016 88ba a22e 3c3c 592b 083e dcf7 a73e
00000080: 09ba 9bbe 8224 22bd 6511 8fbb c02e 243b
00000090: f894 a03e a343 8b3f 91d9 0c40 7b77 5d3e
000000a0: 6c8b 523e d08c 3740 7a72 b9be c375 593f
000000b0: d99f e93d c02f 1e3e 2935 aa3e b313 84bd
000000c0: 1bb6 5c40 02aa 753f 06dd 9cbe 5836 3f40
000000d0: 57c9 55bd 65a9 4c3e 7ec0 0ebe c87a 4d40
000000e0: d5f9 a73f 75d7 e13d 351d dc3d 3c07 36bd
000000f0: 205c 303d 4c1b e33d 3d86 193e fc8c ca3e
00000100: f83e 76bc f828 e93e ba67 2d3e b45e 4640
00000110: a0f5 ad3c 45cc fb3d 1a11 b4bc eaca 853e
00000120: b426 55bd 0001 ac3f bce0 683f f727 3340
00000130: a6ab babd 52d9 3dbf 703a 3c40 92d4 523d
00000140: 71c1 123f f16e 5bbe f35d 853e 42a2 673d
00000150: ee9e 353f 1b24 4b3e 0253 6d3d a991 7cbe
00000160: 4d82 90bd 9039 593f 426d dc3e e120 2d40
00000170: e30a d83d 3f2a 84be ad6a 49be 4c25 8c3e
00000180: 77a2 0c3e 6dad 1ebe 0bd8 fcbd b133 903f
00000190: 453e 5340 b371 bc3e 7ec7 5240 c8fa 16bc
000001a0: b2b2 0b40 f319 77be 9daa 0c40 a370 c73f
000001b0: 4faa a9be e416 4a40 753e 8cbe 74dc 14bf
000001c0: dc39 ae3f 5677 003e 7a53 9abe 586f 3fbc
000001d0: 0c65 75be cb7c a9bd a32a 7d3e faa2 7bbd
000001e0: 8009 783d 3977 293c 1753 5740 19b3 08bb
000001f0: 976a 523f b595 3b3e 424b 2f40 87b5 d8bd
00000200: 5ad4 c03e 6811 4740 1cb4 5a40 c0a8 17bb
00000210: 24a9 b23e 0c2a 353e b367 8a3e 8260 c13f
00000220: ab2d a83d b26a b43e a44e 7e3d d297 e93d
00000230: 7665 513e f7ce 0fbf 0d7c d13c 6da1 0bbe
00000240: ec79 50be acfb e4bc dbb4 403f 2c05 963e
00000250: 4bee cc3e 7bcf a73e 7719 1dbf 04df 7ebd
00000260: 16f7 78be 4a98 1840 76c9 4640 bd0a 5540
00000270: c479 6aba bff5 e9bd 52cd c83f 9437 41bd
00000280: 8d69 ec3d 749c a63e 7d22 5240 99e7 28be
00000290: 09ef 533e 4e96 3c3e ca9e 9b3c 8d7b 9abe
000002a0: f168 75be d575 fa3d b6a1 933e f560 0b3f
000002b0: 2c9e 2c40 f118 d3bd b9fd 9e3e 4821 b4be
000002c0: e55d 5740 9c4e 6e3e 545f 26bd a62b 5940
000002d0: 552b a93e 41b6 8bbe dfe9 9a3f 2edb 1d3e
000002e0: 95a6 d2bd 5e5c 2c3d da39 2140 9cb6 8e3e
000002f0: 56d0 5f3d 8971 dfbd d05b 953c 885f 5bbd
00000300: 6d89 cd3d 6dad a33e 32a2 a9bb beef acbe
00000310: fdcb 61bf 04b4 0a3d ab55 3a40 63c0 d23d
00000320: 7c57 253d b0f8 843b 0b97 c8bd a5bc 2040
00000330: 9c4a d93d 8771 2740 cb95 af3e d640 693e
00000340: 10d3 7abe bc1e 7dbd 5188 893e e50d 9dbe
00000350: be08 70bd 8790 153e 51f7 463e 2fdb 013e
00000360: 55ca b43e 72c7 08be 6501 01bd cfe5 1ebb
00000370: af1f 5d3e 4849 21bc 936c 133e fe76 923f
00000380: a593 523e 7764 d0bc 7add d13d 0053 373e
00000390: b275 fa3d c32a 703f 4954 053e bb97 bf3e
000003a0: 33be 65be 5e5b 743d 7053 bdbe 9b49 413f
000003b0: 0439 4b3e 50e0 003d f6ee 50bd 322d 5b3e
000003c0: 409f fc3e cf87 0c3d 7402 f53d 48e5 563c
000003d0: b7ee ba3d 050b 95be e4ff 0b3e 471b 5540
000003e0: cad3 5740 3e50 113e e210 033e 37bf 9fbe
000003f0: 03f1 963e c838 99be e6ca 95bd 0283 2e3e

fc2.bias f4 [256]
1.5879914 1.7412331 -0.02684836 -0.05071943 -0.023955554 -0.0022371938 1.8822606 0.027801633
2.5059981 0.43211654 -0.0601685 -0.39827344 0.31604758 1.1644202 0.009909633 1.4315217
0.006467074 0.0037354305 1.8339995 1.9672556 0.9969735 0.5330166 0.7040637 0.04229101
0.05073391 0.9967012 0.020738542 1.3060167 0.7090392 1.5859134 0.063878454 3.354408
-0.50045455 1.5383074 0.7005824 -0.0042105094 0.5832256 0.51474357 0.012466119 -0.13271451
-0.06136287 0.9525643 -0.12900372 -0.0398045 -0.03109029 0.5823323 1.8080919 1.4568158
0.036685392 -0.46531105 0.7966892 1.6785128 -0.02622057 1.3115424 0.35695484 0.033045903
1.7148769 0.19026285 0.55390894 -0.013122426 -0.02523861 0.028130554 0.3126007 -0.024625124
0.010587461 -0.021272905 0.019705618 0.026910521 -0.04650103 1.7996558 0.051970355 1.5654896
-0.45119682 1.2995307 1.351804 3.2996504 0.24396467 -0.046994865 1.7846689 0.0016335994
0.057783548 0.54459035 1.0691845 -0.74878186 -0.057521686 0.60265756 0.32421762 -0.04333429
-0.060741868 0.03306265 -0.04496894 -0.015790652 0.13865478 1.2181729 0.39787087 1.8950024
-0.005067073 0.034448557 -0.1752991 0.00956088 0.031707082 0.010380893 0.031277012 1.2582752
1.4974537 1.1506507 1.4986959 0.0030790276 -0.062408384 1.2714852 0.36738497 0.7752444
0.011855535 -0.022032538 0.10685668 2.3147597 -0.027118078 0.2558884 -0.0066715814 0.4620313
0.52315396 -0.15251708 0.5039914 0.030589787 2.0509918 0.7623175 -0.30819765 0.07829127
-0.003416155 0.040839568 0.039271247 -0.0057702884 -0.5318219 0.031647496 0.030644491 -0.27515736
-0.027340766 -0.01997492 1.6914409 1.6277438 -0.48391154 0.6797782 -0.014487598 0.7684998
0.42292833 -0.4752934 0.022780553 0.044074833 0.45591182 0.43652228 0.03435324 0.030490039
1.1214359 -0.050799787 1.2433652 0.04881494 1.8866982 0.039453186 0.2967082 1.177917
-0.04196908 1.1031151 0.41236773 0.05757206 -0.023746895 -0.17588997 -0.013056897 1.2717282
0.4549622 -0.01694883 -0.031245306 -0.0058239936 0.48255298 -0.032322768 2.2667139 0.026880175
0.041338533 -0.6773006 0.33775556 -0.4267147 0.52818525 -0.031721175 2.1747916 0.0017965287
-0.0403137 1.3374219 -0.060485963 1.8101205 1.0984836 0.76945937 0.042934738 0.5797619
0.055439174 2.2754135 2.439329 0.0024091513 0.033800673 1.1403888 -0.041043714 0.078139395
-0.51788807 0.58737916 -0.015377085 0.06238013 -0.028497713 0.2503697 0.3620916 0.5978964
0.6627517 0.47840843 -0.040611677 0.4607429 -0.45948452 0.43038395 -0.6603595 -0.037590347
-0.017101176 -0.029789364 0.8671439 0.042662706 0.032616127 -0.0059628487 0.46347898 -0.047586482
0.03430967 0.041481942 -0.05779703 -0.053817652 0.0074685565 -0.056140445 0.015097238 0.916745
-0.059361707 1.11436 0.67344046 0.09356915 0.13821794 -0.055384614 0.00985412 0.03761368
-0.24599972 0.036497958 0.67574644 0.28257182 0.59366953 -0.014448743 1.2369403 -0.05513295
0.6718018 0.029534154 0.22125651 1.7438583 1.608102 1.9572208 0.011029005 0.939111
00000000: 4d43 cb3f bae0 de3f 18f1 dbbc 2dbf 4fbd
00000010: 703e c4bc e29d 12bb eaed f03f 40c0 e33c
00000020: 4662 2040 613e dd3e 3f73 76bd 7fea cbbe
00000030: fdd0 a13e b90b 953f 035c 223c 1a3c b73f
00000040: c0e9 d33b 20ce 743b 7fc0 ea3f 08cf fb3f
00000050: a839 7f3f c773 083f 853d 343f 5739 2d3d
00000060: 5cce 4f3d cf27 7f3f e0e3 a93c 8e2b a73f
00000070: 9883 353f 36ff ca3f b5d2 823d 9fae 5640
00000080: ca1d 00bf 42e7 c43f 5e59 333f 50f8 89bb
00000090: 464e 153f 3cc6 033f b13e 4c3c 50e6 07be
000000a0: a257 7bbd 41db 733f 8d19 04be 0b0a 23bd
000000b0: 10b1 febc bb13 153f 8e6f e73f f178 ba3f
000000c0: 6c43 163d 403d eebe d3f3 4b3f 82d9 d63f
000000d0: 85cc d6bc 9fe0 a73f c9c2 b63e 245b 073d
000000e0: 1681 db3f 44d4 423e facc 0d3f 72ff 56bc
000000f0: 34c1 cebc 0c72 e63c 330d a03e a1ba c9bc
00000100: 0877 2d3c 8444 aebc ad6d a13c 7473 dc3c
00000110: dd77 3ebd 1f5b e63f dede 543d f761 c83f
00000120: 4503 e7be 0657 a63f ea07 ad3f 792d 5340
00000130: e0d1 793e b07d 40bd 0870 e43f 801e d63a
00000140: 71ae 6c3d 466a 0b3f 0adb 883f 2bb0 3fbf
00000150: dc9b 6bbd c447 1a3f daff a53e 4c7f 31bd
00000160: 77cc 78bd b46c 073d 5a31 38bd 665b 81bc
00000170: 85fb 0d3e 17ed 9b3f bbb5 cb3e 708f f23f
00000180: b009 a6bb ee19 0d3d 9b81 33be 3da5 1c3c
00000190: 49df 013d 9f14 2a3c 531c 003d 290f a13f
000001a0: 90ac bf3f 8648 933f 44d5 bf3f 83c9 493b
000001b0: ef9f 7fbd 07c0 a23f e219 bc3e 6b76 463f
000001c0: b83d 423c 957d b4bc add7 da3d 0625 1440
000001d0: bb26 debc ce03 833e 489d dabb 5e8f ec3e
000001e0: 6bed 053f 702d 1cbe 9505 013f 6f97 fa3c
000001f0: 7343 0340 3d27 433f 15cc 9dbe 2c57 a03d
00000200: 92e1 5fbb 6447 273d e3da 203d b014 bdbb
00000210: 7b25 08bf cea0 013d 280a fb3c 6de1 8cbe
00000220: bef9 dfbc 72a2 a3bc 2381 d83f e959 d03f
00000230: 41c3 f7be f205 2e3f 645d 6dbc 67bc 443f
00000240: 108a d83e a859 f3be 489e ba3c d087 343d
00000250: 466d e93e d97f df3e fcb5 0c3d 3fc6 f93c
00000260: 368b 8f3f 7013 50bd 9726 9f3f 2df2 473d
00000270: 547f f13f aa99 213d 23ea 973e fcc5 963f
00000280: c5e7 2bbd e032 8d3f dd21 d33e aed0 6b3d
00000290: d988 c2bc 801c 34be 98ec 55bc fdc7 a23f
000002a0: cef0 e83e 46d8 8abc 28f6 ffbc 33d7 bebb
000002b0: 2f11 f73e e164 04bd d711 1140 d033 dc3c
000002c0: 9852 293d 9263 2dbf 4cee ac3e 597a dabe
000002d0: 2637 073f 10ee 01bd c92f 0b40 8079 eb3a
000002e0: fa1f 25bd a430 ab3f 21c0 77bd 07b2 e73f
000002f0: 1c9b 8c3f 4afb 443f 56dc 2f3d 476b 143f
00000300: 3014 633d 60a0 1140 f71d 1c40 dae2 1d3b
00000310: 9372 0a3d 43f8 913f 741d 28bd 8c07 a03d
00000320: 5094 04bf 7b5e 163f 2bf0 7bbc 4f82 7f3d
00000330: 0974 e9bc 7530 803e 1264 b93e bd0f 193f
00000340: 18aa 293f f3f1 f43e 6e58 26bd 7ee6 eb3e
00000350: 8e41 ebbe 495b dc3e 520d 29bf 56f8 19bd
00000360: c417 8cbc d308 f4bc 25fd 5d3f 17bf 2e3d
00000370: 7d98 053d 0064 c3bb 1e4d ed3e 0bea 42bd
00000380: 4c88 0c3d f8e8 293d 94bc 6cbd e66f 5cbd
00000390: cbba f43b 86f3 65bd 685a 773c cdaf 6a3f
000003a0: 4325 73bd 59a3 8e3f 9866 2c3f 2fa1 bf3d
000003b0: 0189 0d3e fada 62bd 2d73 213c cd10 1a3d
000003c0: 5ae7 7bbe e27e 153d b8fd 2c3f 41ad 903e
000003d0: bafa 173f 6cba 6cbc 0f54 9e3f 17d3 61bd
000003e0: 34fb 2b3f 9cf1 f13c 1191 623e c036 df3f
000003f0: 49d6 cd3f 3686 fa3f 00b3 343c 9469 703f

fc3.weight f4 [81, 256]
0.056044105 0.09530246 0.030888787 0.058512032 -0.061308205 0.033530593 -0.0012263291 0.027412869
0.02269872 0.031113908 0.05987237 -0.19863391 -0.040893126 -0.027351333 0.010988933 -0.04820469
0.043881238 -0.050704263 0.053027447 0.06848397 -0.01589776 -0.031726398 -0.030279022 0.14396212
-0.06365835 0.20403583 0.00626269 0.019556768 0.064054124 0.0036933331 -0.0887237 0.0664841
-0.30446628 -0.03995197 -0.0073294565 0.00094008446 -0.017095825 -0.060589425 -0.1249146 -0.118671924
0.016517699 0.22684112 -0.20130783 0.034850284 0.04793655 -0.0567345 0.03443703 0.036307253
-0.021327376 -0.19647576 0.107588 0.016359458 0.007953353 -0.060860023 0.006183356 -0.038416
0.06720339 -0.10394964 -0.07407037 -0.05952315 0.05876819 0.03716237 0.0141343195 -0.1408716
0.04493645 -0.021943279 -0.046404228 -0.045913145 0.050212394 -0.057899084 0.050567713 0.01376138
-0.28054672 -0.060903106 0.033242323 -0.043244243 -0.05388817 0.04022309 0.022449378 -0.043540746
-0.016038429 -0.15149374 -0.019111443 -0.08556742 -0.027743507 -0.0030236447 -0.06965934 0.024798237
0.0043743774 0.019426726 -0.02945181 -0.123166606 -0.042157065 0.033862837 0.0658109 0.014994606
-0.062166497 -0.016453251 -0.11919317 -0.06474443 0.029766476 -0.017836526 -0.041761085 0.039621208
0.0071173925 -0.034116697 -0.08101341 -0.049765058 0.014154807 0.132716 0.023108013 0.013317309
0.048209004 -0.02423271 -0.104531765 0.06402042 -0.013796176 0.019525139 -0.0118105635 -0.07927939
0.051504545 -0.027643697 -0.14670317 -0.058485217 0.00022525905 -0.007181954 0.012850468 0.023986239
-0.009654678 0.050660044 -0.034888983 -0.053847767 -0.30373925 0.02374167 -0.04500831 -0.03934979
-0.017343521 -0.007953927 -0.045830417 0.009274047 -0.20018451 -0.05680393 -0.007639818 -0.08665357
-0.123664215 -0.17676716 -0.031224824 -0.043307297 -0.038806878 0.13680479 0.044231296 -0.003686741
-0.0607546 0.0356984 0.009731625 -0.037772786 -0.025143042 0.04216908 -0.113797195 0.0423769
-0.1673084 0.11269525 -0.03891586 0.053688988 -0.010500429 -0.13075429 -0.033623703 -0.05341357
-0.10252379 0.012897022 -0.040719748 0.058832288 -0.08368398 -0.019660972 0.022228628 0.03384372
-0.05410799 -0.17448176 0.050521716 -0.2329319 -0.0079920385 -0.033043906 -0.04577739 0.021032326
-0.024563804 0.026993161 -0.22178604 -0.033945374 0.016623106 -0.01721752 -0.03598177 -0.22053495
-0.023513272 0.09392252 0.046828322 0.013477467 -0.014356442 0.037716463 0.055241987 -0.14653555
-0.38695925 0.44218385 0.0044930815 -0.079412684 -0.015299047 -0.03931096 -0.07171867 -0.0553646
0.0024840678 -0.051771577 0.0315732 -0.063167654 -0.37306526 -0.030325852 -0.24933289 0.036593705
-0.010635704 0.04557168 -0.034619723 0.044414293 -0.0032808292 0.023063347 -0.0237162 0.031719226
-0.0015719682 -0.02383101 0.01611349 -0.018509075 0.022730451 -0.0634827 -0.043312654 -0.10825091
-0.0361272 -0.031602863 0.027686266 0.03234109 -0.05392178 0.05317663 0.05973199 -0.039919935
-0.19526845 0.026399843 -0.01866409 -0.121982 -0.03694215 -0.029302772 0.050634935 -0.056308165
0.07805266 0.03609056 -0.06417448 -0.035319585 0.060518973 -0.065122545 -0.007432297 0.024608245
00000000: 818e 653d f02d c33d 7b0a fd3c 50aa 6f3d
00000010: 501e 7bbd 6057 093d c7bc a0ba f490 e03c
00000020: abf2 b93c 98e2 fe3c bb3c 753d b066 4bbe
00000030: 8d7f 27bd e70f e0bc ed0a 343c 4872 45bd
00000040: d0bc 333d 46af 4fbd 4f33 593d 5341 8c3d
00000050: 053c 82bc 8af3 01bd b60b f8bc ce6a 133e
00000060: 4f5f 82bd c5ee 503e 4037 cd3b 8435 a03c
00000070: cf2e 833d d90b 723b c5b4 b5bd d128 883d
00000080: 01e3 9bbe ada4 23bd f02b f0bb 0070 763a
00000090: 8b0c 8cbc 9e2c 78bd 3ad3 ffbd 440a f3bd
000000a0: 2050 873c 0a49 683e a423 4ebe 2cbf 0e3d
000000b0: 1e59 443d 6f62 68bd d80d 0d3d eab6 143d
000000c0: c0b6 aebc f130 49be 1957 dc3d 4504 863c
000000d0: c84e 023c 5c48 79bd c09d ca3b 185a 1dbd
000000e0: eea1 893d 8de3 d4bd 35b2 97bd 8cce 73bd
000000f0: eab6 703d 9237 183d a293 673c a540 10be
00000100: 480f 383d 64c2 b3bc 5c12 3ebd 6c0f 3cbd
00000110: 83ab 4d3d 9727 6dbd 1720 4f3d 6977 613c
00000120: d2a3 8fbe 8975 79bd 1a29 083d e020 31bd
00000130: d7b9 5cbd f8c0 243d c2e7 b73c c857 32bd
00000140: 0663 83bc 2d21 1bbe 9a8f 9cbc f93d afbd
00000150: 5a46 e3bc 5728 46bb 8ea9 8ebd ac25 cb3c
00000160: f056 8f3b cc24 9f3c ec44 f1bc c63e fcbd
00000170: e3ac 2cbd c2b3 0a3d ddc7 863d f0ab 753c
00000180: 4ca2 7ebd f8c8 86bc 8c1b f4bd ba98 84bd
00000190: d3d8 f33c e81d 92bc ac0d 2bbd d949 223d
000001a0: 0439 e93b f3bd 0bbd 5cea a5bd 72d6 4bbd
000001b0: 90e9 673c b4e6 073e 044d bd3c d830 5a3c
000001c0: ce76 453d ad83 c6bc c014 d6bd 231d 833d
000001d0: 5b09 62bc 2ff3 9f3c 1881 41bc 3c5d a2bd
000001e0: 6ef6 523d 0975 e2bc 5b39 16be 328e 6fbd
000001f0: 8433 6c39 9956 ebbb c58a 523c ca7e c43c
00000200: a82e 1ebc e880 4f3d c0e7 0ebd 7a8f 5cbd
00000210: b683 9bbe e47d c23c a25a 38bd 3f2d 21bd
00000220: 0014 8ebc 3051 02bc adb8 3bbd 2cf2 173c
00000230: 2bfd 4cbe 3dab 68bd 7057 fabb 6d77 b1bd
00000240: aa43 fdbd 7302 35be 34cb ffbc fe62 31bd
00000250: f6f3 1ebd 8e16 0c3e e02b 353d 409d 71bb
00000260: d1d9 78bd 7c38 123d 6571 1f3c a3b7 1abd
00000270: c8f8 cdbc 7cb9 2c3d 810e e9bd 6693 2d3d
00000280: e552 2bbe c4cc e63d 3d66 1fbd fce8 5b3d
00000290: fe09 2cbc 74e4 05be 02b9 09bd 30c8 5abd
000002a0: fef7 d1bd 084e 533c c0c9 26bd 20fa 703d
000002b0: 8262 abbd 0c10 a1bc d018 b63c b69f 0a3d
000002c0: 57a0 5dbd 59ab 32be dcef 4e3d b385 6ebe
000002d0: 0af1 02bc 0c59 07bd 1381 3bbd fc4b ac3c
000002e0: 083a c9bc c320 dd3c e11b 63be 4e0a 0bbd
000002f0: 2e2d 883c c20b 8dbc 9f61 13bd ead3 61be
00000300: e89e c0bc 735a c03d 0ecf 3f3d 98d0 5c3c
00000310: 4837 6bbc 947c 1a3d 6c45 623d 6a0d 16be
00000320: 861f c6be ec65 e23e b33a 933b 1ea3 a2bd
00000330: dba8 7abc 8704 21bd 3de1 92bd fec5 62bd
00000340: becb 223b 6f0e 54bd e652 013d 0b5e 81bd
00000350: 6902 bfbe ec6d f8bc 1f51 7fbe 48e3 153d
00000360: 6041 2ebc 5fa9 3a3d 69cd 0dbd c3eb 353d
00000370: 2e03 57bb 58ef bc3c 7a48 c2bc 05ec 013d
00000380: 800a ceba 4039 c3bc 7000 843c 58a0 97bc
00000390: 3635 ba3c 3803 82bd 9c68 31bd a7b2 ddbd
000003a0: 1dfa 13bd 0172 01bd 4fce e23c 1778 043d
000003b0: 16dd 5cbd bdcf 593d 88a9 743d 1683 23bd
000003c0: 74f4 47be 7c44 d83c 6fe5 98bc b3d1 f9bd
000003d0: a750 17bd 5e0c f0bc 9466 4f3d 64a3 66bd
000003e0: 13da 9f3d b2d3 133d e96d 83bd 45ab 10bd
000003f0: bee2 773d f85e 85bd a08a f3bb 3b97 c93c

fc3.bias f4 [81]
0.11152559 0.45514137 0.5629959 0.44534552 -0.19531049 -0.037432354 0.09641313 0.11438709
0.60543543 0.27015 0.060877666 0.011148757 0.48038286 0.7814641 0.40302414 0.166079
0.98271316 0.036769874 0.36188886 0.61238414 0.74017113 0.4761078 0.3889525 0.7627298
0.15756269 0.4095444 0.29125285 -0.31126273 1.3118254 0.049371798 0.29181907 0.9338098
0.2698957 0.61412644 0.48982796 0.4580091 0.21195881 0.49078724 0.1264778 0.21429698
0.5179506 0.64266384 0.09804697 0.1648538 -0.07228693 0.32306322 0.23879904 0.033469252
0.0054131644 0.87158364 0.3175389 0.3465266 0.7107705 0.38874817 0.3536732 -0.07979697
0.546085 1.0154629 0.58707345 0.2891879 0.17667438 -0.27535206 0.013843816 0.7118774
1.3664353 0.06414799 0.46532866 0.14319311 0.13118346 0.47895855 0.15931424 0.28385773
0.099868804 0.83902603 0.08953916 -0.20900677 0.03849454 0.47373566 0.2840972 0.44251943
0.6309638
00000000: 8767 e43d 4a08 e93e 8020 103f 5404 e43e
00000010: 79ff 47be ab52 19bd 3f74 c53d c743 ea3d
00000020: d1fd 1a3f 1a51 8a3e dc5a 793d 47a9 363c
00000030: bef4 f53e 080e 483f 2e59 ce3e 9d10 2a3e
00000040: 1793 7b3f 029c 163d 7f49 b93e 35c5 1c3f
00000050: db7b 3d3f 67c4 f33e c824 c73e 4342 433f
00000060: 1d58 213e ceaf d13e 181f 953e d45d 9fbe
00000070: e5e9 a73f 153a 4a3d 4f69 953e 290e 6f3f
00000080: c52f 8a3e 6437 1d3f bbca fa3e 2b80 ea3e
00000090: bb0b 593e 7748 fb3e 6583 013e ab70 5b3e
000000a0: 6998 043f 9e85 243f dacc c83d 6fcf 283e
000000b0: 2c0b 94bd 8b68 a53e bc87 743e 0e17 093d
000000c0: ea60 b13b 1b20 5f3f 7594 a23e ef6b b13e
000000d0: 0ef5 353f 000a c73e a714 b53e 986c a3bd
000000e0: 3acc 0b3f b0fa 813f 724a 163f 7010 943e
000000f0: 21ea 343e f2fa 8cbe 2cd1 623c 993d 363f
00000100: 5ae7 ae3f 0560 833d 8f3f ee3e 37a1 123e
00000110: f554 063e 0e3a f53e 4623 233e cd55 913e
00000120: 0488 cc3d 69ca 563f 4f60 b73d df05 56be
00000130: 73ac 1d3d 7b8d f23e 3075 913e e891 e23e
00000140: d886 213f
