code/outputs/Policy_Gradient/seed9/models/pg_checkpoint.pt (torch, 30227 bytes, 4 tensors)

fc1.weight f4 [81, 5]
0	0xbe37599c	-0.17905277
1	0x3eb62b7f	0.3558006
2	0xbe93359a	-0.28751832
3	0xbeb9bd90	-0.36277437
4	0xbeda25f0	-0.4260707
5	0x3d44cd12	0.048047133
6	0x3e8d688b	0.27618822
7	0x3e0ea5d3	0.13930444
8	0xbee0c813	-0.43902645
9	0xbec86e93	-0.3914686
10	0x3e5021cc	0.20325392
11	0xbed00178	-0.4062612
12	0xbee1ea97	-0.4412429
13	0xbdf7dc17	-0.12102526
14	0x3e32208a	0.17395225
15	0xbed3c510	-0.41361284
16	0xbd2eac71	-0.04264492
17	0xbe6d5bf5	-0.2317961
18	0xbe99b5a9	-0.30021408
19	0x3d82f4ed	0.06394372
20	0x3e300985	0.17191131
21	0xbedc1dd6	-0.42991513
22	0xbe033c64	-0.12816006
23	0x3e098e41	0.13433172
24	0xbdefe484	-0.11713508
25	0x3c33f903	0.010984662
26	0x3da86e86	0.08224206
27	0x3e06d35d	0.13166566
28	0xbea31f88	-0.31859994
29	0x3e1fdb46	0.1561099
30	0xbe1a7346	-0.15083036
31	0xbdd8afb4	-0.10580388
32	0x3e995901	0.29950717
33	0xbeb56d72	-0.35435063
34	0xbda2580c	-0.0792695
35	0x3e61b5c2	0.22041991
36	0xbec48613	-0.3838354
37	0xbe8a918e	-0.27064174
38	0x3ea0a5e3	0.31376562
39	0x3e9538e3	0.29144964
40	0x3edadac4	0.4274503
41	0x3e8a7e39	0.27049425
42	0x3eb60457	0.35550186
43	0x3e8905dd	0.26762286
44	0xbea26d85	-0.31724182
45	0xbdb76cdc	-0.0895631
46	0x3ea2ee74	0.3182255
47	0x3e9a0712	0.3008352
48	0x3c7fc044	0.015609805
49	0x3e82aa4f	0.2552056
50	0x3ec9f226	0.39442557
51	0x3e44df22	0.19225743
52	0x3ec400f8	0.3828199
53	0x3d5a36e2	0.053274997
54	0xbe786e3a	-0.24260798
55	0x3e98fa78	0.29878592
56	0xbe8f9c5a	-0.28048974
57	0xbe4d9654	-0.20076877
58	0xbe9e51d5	-0.30921808
59	0x3e1b83c7	0.15186988
60	0x3de1a52f	0.110178344
61	0xbebe6425	-0.3718578
62	0xbd75ae46	-0.059980653
63	0xbd85d7d4	-0.065353066
64	0xbe3f4d67	-0.1868187
65	0x3e01f2a0	0.1269021
66	0xbe4a1e11	-0.19738032
67	0x3e223df5	0.15843947
68	0x3ddf3eaf	0.10900628
69	0xbe96fe8f	-0.29491088
70	0x3e854d62	0.260356
71	0x3e7b0096	0.24511942
72	0xbebd590d	-0.36982003
73	0xbea1de68	-0.31614995
74	0xbea912b0	-0.3302207
75	0x3e897303	0.2684556
76	0x3e90a02a	0.28247195
77	0xbdbc5832	-0.091965094
78	0x3cf9c00e	0.030487087
79	0xbee707cf	-0.45123145
80	0xbe7a091b	-0.24417536
81	0x3ed938f7	0.42426273
82	0xbe340e8c	-0.17583674
83	0xbe385954	-0.18002826
84	0x3ee4593e	0.44599336
85	0x3e45c67d	0.19313999
86	0xbe8b7d8b	-0.2724422
87	0x3dca0b86	0.09865479
88	0xbe8833f9	-0.26602152
89	0xbe2a7632	-0.1664665
90	0x3e345c17	0.17613254
91	0xbd817a7d	-0.06322191
92	0xbe5a0db5	-0.21294291
93	0xbee37db9	-0.44431856
94	0x3e126161	0.1429496
95	0xbebd2497	-0.36941978
96	0x3e876e31	0.26451257
97	0x3d62460e	0.05524259
98	0xbc8a711f	-0.016899643
99	0x3bf254f1	0.0073953797
100	0x3e5074ba	0.20357028
101	0x3e9583bd	0.2920207
102	0x3ec54df7	0.38536045
103	0xbe974a0d	-0.29548684
104	0xbe8228a2	-0.25421625
105	0xbd5b99b4	-0.05361338
106	0x3e9b8169	0.3037217
107	0x3e8878b0	0.26654577
108	0x3ea95c68	0.33078313
109	0x3e40a432	0.18812636
110	0x3e7f145a	0.24910107
111	0x3eab97ae	0.3351416
112	0x3dddc843	0.108292125
113	0x3e247ca1	0.16063167
114	0xbe2802f2	-0.16407374
115	0x3e1dfcc4	0.15428454
116	0xbe6731fb	-0.2257766
117	0x3e87b450	0.26504755
118	0xbeb0ef0f	-0.34557387
119	0x3d8eabd8	0.0696637
120	0xbe3cd233	-0.1843956
121	0x3e71a65a	0.23598614
122	0xbea2414d	-0.31690446
123	0x3e09b90a	0.13449493
124	0x3e95505a	0.29162866
125	0x3d4e3ae8	0.050349146
126	0xbe575e8f	-0.21032165
127	0xbed1e960	-0.40998363
128	0xbcc8b3b3	-0.02449975
129	0xbddeb6fa	-0.10874744
130	0xbea41cb6	-0.32053155
131	0xbed1b236	-0.40956277
132	0xbc5a9f70	-0.013343677
133	0xbedbd607	-0.42936727
134	0xbdc28489	-0.09497935
135	0xbe116c8e	-0.14201567
136	0x3eb907bd	0.36138716
137	0xbeb986cd	-0.36235657
138	0x3d1d6c1a	0.03843317
139	0xbeb7fe6a	-0.3593629
140	0xbd224411	-0.039615694
141	0x3ec76898	0.38946986
142	0x3ea117b4	0.31463397
143	0x3d111881	0.03542376
144	0xbea0e8d0	-0.31427622
145	0x3eabaca2	0.33530146
146	0xbe398253	-0.18116121
147	0x3e29432c	0.1652953
148	0xbebcbd6d	-0.3686327
149	0xbbbbbed6	-0.0057295365
150	0xbeaaee71	-0.3338504
151	0x3edf352d	0.43595257
152	0x3dba2e04	0.09090808
153	0x3dd6bf35	0.104856886
154	0x3e352a8f	0.17692016
155	0xbe911edc	-0.28343856
156	0xbe5c0072	-0.21484545
157	0xbea71db4	-0.3263985
158	0xbe3c2426	-0.18373165
159	0x3ed82a8c	0.4221996
160	0xbe430ad7	-0.19047104
161	0x3e30d911	0.17270304
162	0xbeaac36e	-0.33352226
163	0x3e8a46da	0.2700718
164	0x3d1f003b	0.03881858
165	0x3e8e81e4	0.27833474
166	0xbc3c96a8	-0.011510529
167	0xbecbe3de	-0.39822286
168	0xbbcd0012	-0.006256112
169	0x3dc75a44	0.09734014
170	0xbea02b17	-0.31282875
171	0x3e823c86	0.254368
172	0x3b83eb66	0.0040258644
173	0x3e45520b	0.19269578
174	0x3e5d3e15	0.21605714
175	0x3ed261a3	0.41090116
176	0x3e12cf59	0.1433691
177	0x3e30d77a	0.17269698
178	0xbe3a55c0	-0.18196774
179	0xbeda574b	-0.42644724
180	0xbe952f01	-0.29137424
181	0x3ec42105	0.38306442
182	0x3c0f013e	0.0087283235
183	0x3e10396d	0.14084406
184	0xbe59ddc6	-0.21276006
185	0xbe691f27	-0.2276579
186	0xbe9ddcb9	-0.3083246
187	0x3e112d4f	0.1417744
188	0x3d3730b1	0.04472417
189	0x3eeb6d67	0.45981905
190	0xbedf9adf	-0.43672845
191	0xbe827f97	-0.25487968
192	0xbe4d5b25	-0.200543
193	0xbed1f390	-0.41006136
194	0x3e909d6d	0.28245106
195	0xbe563493	-0.20918493
196	0xbe6d1e24	-0.23156029
197	0x3ecd6aaf	0.40120456
198	0x3ebefee0	0.3730383
199	0x3d9c3d93	0.07628932
200	0x3e526608	0.20546734
201	0xbc2c7ab3	-0.010527301
202	0x3e9fa92f	0.31183764
203	0x3ed28cdc	0.41123092
204	0x3ccbbfcf	0.024871735
205	0xbea905f8	-0.33012366
206	0xbea88c91	-0.32919744
207	0x3b7d0750	0.0038609095
208	0xbeb212a9	-0.34779862
209	0x3ed8bbd1	0.42330793
210	0x3e2b252e	0.16713402
211	0xbe17d4a1	-0.14827205
212	0x3e86ae44	0.2630483
213	0x3ec82eac	0.39098108
214	0xbe794620	-0.24343157
215	0x3e9a084a	0.3008445
216	0x3ddee6ff	0.10883903
217	0x3e4001ad	0.1875064
218	0xbe8c2f21	-0.27379707
219	0xbed42444	-0.41433918
220	0x3dbc4991	0.09193719
221	0xbd439337	-0.047747817
222	0x3e39b86b	0.18136756
223	0xbe3e0eb4	-0.18560296
224	0x3ecfd90c	0.4059528
225	0x3ec69817	0.3878791
226	0xbe40fe1f	-0.1884694
227	0xbe2951b8	-0.1653508
228	0x3dbfbd26	0.09362249
229	0x3d692cbb	0.056927424
230	0x3d597ae8	0.05309573
231	0xbdd9af7b	-0.10629173
232	0x3e34ec67	0.17668305
233	0x3e612f62	0.21990731
234	0xbe4e4579	-0.20143689
235	0xbe808bf7	-0.25106785
236	0xbb79b8b0	-0.0038104467
237	0x3e90b4d1	0.28262952
238	0x3b1a2264	0.0023519034
239	0x3ea53293	0.32265148
240	0xbe1c2151	-0.15247084
241	0x3de6c47f	0.112679474
242	0xbe6c503b	-0.2307748
243	0x3ebc3b61	0.36764053
244	0x3e128b81	0.14311029
245	0x3e0ea92b	0.1393172
246	0xbedb2cd1	-0.4280763
247	0x3ee49e0f	0.4465184
248	0xbe373c6e	-0.17894146
249	0xbe589d87	-0.21153842
250	0x3e9347e0	0.28765774
251	0x3e06c722	0.131619
252	0x3e8a61db	0.27027783
253	0x3eb689e1	0.35652068
254	0x3e8ca4fb	0.2746962
255	0xbd5a20a7	-0.053253796

fc1.bias f4 [81]
0	0xbe88a1c7	-0.26685926
1	0xbe16feaa	-0.14745584
2	0x3eda119c	0.4259156
3	0x3e1ce002	0.15319827
4	0xbe10c958	-0.14139307
5	0x3e58cb1c	0.2117123
6	0x3e51bcbd	0.20482154
7	0xbe44a5e3	-0.19203906
8	0xbdb4660d	-0.08808527
9	0x3de95af9	0.11394305
10	0xbe15eebb	-0.1464185
11	0xbeb4b256	-0.3529231
12	0x3ecffb7b	0.40621552
13	0xbdb71dda	-0.089412406
14	0x3df2b40c	0.118507475
15	0x3e5bf1c7	0.2147895
16	0xbe816550	-0.25272608
17	0x3eeaaf64	0.45836937
18	0x3e9eb127	0.30994532
19	0x3e283071	0.16424729
20	0xbd2fb17c	-0.04289387
21	0xbd0b6fe1	-0.034042243
22	0xbe4eecd4	-0.2020753
23	0x3e62040e	0.22071859
24	0x3df47e1c	0.11938116
25	0x3e9374e3	0.28800115
26	0xbea5c23b	-0.3237475
27	0xbe9c7f9c	-0.30566108
28	0x3d8ae5c8	0.067821085
29	0xbe57101f	-0.21002243
30	0xbd2a37a8	-0.041556984
31	0xbd4debdd	-0.050273765
32	0x3e9b7f87	0.30370733
33	0x3e5b4927	0.21414624
34	0x3e5c6937	0.21524511
35	0xbdb595e7	-0.08866482
36	0x3e09818f	0.13428329
37	0x3ea0f4af	0.3143668
38	0xbcd1ddba	-0.025618423
39	0x3ca9a760	0.020709693
40	0x3e9a798d	0.3017086
41	0x3e6fe6be	0.23427865
42	0x3ecf07e3	0.40435705
43	0xbe9ae26f	-0.3025088
44	0x3e913e9e	0.28368086
45	0xbeb9231e	-0.36159605
46	0xbec504bc	-0.38480175
47	0x3e331876	0.174898
48	0xbd02473e	-0.031806223
49	0x3e1e2ad1	0.1544602
50	0x3dc6e66d	0.09711919
51	0xbe81dbaf	-0.25362918
52	0xbd40c540	-0.047063112
53	0xbec107f1	-0.3770137
54	0xbe415aaf	-0.1888225
55	0x3e846961	0.25861648
56	0xbc7270f3	-0.014797437
57	0xbe58d8df	-0.2117648
58	0x3edc9bf1	0.43087724
59	0xbdd4cd74	-0.103907496
60	0xbe1fb431	-0.15596081
61	0xbeb32645	-0.34990135
62	0xbdd7a37a	-0.105292276
63	0x3d808dba	0.06277032
64	0xbee09680	-0.43864822
65	0xbe69302e	-0.22772285
66	0xbe8ce75f	-0.27520272
67	0x3e56eb12	0.2098811
68	0xbed85b63	-0.42257223
69	0xbe3536a7	-0.1769663
70	0xbbef01ea	-0.0072939293
71	0x3d7d8d4f	0.06190234
72	0x3df0b533	0.11753311
73	0x3ed68ce8	0.41904378
74	0x3e92963b	0.28630242
75	0x3e41f59a	0.18941346
76	0x3eb47baa	0.35250598
77	0x3ea97a19	0.33100966
78	0x3e8d0cbe	0.27548784
79	0x3eeccef2	0.46251637
80	0x3e9d2aa5	0.30696598

fc2.weight f4 [81, 81]
0	0x3d796207	0.0608845
1	0xbde4f450	-0.111794114
2	0x3c984a98	0.018590257
3	0x3c7d4142	0.015457453
4	0x3d9e8d14	0.07741752
5	0x3c902989	0.01759793
6	0xbca54186	-0.020172846
7	0xbd75e15c	-0.060029373
8	0x3d529f39	0.051421378
9	0x3b87aaeb	0.004140248
10	0xbde69dac	-0.11260542
11	0x3d9fbdc2	0.07799865
12	0xbd27a122	-0.040925153
13	0x3d9eb0cb	0.07748564
14	0x3d22e0ea	0.039765276
15	0x3bc715ec	0.0060756113
16	0x3d7d0992	0.061776705
17	0x3e05a547	0.1305133
18	0xbdc371dc	-0.09543201
19	0x3ba0a4fe	0.004902481
20	0x3d98b894	0.074570805
21	0x3d8f8b93	0.070090435
22	0xbdba57d7	-0.09098785
23	0x3e03d3ac	0.12873715
24	0xbd2a5c73	-0.041592073
25	0x3c8b73f1	0.017023059
26	0x3dd2ef74	0.10299578
27	0x3d20b364	0.03923358
28	0x3db350c4	0.08755639
29	0x3d523372	0.051318593
30	0x3dac4c2f	0.08412968
31	0xbd16fa4c	-0.036859795
32	0x3c7df45c	0.015500154
33	0x3dc5a239	0.09650082
34	0xbc7d22bc	-0.015450176
35	0xbd796fa5	-0.06089749
36	0xbcb15fcf	-0.02165213
37	0x3dec25b2	0.11530627
38	0xbd3858aa	-0.04500643
39	0xbd97f16a	-0.07419093
40	0xbddbcf01	-0.10732842
41	0x3dd426b5	0.10358945
42	0x3dd0a7ab	0.1018823
43	0xbbe29be6	-0.006915557
44	0xbd350c45	-0.044201154
45	0xbdbe89e1	-0.09303642
46	0x3ba41939	0.0050078896
47	0x3ddb04a9	0.10694248
48	0x3d986482	0.07441045
49	0x3d54d94c	0.051965043
50	0x3bc11d05	0.005893352
51	0x3dbc380a	0.09190376
52	0xbdec14fc	-0.1152744
53	0xbca9b1df	-0.020714698
54	0xbd46c9ae	-0.04853218
55	0xbdd8160f	-0.10551082
56	0xbd1fc9e9	-0.039010916
57	0xbdc72ca1	-0.09725309
58	0x3c8d8036	0.01727305
59	0x3cd7148d	0.026254917
60	0x3d36b113	0.044602465
61	0x3d66624e	0.056246094
62	0xbde1f4fd	-0.11033056
63	0xbdbbac66	-0.09163742
64	0x3ce21b2a	0.027600843
65	0x3c49901d	0.012302426
66	0x3c0e13cf	0.008671715
67	0xbd327de8	-0.043577105
68	0x3c5d8312	0.013520019
69	0xbc645283	-0.013935688
70	0x3d069b5d	0.03286301
71	0xbdfb5256	-0.12271564
72	0xbd39e49a	-0.045384027
73	0xbd153c7a	-0.036434628
74	0xbce070d3	-0.027397549
75	0xbd4bf845	-0.049797315
76	0xbd8d8110	-0.06909382
77	0x3e0e993d	0.13925643
78	0xbd36e57a	-0.04465244
79	0xbd0e7435	-0.034778792
80	0xbd7aaeba	-0.06120179
81	0xbe1e7327	-0.15473615
82	0x3d5da714	0.054114416
83	0x3d906bbd	0.070517994
84	0x3b82857a	0.003983197
85	0x3d2e3fa0	0.042541146
86	0xbd14e645	-0.036352415
87	0x3d8ac14d	0.067751504
88	0x3de76e79	0.11300368
89	0xbac9b813	-0.0015389941
90	0xbd2cad2b	-0.042157333
91	0x3cdf6604	0.027270325
92	0x3db5e127	0.08880835
93	0x3d8917cb	0.06693991
94	0x3b4ae672	0.003096011
95	0x3dbb9a9c	0.09160349
96	0xbd91f678	-0.07127088
97	0xbdc41a60	-0.09575343
98	0xbb19482f	-0.0023388972
99	0xbd65871f	-0.056037065
100	0xbd0798aa	-0.033104576
101	0xbd989ab7	-0.074513845
102	0x38cd1948	9.779871e-05
103	0x3d4cd2e7	0.05000582
104	0xbda3f47d	-0.08005617
105	0x3dd67281	0.10471059
106	0x3d04c33c	0.032412753
107	0x3dbe19b7	0.092822485
108	0xbe254102	-0.1613808
109	0xbd946f8f	-0.072478406
110	0xbe013c7a	-0.12620726
111	0xbdeb8517	-0.11499994
112	0x3d636022	0.0555116
113	0x3d265f75	0.04061838
114	0xbcb51364	-0.022103973
115	0xbcf5454f	-0.029940275
116	0xbdf7a675	-0.12092296
117	0x3d855092	0.06509508
118	0xbd86157d	-0.06547067
119	0x3d81dfc6	0.063415095
120	0x3d0afb87	0.03393128
121	0xbd66496f	-0.056222375
122	0xbd155c46	-0.036464952
123	0x3d58c5f4	0.052923158
124	0x3d49ba98	0.049250215
125	0xbd99518b	-0.07486256
126	0xbe396389	-0.18104376
127	0x3cd507dd	0.026004726
128	0x3dd6bbae	0.10485016
129	0x3d67b508	0.05656913
130	0x3cce2dbd	0.025168294
131	0xbd42cf3a	-0.047560908
132	0xbdda8c71	-0.10671318
133	0xbc1b9593	-0.0094961105
134	0xbdce2431	-0.10065497
135	0x3ca44440	0.020052075
136	0x3c8c6f42	0.017142896
137	0xbda8ccae	-0.082421646
138	0xbc05cef9	-0.008167022
139	0xbc1d75fa	-0.009610647
140	0xba84f762	-0.0010144527
141	0x3d0559c4	0.03255631
142	0x3da3c5d9	0.07996721
143	0x3d7e1e2d	0.062040497
144	0x3d337bfb	0.04381941
145	0xbda3c62d	-0.079967834
146	0x3db03e9f	0.08605694
147	0x3b8fb193	0.004385182
148	0xbd20889c	-0.03919278
149	0xbd99e7e5	-0.075149335
150	0xbdac0e73	-0.084011935
151	0xbd2e808b	-0.042603057
152	0xbc568546	-0.013093298
153	0xbd0d9f67	-0.034575846
154	0x3d106789	0.03525499
155	0xbd1ba5d9	-0.03799996
156	0x3ccb1ed5	0.024794975
157	0x3d2f31e1	0.042772178
158	0x3cc9bd9e	0.02462655
159	0x3da01adb	0.07817622
160	0x3cca9136	0.024727445
161	0x3d585786	0.052817844
162	0x3b41342f	0.0029480567
163	0xbd96bfc0	-0.07360792
164	0x3db45af0	0.088064075
165	0x3d483bad	0.048885036
166	0xbddf33c7	-0.108985476
167	0xbc95f3b9	-0.018304693
168	0x3c74070c	0.014894258
169	0xbd03f345	-0.03221442
170	0x3dd19289	0.102330275
171	0xbdce9b22	-0.10088183
172	0x3db2af9b	0.087249
173	0xbd951210	-0.07278836
174	0x3db1c33f	0.08679818
175	0x3cf349e4	0.02969832
176	0x3da88a60	0.08229518
177	0xbcd3b65e	-0.025843795
178	0x3d87148d	0.065957166
179	0xbda069a0	-0.07832646
180	0xbde1159e	-0.10990451
181	0xbe149fe6	-0.14514121
182	0x3c0588f1	0.008150325
183	0xbd131c5b	-0.035915714
184	0x3d4be4e7	0.049778845
185	0xbdf8751a	-0.1213171
186	0xbd7591c7	-0.059953477
187	0x3db1e2c3	0.086858295
188	0xbd33cc60	-0.04389608
189	0xbd1478a1	-0.036247853
190	0x3d247ba4	0.040156975
191	0xbd270fa6	-0.040786408
192	0xbd339b8b	-0.04384951
193	0xbd8f7e0f	-0.07006466
194	0xbd9374bd	-0.072000004
195	0x3d477bb8	0.04870197
196	0x3d5e034c	0.054202363
197	0xbdafa0e8	-0.08575612
198	0x3d3101a2	0.043214448
199	0x3d5e0abc	0.054209456
200	0xbd95dc04	-0.07317355
201	0x3de109ff	0.10988235
202	0xbc0f4e90	-0.008746758
203	0xbdd3e663	-0.10346677
204	0xbd8bb310	-0.06821263
205	0xbd0d479f	-0.03449213
206	0xbcd04491	-0.02542332
207	0x3ddc7779	0.10764975
208	0xbdb5d9c4	-0.08879426
209	0xbdcfbdef	-0.10143649
210	0x3b982bda	0.0046438994
211	0xbdac04d9	-0.08399362
212	0xbcdf3de2	-0.027251188
213	0x3cbd7c1a	0.023130465
214	0x3da66fd6	0.081268
215	0x3dc7acf4	0.09749785
216	0x3dd23498	0.10263938
217	0xbc8f383d	-0.017482871
218	0xbdba5790	-0.090987325
219	0x3d125c43	0.03573252
220	0xbdb493b6	-0.08817236
221	0xbda32de5	-0.07967738
222	0xbba8e1d1	-0.0051538725
223	0xbd845945	-0.06462339
224	0x3dac0f68	0.08401376
225	0x3d46f015	0.048568804
226	0x3dd61ffe	0.10455321
227	0x3d2aa798	0.041663736
228	0xbd030401	-0.03198624
229	0xbdbf2b3f	-0.093344204
230	0xbd89bd15	-0.06725518
231	0xbd5835c2	-0.052785642
232	0xbd801a6e	-0.06255041
233	0x3ca07460	0.019586742
234	0x39ed0a59	0.00045211872
235	0xbcf1ccd3	-0.029516613
236	0xbd4e70af	-0.050400432
237	0xbd8fc31e	-0.070196375
238	0xbd9e3b5a	-0.07726164
239	0xbc582e33	-0.0131946085
240	0xbd3ec2d5	-0.046572525
241	0x3cc60582	0.024172548
242	0xbdfaf8e7	-0.122545056
243	0xbda9f6d2	-0.0829903
244	0xbdd1afb2	-0.10238589
245	0xbdcbced7	-0.09951561
246	0x3bdbd8c0	0.006709188
247	0x3dbcbec7	0.092160754
248	0xbe0d2f8b	-0.13787667
249	0x3da841e2	0.08215691
250	0xbd15dc0e	-0.036586814
251	0x3d2d3075	0.04228254
252	0xbd8f7a63	-0.07005765
253	0xbe080e73	-0.13286762
254	0xbd9bca2f	-0.07606923
255	0xbd22e242	-0.039766558

fc2.bias f4 [81]
0	0x3c808b0c	0.015691303
1	0x3d865fc0	0.065612316
2	0xbd63587f	-0.05550432
3	0x3d55de48	0.052213937
4	0x3db23521	0.0870154
5	0x3e2a7de9	0.16649593
6	0x3aa6917d	0.0012708154
7	0xbdfde4a5	-0.12397126
8	0x3ce59a61	0.028027715
9	0xbd1ff8f2	-0.039055772
10	0xbdc7d8be	-0.09758137
11	0x3c5acfc8	0.013355203
12	0xbd9d8589	-0.076914854
13	0xbc0cbbe1	-0.008589716
14	0x3d8aeff0	0.06784046
15	0xbd9af2e6	-0.075658605
16	0x3d59441c	0.05304347
17	0x3d282e49	0.041059766
18	0x3b795002	0.0038042073
19	0xbce808e4	-0.028324552
20	0x3c48587e	0.012228129
21	0xbdb6b500	-0.08921242
22	0xbd0f8a61	-0.035044078
23	0xbdd911f0	-0.105991244
24	0xbd936768	-0.071974576
25	0x3cf68918	0.030094668
26	0x3d8e9ec9	0.069638796
27	0xbd3c2341	-0.04593206
28	0xbd838270	-0.06421363
29	0xbde584bd	-0.112069584
30	0x3e00b61b	0.12569468
31	0x3dca587c	0.09880158
32	0x3a13c03b	0.00056362496
33	0xbd67bc8e	-0.056576304
34	0xbe03e089	-0.12878622
35	0xbd7f37a0	-0.062308908
36	0xbbf60fc7	-0.007509205
37	0x3d44159b	0.047872167
38	0x3d6c2903	0.0576563
39	0x3c932194	0.017960347
40	0xbc7f1194	-0.015568156
41	0xbd4f34c1	-0.05058742
42	0x3d90e382	0.07074644
43	0xbc9c1755	-0.019054094
44	0x3d1e205f	0.03860509
45	0x3d679a94	0.0565439
46	0xbddb4c22	-0.107078806
47	0xbd916c36	-0.07100718
48	0xbc948e41	-0.018134238
49	0xbda26189	-0.079287596
50	0xbe00fc14	-0.1259616
51	0x3da14f95	0.07876507
52	0x3db0a089	0.0862437
53	0x3db1a54a	0.086741045
54	0xbd86614a	-0.06561525
55	0x3ca33ae6	0.019925546
56	0x3d86fd67	0.065913014
57	0x3d63b4d6	0.05559238
58	0xbce4cfd4	-0.027931131
59	0xbbb434a9	-0.0054994416
60	0xbd27774b	-0.04088525
61	0x3d3e859d	0.046514142
62	0x3da56595	0.08076016
63	0xbb43a4ee	-0.0029852944
64	0x3e00415e	0.12524936
65	0x3de8fcce	0.11376344
66	0x3cddecda	0.027090479
67	0xbd91e43a	-0.07123609
68	0xbd9ef0bb	-0.077607594
69	0x3db58179	0.088625856
70	0xbd4fe528	-0.05075565
71	0xbd770fa8	-0.060317665
72	0xbd38dfa3	-0.04513515
73	0x3d41f7c2	0.04735542
74	0xbdbb5f02	-0.09148981
75	0xbd7c12b6	-0.06154128
76	0xb9b0f0f4	-0.0003374886
77	0xbba6e3b3	-0.005093062
78	0x3c58f32c	0.01324157
79	0x3dccd99b	0.100024424
80	0xbdb6e0ed	-0.0892962
