code/outputs/price_comparison/individual_station/theta2/models/dqn_checkpoint.pth (torch, 288165 bytes, 6 tensors)

fc1.weight f4 [256, 3]
00000000: 4f87 70bc 0760 0bbe 36cd 5b3e 31bc cd3d
00000010: b6dc b03e ec4c 573f a099 103f 29ad 91be
00000020: 1f16 82bd 7bde 893e 3c3f 5bbe d41e cb3e
00000030: 3844 4cbe 06b0 d1be fd44 453e a0dc 303e
00000040: aaa5 0d3f f3c5 383f c65d 6f3e 045d 98be
00000050: f46f c93f 30a9 063f d0ad 8ebe 7e5c b93e
00000060: a07f 42be 8692 ffbe ffd9 363e 6c28 54be
00000070: c236 fcbe ecf8 f2be 9ede e53d e7bb 1c3f
00000080: 79e1 a43e d5c3 f3be 97b7 5f3e 3946 b63e
00000090: 615c de3c 7563 4fbd e7ea be3d 9679 2a3e
000000a0: b7f8 b53e b0d8 9e3e b14a 083d dd9a 163e
000000b0: d0ff ec3f 4288 ca3d 4cae 063f 1e3d 9f3f
000000c0: 99bc a63e e6d1 9fbe f997 633e dfa6 10bf
000000d0: b2a6 4dbd 701d 883e 3dff c8be 9980 f83e
000000e0: 4756 c43d b192 203e a9d3 f83d 7249 713f
000000f0: 5048 a33c 6bd7 3a3e ee88 db3e 161b 52be
00000100: 8304 e5bd c577 6b3e 3671 4f3e 535f 243f
00000110: 9288 653f eeb3 aabe d7a4 0ebf 5f0b 073d
00000120: eb56 e1be 71ca 103e ed8e 9b3e 3471 f2be
00000130: 5b8c e83e 6a27 853e 7255 d33d 0c99 19be
00000140: 2fde 8c3f 6342 573e e015 e53e a12e 06c0
00000150: aa93 0abf 62b6 ec3e 5fba a33d 758b 9f3a
00000160: c806 7b3e 1ca7 813f 50d9 443d 8d0e 893e
00000170: 5097 ff3f f8c2 fb3e 65c2 eabe d4dc 033f
00000180: 650e 373f 01aa 1dbd 8fbd d73f ac7e 74bf
00000190: 076b 5b3e 409e 603f 2a96 98be d1c3 cf3e
000001a0: bd56 5bbf 71fe 823e 5ed6 f93e 52ea 533f
000001b0: 5b18 c8be ca93 c5be 6233 b43e 1eda fe3d
000001c0: 7fab 1abe 9721 573f 1632 f13e 8685 ea3e
000001d0: 9893 913f fce8 88be 888c 02be e71f c2be
000001e0: 0d90 083e 74c4 e03e abe1 1040 48f7 033f
000001f0: 311b 60bd 011c 233f 08f0 10bf f56e 86be
00000200: f491 81be 2599 363e c894 ecbe f116 cabe
00000210: 9984 92be ae5e 823e c824 ee3f 19c4 d13e
00000220: d8a3 c63d a8d8 bb3f c240 6abe 50c4 0e3f
00000230: 3846 bfbe 7810 803e c9bd 923d 854c ea3f
00000240: 0628 4c3f a22b 553f 11c7 873f dce3 3ebf
00000250: 3b64 8ebe e0ea 6fbe 1b55 83be 542d 96bd
00000260: ca69 533e 9042 a23d b651 063f 7ed7 673f
00000270: eba0 153f a0c6 1ebe 5c9a 063f d88e d8be
00000280: 6871 073e 3918 97be 8c4f d13e dd2a e03e
00000290: 5a97 433f 5182 223f 408a c63c 7be9 043f
000002a0: 2e41 0f3c 1b5e 37be 8353 61be 351e 07be
000002b0: 9875 993e bd06 c13e 3c6e 44bf cb53 8dbe
000002c0: 2b4d 91be 2bf3 9fbe 576e c4bc 4513 f0be
000002d0: d245 b83e cba7 11bf e3d3 edbe facc 95be
000002e0: 4306 ee3e 0bf5 033f 0dee 0abf 72db 063f
000002f0: 1618 283f b555 c73e de23 1e3f 178f 9c3f
00000300: a60c d6be 423c 00bf 6357 d7be 2796 d0be
00000310: 2275 9a3c 9bf4 c6be 5d76 aabe dbf1 1abf
00000320: df76 55be ae7f a5be 986f a23e df84 fb3f
00000330: 6733 18bf 7bcf 803e 7a29 30bf 2fed da3e
00000340: fc4c 4e3e a792 213f 1b16 ee3e b5ce 61be
00000350: 3718 e03e 111f da3d c2e9 02be 5b78 d2be
00000360: 9348 2cbe e8d0 203e f2c0 dd3e 6f28 fcbd
00000370: 80f3 c63c ddd8 76bd 0705 08bf 94e5 0abe
00000380: 20c7 a7be 54a3 f6be 46a9 303f 5e52 e43e
00000390: 9a5a bd3e 16c7 0fbe 3791 6c3f beef df3d
000003a0: b4a7 bfbe a946 afbe 365a 743e 9586 f23d
000003b0: fc07 e13f c4a7 563e 6e1a babe c918 04bf
000003c0: 2ba7 773e 8d9a 133f 7970 103f a9bd 67be
000003d0: d0ec 09be 5b30 36be c5b0 4d3e 6e40 6e3d
000003e0: fc50 453f cbf9 923d 0f7e 91bc b4b2 223e
000003f0: c615 7c3d 3658 0d3f 09ad 4e3f c100 18be
-0.014680698 -0.1361085 0.21465 0.1004566 0.3454339 0.8410175 0.56484413 -0.28452423
-0.063518755 0.26927552 -0.21410841 0.39671957 -0.19947898 -0.40954608 0.19264598 0.17271662
0.5533091 0.72177047 0.23375615 -0.29758465 1.573729 0.5260191 -0.27866983 0.36203378
-0.18993998 -0.49916476 0.17856596 -0.20718545 -0.49260527 -0.47455537 0.112241015 0.61224216
0.32203272 -0.47610345 0.21847378 0.3560045 0.02714366 -0.05063196 0.09322148 0.16647944
0.35541317 0.31024694 0.033274356 0.14707513 1.8515568 0.0988927 0.52609706 1.2440526
0.32565764 -0.31214827 0.22225942 -0.56504625 -0.0502078 0.2658496 -0.3925723 0.48535612
0.095867686 0.15680958 0.12149746 0.94252694 0.019931942 0.18246238 0.42877907 -0.20518145
-0.11182501 0.22994907 0.2025803 0.64207953 0.89661515 -0.333404 -0.55720276 0.03296983
-0.44011626 0.14139725 0.3038248 -0.47351992 0.45419583 0.26006633 0.10319032 -0.14999789
1.1005305 0.21021418 0.44743252 -2.096596 -0.5413157 0.46232897 0.07994532 0.0012172299
0.24514306 1.0129123 0.048058808 0.26768914 1.9968052 0.49172187 -0.45851436 0.5150883
0.7150634 -0.038492206 1.6854724 -0.95505786 0.21427546 0.8774147 -0.29802066 0.40579084
-0.8567923 0.25584748 0.48796362 0.8277942 -0.39081082 -0.38589317 0.35195452 0.12443946
-0.15104483 0.8403563 0.47108525 0.45804995 1.1373167 -0.26740253 -0.12748921 -0.37914965
0.13336201 0.43899882 2.2637737 0.51549196 -0.05471343 0.63714606 -0.5661626 -0.26256528
-0.25306666 0.17831858 -0.4620726 -0.39470628 -0.2861679 0.2546286 1.8604975 0.40969923
0.096992195 1.4675493 -0.22876266 0.557683 -0.3735826 0.25012565 0.07165105 1.8304602
0.7974857 0.83269703 1.0607625 -0.74566436 -0.27810845 -0.23429441 -0.25650868 -0.073328644
0.20645824 0.07922852 0.5246843 0.9056319 0.58448666 -0.15505457 0.52579284 -0.4229648
0.13226855 -0.29510668 0.40881002 0.43782702 0.7640282 0.634801 0.024235845 0.5191876
0.008743567 -0.17906992 -0.22004513 -0.13195117 0.2997253 0.37700453 -0.76730704 -0.2760299
-0.28379187 -0.3124021 -0.023978395 -0.468897 0.3599077 -0.56896657 -0.4645072 -0.29257947
0.46489152 0.5154578 -0.54269487 0.52678597 0.6566175 0.38932577 0.6177348 1.2231168
-0.41806525 -0.50091946 -0.42058858 -0.40739557 0.018854681 -0.38858494 -0.3329343 -0.6052529
-0.20846127 -0.32323974 0.31725764 1.9649924 -0.59453434 0.25158295 -0.6881329 0.42759082
0.20146555 0.631144 0.4650124 -0.22051509 0.43768474 0.10650457 -0.12784484 -0.4110745
-0.1682456 0.15704691 0.43311268 -0.123123996 0.024286032 -0.06026541 -0.5313267 -0.1356414
-0.32769108 -0.48171484 0.6900829 0.4459409 0.36983186 -0.14040789 0.9240908 0.10934399
-0.37432635 -0.34233597 0.23862538 0.11842076 1.7580562 0.20962435 -0.3634829 -0.5160032
0.24184863 0.576577 0.5642162 -0.22630943 -0.13469243 -0.17791884 0.20086963 0.058166914
0.770767 0.071765505 -0.017760305 0.15888482 0.061544202 0.55212724 0.8073278 -0.14844038

fc1.bias f4 [256]
00000000: cc18 b83f 40ca 1b40 0ebf 47bf fb46 aa3f
00000010: af72 0dbf 4529 a13f 3c42 c33f 64df bb3e
00000020: 6424 a9be 6a13 f2be 7a5f 363f e596 c8be
00000030: 3da6 32be d169 ae3f 8307 243f 87c2 a03e
00000040: 3bf0 ddbc 8a76 fbbe b996 2f3f f64f 62bf
00000050: 4bee f53f a371 0abf cb94 903f 30d0 aebd
00000060: 05bc 373f 60de 683f 4948 b73f b027 40bf
00000070: 69c0 4f3f 4dfd cc3f ac7e 0c3f 38b3 9d3f
00000080: fa12 b73e 5ddf 223f 657a 723f 25f3 19be
00000090: 572d 26bf 1f75 af3f 7925 953d c182 663d
000000a0: db6f 323f b073 33bf 87c9 7abe d849 aebd
000000b0: 6ceb 463f 6213 84be ca80 8f3f 9d0c 5b3e
000000c0: 9b26 2c3f eb9f 843e de10 3e3e 1897 9a3e
000000d0: 185f 13bf b4a8 913f 3731 993f 7a27 12bf
000000e0: bee1 913f 024d 163f b96f a03e 9b5b 9ebe
000000f0: f912 e6be 9b24 9d3f 2210 d23f f35d d8be
00000100: 55b6 0ebf 4fc7 c539 69cf 6b3e 3e25 913c
00000110: 8c23 863f fe7c 31bf 75a8 19bf 4992 11bf
00000120: 510a f4be 82af cf3c 9399 05bf f600 633f
00000130: e85a 0e3e a657 fcbd a72f 0f3f 25a4 5f3d
00000140: 0145 813f 3ad2 adbe 602f 59bf 2e40 a3be
00000150: 8c4b 533f 10e8 893f 4364 84bd 22c3 9ebe
00000160: 3751 94be b566 a8be 8151 cd3f 3e93 c63d
00000170: 206b a23f 97ef 463f b3e9 343f 39fe de3f
00000180: 9191 c23d 48df a33f 81f0 cdbc ded5 0b3f
00000190: 48d5 9f3f 7646 1d3e ead8 abbe 8cc4 e13f
000001a0: 79e3 adbd 1cc2 20bf fc1c 853f 71e5 ecbe
000001b0: e6d1 a8bf 7310 24bf 5348 a73f 89bb a6bd
000001c0: 1ab5 3c3f 1906 bebe 63c4 5ebe f538 ff3d
000001d0: ae02 bfbc 55ac 10bf e2b8 1cbe ab0f 8c3f
000001e0: f196 0abf 9950 f0be 3262 24bc 8d51 003f
000001f0: 8abe 893f 7da8 2dbf d2e7 b4bf 2927 1bbf
00000200: 8a9d 3ebd 6261 2f3f cade c93f 73a5 953f
00000210: fbe1 733f 5c9c 093e 940a 7f3f 148f d63f
00000220: 1b90 50be 7fee d73f 77df 903f fed9 bebe
00000230: bc64 903f a2f6 35bf e85c 63bf cc4f dfbe
00000240: 9a08 8bbb e050 953f f2b5 e83f 8198 533f
00000250: 0862 b43d 7725 d8be 7fbe 96be 14f6 e5bc
00000260: f2eb 4c3f 384b 973e 6c5b 00c0 56c7 513f
00000270: 68d9 5fbf b5a3 553f 1f1e 193f 84f0 0940
00000280: 666f a73e b79b 5cbf 0cd2 d03e 1418 04bf
00000290: 33ac a9be 2532 abbe 84eb 1abf 7041 3c3f
000002a0: f049 623f 86b5 f03f d2b9 a83f a9b7 543f
000002b0: fc41 21bf 8dc5 f63e bfc2 9f3e 289e 963f
000002c0: d682 afbe 452c 8b3f b1e8 b13f 9052 153f
000002d0: 858c 733f 0bb1 b9be 0215 263f 59dc 133f
000002e0: 0ccf d6bf d7a7 f93f e990 853f b008 2ebf
000002f0: 0248 f8bf ffee ea3f 5de1 3abf a774 3a3f
00000300: 8291 fb3f 8199 cdbe ab8a 5ebd 3845 833f
00000310: 9e8b 8c3d 4681 e7be 0d9f 72be 969e 103c
00000320: d91d 2abe 482c d53f 6607 933e 4aa3 053f
00000330: 2a30 c43f 6abf 323f 7d29 fabe d344 333e
00000340: 068f c23f 416d d5be 23e4 963f b01e 05bf
00000350: 3e83 d53f c4df 02bf 4a88 60bf 4622 54be
00000360: 972f d6be 2923 96bd af7b ad3f 0965 933f
00000370: b096 793f e392 0dbf 895b d93f 6978 e5bf
00000380: 8f6a e33e 00d8 aebe 3cd7 893f c215 9b3d
00000390: 32cb 81be 6120 0e3e 965e 3c3f d9fd 9f3f
000003a0: b0d9 d23d 4c15 8d3f 448a 7c3e 9d07 66bf
000003b0: e24e f1be 910a 493f 9ffd 223f d242 bfbf
000003c0: 186e fe3e 72bb 58bf 0fc5 a9be 7e47 a23f
000003d0: a779 40be 7b53 7a3e 7e95 aabe 8478 2dbf
000003e0: 07e9 2c3f 0750 d03c 67b4 a03f e513 113f
000003f0: 25bf a43e 8a2f 473f ac4a 2bbe c30f 7d3e
1.4382567 2.4342194 -0.780259 1.3302912 -0.5525312 1.259072 1.5254588 0.3669387
-0.33035576 -0.47280437 0.71239436 -0.39177623 -0.17446227 1.3626043 0.6407396 0.31398413
-0.02709209 -0.49113876 0.6858936 -0.8840326 1.9213346 -0.54079646 1.1295408 -0.08535802
0.7177127 0.9096432 1.4318935 -0.7506056 0.8115297 1.6014801 0.54880786 1.2320318
0.35756665 0.63622075 0.9471801 -0.15034159 -0.64912933 1.3707618 0.07282538 0.05627704
0.6970193 -0.700984 -0.24490939 -0.08510178 0.77702975 -0.25796038 1.1211178 0.2139153
0.6724641 0.25903258 0.18561122 0.301934 -0.57566977 1.1379609 1.1968144 -0.57091486
1.1397016 0.58711255 0.31335238 -0.30929264 -0.4493635 1.2276796 1.6411173 -0.42259178
-0.55746967 0.00037723265 0.2302834 0.017717954 1.0479598 -0.6933135 -0.6002267 -0.5686384
-0.4766412 0.025352243 -0.5218746 0.8867334 0.13901865 -0.12321405 0.55932087 0.0545999
1.0099183 -0.33949453 -0.84837914 -0.31884903 0.8253715 1.0773945 -0.06464436 -0.3100825
-0.28968212 -0.3289086 1.6040498 0.09696053 1.2688942 0.77709335 0.70669097 1.7421333
0.09500421 1.2802515 -0.025139095 0.5462321 1.2486963 0.1535891 -0.3356393 1.7638106
-0.084906526 -0.6279619 1.039947 -0.462688 -1.3189056 -0.640876 1.3068947 -0.08141238
0.7371384 -0.37114027 -0.21754603 0.124620356 -0.023316707 -0.5651296 -0.15304902 1.0942281
-0.5413657 -0.4693649 -0.010033177 0.50124437 1.0761273 -0.6783522 -1.4133246 -0.6060663
-0.04653696 0.6850797 1.5771115 1.1691116 0.95266694 0.13438553 0.99625516 1.6762414
-0.20367472 1.6869658 1.1318196 -0.3727569 1.1280742 -0.71079457 -0.8881364 -0.43615568
-0.0042429687 1.1665306 1.8180525 0.8265458 0.088077605 -0.42216083 -0.29442212 -0.02807144
0.80047524 0.29549575 -2.00558 0.8194479 -0.8744111 0.8345292 0.59811586 2.155305
0.32702178 -0.861751 0.40785253 -0.5159924 -0.3313919 -0.33436695 -0.6051562 0.7353735
0.8839407 1.8805397 1.3181708 0.83092743 -0.6299131 0.48197594 0.31203267 1.1767015
-0.34279507 1.0872885 1.3899137 0.58329105 0.9513629 -0.36267886 0.64875805 0.577581
-1.6781936 1.9504346 1.0434848 -0.67982006 -1.9396975 1.8354186 -0.7300013 0.7283425
1.965378 -0.40156177 -0.054331463 1.0255499 0.06862567 -0.45215815 -0.23693486 0.008826872
-0.16612948 1.6654139 0.28716582 0.52202284 1.5327199 0.69823325 -0.48859778 0.17506723
1.5199897 -0.41684917 1.1788372 -0.5199995 1.6680677 -0.5112269 -0.8770796 -0.207162
-0.41833183 -0.07330925 1.355337 1.1515208 0.97495556 -0.55302256 1.6981059 -1.7927371
0.44417235 -0.3414917 1.0768809 0.07572509 -0.25350338 0.13879539 0.73581827 1.2499343
0.10295427 1.1022124 0.24662119 -0.89855367 -0.47130495 0.7853175 0.63668245 -1.4942267
0.4969337 -0.8466102 -0.33158156 1.2678068 -0.18796407 0.24445908 -0.33317178 -0.6776202
0.6754307 0.025428785 1.2555054 0.5667098 0.32177082 0.77806914 -0.16727704 0.24713044

fc2.weight f4 [256, 256]
00000000: b0b8 b43e f2d9 b63d 8b0a 08bf 0660 743e
00000010: 444a 3cbd 1e4a 613d aed5 b73d 2c86 b63f
00000020: ce35 593e 1c7e adbc eeea 453c 7b70 cfbf
00000030: 9856 d73f 86aa ff3d 4785 95be d1ba f2bc
00000040: 44a0 7240 4502 793e c246 0f38 7d0f 2fbe
00000050: 5a47 bc3e 5c26 01bd b915 05bd 963d 773d
00000060: f673 43be 6215 c1bd a070 56be 2332 153e
00000070: a4e2 25bd 755e 7d3e 0341 b43d 149b 8c3f
00000080: 166e 9f3d 9762 bf3e 35e7 9ebd d8ee 53bd
00000090: 14f0 8e3e feab c03e 83e7 683d 08ab 1bbc
000000a0: 2265 96bc 0600 d4bd 3258 4a3d 9c1e c93c
000000b0: ad8e 7dbe 5692 dcbc b080 debd 3311 7f3e
000000c0: 2f43 ebbc 1684 b93f e339 3240 4200 9c3d
000000d0: a00d 95be 7700 5b3e a379 de3d 79b2 42bd
000000e0: 9642 393f 7648 863b 56ff cb3f 36db 23bd
000000f0: 5809 ab3c 5a34 c9bb 6483 923c 70b3 05be
00000100: 4086 f2bb 5060 1abd 3717 993f d13d a5bd
00000110: e556 d1bd 5fcb 0abe e06f 74be 9879 3fbc
00000120: 81ae e5be 905a 6f3e 8440 5e3d 1536 113d
00000130: 60d3 a43e ecc9 ddbc 4eb0 ac3e 4e22 61bd
00000140: 9449 863d 40be 553b c100 cfbe 65c6 0d40
00000150: 1319 3d3c b93c 00b8 999e 233e fdeb 4bbf
00000160: 2c3a 163d 80c7 f1bb 41d9 2e3e c499 023d
00000170: df48 883e 97f9 28be 2064 5abe 9c11 973f
00000180: ae40 223f 8193 85bb c731 583f fe0a dabd
00000190: 28bb a93e 30b2 a43e 6265 8d3e 1c40 943e
000001a0: d000 79bd a96f cc3e d48c 24be ba1c 0b3d
000001b0: aa32 9a3b abe1 66bf 2cb2 f8bd 03b6 dbbd
000001c0: 4598 9b3d be67 513d 807b 3fbc 3594 29bb
000001d0: 980a 6f3d 6905 5b40 5819 2bbd 331b 3f3d
000001e0: 4c7a 2b3d e26b 3040 4925 12bb 4db2 b33f
000001f0: 97d2 7a3b 1b50 cd3e efcd 59ba e262 fdbe
00000200: de37 e43f ffce 9a3f c054 a5ba 7bc4 033f
00000210: a93b d5bd bba8 293f bd3a 443d 91e8 f8bb
00000220: 7068 de3c 5fb3 1dbd e90b dcbc 488f 4c3e
00000230: 5018 f23d 8ba5 f8be f3ee 61bf 40bb 1fbd
00000240: 34ee 8b40 7346 dc3c 9208 843d 3a2b 293f
00000250: c573 273f acc9 373d 80fc 7e3a 9448 583e
00000260: d1bd 9f3f c299 c63f 568b bd3d da30 0abd
00000270: ac1d 2940 25e7 62bd 6fa2 a8bb 8b8d a73e
00000280: d24d 773f 07d2 2ebf 225d 88be 8503 c6be
00000290: 7e53 3240 12d4 36bd 5f61 25bf 60c7 ecbb
000002a0: 2049 13bd e511 403e 9bbf e83d d68c ccbd
000002b0: 8b7f f6be 42d9 c73f 64eb cb3d ae6c 143f
000002c0: 60fd 7d3e 7905 91bc 2433 973e 810c adbe
000002d0: 80b5 11bd 3e1f 7840 34d8 e0bd ccd5 d63f
000002e0: 1281 883d d5f0 223e fdec 15be d8af bd3e
000002f0: 7629 ec3d f21e 5a3d a575 e0be 3304 b03f
00000300: ead7 503d e64b 60bf a4ed 0cbe 73a5 ff3d
00000310: 84bf f7bc a0e2 31bd f05b 42bd 00ef 43bc
00000320: 8994 523d cc78 66bd 0e7f dc3c 199e 4abe
00000330: ad96 9c3d 4a63 dbbd bd07 a13e e294 953e
00000340: 122d 833f a8be 4dbc c40f ff3e 3428 b6bd
00000350: 59c3 3d3f 5979 76be 277a 5d3e be4e 13be
00000360: 0596 b1be 657e 91bd 7dc7 c93e 8b91 a1bd
00000370: eb36 65be 76f6 11bd 78ff 88bc 1ebe d03d
00000380: eb98 05be 1260 673d 4922 873f 6ecb 503f
00000390: 5b6b 4240 34f4 903d 3b2c 163f dd18 18be
000003a0: 1b75 d0bc 5cd2 61bd 53be 79bd 1408 8bbe
000003b0: 1ad3 75bd 19f2 4a3e 938e af3f fc5c 993c
000003c0: 76c1 3740 f488 68bf e680 23be 0527 053f
000003d0: 3997 66be 5268 22bd 46ee 0d3e a58e 19bf
000003e0: 3fb6 9dbe 0a03 4f40 1e77 2e3f 5ab5 a1bd
000003f0: 1d1f 13bd 3090 3cbd c0df 753d b403 10be
0.35297155 0.089282885 -0.5314109 0.23864755 -0.045969263 0.055002324 0.08976303 1.4259696
0.21211931 -0.021178298 0.012079937 -1.6206201 1.6823301 0.12483697 -0.29203245 -0.029630097
3.7910318 0.24317272 3.4159755e-05 -0.17095752 0.36773187 -0.031530723 -0.03249142 0.060361467
-0.19087204 -0.094279066 -0.209414 0.14569907 -0.040499344 0.24743064 0.088014625 1.0984826
0.07784669 0.37379906 -0.07758943 -0.05174145 0.2791754 0.3763122 0.05686141 -0.009501226
-0.01835877 -0.10351567 0.049400516 0.024550728 -0.24761458 -0.026925247 -0.10864389 0.24908905
-0.02871856 1.4493434 2.7847831 0.07617237 -0.29111958 0.21386896 0.10863044 -0.047533486
0.7236723 0.0040979935 1.5937297 -0.040003978 0.020878479 -0.006140274 0.017884918 -0.13056731
-0.0074012578 -0.037689507 1.196021 -0.08068431 -0.10221652 -0.13554142 -0.23870802 -0.011686705
-0.44859698 0.2337439 0.054260746 0.035451967 0.32192516 -0.027073823 0.3372826 -0.054964356
0.06557003 0.0032614619 -0.40430263 2.215234 0.011541623 -3.057413e-05 0.15978469 -0.79656965
0.03667657 -0.0073785186 0.17075063 0.031884924 0.26618096 -0.16501461 -0.21327257 1.1802249
0.63379943 -0.0040764217 0.84450954 -0.10646628 0.331506 0.32167196 0.2761641 0.28955162
-0.06079179 0.3992894 -0.16069347 0.033962943 0.0047057467 -0.9018809 -0.121433586 -0.10728075
0.075974025 0.051124327 -0.01168716 -0.0025875692 0.058359712 3.4222052 -0.041772217 0.0466568
0.04186468 2.7565846 -0.0022300056 1.4038788 0.0038272494 0.40100178 -0.00083085796 -0.49489504
1.7829549 1.209442 -0.0012613758 0.5147168 -0.1041177 0.6627309 0.04790758 -0.0075960835
0.027149409 -0.03850114 -0.026861148 0.19976532 0.118210435 -0.485638 -0.8825523 -0.038996935
4.3728275 0.026889062 0.06446947 0.66081583 0.65411025 0.044870064 0.00097269565 0.21121436
1.2479802 1.5515673 0.09255092 -0.033737995 2.642436 -0.055396218 -0.0051463167 0.32725176
0.9660312 -0.68289226 -0.26633555 -0.3867456 2.786346 -0.04463584 -0.646017 -0.007225916
-0.03595841 0.18756826 0.11364671 -0.099878 -0.48144183 1.5613177 0.099570066 0.5797833
0.24803686 -0.017702805 0.29531205 -0.33798602 -0.035573483 3.8769069 -0.109787375 1.6783996
0.06665243 0.15912183 -0.14641185 0.3704822 0.115313455 0.053252168 -0.43839756 1.3751281
0.05098716 -0.8761581 -0.13762528 0.12482729 -0.030242689 -0.043429017 -0.04745096 -0.0119588375
0.051411185 -0.056267545 0.026916053 -0.19786872 0.076459266 -0.10712297 0.31451216 0.2921515
1.0248129 -0.012557663 0.49816716 -0.08894387 0.741262 -0.24069728 0.21628629 -0.14385507
-0.34684768 -0.07104186 0.3941001 -0.07889088 -0.22384231 -0.035635434 -0.01672338 0.10192512
-0.13046615 0.056488104 1.0557338 0.8156041 3.0378025 0.07077828 0.5866124 -0.14853235
-0.025446465 -0.055132255 -0.060972523 -0.271546 -0.060015775 0.19818915 1.3715385 0.018721096
2.871183 -0.90833974 -0.1596714 0.52012664 -0.22518624 -0.03965027 0.13860425 -0.59983283
-0.30803105 3.2345605 0.6815051 -0.07895918 -0.035918344 -0.046035945 0.060027838 -0.14063913

fc2.bias f4 [256]
00000000: 4c03 763f 7d45 18bd aeb4 8abf 8c64 4dbf
00000010: 3197 29bf 43c1 223c b7fb cc3e 2827 263d
00000020: b8ec 563e 6af2 3d3f deb5 39bd 06cb 0b3f
00000030: f2fe cd3d dbf1 94bf 0a3e 87be e6c4 fdbe
00000040: 402c 0c3e 61f6 843e d0bf 583e 7da7 0cbc
00000050: 6245 83bf cd1f 813d eb83 00bd 8806 693f
00000060: bf18 3abf 0e9a 2c3c 981d 53be a5d6 113f
00000070: cbd7 5d3e 2a99 4d3e 60dd 6fbd ae73 9b3e
00000080: bf48 043d c549 233f 9b7f 083e 8a1c 29bc
00000090: 4382 2b3f 2b1f 68be 7536 9abf 1986 d03c
000000a0: ba08 b0be 2cdd 313c f464 143f 0886 093f
000000b0: bca5 7b3e 5d20 7a3e bc8a a03e 0a5e 74bf
000000c0: 48f7 753f 8462 123d d8fc 9fbd 6537 893f
000000d0: 0f37 f0be 8541 ba3e cbfe cb3e 1bd5 6d3e
000000e0: 3d28 fabe 6c2b 49bf d0ef 853e ed85 3fbf
000000f0: 7d26 ddbe 3da9 ec3e 25ac 193f 5f5b 51be
00000100: 386f 383e 86b1 ccbc 8130 dabe 58dd e03b
00000110: 11a7 663e 3c80 673d e6d2 413f a674 5b3f
00000120: 82fd e6bd 5c08 18bf 886a 163c 7474 27bd
00000130: 49dd 253d 71fe fdbe 04f2 8d3f 43e1 993d
00000140: 87cb bb3f a034 6cbd 97c1 e2be d572 8ebd
00000150: e2aa 3c3f b08e 543d e40a 05bf 7b80 8d3d
00000160: 6f75 bd3c 2254 8f3e 486b 933e 61cd 82bf
00000170: 2aa4 1140 3dfb 6cbf c95e 243f ab1c 61bd
00000180: 9b77 383f 2cee abbf 2089 13bd 25ca 373e
00000190: 86b4 39bf 18a2 e3be d653 e03e d85f c63c
000001a0: a0e4 be3e 6a6f cc3c 9dd2 b73f 1550 553f
000001b0: 3245 9abd e270 2d3e 79d7 c2bc 3037 0f3f
000001c0: 5100 70bf 0a5a 3f3d f332 43bd e776 583d
000001d0: f6d2 183d 7ca9 4abf 98bf 70bc 2bef 3e3f
000001e0: 03e0 423e 3b71 2ebd 1eb7 1d3f d022 35bf
000001f0: 66c0 493d 10b7 cd3e c167 73bd 3a79 17bd
00000200: 6c43 d3bc 5874 2fbd a205 1bbe b36c 813f
00000210: 1998 a1bc 39af 993f ab1f 8f3f 1289 2f3b
00000220: 9e9d 85be ecc5 d5bc 7921 233e 8e16 48bf
00000230: 49b8 7e3f f3a6 30bc 2792 783b 6770 683f
00000240: e487 97bd d919 2fbc 885e c13c b049 f03e
00000250: c56c 08bd 7545 993b 4e31 3cbd b1fd 23be
00000260: 6ede 8d3f 5f3e bbbc d5d7 5abf 499a 3f3f
00000270: bb8e 593e 2c59 4a3f 60aa d2bc 4632 e73e
00000280: 626b 43ba cf7f 65bd 7d7a 713e 7f57 73bf
00000290: 926b 433f d7b0 c53f 4cd2 acbd 98d7 903e
000002a0: b7b0 9e3c 6d8f 783f 0fcf 87bf ab8c d83e
000002b0: 7199 9cbf 939b d7be 9b26 2f3e fa2a 6136
000002c0: e6f3 aabf 920d 30bd 0563 ee3e 8a98 fbbd
000002d0: 4a94 7b3f 5e1b 5d3d 5e8b ec3e 86de 89bb
000002e0: f67f 833f 7f9c 833e b479 08bd d94b 2d3f
000002f0: 60a9 dcbc f3a5 b93f 8992 043d 5a6e 973e
00000300: dc99 1c3f ff4f e73e 4bbc 11be a805 623d
00000310: ad9e 233e 4636 d63f f54b 66bd 826b f3be
00000320: 018c 4a3f 52a6 2bbd b9f0 88bd d2c5 0b40
00000330: e851 e7bc 71f6 1140 da75 a63e e768 2e3d
00000340: 794f b4bf 2c63 d1bb 8905 fc3e ddd8 bebe
00000350: 710f 453d 18fe 0b3f 058e 273f aa11 113f
00000360: 1a63 263f c8e6 8d3c 1949 a7be 8ecf 09bf
00000370: d182 5dbf bfae 293f 4f05 333f 7795 8d3e
00000380: 5ccc 98bb 2ee1 46bf 32ac bebe d371 b33f
00000390: 24b2 ecbc 7cd3 843c 9f0b 8cbe 0443 323d
000003a0: 9055 25bf a5ac 973b d918 5e3f 2060 c93c
000003b0: 02a4 1abd a29b b8be 22a8 d23b 0a77 913f
000003c0: 6ff5 7f3c b218 553f 3caf c9be f82b 8cbd
000003d0: c3d3 143f e2a2 4abd 0d0a bf3e 5537 55bf
000003e0: 8878 573e f8d9 fb3c c6a3 72bd 18e0 3a3e
000003f0: dd08 a33f 6de2 d2be 5b6e 183f e6f5 c53e
0.9609878 -0.037175644 -1.0836389 -0.8023155 -0.66246325 0.0099337725 0.40035793 0.040564686
0.20988739 0.7419802 -0.045339458 0.54606664 0.100583926 -1.1636308 -0.2641452 -0.49564284
0.13688755 0.25969222 0.2116692 -0.008584854 -1.0255549 0.06304894 -0.031375807 0.9102559
-0.7269401 0.010534776 -0.20616758 0.56968147 0.2166435 0.20077959 -0.05856073 0.30361694
0.03229594 0.6378444 0.13329928 -0.010321746 0.6699564 -0.2266814 -1.2047869 0.025454568
-0.34381658 0.010855954 0.5796654 0.5372014 0.24574941 0.24426408 0.31355846 -0.9545599
0.96080446 0.035738483 -0.07811898 1.072003 -0.46917006 0.36378112 0.3984283 0.23225825
-0.48858824 -0.7858188 0.26159525 -0.7481373 -0.43193427 0.4622287 0.60028297 -0.20445012
0.18011177 -0.024986994 -0.4261513 0.0068623237 0.22524668 0.05651878 0.7571243 0.85724866
-0.112788215 -0.59387755 0.0091806725 -0.040882543 0.040494237 -0.49608186 1.1089482 0.075136684
1.4671487 -0.057667375 -0.44288322 -0.06955496 0.73698246 0.05189389 -0.5196974 0.06909271
0.023127286 0.27993876 0.28792787 -1.0218927 2.2756448 -0.9257086 0.6420713 -0.05495898
0.72057503 -1.3432059 -0.036019444 0.17948206 -0.7254108 -0.44459605 0.43813962 0.024215624
0.37283802 0.02495547 1.4361149 0.8332532 -0.07532729 0.16937593 -0.023784386 0.55943584
-0.9375048 0.046716727 -0.04765601 0.05284777 0.037310563 -0.7916486 -0.014694117 0.7458369
0.19030766 -0.042588454 0.6160754 -0.70756245 0.04925575 0.40178728 -0.05942512 -0.036980845
-0.025788985 -0.042835563 -0.15138867 1.0111297 -0.019725846 1.2006599 1.1181539 0.002678458
-0.26096815 -0.026095353 0.15930738 -0.78159416 0.99499947 -0.010781991 0.003792891 0.9079651
-0.07398966 -0.010687315 0.023604646 0.4693122 -0.033306856 0.0046774694 -0.045945458 -0.16014744
1.1083505 -0.02285689 -0.85485584 0.74844795 0.21245854 0.79042315 -0.025716007 0.45155543
-0.0007454661 -0.05603009 0.23581882 -0.95055383 0.76336014 1.5444592 -0.084385484 0.28289485
0.019371374 0.9709385 -1.0610064 0.4229482 -1.2234327 -0.4211088 0.1710457 3.3552628e-06
-1.3355682 -0.04298169 0.4655992 -0.12284954 0.98273146 0.053981178 0.4620008 -0.004207435
1.0273426 0.25705335 -0.03331919 0.6769386 -0.026936233 1.4503769 0.03236631 0.2957638
0.6117227 0.4517822 -0.14231984 0.055181175 0.15978499 1.6735313 -0.056224782 -0.4754296
0.7911988 -0.041906662 -0.06686539 2.183949 -0.028237298 2.2806666 0.3251179 0.04258051
-1.4086753 -0.006389996 0.49222973 -0.3727483 0.04811043 0.5468459 0.6545108 0.5666758
0.64994967 0.01732196 -0.32672957 -0.5383233 -0.86527735 0.66282266 0.69929975 0.27653095
-0.0046630334 -0.77687347 -0.3724075 1.4019111 -0.028893538 0.016214125 -0.27352616 0.043520942
-0.64583683 0.004628735 0.86756665 0.024581969 -0.037754066 -0.36056238 0.0064287344 1.1364453
0.015622481 0.8324081 -0.39391506 -0.06844324 0.5813562 -0.049471743 0.37312356 -0.83287555
0.21042073 0.030743584 -0.059238218 0.18249547 1.273708 -0.41188374 0.5954339 0.38664168

fc3.weight f4 [18, 256]
00000000: 3acb 9dbd 40ac 79bd fe6e 90be 7f94 a3be
00000010: 6dd5 18bf 716d 5cbd c5df e73d 74b0 3ebd
00000020: 2290 1a3d 1ee8 20be 2827 4a3c e469 2dbe
00000030: 2c85 0d3e c355 d3be 0c81 93be 7ebe 6bbe
00000040: f0bd cdbd ab7a a43c c994 7d3c ac15 59bd
00000050: f512 e23e e90d 643e 6835 fbbc fb06 343e
00000060: 1064 e5be c0b7 66bb a6f9 6a3d 0e4e 2c3f
00000070: 8b0e 8abe f00a d83e b078 c93c 1882 1ebd
00000080: 29e9 733c f487 49be 3641 c1bb 2ce3 2ebe
00000090: 25bb c8be c808 8bbe 76b3 d2be 1f06 a0bc
000000a0: 50df d1be be1e 8c3c 1204 d8bd cc65 3f3c
000000b0: 6b25 c4bb 7cc6 ab3e b88e 733e 63ad 18bf
000000c0: c78c b93d fd04 a6bc 03ac 26be b4e0 4abd
000000d0: b4fe 9abe 8ce7 dbbc 9999 863d 72a7 f23e
000000e0: b4e8 1bbe 8aaa a7bd 4395 fbbd b056 64bf
000000f0: 303a 50be 950e b2bd 8f51 9a3e 4506 21be
00000100: 8e93 02bf 4ff8 c7be 69ab a9be accb 423d
00000110: d03f 6d3e 28b2 8e3c 66b6 f3bd 12b4 1a3f
00000120: 286b 1ebe cb22 d5be 4adb 62bd baa2 2fbd
00000130: 4be5 ef3c d87c 98be 7d7e 0dbe 5aa1 05bf
00000140: 3a80 363d a6fc e7bd 884b 18bf 7815 b6bc
00000150: ab96 513f d79c 4fbb 137f babd 5194 a73d
00000160: ec92 6cbd 01f6 acbe a44e ad3d 2127 003e
00000170: d816 ea3e 87cc dabe 81be 94be 4e3b 9e3c
00000180: 4a29 ccbe 8465 05bf 4253 36bd a720 c2bd
00000190: 4cad 31bd c931 01bf 82d4 0ebe e06c 8dbc
000001a0: 70b1 083d 865d f2be e9fd 49bd 55b8 35be
000001b0: 6bc2 0bbf b39d 5f3e 387a 803d ad7a bd3d
000001c0: cb91 d7be c8ac f4bc 3c2e 93be 3afa 14bd
000001d0: f039 ac3c a220 59bf 0cf3 74be 376b 9fbe
000001e0: 8ae9 8f3d aa50 2ebd 437b 26be d603 70bf
000001f0: 3dc3 a93c fa70 6abe 7f64 0c3c 0a47 7f3d
00000200: 7d59 9cbd 0ae3 263d a2ef ebbd 70ad e63e
00000210: 0db1 003d da91 14be a57f 6fbc 8422 9cbc
00000220: 4753 ccbe 82ab 1abd 3166 b9bd 5131 4d3e
00000230: 869f 65bd 7507 dfbc b1b0 a7be 8da3 24be
00000240: 4329 4fbe 02dc f7bc 50b6 67bd d01e 753d
00000250: 77df 25bd e9e5 7e3d 3ed9 aa3b dcc8 f7bd
00000260: 7d42 2ebe 5e0d 1cbc be63 39bf f983 54be
00000270: ee09 b6bd 5d67 babe 8074 613a c8be 003e
00000280: b3d1 ff3b 60c6 f93c 203a 78be f7c8 b5be
00000290: e7bb 84be c3c2 fcbd 6371 65be b8fb f5be
000002a0: 6897 cd3c f0a5 2bbe efe0 0dbf 05a0 fa3c
000002b0: 9f90 0dbf 1cc2 8fbe fb47 283b 74be 60bd
000002c0: e449 17bf 0ab2 18bd 895c ed3b 66c8 3fbf
000002d0: 4c21 3e3c ece5 df3c 36ed 0f3e 1106 60bd
000002e0: d842 87be de75 4cbd 7e01 173d c790 4d3d
000002f0: 242d 06be 1b4c f83e 105a 6f3d 9512 39be
00000300: 999a bb3c a425 e83c ceb2 1cbe ecd4 4abd
00000310: 8320 abbc 1e95 813d d54f 353c 0f33 a1be
00000320: 2460 d9be 20c8 50bb 9edb 53bd 34cb 293b
00000330: a6fe 4a3d 03ed 6f3d 0371 3d3e 8303 ebbc
00000340: 25ee f0be e55d c2bc 3472 443f 56e4 d1be
00000350: 5e03 18bc 4582 283f 1a05 763f 1968 debd
00000360: f6b4 2d3f fc3a 343d 7c0d 07bb 3eab 7cbe
00000370: 18da 05bf 8b2c 68be 259e f73d be16 283e
00000380: 2284 09bd 5b01 1e3d 91c7 4ebe 3b5e d73e
00000390: 68a1 c23c d684 343d 64d6 05be ec69 8ebc
000003a0: 4f0a b8be 9693 31bd a8a4 df3d 4ac1 60bd
000003b0: 3634 433d fa8d febd ec84 b4bc 831c b33e
000003c0: 947b 16bf d0b9 8cbd 9f86 efbe bc58 8e3a
000003d0: 8e61 233f be49 59be b6db 73be 9f1e 9cbe
000003e0: 1127 cfbc 5a5c 273d 9034 94bb e0ff e03e
000003f0: 8349 1cbd 8d2a 39be 877b 513d 229c 453f
-0.07704778 -0.060955286 -0.2820968 -0.3194923 -0.5970066 -0.05381531 0.113219775 -0.046554998
0.037735112 -0.15713546 0.012338437 -0.16934925 0.13820332 -0.41276368 -0.28809392 -0.23021886
-0.10045993 0.020078024 0.015477368 -0.052999184 0.44155088 0.22270931 -0.030665115 0.17580788
-0.44802904 -0.0035204738 0.05736699 0.673066 -0.2696422 0.42195845 0.024593681 -0.038698286
0.014887133 -0.19680768 -0.0058976663 -0.17078847 -0.3920528 -0.27155137 -0.41152543 -0.019534169
-0.40990686 0.017104503 -0.10547651 0.011681985 -0.005985906 0.3354987 0.23784912 -0.5963957
0.09060054 -0.02026605 -0.16276555 -0.0495307 -0.30272448 -0.026843809 0.06572265 0.47393376
-0.15225488 -0.081868246 -0.12284329 -0.89194775 -0.20334697 -0.086941876 0.3014035 -0.15725048
-0.510064 -0.39056632 -0.33138588 0.047557518 0.23168874 0.017418936 -0.11900024 0.60431015
-0.15470564 -0.41628107 -0.05538491 -0.042879798 0.02928414 -0.29782748 -0.13817783 -0.5219933
0.04455588 -0.11327486 -0.5949025 -0.022227034 0.81870526 -0.0031679177 -0.09106269 0.08182586
-0.057757303 -0.33781436 0.08462265 0.12514926 0.45720553 -0.42734167 -0.29051593 0.019315388
-0.3987525 -0.52108026 -0.044512995 -0.09478884 -0.04337816 -0.5046659 -0.13948253 -0.01726383
0.033372343 -0.47336978 -0.049314413 -0.17746098 -0.54593533 0.21837501 0.062733114 0.09251914
-0.4210342 -0.029867545 -0.28746212 -0.036371447 0.02102372 -0.8481542 -0.2392084 -0.31136486
0.07026966 -0.042557396 -0.16257958 -0.93755853 0.02072298 -0.2289466 0.008568882 0.062323608
-0.07634256 0.040743865 -0.11520316 0.45054197 0.03141885 -0.14508763 -0.014617835 -0.019059427
-0.39907286 -0.03776122 -0.090526946 0.20038344 -0.056060337 -0.027225235 -0.32751992 -0.16078015
-0.20230584 -0.030256275 -0.05657035 0.05984384 -0.040496316 0.06223098 0.0052138856 -0.12098858
-0.17017551 -0.009524671 -0.7241782 -0.20753469 -0.08888613 -0.36406985 0.00086004287 0.12572777
0.0078069805 0.0304901 -0.24240923 -0.35504887 -0.25924608 -0.12341835 -0.22406535 -0.4804361
0.02509661 -0.16762519 -0.55421346 0.030593881 -0.552988 -0.2807778 0.002567767 -0.05486913
-0.59097123 -0.037279166 0.007243697 -0.7491516 0.011604618 0.027331315 0.14055333 -0.054693285
-0.26418185 -0.049917094 0.036866657 0.0501869 -0.13103157 0.48495564 0.0584355 -0.18073495
0.022900866 0.028338261 -0.15302584 -0.049519464 -0.020889526 0.0632727 0.011066397 -0.31484267
-0.42456162 -0.0031857565 -0.051723115 0.0025908472 0.049559258 0.05857564 0.18500142 -0.028688198
-0.4705669 -0.023726413 0.7673676 -0.4099452 -0.009278147 0.65823776 0.96101534 -0.10859699
0.6785425 0.044001564 -0.0020607403 -0.24674699 -0.5228591 -0.22673242 0.120907106 0.16414925
-0.033573277 0.03857551 -0.20193316 0.4206408 0.023758605 0.044071995 -0.13070065 -0.017384492
-0.35945365 -0.04335364 0.109200776 -0.054871835 0.047657214 -0.12429424 -0.022036038 0.3498269
-0.58782315 -0.068713784 -0.46782395 0.0010860185 0.6382073 -0.21219537 -0.23814282 -0.30492112
-0.025287183 0.040859558 -0.0045228675 0.43945217 -0.038156044 -0.18082638 0.051143195 0.77191365

fc3.bias f4 [18]
00000000: e882 933f 734a d23f 959f 2a3f 8cbb 0a3f
00000010: 6e93 263f f4e4 c73e a5c4 9b3e 753b 8f3e
00000020: ab45 a93e 3781 713f 6fd6 8d3f 1993 923e
00000030: 8154 163f a8d0 293f c866 e03e 15a1 2dbd
00000040: b915 0e40 dc64 413e
1.1524324 1.642897 0.6664975 0.54192424 0.6506871 0.39041865 0.30423465 0.2797505
0.33060965 0.9433779 1.1081065 0.28627852 0.5872269 0.6633401 0.43828416 -0.042389948
2.2200758 0.18886131
