code/outputs/dr_comparison/normal/models/dqn_checkpoint.pth (torch, 354981 bytes, 6 tensors)

fc1.weight f4 [256, 5]
00000000: f5b4 6cbe b9be 973d 0958 d43f 081e e83e
00000010: 076d 013f 72ce c93e 0af6 c3bd 9dd8 ce3f
00000020: 3a8f 6c3f a4f1 0a3f e5a3 24be a719 d2be
00000030: 2f8e 55bd 8ba1 b03e 05fa 763d 80e3 92be
00000040: 795b c03c 3df6 9f3e 6fee cd3c f834 b4be
00000050: a67f 4f3e 39f0 ba3e 691b 1840 83a0 2a3f
00000060: 8b99 8dbf 24cc c7bd 64b6 92be 6909 86be
00000070: 9e99 313e 891e 933f 70e4 043d 43a4 beba
00000080: 413d b53f 1b58 0d3f 6e2d 35c0 901d 04be
00000090: 3ed5 a4be 809a 933d 6de0 5bbd e44b 19be
000000a0: f6ab 2bbe f703 35be dd4e a4be f4b3 d83d
000000b0: c8d0 dabe 11c6 e53e 450e 55bd 3382 90bf
000000c0: 7e54 67bd a138 273e 0916 993e 0832 073f
000000d0: 98b6 0bbf b256 b4bf 9961 85bf 372b 123f
000000e0: fd1e 0bbe 03a2 9cbc 19fe 423f 9f38 0e3f
000000f0: 6536 57be 0058 a43d 3467 c23f a0d4 f33c
00000100: 105c f63e 214b ab3e 68a9 9dbd 3cb1 843f
00000110: 1788 003d 68b9 9cbf a334 cabc 6822 27be
00000120: f1a0 983d dcab b2bd ce1b a43c c744 933c
00000130: cc85 ccbe 9dd1 cdbd e101 85be 2f9f c4bc
00000140: 3dd2 a9bc e73b 103e 9abe a1bf 7641 d23e
00000150: a4dd 193f 2ec2 8bbd 57b0 ba3e d19a 6dbf
00000160: 479c cc3e cd57 513e 44dc 0e3f 2cd3 8abd
00000170: 5692 4fbf fff2 ed3e 8c59 c93e 40fd 6bbc
00000180: 0b8d a63e e6f4 85bf 80fd ec3e 7601 063d
00000190: 7a84 263e f2a1 bcbd 401f 9a3f fbc4 373f
000001a0: f190 513f 0d75 04bf 88e9 dfbe 3e8a 4b3e
000001b0: 5e30 e93c f90c 0e3f d103 babe 2e6e 803e
000001c0: 488b ef3f 8386 fe3e 58db 163e aabf 8bbd
000001d0: bae2 3ebd d598 c13f 2ad4 403f 3140 ac3f
000001e0: d583 bbbe b46d 513e 427a c23f 01bc 233f
000001f0: e005 81bf 021e 74be 6205 7a3e cb6f 813f
00000200: 2a2e 873e aca6 8bbf d501 89bd 77ed 833d
00000210: ed9e 8fbf 1036 2abd 0620 b53e 5342 cd3e
00000220: bcf7 abbd a771 da3f a55e 5d3f 95dc 69bf
00000230: 086c b33d a9a2 123e 8473 a83f a5a2 0cbf
00000240: a597 c9bf 1cc5 833d 744f 693e 3b39 90bf
00000250: 1aae 4cbf 5aea 9c3f b9c9 e5bd 1319 50be
00000260: 3857 4e3e 5c44 513e 8dd6 28be 03b0 78be
00000270: 55ae 553d 30e7 aabd b0c2 5f3f a82d 803e
00000280: 67f0 af3e 7562 fb3e d851 7dbf 747a 7a3e
00000290: 53f5 133d 2859 aebe de6a 603e 1a43 c93f
000002a0: 59d1 5f3f 3561 483f 6aa7 013f 2d2c af3e
000002b0: 269e a1bf 6802 133e 93d1 0f3f 4bcb df3e
000002c0: 4534 d4bd d894 dc3f 8e85 673f 5b87 b5be
000002d0: 3125 793d a77c 193f f1e5 dcbe f7f6 d8bd
000002e0: 6f1a cb3d dd1f 55be f4e2 433c e95d 163c
000002f0: 5f12 bfbe d1a7 cdbe 62a9 e93e 6f28 89bd
00000300: 1ad9 89bf 3d85 1fbf 3ea2 dc3e 6a3f ef3e
00000310: ee34 053f 475f 7c3f 5c6d e63f 7937 263f
00000320: 766c 2e3e c249 09bd 6379 ab3f 967b b33f
00000330: 5620 75bf 30c8 403e 1ccf 0b3f bd57 1dbf
00000340: 3e71 073f 7418 d23e a324 b2bc e9cc 0d3f
00000350: ebc5 85be 96e2 4e3e ec0e 823e 5759 873c
00000360: 0849 e8bc 197e 4ebe 99b6 073f 4865 ebbd
00000370: 3960 e53e 81f1 803d df71 bdbf 9d0c 313e
00000380: 4d4d d43e e2c4 83be 476a 4bbe f954 8bbe
00000390: c92a 4bbe 258a 903d b349 8a3e f111 87be
000003a0: 5806 c63a 475c c2be bb99 1a3c 8cd0 15be
000003b0: cea9 f7bc 450c b33e a146 8bbe 6df4 53bd
000003c0: be23 9f3e f02f 32bb 935a e13f 73b1 3c3f
000003d0: eb35 62bf acc9 f3bd ea2d 0e3f 77ed 26bf
000003e0: 24b6 2f3e 9d81 643e 14a8 2ebd 993d 89be
000003f0: 9ec9 1d3e 2dd9 903e edc7 95be 2ed7 c03d
-0.23115905 0.07409424 1.6589366 0.45335412 0.5055699 0.39415318 -0.095684126 1.6159855
0.92406046 0.54274964 -0.16078146 -0.41035196 -0.05213755 0.34498248 0.06029703 -0.28689194
0.023481118 0.31242552 0.025138108 -0.35196662 0.20263538 0.365114 2.376673 0.6665117
-1.1062483 -0.097557336 -0.28654778 -0.26179054 0.17343757 1.1493694 0.032444417 -0.0014544803
1.4159318 0.55212563 -2.8308978 -0.12901902 -0.3219394 0.07207203 -0.053680826 -0.14970356
-0.16764817 -0.17677294 -0.32091418 0.10581198 -0.42737412 0.44877675 -0.05201556 -1.1289734
-0.056477062 0.16330196 0.29899624 0.52810717 -0.5457549 -1.4088957 -1.042041 0.5709719
-0.1358604 -0.019120222 0.7616897 0.55555147 -0.21016844 0.08024597 1.5187745 0.029764473
0.48117113 0.33455756 -0.07698327 1.0366588 0.031379785 -1.2244081 -0.024683302 -0.16321719
0.07452572 -0.08724186 0.02003279 0.017977132 -0.3994583 -0.10049746 -0.25977996 -0.024001686
-0.020730132 0.14085351 -1.2636292 0.41065568 0.6010382 -0.06824146 0.36462662 -0.92814356
0.3996298 0.2044365 0.5580485 -0.06778559 -0.81082666 0.46474454 0.3932613 -0.014403641
0.32529482 -1.0465362 0.46287155 0.032716237 0.16261473 -0.09210576 1.2040787 0.71784943
0.8186179 -0.51741105 -0.43732858 0.19876954 0.028465446 0.55488545 -0.36331037 0.2508406
1.871438 0.49712 0.1473211 -0.068236664 -0.046602942 1.5124766 0.75323737 1.345709
-0.36624017 0.20452005 1.519356 0.63958746 -1.0079918 -0.23839572 0.24416116 1.0112242
0.26402408 -1.0910239 -0.066898026 0.06441777 -1.1220375 -0.041555464 0.35375994 0.40089664
-0.08396861 1.7065934 0.8647254 -0.91352206 0.0876084 0.14319862 1.3160253 -0.54935676
-1.5749403 0.0643408 0.22784215 -1.1267465 -0.7995316 1.2259018 -0.11220116 -0.20322065
0.20150459 0.20436233 -0.16488095 -0.24285893 0.05216821 -0.08344877 0.87406445 0.25034833
0.343631 0.49098554 -0.9895301 0.24460775 0.03612263 -0.34052396 0.21915767 1.5723603
0.87428814 0.78273326 0.5064608 0.3421339 -1.2626388 0.14356387 0.5617916 0.43709788
-0.10361532 1.7232924 0.90438163 -0.3545483 0.060826484 0.5995583 -0.4314418 -0.1059398
0.09917151 -0.20812936 0.011955965 0.009177663 -0.37318704 -0.40167096 0.4563704 -0.06697165
-1.0769379 -0.6231268 0.4309253 0.4672807 0.5203389 0.9858288 1.8002124 0.64928395
0.17033562 -0.033517607 1.3396419 1.402209 -0.95752466 0.18826365 0.546129 -0.61462003
0.5290717 0.4103428 -0.021745985 0.55390793 -0.26127562 0.20203623 0.2540201 0.016522093
-0.028355137 -0.2016529 0.53012997 -0.11493927 0.44799975 0.06296063 -1.4800376 0.17289968
0.41465226 -0.25736147 -0.1986476 -0.27213266 -0.1984054 0.07057599 0.27009353 -0.26380876
0.0015108092 -0.37961027 0.009436066 -0.14630336 -0.030232336 0.34970298 -0.27202323 -0.051746774
0.31081957 -0.0027189218 1.7605766 0.73708266 -0.8836352 -0.119037 0.5553881 -0.6520609
0.17159325 0.22315069 -0.04264076 -0.26804808 0.15408942 0.28290692 -0.29254094 0.09416042

fc1.bias f4 [256]
00000000: e3e8 0440 9899 c03f af31 9abd a3f8 09be
00000010: ad74 073f 88d7 f53f efea 2c3f 7a64 313d
00000020: f4b9 e23d 0cae 3cbf a73f 8cbf c6ea c1be
00000030: 7a33 d33f 3b45 273e 7ef2 85be ba47 d83b
00000040: dd2c 55bf 46f1 78be 50b4 9fbe 0e90 f3bc
00000050: c4d5 e83f b1c0 703f 15dc cb3f 4e93 1940
00000060: 362d 013f bcd2 1d3e 9957 61bf d002 ef3e
00000070: fee8 1c3e 5f96 f43d e9fc 9fbe b2e5 823e
00000080: 3936 2cbd 22c9 fc3f ba75 30bf 6ebf 9c3f
00000090: 6a12 e9be 334e a8be 8bb0 1cbf 6ce3 0240
000000a0: 4d7c a43f cac1 00bf 5236 a0be 0e69 343f
000000b0: 248c c0be ab36 f2bd 92e2 cfbe 2b0f e3be
000000c0: 7f06 593e f475 8cbe 6550 b8be 0175 22be
000000d0: d9b4 4abf 3a8c f43e 37d7 0f3e 6277 8b3f
000000e0: 92cf 903f 608b 76be 7a6e db3f 6a59 bfbe
000000f0: d812 90bf 4600 923e 7b5d 9f3d 7d7c 413f
00000100: dd3e db3f cf06 133d 8f03 65bf 9165 403f
00000110: 1ebe 0240 d818 1740 72bc ad3c e33d e93f
00000120: a1cf f83f 0db7 b4be 30f0 dc3e 34d5 06bf
00000130: 6221 823e fb18 e23e 083a c1be 4951 06bf
00000140: 47e5 fb3f 2f52 3ebf ba84 c73f 88e3 153e
00000150: 256a 99bf 09a1 ae3d abea c03e be10 43bd
00000160: 56d2 9bbe f5c0 fc3e 2a07 733c a8a2 8b3f
00000170: d345 a3be eaf3 f53f cc0c 0640 198d bd3f
00000180: f925 a1be 08da 4ebe 38ee 993f 5e0e df3f
00000190: 80d1 f63d e176 f93f 5979 c2bd 9cd5 a73f
000001a0: 0411 1340 75a1 0640 80a8 d9be fdbf 633f
000001b0: 32b8 4740 8333 403f 3388 933d 1070 32bf
000001c0: 97ee e93e 1b78 593e c842 e73f e9a0 3c40
000001d0: bc5d 563c bb16 30bf b96b c7bd b99a 1c3f
000001e0: 0d86 3c3d fb86 9b3f 825c 8d3e 288f 543f
000001f0: c04b 6fbe 45a7 b33e 81f4 243f 26c7 823e
00000200: c379 973e 6c56 bfbd cbc0 58be 4429 0b40
00000210: 548d 09bf 1300 85bd a025 953d 9a42 8cbe
00000220: 26be e0bd 53fa 223f 9bac da3e cb6b 123d
00000230: 1e00 3e3e 82c0 fa3f 5af8 8dbf b58e e03f
00000240: f1cc 3fbf 65a8 833d 6558 6e3f 2f3a 3e3e
00000250: 465b 703f 19c7 ee3f 27b8 8cbf 54a1 a6be
00000260: b4b7 d53f 1e64 cc3e 229c cebd dad2 3fbf
00000270: 6064 0940 449f c03f 3840 813f 21d9 453c
00000280: 2498 b03d e0ee af3b d928 2ebe 57c9 aa3d
00000290: 26e6 0b40 86d7 1640 e12e 5e3d 6477 f83c
000002a0: 5b1c 0a40 e9a1 cbbe 2288 89be 0fb5 b0be
000002b0: 4f56 c9be 213d 85be 181f 393f 2f16 8cbe
000002c0: 6669 17be e360 44be 7abe d23f 572c 8fbe
000002d0: 51c0 84bf 633c cb3f bf62 e53f 6ade 6d3d
000002e0: 2d7f 493e c764 c23f 9b34 e43f ed53 04bd
000002f0: ecf4 d7be 8a2d 7a3f 86fd f13f 1bc0 cc3f
00000300: 2422 ed3f 1bf9 8e3f ed7f 8ebf 87d2 153e
00000310: 8f68 883e 77c9 74be 911d 2d40 83b0 f73f
00000320: 5cc1 ea3f e67b 9f3e 6cf2 bc3e 0d24 953f
00000330: 377b 9a3f 5fb5 073d 8e0b 0340 7648 833e
00000340: 0a78 903f 214e 8b3e e57f a93c 5e97 153e
00000350: a858 7f3c 8514 c9bd a5ed c43e 7cc3 92be
00000360: 47a0 9f3f ce81 b7be 9738 4ebc b2c5 163f
00000370: f14b a3be c274 eb3f 1310 613f be0f a03f
00000380: dc8d ecbd 3770 853d b57e bc3f cb6e e33d
00000390: b450 62bf 61ba 56bc 6fa3 b3bd fadc be3b
000003a0: e07f f83f 5c9a 903c aec1 fd3f 92c4 9a3e
000003b0: 2631 bfbe 145f f33f c13d dbbc 7a20 ea3f
000003c0: db1d 0940 63ef 1ebf 2c35 0640 d2e6 b1bd
000003d0: 6aef 213f c26d 7a3f b3f5 8bbe bd75 dabc
000003e0: 2ac3 ab3f ce4a 08be 11c0 b1bd 5c9f b8be
000003f0: 76a4 e5bb d8ae 1340 221f 5cbe 018f 8abf
2.0767143 1.5046873 -0.07529008 -0.13473754 0.5291241 1.92064 0.6754598 0.043308713
0.11070624 -0.73703074 -1.0956925 -0.3787443 1.6500084 0.16335003 -0.2616157 0.0066003473
-0.8327158 -0.24310789 -0.31192255 -0.029731777 1.8190236 0.94044024 1.5926539 2.3996158
0.5045961 0.1541242 -0.8802429 0.46681833 0.15323254 0.119427435 -0.31247643 0.2556587
-0.0420439 1.9748881 -0.68929636 1.224592 -0.4552186 -0.3287216 -0.61206883 2.0451307
1.2850434 -0.502957 -0.31291443 0.704728 -0.3760692 -0.11826833 -0.40602547 -0.4434751
0.21193884 -0.2743374 -0.35998836 -0.15864946 -0.791822 0.47763234 0.14046942 1.0895808
1.1313345 -0.24076605 1.714309 -0.37372905 -1.1255751 0.28515834 0.07781502 0.7558058
1.7128559 0.035895165 -0.89458555 0.7515498 2.0428538 2.3608913 0.021208022 1.8222011
1.9438363 -0.35295907 0.43152 -0.5266907 0.25416094 0.44159684 -0.37739587 -0.5246778
1.9679345 -0.7434415 1.558738 0.14637578 -1.1985518 0.08526809 0.37679037 -0.04762339
-0.3043391 0.49365965 0.014833251 1.0909014 -0.3188921 1.9215062 2.094531 1.4808685
-0.31474283 -0.2020036 1.2025824 1.742626 0.12051678 1.9489404 -0.094958015 1.3112063
2.2979136 2.1036046 -0.42511368 0.88964826 3.1206174 0.750786 0.07203712 -0.69702244
0.45689842 0.21237223 1.8067255 2.9473212 0.013083871 -0.68784684 -0.09737343 0.6117359
0.04602628 1.2150568 0.2760964 0.8303094 -0.2336874 0.35088554 0.64435583 0.25542563
0.29585084 -0.093426555 -0.21167295 2.1743937 -0.53731275 -0.06494155 0.07282567 -0.27394563
-0.10973768 0.63663214 0.42709813 0.03574733 0.18554732 1.9589999 -1.1091416 1.7543551
-0.7492209 0.06428603 0.9310363 0.18576883 0.9388927 1.865451 -1.0993699 -0.3254496
1.6696687 0.39920133 -0.10088374 -0.7493111 2.1467514 1.5048604 1.0097723 0.012075693
0.086227685 0.0053690523 -0.1700777 0.08339184 2.1859221 2.3569045 0.054243926 0.030330367
2.1579807 -0.39771965 -0.26861674 -0.34513137 -0.3932366 -0.260232 0.7231307 -0.27360675
-0.147863 -0.19177584 1.6464379 -0.27963516 -1.037119 1.5877804 1.792076 0.05807344
0.1967742 1.5187005 1.7828554 -0.0323066 -0.42179048 0.9772574 1.8905494 1.5996126
1.8526044 1.1169771 -1.113279 0.14631091 0.26642272 -0.23904978 2.7049296 1.9350742
1.8340259 0.31149215 0.36903703 1.1651627 1.2068852 0.033131953 2.0475802 0.2564122
1.1286633 0.27208045 0.020690868 0.14608523 0.015585102 -0.09818367 0.38462558 -0.28664768
1.2470788 -0.3584122 -0.012586734 0.5889541 -0.31893876 1.8395007 0.8791515 1.2504804
-0.11550495 0.06515544 1.4726168 0.111051165 -0.88404393 -0.01310596 -0.08771407 0.0058246823
1.9414024 0.01765173 1.9824731 0.30228096 -0.37342185 1.901339 -0.026762845 1.8291161
2.1424472 -0.62084025 2.0969954 -0.086866036 0.6325594 0.9782373 -0.2733589 -0.02666747
1.3418934 -0.13309786 -0.08679212 -0.36059082 -0.0070081307 2.3075466 -0.21496251 -1.0824891

fc2.weight f4 [256, 256]
00000000: d096 52bc 08ef b33c 4e58 48bd c278 10bd
00000010: 02b2 0b3d 6825 413c 9675 613d f60f 45bd
00000020: 54e2 54bd 58c3 313c 8874 ac3c a099 0a3b
00000030: 0281 6fbd d0f5 4cbd 2cb5 3fbd 8081 acbc
00000040: 286e 703c 7005 a83b 949f db3c accb 643d
00000050: 4028 8e3c 70bd 23bc c877 723c 0e82 36bd
00000060: 5cb0 7bbd 807a 9d3c 60ed 16bb 08fc 663d
00000070: 1867 1ebc b80d 94bc 3428 9cbc 18db e23c
00000080: b06d 41bd 38e4 4bbd 7c37 e0bc d0ee f33c
00000090: ca37 51bd d2e3 3dbd 7ae0 2fbd 52a6 463d
000000a0: ac22 d4bc f0ae c7bc e0c0 6cbb f89d e4bc
000000b0: 3ef0 243d c01c d4ba c0df afbb 9c70 27bd
000000c0: 043e 2b3d 18a6 40bc a076 aabc 746d 54bd
000000d0: ba72 243d 5e20 3dbd 1052 13bd ac5b a83c
000000e0: 2e66 29bd 0ccb 28bd f8ce 583c d8a4 7cbc
000000f0: e84f 3b3d 9489 7bbd 6c5e c9bc d209 4f3d
00000100: 7e34 42bd 6c9f 183d f6cf 7a3d f044 b63c
00000110: 106a 48bd c230 4a3d ace3 02bd 4865 5d3c
00000120: a2b6 44bd 8633 40bd cc1c 7d3d d09c bfbb
00000130: 0048 72b8 e872 473c fe04 1bbd cc82 acbc
00000140: e0bf 7abb de5e 183d 7671 54bd 56cb 0cbd
00000150: cc63 a93c eeae 5dbd 0a5a 593d 70f3 ae3c
00000160: 80b7 4d3a cc65 a7bc f8b0 cd3c b0ea 36bd
00000170: 70e3 cf3c 2447 023d a027 07bc de29 053d
00000180: 0070 50ba 24aa 0a3d d67a 133d 6046 563b
00000190: 500f 0b3c e6e5 44bd b845 c1bc 80b2 7c3c
000001a0: c0e3 11bc 0086 6abd 38f8 493c 9497 71bd
000001b0: 4a8c 413d d820 993c 1c3d 1a3d 9cfa 803c
000001c0: ee7b 0bbd 282a 77bd d04b 71bd 2449 86bc
000001d0: e801 353d d464 4d3d b646 28bd e041 6a3b
000001e0: 52d2 48bd 7064 233d 80d6 333d d0b4 993b
000001f0: d498 68bd f8e5 76bc 9099 3c3d d4a6 30bd
00000200: 988b 2b3d 1626 663d 10a1 793d c86c 833c
00000210: 761a 03bd 7abe 483d 5ecd 683d 8af5 7a3d
00000220: c6ed 713d bc77 3ebd d4c5 58bd 3a6c 2dbd
00000230: 389e 6bbc 6668 3abd 7071 b7bc 9c3c e7bc
00000240: 0008 61bd 2854 913c 20d8 b0bc bc63 0a3d
00000250: f281 6f3d 04be cbbc 748b 68bd e8cf 3bbc
00000260: 20d0 20bb 380f 653c e0e4 273c 8045 8d3c
00000270: d84a 16bd 7273 07bd ea4e 4bbd bc59 773d
00000280: d4b4 1d3d b26a 5ebd 9288 2dbd d286 24bd
00000290: b8ad ea3c e2bd 1dbd a614 433d ae71 6fbd
000002a0: b211 5abd 4814 183c 389a 62bd ea65 183d
000002b0: 74e2 e6bc e471 283d 164d 64bd f026 4a3d
000002c0: d07f 453c 70a1 cfbc 1c90 78bd 762a 75bd
000002d0: 507d 283d 804a 043d 4e15 7cbd cceb 65bd
000002e0: 14e2 14bd a6d4 3f3d 606e 4abc 2058 74bb
000002f0: cca8 bfbc 082c 3c3c 28d4 373d 3498 5bbd
00000300: 6aab 28bd 7ad8 7d3d 4091 ee3b aefd 70bd
00000310: f0d9 e13b c079 d23b f847 713c 1e8a 44bd
00000320: d27c 5cbd b24c 32bd cab5 22bd 5c8e 00bd
00000330: a8d5 97bc b468 483d c0a8 b53b 746c 383d
00000340: e47f 08bd ae58 55bd d8dc bfbc e8ec ebbc
00000350: 801b 5a3c 005f 72bb 1e6a 7e3d 4001 e83b
00000360: 0227 313d f8c9 1fbd 0c4c 10bd 745e 3f3d
00000370: a027 8cbb b658 593d 5480 5c3d b095 8ebc
00000380: eeb7 193d 5ad8 33bd 18ae 85bc 58c3 67bd
00000390: b8b6 263d c032 baba 5a64 36bd 00ed f5ba
000003a0: 1cbd 6b3d a81a bbbc e4bd 07bd fcf1 5d3d
000003b0: 4a84 6bbd 8c93 153d 0c8c ed3c 0200 01bd
000003c0: 08f2 3a3c 6ea7 4c3d 54cc e3bc ace7 7a3d
000003d0: 508f b43b 3a56 7ebd 8ec2 223d 829a 40bd
000003e0: fcf9 f9bc 5a1e 3ebd c455 37bd 38ac 15bc
000003f0: 6899 6b3d e83a 2a3d 2e83 1e3d 82f7 4abd
-0.012853339 0.021964565 -0.04891234 -0.035271414 0.03410531 0.0117887035 0.05504378 -0.048110925
-0.051973656 0.010849796 0.02105166 0.0021148697 -0.05847264 -0.050039113 -0.04680364 -0.021057844
0.014674701 0.0051276013 0.026809491 0.0558583 0.017353177 -0.009993896 0.014799066 -0.044557624
-0.061447486 0.019223452 -0.002302967 0.0563927 -0.009668134 -0.018072948 -0.01906214 0.027692363
-0.047223747 -0.049778193 -0.027370207 0.02977696 -0.051078595 -0.046359845 -0.042938687 0.04849846
-0.02589544 -0.024375409 -0.0036125705 -0.027907357 0.040268175 -0.0016182885 -0.0053672493 -0.040878877
0.04180719 -0.01175835 -0.020808518 -0.051862195 0.040148474 -0.046173446 -0.035966933 0.020551525
-0.04135721 -0.041209266 0.013232939 -0.015420161 0.0457305 -0.0614105 -0.024581157 0.050546475
-0.04741334 0.03726141 0.061233483 0.022249669 -0.048929274 0.049362905 -0.031955406 0.013512917
-0.048025735 -0.046924137 0.06179504 -0.005847551 -5.776435e-05 0.012173392 -0.037846558 -0.021058463
-0.003826134 0.037199847 -0.051866017 -0.034373604 0.02067747 -0.054121904 0.053064384 0.021356314
0.0007847473 -0.020434283 0.0251088 -0.04465741 0.025377005 0.031806126 -0.008249193 0.03251063
-0.00079512596 0.033853665 0.036005817 0.0032695755 0.0084875375 -0.04807081 -0.023592815 0.015423417
-0.0089043975 -0.0572567 0.012327246 -0.058982447 0.04725293 0.018692419 0.037655935 0.0157445
-0.034053735 -0.060342938 -0.05891019 -0.016392298 0.04419127 0.050144985 -0.04108306 0.003574483
-0.049028702 0.039890707 0.043905735 0.004690744 -0.056786373 -0.015069477 0.046044886 -0.04312785
0.041881174 0.056188665 0.060944617 0.016043082 -0.032007657 0.049009778 0.05683648 0.06126932
0.05906465 -0.046500906 -0.05292304 -0.04233954 -0.014380984 -0.04550972 -0.022392958 -0.028227143
-0.05493927 0.017740324 -0.021587431 0.03378652 0.058473535 -0.02487088 -0.056773618 -0.011463143
-0.0024538115 0.013980679 0.010247439 0.017245054 -0.03669247 -0.03306908 -0.049635805 0.06038831
0.03850253 -0.05430097 -0.04236657 -0.040167637 0.028647289 -0.038511164 0.047627114 -0.058458023
-0.05323953 0.009282179 -0.055322856 0.037206568 -0.028184153 0.04112424 -0.055737577 0.04935354
0.012054399 -0.025345534 -0.06068431 -0.059854947 0.041135132 0.03229761 -0.061543755 -0.056133077
-0.036348417 0.046833657 -0.012355417 -0.0037283972 -0.023395918 0.011485107 0.044880062 -0.05361195
-0.0411791 0.061974026 0.0072804987 -0.058835678 0.0068924353 0.006423205 0.014726631 -0.04798328
-0.053829975 -0.043530174 -0.03972415 -0.031385764 -0.018534496 0.048927978 0.005543798 0.045025304
-0.03332509 -0.052086525 -0.023420736 -0.02879949 0.013312221 -0.0036982894 0.06211292 0.007080227
0.04325009 -0.03901097 -0.035228774 0.046720937 -0.0042771846 0.053063117 0.05383332 -0.017405361
0.037528925 -0.0439075 -0.016318366 -0.05658278 0.040701598 -0.0014205799 -0.044529296 -0.0018762648
0.057553396 -0.02283986 -0.03314008 0.054185852 -0.057499208 0.036517665 0.028997444 -0.031494148
0.011410244 0.04996436 -0.027807392 0.061256096 0.0055102482 -0.06209395 0.039736323 -0.04702235
-0.03051471 -0.046415664 -0.044759527 -0.009135298 0.057519346 0.041560084 0.03869932 -0.049552448

fc2.bias f4 [256]
00000000: 6af8 4f3d 2f11 25bd 161a 003f f7a6 af3e
00000010: 097f 0e3f 3c86 4b3d 24be 713e d115 0b40
00000020: d9ce 3e3f 7bae e53c d1a2 eb3e f669 c13a
00000030: bd85 d33f edb9 d83f 68fe e03e c064 533b
00000040: 3a4f ba3c d306 453d 249c 473b fdae 193f
00000050: e24e d7bc b6fd 163d 6f4f 6d3d 3eae 493c
00000060: 2119 1f3f d17f ad3d 99c2 013e 53a3 bb3f
00000070: f43e e4be e7c7 033f d4bc 47bc 57c5 d53c
00000080: a5af 1b3e 3b18 ed3e ba63 b6bd 87c3 8e3f
00000090: bc2f df3e a027 a03f 25da b33e 2edd 95be
000000a0: 66e6 a03f 0064 e73c f701 753e fdcd 3e3e
000000b0: 0274 533d 610f 273c 4c4f 863f 8046 433b
000000c0: 9640 4ebe 3753 9d3f c04b 0bbd 81f7 03bf
000000d0: 24ea 823e 40ab 643f 055e ef3e 699a 7d3c
000000e0: e9c5 06bc 6f1d 0d3d 6c49 ebbc 9a7a 8e3e
000000f0: dc82 133f 33d6 c73c 199f 27be 15ec 123f
00000100: 7616 a83d fe29 833e ec3c 12bd 2d64 26bb
00000110: 59de 93be 8276 f0be 2c92 aa3f 5b1e 0b3f
00000120: d87a b23c cc13 233f 690b b43f b5c8 6dbd
00000130: 05c9 1a3f aed6 db3e d352 4d3d 8d6f bfbc
00000140: f2af 70bd ec64 21bd d3ac 4d3f bd99 7c3f
00000150: 9531 953f 65e7 333d 7e43 073f 81d0 0d3e
00000160: 97f3 343c 15ea 1abf bf99 373e 4e9f 2d3c
00000170: be1c 66bd 08ea c23e a014 023f 239a 71bc
00000180: a0f7 b33f a340 6c3e 9a6e 9b3f ebab dbbe
00000190: c6bb 11bc 72a1 42bd 27b6 73bd 6201 c53e
000001a0: 1133 f13d 4f07 373e 7dbe 6a3e 53c5 80be
000001b0: 4541 253e b517 e83f 6018 2c3e 0d89 223f
000001c0: 355e 5f3f 6b8c 943f 94dd 82bc d87b 7e3f
000001d0: 53ce 693e 4ebc fdbd 0449 a53f 638b b73f
000001e0: 8c7e 9ebe 6a27 aabe 304c 1b3d b369 74bd
000001f0: 315f 923e 93de dcbc 61ea c8be ebb9 473f
00000200: ac86 823d 3887 ad3b 5c5a ecbc db77 9dbc
00000210: be06 a23f 550c 493f 73e1 0c3f d539 80be
00000220: edca 653f bb81 28bd 3a4e 27bd 287e d43e
00000230: 93a4 37bd 549d 73bd 57b2 c73f 6a45 c93e
00000240: b46d 313e 1066 0b3d b673 20bd d48e d83e
00000250: 8ed1 f63e e9f2 c23e 8431 533d 0cd7 8d3c
00000260: 2853 493e 1b06 06bd 1009 583d 8cbe fe3c
00000270: ac96 7a3f 9ef8 34bc 9825 ec3f 855a c73c
00000280: 8a29 8ebd bf2a d13e 08fa 95be a382 db3f
00000290: 0b0a 2f3f 6a00 193f 1b05 443f 2094 8f3e
000002a0: 2df2 5d3f a410 3ebd 919d 503f cf6a 36be
000002b0: 1ae6 46bc 532b 633e ae8d 353f fef3 6abc
000002c0: 3d44 053e 13e6 b13e 6072 513f 1718 c03e
000002d0: 9c51 283f 735a 423f 4ed5 52bb 684f 5c3c
000002e0: eb72 a63f 9ecd 0340 4e93 74be 27f1 72bd
000002f0: fb39 523f 5d23 3f3f 5763 103f 66ee 22be
00000300: 066e 4abd 80c7 523a 25ad 6d3e 55d7 2c3f
00000310: 2858 89be 5141 d93e dad4 1dbd 0f26 a23f
00000320: f778 8b3f 5b2f 9e3f ece6 ac3f ccd9 0f40
00000330: 49c6 3bbd ed36 b73c 938a f73e 44b4 63bd
00000340: 7333 ca3f 6d25 9a3f 7e15 2c3f 963a 1c3f
00000350: c72d 3b3f 98e7 9ebd 6fe7 5bbc 6436 35bd
00000360: 28e0 483f 73d9 93bd 2d86 19be f047 bebc
00000370: 7a82 8b3e 58b9 433d 5f11 243f 303d 6b3e
00000380: 38fd 9f3e 8f48 6c3d 7803 1e3f e825 f23e
00000390: be8a 103e 67b9 f53f 5d82 cb3e 9893 043f
000003a0: 763c 753d e34e 1c3e cf6e a73f fae0 1e3f
000003b0: 193f 7e3f abf2 413d d90d 5f3f c84d 09bb
000003c0: ccd5 883f ac3b 84bc ae44 c23f 6a4c bebd
000003d0: fbbd 123d 6757 f13c 3647 023d b94a 503d
000003e0: 1d61 673f 82fe 11bd 32d7 b03f 7b0a f43f
000003f0: 80eb 82bd 753c e93e 19fd 983f f05a 3e3f
0.050774015 -0.04029959 0.50039804 0.34307072 0.5566259 0.049688563 0.23607689 2.1732066
0.74534374 0.0280373 0.46022657 0.001475631 1.6525189 1.693174 0.43944097 0.0032256097
0.022742856 0.04810221 0.0030458057 0.60032636 -0.026282731 0.03686305 0.057937082 0.012309609
0.6214772 0.08471645 0.1267189 1.4659218 -0.4457928 0.514769 -0.012191016 0.026095076
0.15203722 0.4630755 -0.0890574 1.115342 0.43591106 1.2512093 0.3512737 -0.2927031
1.2570312 0.028245926 0.23926531 0.18633266 0.051624306 0.010196538 1.049295 0.002979666
-0.20141825 1.229102 -0.034007788 -0.51549536 0.2556926 0.89323807 0.4675142 0.015478709
-0.008225896 0.0344519 -0.028721534 0.27827913 0.5762155 0.02439413 -0.16369285 0.5739148
0.08207409 0.25617975 -0.03570263 -0.00253893 -0.28880575 -0.46965414 1.3325858 0.54343194
0.021787092 0.6370208 1.4065982 -0.058052737 0.6046298 0.42937225 0.050127815 -0.023368621
-0.058761545 -0.039402887 0.80341834 0.98672086 1.1655756 0.043921847 0.5283736 0.13849069
0.0110444045 -0.6051343 0.17929743 0.010597063 -0.056179754 0.38069177 0.5081272 -0.014746222
1.4059944 0.23071532 1.2143128 -0.429046 -0.008894866 -0.047517247 -0.059499886 0.38477618
0.11777318 0.17873882 0.22924228 -0.25150546 0.1613818 1.8132235 0.16806173 0.6349037
0.87253124 1.1605352 -0.015974797 0.9940772 0.22832613 -0.12389432 1.2912908 1.4339412
-0.30955923 -0.33233196 0.037914455 -0.059671115 0.2858825 -0.0269616 -0.39241317 0.78018063
0.06373343 0.0052956603 -0.02885168 -0.01922219 1.2658308 0.7853444 0.5503151 -0.25044122
0.89762765 -0.041139346 -0.040846087 0.415025 -0.044834685 -0.05947621 1.56013 0.3931077
0.17327005 0.03403288 -0.03917285 0.4229647 0.48206753 0.3807595 0.051560894 0.017314456
0.19660628 -0.032720666 0.052743018 0.03109672 0.9788616 -0.011045603 1.8448973 0.024335155
-0.06941517 0.40852925 -0.2929232 1.7149242 0.683747 0.59766257 0.7657029 0.28042698
0.86697656 -0.04640259 0.8149043 -0.17814182 -0.012139821 0.22184496 0.7091931 -0.014340399
0.13014312 0.34745845 0.8181515 0.3751838 0.65749526 0.75919265 -0.0032170597 0.013446666
1.300382 2.0594249 -0.23884317 -0.059312012 0.8211972 0.74663335 0.5640158 -0.15911254
-0.049421333 0.0008040592 0.2321058 0.6751607 -0.2682507 0.42432645 -0.03853307 1.2667865
1.089629 1.2358202 1.3507972 2.2476683 -0.045843396 0.022365058 0.4834791 -0.055591837
1.5796951 1.2042671 0.67220294 0.61026895 0.73116726 -0.07759017 -0.013421877 -0.044241324
0.78467035 -0.072192095 -0.1499259 -0.023227662 0.27247983 0.04778418 0.64089006 0.2297256
0.31247878 0.057686385 0.6172404 0.47294545 0.14115426 1.9197205 0.39747897 0.5178771
0.059872113 0.15264468 1.3080691 0.62062037 0.9931503 0.047350567 0.87130505 -0.0020950902
1.0690246 -0.016141735 1.5177209 -0.092919186 0.03582571 0.029460622 0.031806193 0.05085251
0.9038256 -0.03564311 1.3815672 1.9065698 -0.06392574 0.45553938 1.1952239 0.7435751

fc3.weight f4 [81, 256]
00000000: 4001 adbc 577e aabc e2b4 1ebe 2d43 86bd
00000010: 2145 a3bd aea5 14bd cd63 33be 7e08 02bc
00000020: 895f d9bd 23d4 e7bd df3f e4bd dcd3 e9bc
00000030: 392e 76bd 0538 b1bd 344e a4bd 9865 65bd
00000040: d608 53bd 7ba9 31bd 204f f93b 29cc 36bd
00000050: 029f 263d b2e9 61bd 9e32 8ebe 7452 05bd
00000060: 6435 abbd 26a5 abbd 8adc 96bb d157 b03c
00000070: 15f0 98be 3afc d4bd a9cb 783c 148a 5e3d
00000080: 9f4c 89be 66f2 c1bd 54eb 0abd 13de 0fbd
00000090: 8c44 26be e250 083e d8c8 f13d 05e4 08be
000000a0: 5fa9 a33d 3a59 463d 1f80 f1bd 1787 17be
000000b0: f0ca 94bd 7ced 963c 2022 29bd 30c4 053d
000000c0: b390 e3bd 6e1a 0e3d 780f 733d 0c1d 0f3e
000000d0: 22fc cdbb 218f f23d 0c2c a1bd c83c afbb
000000e0: d038 6abd dab4 12bd 761f 1cbc b91d 0b3d
000000f0: e29b b8bd 9036 22bd 8897 85be 21e6 a5bd
00000100: 7144 7cbd 1819 16be 3cc3 17bd 03a0 9ebc
00000110: 3c29 92be eb2f 11be a0a3 80bd 5986 9ebd
00000120: 9092 b3bc 4ad3 04be c6a0 1a3e 2ad5 cdbc
00000130: c877 82bd d1a0 e03d 80b0 4e3b 4445 3c3d
00000140: 6ed6 093d 121d 303d fea7 013d 4739 b63d
00000150: 9665 a9bd 1840 623d 9340 a53d a016 0abe
00000160: 4f90 96bc 1ca9 813e 2da3 ed3c 600a 3dbb
00000170: 9a8b 683d d00e dabd ccc1 04be 66d0 6bbd
00000180: 8c52 3f3e 3ab6 01be 02c7 19bd 3fa8 1abe
00000190: 5f3e 953d 8649 2fbe 10ff 89bd 33d4 39be
000001a0: 3a99 f5bd f073 2ebe 098c e5bd 06eb 153c
000001b0: 7ee9 04be 3289 5ebd fa2d d6bd 5790 23be
000001c0: ac6e ccbd 4625 9f3b 34dc 7f3d b1ad 1bbd
000001d0: 0feb 2abe a36a 59bd f427 02ba 8ead 48bd
000001e0: 2a2d 023e 92ad d5bd 4004 adbc 0250 43bd
000001f0: 1c21 25be 08cc 8e3c 7c9d a6be 5e74 8a3d
00000200: 0123 19bd acf4 f4bc 742a fcbc e7e1 76be
00000210: 857c ee3d 6d67 d1bc b90b 8ebd d945 cdbd
00000220: 11cc 61bc 542a 883a 9051 df3c e747 29be
00000230: 52b9 58bc 54e8 f7bc d668 043e 7ded 94bb
00000240: 63db 35bd ecf4 83bd b04e cbbb e574 cdbd
00000250: f7a3 f53c b52b 7cbc 9636 40bd 4e2b 153d
00000260: 9aba ebbd e88d 2bbc a857 3c3d 06a8 7ebd
00000270: 92f4 00be 836b 413d e07a 083c e3a4 103d
00000280: 48ed 9dbc 8129 b2bd 391f a8be 38f6 cb3d
00000290: 447b 00be 770b bd3b e26b 2dbd fff2 1abd
000002a0: 65b7 9cbc e27b 73bd 6c9f 593c feb3 89bd
000002b0: 7dcf d23c e17d 2bbd 635a 443d e43a ed3c
000002c0: ed50 46bd 040e 59bd 06a2 e4bd e452 f6bd
000002d0: b3d6 f9bc 7a12 04bd 74cd ba3c 3adf 273d
000002e0: ebcb 46bd dafe eb3d 33f4 513c 66ed 1c3d
000002f0: 2032 57bd 95dc 5d3c 09d0 1bbe fe2b 2bbe
00000300: d42b 6f3d 287b 82bc 18b4 943d 3967 00be
00000310: ea6f 81be 4415 d7bd 24f4 35bc a030 823e
00000320: 0114 6f3c 9564 5c3e 031e 463e 0b36 683d
00000330: f7ef e63c 36ef 4e3d b736 88bc 70f9 c5bb
00000340: 8aa9 4c3e d2cb b83b d227 08be ab49 e2bc
00000350: 1fcf ba3d 1ba5 6c3d 102e 493d 4d43 773d
00000360: ce29 b23d d2b4 58be c1fe a6be 0c66 9a3c
00000370: 8667 08bd d8d6 47bd 4b78 703d 7545 0bbe
00000380: dc3c 80bd c827 82be e04c a6bd c52b 0ebe
00000390: d52c 23be 0e0e ec3d 80b6 3bbd 19b2 a6bc
000003a0: c974 8f3c 2866 b2bd 2f0c acbb 5359 86bd
000003b0: 64ba 5dbd e9f7 89bd bccc 30be 6e8d 613d
000003c0: 74b6 babd 5cf8 3e3d a966 8cbd 7f33 8cbe
000003d0: a2dd 36bd f8d7 08bc 80ad 98bc 2668 d03c
000003e0: 6472 cabd 88a9 3bbc ff4f 52bd 6964 eb3b
000003f0: 2ef8 8cbe c4bd 1ebe 20b2 533d a674 b7bd
-0.02111876 -0.020812197 -0.15498689 -0.065557815 -0.0797217 -0.036290817 -0.1751854 -0.007936595
-0.10613925 -0.11319759 -0.11144995 -0.028543405 -0.060102675 -0.08653263 -0.080227286 -0.05600509
-0.0515221 -0.04337452 0.0076083094 -0.044628296 0.040678985 -0.05515451 -0.27772993 -0.032549337
-0.08359793 -0.08381109 -0.004603927 0.02152625 -0.29870668 -0.10399671 0.015185275 0.0543309
-0.2681627 -0.09470062 -0.033915833 -0.035123896 -0.16237086 0.13312104 0.11805886 -0.13368233
0.07991289 0.048424937 -0.11792015 -0.14797626 -0.0726527 0.018423788 -0.04129231 0.032657802
-0.111115836 0.034693174 0.059340924 0.13975924 -0.00628616 0.11843706 -0.078697294 -0.005347822
-0.057183087 -0.035817005 -0.009528985 0.033963893 -0.09014107 -0.039602816 -0.26092172 -0.08100534
-0.06158871 -0.1465801 -0.037051424 -0.019363409 -0.28547084 -0.14178436 -0.06281209 -0.077404685
-0.021920472 -0.12971225 0.15100393 -0.025126059 -0.06370503 0.10968173 0.0031538308 0.045964494
0.03365176 0.042996474 0.03165435 0.088976435 -0.08271329 0.055236906 0.08068957 -0.13485193
-0.018379359 0.25324333 0.029008472 -0.0028845295 0.05677376 -0.106473565 -0.12964553 -0.05757179
0.18683833 -0.1266717 -0.037543304 -0.15103243 0.07287287 -0.1711789 -0.067381024 -0.18147354
-0.11992116 -0.17036414 -0.1120835 0.009150272 -0.12979695 -0.05433006 -0.10457988 -0.1597303
-0.099820465 0.0048567383 0.06246586 -0.038007442 -0.1669123 -0.053080212 -0.000496506 -0.04899364
0.12712541 -0.104334965 -0.02112019 -0.047683723 -0.16125911 0.017431274 -0.32542026 0.067604765
-0.037386898 -0.029901825 -0.030781962 -0.24109612 0.11644844 -0.025562013 -0.0693583 -0.10023088
-0.013781563 0.0010388591 0.027260572 -0.16531335 -0.013227778 -0.03026215 0.12930617 -0.0045449124
-0.044398677 -0.064431995 -0.0062044486 -0.100320615 0.029985411 -0.01539128 -0.046927057 0.03641825
-0.11510201 -0.010470845 0.045982033 -0.06217196 -0.12593296 0.04722167 0.008330077 0.0353135
-0.019278184 -0.086993225 -0.3283632 0.09959072 -0.12547022 0.005769189 -0.042339213 -0.037829395
-0.019130418 -0.059444316 0.013282638 -0.06723784 0.025733704 -0.041868094 0.047937762 0.028958745
-0.04841702 -0.052991882 -0.11163716 -0.12027529 -0.030497884 -0.032244183 0.022803046 0.04098437
-0.048534315 0.115232185 0.012814569 0.03831234 -0.052538037 0.01354136 -0.15216078 -0.16716
0.058391407 -0.015927866 0.07260913 -0.12539376 -0.25280696 -0.10502103 -0.011105571 0.25427723
0.014592172 0.21522744 0.19347386 0.056692164 0.028190596 0.050521098 -0.016627653 -0.006041698
0.19986549 0.0056395316 -0.1329644 -0.027623018 0.091215365 0.057774644 0.049116194 0.060366917
0.0869938 -0.21162727 -0.32616237 0.018847488 -0.033301853 -0.048788875 0.05870847 -0.13600715
-0.06261608 -0.25420976 -0.081201315 -0.13883884 -0.15935071 0.11526118 -0.045828342 -0.020348595
0.017511742 -0.08710891 -0.005250476 -0.06560006 -0.054132834 -0.06736738 -0.172656 0.05506652
-0.091168314 0.046623573 -0.06855518 -0.27383038 -0.04464496 -0.008352272 -0.018637419 0.025440287
-0.098850995 -0.011453994 -0.05134582 0.0071836007 -0.27533096 -0.15502077 0.051683545 -0.08957796

fc3.bias f4 [81]
00000000: f130 f23e 6925 153f b0f0 6d3f 080c ae3e
00000010: 98c4 563f 587d 343f 4029 473f 4cda 593f
00000020: ebc2 1c3f fd00 ca3e e584 823f 6596 d43e
00000030: adbf 543f 9f29 3c3f 7b7d 033f 4456 873f
00000040: daf1 153f 2c62 583f 0eac 7bbd b787 483f
00000050: 72f3 783d 321d 383f 29f0 1b3f 0109 263f
00000060: 15d4 7b3f d05f ef3e 402d d13e b35a ed3e
00000070: 535e 043f 4db6 173f 11b9 383f a1ca 543f
00000080: aa22 163f 783a 603e 63fa 5b3f a161 423f
00000090: fe7c 253f eeb9 273f 230d 313f c553 383f
000000a0: 9721 223f 8d4c ab3e 38d6 2d3f 7f8a 613f
000000b0: 2ed3 e93e d2c7 7a3f 1f9e 1f3f 390b 113f
000000c0: a476 473f bc3f 5a3f bf92 2d3f 5211 4d3f
000000d0: fc11 ea3e b98d c43e bbf3 7a3f 85ab 1b3f
000000e0: e32e 3e3e 4356 1f3f 07e2 ef3e e7b1 5b3e
000000f0: 5c26 193f bf0c 323f 6ecc 863e f75e 443f
00000100: 71ee 153f 79ee 8f3f d256 5a3f d664 073f
00000110: 5e2a 383f 889e 0f3f 3b96 bc3f a75a 113f
00000120: f67c 9d3f b499 ca3e 6836 633f 718f 593f
00000130: 2ff9 243f c4cd ba3e 0dad 4c3f 082b 823f
00000140: bf73 383f
0.47302964 0.5826021 0.92945385 0.33993554 0.8389373 0.7050376 0.7779732 0.8509872
0.6123492 0.3945388 1.0196806 0.41520992 0.83104974 0.7350101 0.51363343 1.0573201
0.5857216 0.845248 -0.06144338 0.78332084 0.060779043 0.7191955 0.6091333 0.6485749
0.98370486 0.46752787 0.40854836 0.4635826 0.5170643 0.59262544 0.7215739 0.8312169
0.58646643 0.21897304 0.85928935 0.7593022 0.6464385 0.6551808 0.6916067 0.7200282
0.63332504 0.3345684 0.67904997 0.88101953 0.4566893 0.9796115 0.6235065 0.5665775
0.77915406 0.852535 0.6780204 0.80104554 0.45716846 0.38389376 0.98028153 0.60808593
0.18572573 0.62241 0.46852133 0.21454583 0.59824157 0.695507 0.26327842 0.76707405
0.5856696 1.1244651 0.8528873 0.5288824 0.7193965 0.56101274 1.4733347 0.5677895
1.230376 0.3957039 0.8875489 0.849845 0.64442724 0.36485112 0.79951555 1.0169382
0.72051615
