code/outputs/seed/13/models/dqn_checkpoint.pth (torch, 354981 bytes, 6 tensors)

fc1.weight f4 [256, 5]
00000000: a021 d6bd d27f 4fbe 31b9 503d a2c8 99bd
00000010: 9fce e93b 60db efbe b28c 91be b02d b4be
00000020: 9808 b93d 9055 18be 75ab 8bbe e8f2 b8be
00000030: c423 8abe a4b9 2e3e 23c1 1bbe 0dab 7f3d
00000040: 1c48 93be 8f4f bebd 3792 83be 8fe6 2fbe
00000050: 3a88 c0be aee7 513e e26f bd3f 3a53 733f
00000060: b922 31bf 623b a2bd 5e96 923e 44ff de3f
00000070: 88a7 c93f 6949 c3be 4ef4 7cbd d240 0bbe
00000080: 0278 83be bedc a0be 90b7 64be aaf7 89be
00000090: ee89 e93e e128 a63e 0011 193f 9088 88bd
000000a0: 29cc a13e 3b45 373e 9555 823f 50fb eb3d
000000b0: 77d4 d0bf 45d3 ee3d 36cb 373f ba61 ef3f
000000c0: f2e1 c73f e516 083e 93f3 ff3e a3c7 14be
000000d0: daf1 8dbf cb3e 93bf c179 90bd 0bc6 a83e
000000e0: 8406 f2bd c1eb 9a3f e8cd 9d3e 9149 9fbf
000000f0: 0719 903d f0d1 2ebe d563 3b3e eb2e c9be
00000100: 81e1 16be 5cd0 573d 5be5 ad3d 6c9f 0f3f
00000110: 71c7 913d 7fbb b23e 1fbf 9e3e 6bf5 dd3d
00000120: 0dc1 d8bf 2a08 a6bf a2c1 cf3f 93e2 6ebe
00000130: df20 123f 11bd 1840 eed1 f13f f0fb 57be
00000140: 00c1 e93e 2a19 16be 60e7 83bf d64b 98bf
00000150: d104 34bf 3433 d23e 94f9 8b3e 6199 323f
00000160: a09f 423e 213d 8fbf 209c 89bf 226a 85bf
00000170: 861f 0bbf 58ff 5cbf 5815 d33f 4108 1dbe
00000180: 7370 b93e 1855 fe3f 1616 ca3f e93d abbe
00000190: 945c 933e ad23 323d 6c3f 97bf a096 ccbf
000001a0: b5a9 78be 19d3 fb3e 39ae 97be 4683 45bf
000001b0: e51f 0bbe 502f 63be b523 903c 1f02 dcbe
000001c0: f2ea 323d 0be1 fbbc 2dbb 6f3d 190d 2ebe
000001d0: 818d fc3d 714c b23f 415c 133f 7fe2 d1bf
000001e0: b21f abbe 45a6 b1bc d179 893e f23b bebe
000001f0: d51f 6b3e 0615 d03e 7f65 8b3e 739b 913f
00000200: 86c7 9c3f 706b 993f 7684 1ebe 3805 1a3f
00000210: d644 f23f 4eb6 df3f 253f 56be 00a2 1b3f
00000220: 56f8 22be 28e2 acbe cf67 ba3d 3fbf 283f
00000230: aa85 6e3e a024 f83e 07c5 163f e8c8 213f
00000240: c504 43bf 6336 193f 329b 83bb 1753 a9bf
00000250: e1af 92be a436 31be fdc9 dc3e 8864 86be
00000260: ccbe 533f 2d3d c83e ab02 123f a2a0 28be
00000270: ab15 383e 0e54 b33e 34ed c4be a62f df3e
00000280: b2b6 e6be 6fb9 5cbe 68cd b5be 00d1 dd3d
00000290: 0842 d6bd fbe8 62be bc20 1bbe 9132 aabd
000002a0: b751 74bd aa30 55be 4500 7bbe 5946 923e
000002b0: 46cf fd3e 6f1f aa3e c9c8 fd3e 185d bcbe
000002c0: d5fe ddbe ff64 80bd 2efe d2bd 3376 61be
000002d0: 5b3e c6be 60f1 973e f822 cb3f cf8e eb3f
000002e0: 2bf1 473e e7e7 de3e ecd5 81bd b52a bbbf
000002f0: e07d 04bf 235b 0ebf 4ef8 10be 1cbf 8c3e
00000300: 11f5 b53f 711b 013f c8af c0bf b41c a6be
00000310: 0d5d b93c 5eae cc3e 157c b5be b703 5d3e
00000320: 6f35 5fbd ff15 6cbd b54b ca3e 0110 cebe
00000330: 4749 903d 37fb 233e 8ab4 c9be 5694 293e
00000340: 7bae afbe f262 ac3e 8e75 5ebe 0c0b 5abf
00000350: a873 32bd 7a9d 46bf 8abd 923f 774a 10bf
00000360: 2bdb 5fbf 4607 babe 9192 3bbe 6c4c d83f
00000370: 5051 f73e 35ae 31be 2a0d 9dbf 7242 3abf
00000380: e1a9 b8be 53b6 893e 7679 ddbe 35ba ab3e
00000390: daf6 673e 0be9 6b3e 35a7 df3e 9261 1b3d
000003a0: 1b21 a5bf fc34 92bf bff7 313c 4699 903d
000003b0: 24a0 c13e ddba 3a3f 198f c63e 17da c7be
000003c0: 3427 a23d aac6 a23e 98b6 443f a9d2 ce3e
000003d0: f3e1 a4bf 5235 e73e b0d5 193f 4795 973f
000003e0: e8e0 e93e bd31 ccbe e8ea 883e bd0d 203f
000003f0: 8957 833f 29d3 5d3f 8693 72bf 0463 823e
-0.10455632 -0.20263603 0.050957862 -0.07508971 0.007135227 -0.46847057 -0.28427655 -0.35191107
0.09034842 -0.1487639 -0.2727925 -0.36122823 -0.26980412 0.17063004 -0.15210395 0.062418986
-0.28765953 -0.09292518 -0.2569749 -0.17177795 -0.37603933 0.20498535 1.4799769 0.9504887
-0.6919361 -0.079214826 0.28630346 1.7421651 1.5754251 -0.38141945 -0.061756425 -0.13598946
-0.25677496 -0.31418413 -0.22335649 -0.26946765 0.45613045 0.32453063 0.59791565 -0.06666672
0.31601074 0.17897503 1.0182368 0.115225434 -1.6314839 0.1166139 0.7179445 1.8701699
1.5615828 0.13289984 0.4999052 -0.1452928 -1.1089432 -1.1503538 -0.07054473 0.32963595
-0.11817649 1.2103196 0.30821157 -1.2444326 0.070360236 -0.17072272 0.18299802 -0.39293608
-0.1473446 0.05268894 0.08491012 0.56102633 0.071181186 0.34908673 0.3100519 0.108378254
-1.6933914 -1.2971241 1.6230967 -0.23328619 0.5708141 2.3865397 1.889219 -0.210922
0.4565506 -0.14658037 -1.0304985 -1.1898143 -0.7031985 0.4105469 0.2733885 0.6976529
0.19006205 -1.119053 -1.075077 -1.0423014 -0.54344976 -0.86327124 1.6490889 -0.1533518
0.36218604 1.9869719 1.578799 -0.3344567 0.2878157 0.043491054 -1.181623 -1.5983467
-0.24283488 0.49184492 -0.2962511 -0.7715343 -0.13586386 -0.22186017 0.017595151 -0.42970368
0.043681093 -0.030746957 0.058528114 -0.16997184 0.12331677 1.3929578 0.57562643 -1.6397246
-0.3342262 -0.021685729 0.2685075 -0.3715511 0.22961362 0.4064104 0.27225873 1.1375564
1.224839 1.1985912 -0.15480217 0.60164213 1.8927257 1.747751 -0.20922525 0.6079407
-0.15915045 -0.33766294 0.09101831 0.6591682 0.23293176 0.48465443 0.5889439 0.63197184
-0.7617915 0.5984861 -0.0040163035 -1.3228482 -0.2864981 -0.17306 0.43122855 -0.26248574
0.8271301 0.39109173 0.5703532 -0.16467527 0.17977016 0.35025066 -0.38462222 0.4359104
-0.4506126 -0.21555112 -0.35508275 0.10830879 -0.10461813 -0.22159187 -0.15149206 -0.08310426
-0.05964824 -0.20819345 -0.24511822 0.28569296 0.495722 0.33227107 0.4956725 -0.36789775
-0.43358484 -0.062692635 -0.10302387 -0.22017746 -0.38719448 0.29676342 1.5870047 1.8402957
0.19525592 0.43536302 -0.063396305 -1.4622408 -0.5175457 -0.55607814 -0.1415722 0.27489555
1.4215413 0.504325 -1.5053644 -0.32443774 0.022627378 0.39976782 -0.3544623 0.21583448
-0.054494318 -0.057638165 0.39510885 -0.40246585 0.070452265 0.160138 -0.39395553 0.16560492
-0.34312806 0.3366924 -0.21724531 -0.85173106 -0.04356733 -0.7758404 1.1464093 -0.56363624
-0.874438 -0.36333674 -0.1831763 1.6898322 0.48304224 -0.17351611 -1.2269642 -0.7275764
-0.36067107 0.26896915 -0.4325673 0.33540502 0.2265276 0.23038118 0.43682256 0.037934847
-1.2900728 -1.142242 0.01086229 0.070604846 0.3781749 0.7294138 0.3878105 -0.39033577
0.07917634 0.31792194 0.76841116 0.40395096 -1.2881454 0.45157868 0.60091686 1.1842431
0.45679402 -0.39881697 0.2674172 0.6252096 1.0261089 0.8665033 -0.9475635 0.25466168

fc1.bias f4 [256]
00000000: 4ac9 89be 3d0a 2d3d 897b 303d 1923 4a3d
00000010: 7c19 5c3f 63cb fc3e 90f4 833d 734f 293d
00000020: 854e 1d3e e16e 2abe 7961 81bf e103 ffbc
00000030: 22e2 b9be 9e97 0f40 6355 443f f593 633e
00000040: 3a62 66bf 2bef 18bf a566 e73f 9e7f d13e
00000050: 4b55 d2bf 9e76 03bf c913 07be a967 5c3f
00000060: b9ab 90be b709 ec3f 359d 463e ab26 2bbf
00000070: 72e3 623f 5577 1ebf 3655 123f 5b97 0640
00000080: bfb1 f13c f907 753d 59dd dc3f d310 823d
00000090: 8fe4 6e3e 533c 2fbf b965 4b3e 6fc8 b3be
000000a0: 1330 b3bd 8a49 d4be 7f7f 3640 80cd 0240
000000b0: 32be 16bf 3151 91be 2c81 6fbf 1e82 d73e
000000c0: 54a5 65be 933c d63e 2abb 18be 63e4 e53d
000000d0: 5194 d93e 7d8c 3c3d 10f3 ec3e 9cf0 1640
000000e0: f0c7 433f 0292 34bd 3e51 0c3f d4f6 533d
000000f0: 400d 803c b57a 03be 2eef 4a3f 7829 dd3d
00000100: f929 dd3f a766 193f a895 0e3e befb dd3f
00000110: 1f82 7c3f 87ad 3cbd f5bc 5cbd 015e dbbc
00000120: 7785 38be 1f75 bbbe 1e50 f53f 0571 e73e
00000130: a52a 99bf 65af 3f3f bd1d 5cbe 63e0 ef3f
00000140: 579a 373e db17 9d3e 5962 77bf 4c76 13bf
00000150: 6d7e a3bf fce4 44bf 276a 1140 4f17 883e
00000160: a30b 22bf 2743 1b3f ee61 11bf 0bb9 283f
00000170: fcd3 4fbf 8532 c2be ab05 143e a592 b3bd
00000180: cecc 8f3f 030c 3dbd c088 fdbd 86f4 bcbe
00000190: 7499 9abf d75f 62bf e806 3640 bad6 843f
000001a0: 0af3 b23f a531 c9bd 59af 043f 4764 0540
000001b0: 6340 0abe 8456 dabe b32c 363d 8cd6 ce3e
000001c0: b3c0 023e aca4 e2be af50 83be 3a9d b2be
000001d0: 76e1 a2be f864 0240 fd01 39be 2644 2840
000001e0: 6600 593f 25eb 69be f3bc 503d 92be 793d
000001f0: 0fa7 633e e20b b23e 23b9 2e40 6e4c 51bf
00000200: 1e11 673e cd9f dabe 6d6b 9abe f1b8 2140
00000210: 20ec 473e 2c1b 793f 5095 b3be 5fd0 0d40
00000220: 83ea c93c 2cf4 973e 75af c8be ae50 193f
00000230: 13b9 ee3f 11bf ad3c 0218 2a3e e1b4 c1be
00000240: 1a75 f13f 805e 0240 5fd8 39bc 2d61 c13d
00000250: 378b 503e f278 e93c 7225 333d a095 2140
00000260: 9df0 813f 43d4 4f3e 6d89 15be 6914 063e
00000270: 197a acbe 9db8 5fbf 4a91 d23e 28ad a93b
00000280: 6d5c 3fbf 0bfa 1940 64c9 e23e b522 f03c
00000290: 8cf6 d1bd 09c0 7bbe f853 2bbe f224 afbf
000002a0: 36de d7bf 940d 5e3e 9226 6d3f d47e eebc
000002b0: ef8b b73e 9fc9 a2be cb30 213e 80f2 0040
000002c0: 4947 3b3f 6a7f a1bd c5cd c9be a541 64ba
000002d0: a3e6 073f f314 91bd 0df0 003c aa4a ff3e
000002e0: 3241 d93f 9709 1e3e 8af7 9ebe e699 543e
000002f0: 4e26 ec3f 70f3 81be 6ce5 123f 852d b33e
00000300: 2af2 b7be a321 ccbf bc1b 813d 8ee8 af3f
00000310: 23ef dcbe 7e91 353e b615 7fbe 9c3d dabd
00000320: 1cf8 a7be c0be 90be 935d f03f 3553 263f
00000330: 067f 323d 90f6 293f dfef 8abe d18c 073f
00000340: dc3b 333f 760d c33f 8e1a 893d 7250 0d3f
00000350: e21c 353f 181c a83b fcc7 493f 68c5 453f
00000360: 9fa4 9b3f a41d 13be 3125 0dbd 22de 14bf
00000370: cb9a f13f 9f43 e43f 6c8c 9b3e 61a5 103f
00000380: 9436 2b40 ff5c febe 2e2c 583f b25e 6d3e
00000390: 6862 febd e2cc b3bc ccbe d83e 9665 f73f
000003a0: ff35 3a3e 1229 c23e 5a66 babc eafd e1bd
000003b0: 891e 8cbd a336 ec3e 0b9d 6cbf 23c6 953e
000003c0: c367 8c39 b468 0a40 7809 bbbe 21ee e63c
000003d0: 409a 80be 7032 5ebf 69a1 243c 1413 803f
000003e0: 9aee 0d40 adcf f73f 0be4 9fbe 795c a1bf
000003f0: 519c fd3f b3d1 1d3f b43c 263d ac6e 99be
-0.26911384 0.042246092 0.043086562 0.049349878 0.85976386 0.49373922 0.06443131 0.041335534
0.15361984 -0.1664386 -1.0107871 -0.03112978 -0.36305338 2.243629 0.7669279 0.2222441
-0.8999363 -0.5973994 1.80782 0.40917677 -1.6432279 -0.5135287 -0.13191141 0.8609567
-0.28256014 1.8440465 0.19395907 -0.6685588 0.88628304 -0.61900836 0.5716127 2.102988
0.029503701 0.059822056 1.725505 0.06350865 0.23329376 -0.6845142 0.19863023 -0.35113856
-0.08749404 -0.41462356 2.8515317 2.0437927 -0.58883965 -0.28382257 -0.93556476 0.4209146
-0.22426349 0.4184309 -0.14915147 0.11225202 0.4249597 0.046032418 0.46279192 2.3584356
0.76476955 -0.044084556 0.54811466 0.051749066 0.015631318 -0.12839778 0.7927121 0.10798925
1.7278434 0.5992226 0.13924277 1.7342451 0.9863605 -0.046063926 -0.05389114 -0.026778223
-0.18019663 -0.36612794 1.9165075 0.45203415 -1.1966139 0.74877006 -0.21495719 1.8740352
0.1792997 0.30682263 -0.9663444 -0.5760238 -1.2772957 -0.769119 2.272104 0.26580283
-0.63299006 0.6064934 -0.56790054 0.65907353 -0.8118284 -0.37929168 0.14455287 -0.087682046
1.1234376 -0.046154033 -0.123795986 -0.36905307 -1.207808 -0.8842749 2.8441715 1.0378029
1.398042 -0.09823922 0.5183006 2.0842454 -0.13501124 -0.4264413 0.044476222 0.4039806
0.12768821 -0.4426626 -0.25647494 -0.3488558 -0.31812638 2.0374126 -0.18067165 2.6291595
0.8476623 -0.22843607 0.050961446 0.060972758 0.22231697 0.3477469 2.7300498 -0.8175725
0.22565123 -0.42700043 -0.30160084 2.526913 0.19523668 0.97307086 -0.35074854 2.215843
0.024647957 0.29678476 -0.39196363 0.5988873 1.865023 0.021209272 0.16610721 -0.37833312
1.8863862 2.0370178 -0.011343091 0.09442363 0.20365606 0.028500054 0.043736883 2.5247574
1.0151554 0.20295815 -0.14603205 0.13093723 -0.33686903 -0.8739107 0.41126472 0.0051781125
-0.74750406 2.4058864 0.44294274 0.029313425 -0.10252103 -0.24584974 -0.1673125 -1.368315
-1.6864688 0.21684867 0.9263698 -0.02911321 0.35848948 -0.3179445 0.1574127 2.014801
0.7315565 -0.078856304 -0.39414802 -0.00087072916 0.530863 -0.07084074 0.007869733 0.49861652
1.6973021 0.15433346 -0.31048232 0.20761833 1.844919 -0.2538104 0.5738132 0.34995666
-0.35926944 -1.5947765 0.06304118 1.3742845 -0.43151197 0.17731282 -0.24910626 -0.10656282
-0.3280648 -0.2827053 1.8778557 0.64970714 0.04357817 0.6639185 -0.27136132 0.52949244
0.70013213 1.5238483 0.06694518 0.55200875 0.70747197 0.005130302 0.78820777 0.77254343
1.2159613 -0.14366776 -0.034459297 -0.5815145 1.8875364 1.7833136 0.3038057 0.5650235
2.6752062 -0.49680325 0.8444241 0.23180655 -0.12421113 -0.021948282 0.42333066 1.9327877
0.1818466 0.3792196 -0.022753883 -0.110347584 -0.068417616 0.46135435 -0.9242713 0.2925273
0.0002678019 2.1626406 -0.36530662 0.02818972 -0.25117683 -0.8679571 0.010048249 1.0005822
2.217688 1.9360253 -0.3122867 -1.2606345 1.9813329 0.616481 0.040585235 -0.29967248

fc2.weight f4 [256, 256]
00000000: 7c56 863c a97f cabc b75b 1e3d db9b aa3c
00000010: 1371 ae3e 7ac2 233e 68a1 4a3d 797e d73e
00000020: a824 62bf 0f8e 463e a263 3f3e 1261 5cbf
00000030: 786c d6bc e639 72be effe 1ebe bda0 603e
00000040: 7288 05bf a592 3bbf cd41 d23f 8b06 a73e
00000050: cd26 853e 726e 1fbe 28c1 49bc 1701 423f
00000060: de36 9cbd f234 25bf c11a 6d3e c72d c33e
00000070: 6458 763f 462d 853e 7102 a83f 8cfb bcbe
00000080: 6329 febd cf71 e03e 14e4 b93d 4387 a03d
00000090: f76e edbe c735 943e 763a 76bf 2615 47bd
000000a0: dd41 f2bd 94da 4ebe 744e fabe c4af d43f
000000b0: 3779 cd3d 1fa5 93be 9589 9d3e 5a0e 573f
000000c0: 5176 63bf eb12 553f eaf0 3bbf 2223 56bf
000000d0: 4ed7 c53e b03c b4bb 23e7 4e3e d71c 43bf
000000e0: 5e4c a23f 58ea 2ebd 3843 543f 7c9e 7a3f
000000f0: 29f9 273d cc74 39bd f195 463e 8f8e 05bf
00000100: dd7d d73f 4301 4abf 64fd 48bf ed0e d03f
00000110: 5cef aebd 84a3 bf3c 967b 7bbd 6b26 19be
00000120: d49c f4bc 200c 47bb b02c 23bf c580 d0bf
00000130: 5721 943e 7864 a43f 4daf 58be c96e c63f
00000140: baae ab3e 75d9 b5bf 2ef0 223e a04e b6bd
00000150: b62c a73e 1d20 6cbe 0728 6fbd d8fe b63e
00000160: bcd8 60bf f475 1e3f 4736 63bd 54a5 7e3f
00000170: b85f 243f 408e 86bc 92ad c5be 9557 40bf
00000180: 16d0 f4be a382 38be 2093 753b 884b ce3c
00000190: 998e b63e 913c dd3e 5594 edbe e7c1 043f
000001a0: 23dc 16bf 2412 c33c 3804 e8bf f3df 82be
000001b0: 63ed c63e 36dd 0abe ad33 923e 59a6 c03e
000001c0: f871 86bf 4ae8 66bd ea94 473d 5af1 04bd
000001d0: 90a1 d23c a952 32bf 806b ceba fafa 27bf
000001e0: 8971 9e3f e096 a6bb 9040 e5bc 10e4 813f
000001f0: 7555 76be f9e3 863f ee5e 0dbf 77ab 53bf
00000200: ff17 803e 4840 87bc a5a0 e6be a227 2fbf
00000210: 8400 a13e 2745 f6be 3691 393d 71cb d7be
00000220: 5045 afbc 56a4 76bf ac1e e03c cc86 343f
00000230: a147 cb3f 0981 cfbd 72a8 b7be b0c3 093d
00000240: 1778 33bf e944 f1be 0896 223c e6f4 15bd
00000250: 7f01 3fbf ac03 a83e f9f0 cc3e 5506 aabd
00000260: 4b39 623f 4ab8 3bbf cedd 38bd 78da 68bf
00000270: 68c6 72bc 592e 993e 5f04 37be 5bcc 0cbe
00000280: a910 cc3d 2a72 36bf 25ca c8bc 9cf2 34bf
00000290: 9caf 0ebd 60fe e43c e8e8 413c 8083 bc3d
000002a0: 29b6 aa3e 63a6 eebc 76dd c2bf 5cd4 df3c
000002b0: 024e d03e b609 1cbe 80a9 38bf d94e c0be
000002c0: 3621 19be cc3f 6d3d 41e8 80bf 31da 43bf
000002d0: 07f2 5b3e c042 2e3d c1d3 13be 8dd1 9ebf
000002e0: b580 4cbf 9bca fd3d 8f37 84be 3d41 14bf
000002f0: 9b8b 53be dbd3 67bf 171c 173f d9f2 b63e
00000300: 7007 d13c e835 883e 5e39 ae3d b45b c03f
00000310: d61c 1dbe 167f 903f 900c 6f3d 5652 4e3d
00000320: f45e d7bc c4f9 0c3d 4d62 74bf 150b c93e
00000330: 4bf0 c33e 97ad 223f 33e7 09bf f727 933f
00000340: 660a 833f f12f 6abf a654 5e3e d9f4 813f
00000350: bf4f 233f 8224 0abe bd9e b33f c5b4 43bf
00000360: d34b cd3f 9ccc 2dbf db01 5abf 7786 cf3e
00000370: 8451 40bf 4767 2dbf 5446 bd3e 2c33 a93e
00000380: 01df 4cbf fc1b 40bf 230f adbe 48be 8abf
00000390: 88ca 383d 7e1c 4e3e 82bc 523f e8b6 bbbe
000003a0: ced1 2bbf 24f8 4cbe 2c14 c43e c3a5 debd
000003b0: 542d 97bd 7200 a3bf c710 0b3d 9eef 9d3e
000003c0: 1d10 14be 99d1 05bf 5675 323d 7a79 acbd
000003d0: dafa 35bd dcb7 873f 9c07 dfbc a3ce 283e
000003e0: a7ff 89be 7a6e 80be 5ba1 6ebf 7731 903e
000003f0: 74af f2be fd60 813f ed64 b53d 0030 b838
0.01639866 -0.024719076 0.038661685 0.02082627 0.34070644 0.15992156 0.049470335 0.42088678
-0.88337183 0.19390129 0.1869035 -0.8608562 -0.026174769 -0.23654899 -0.15526937 0.21936317
-0.52161324 -0.73270637 1.6426331 0.3262218 0.26006165 -0.15569475 -0.012314118 0.7578291
-0.076276526 -0.64533913 0.23154737 0.38120863 0.96228623 0.26011103 1.3125745 -0.36910665
-0.12410238 0.4383683 0.090767056 0.07838299 -0.46373722 0.2894728 -0.96182954 -0.048604153
-0.11828969 -0.20200568 -0.4888798 1.661614 0.100328855 -0.28836915 0.3076903 0.84006274
-0.8885241 0.8323199 -0.7341448 -0.8364736 0.38640827 -0.0055003986 0.20205359 -0.7621588
1.2679555 -0.042703956 0.8291507 0.9789808 0.041009102 -0.0452774 0.19393136 -0.5217065
1.6835285 -0.78908175 -0.78511643 1.6254555 -0.08541748 0.0233934 -0.061397158 -0.14956062
-0.029859938 -0.0030372217 -0.6374006 -1.6289297 0.28931686 1.2843161 -0.21160622 1.5502559
0.33531743 -1.4206988 0.15911934 -0.08901715 0.326513 -0.23059125 -0.058387782 0.35741305
-0.8783071 0.6189873 -0.055471685 0.9947102 0.64208555 -0.016425252 -0.38608986 -0.7513364
-0.47815007 -0.18018584 0.0037471727 0.0251825 0.35655668 0.4321027 -0.4640223 0.5185837
-0.5892965 0.023812361 -1.8126287 -0.25561485 0.38852987 -0.13560948 0.2855505 0.37626913
-1.050353 -0.056373872 0.048726 -0.032456733 0.025711805 -0.6965738 -0.001574859 -0.65617335
1.2378398 -0.0050839037 -0.027984887 1.0147724 -0.24056037 1.0538322 -0.55222976 -0.8268351
0.25018308 -0.016510144 -0.45044437 -0.6841985 0.31445706 -0.48099634 0.0453045 -0.421474
-0.021395355 -0.96344507 0.027358375 0.70518184 1.5881234 -0.101320334 -0.358707 0.033633888
-0.7010512 -0.47122887 0.009923466 -0.036610506 -0.7461166 0.328153 0.40027598 -0.08301989
0.8836867 -0.7332808 -0.045133404 -0.90958357 -0.014817812 0.29918173 -0.17872761 -0.1374983
0.09964115 -0.7126795 -0.024510453 -0.7068269 -0.034835443 0.027953327 0.011835314 0.09204769
0.33342102 -0.029132074 -1.5223835 0.02732294 0.40684515 -0.1523808 -0.72133636 -0.37560156
-0.14954075 0.05792217 -1.0070878 -0.7650481 0.21479045 0.042544127 -0.14436246 -1.24077
-0.7988389 0.123921596 -0.25823638 -0.57912046 -0.20658724 -0.9055764 0.59027237 0.35732153
0.025516242 0.26603627 0.08507036 1.5027986 -0.15343031 1.1288784 0.05836159 0.05037149
-0.026290394 0.034417883 -0.95462495 0.39266267 0.38269266 0.6354613 -0.53868407 1.1496571
1.0237548 -0.914794 0.21711978 1.0152847 0.6379356 -0.13490489 1.4032818 -0.7644771
1.6038765 -0.67890334 -0.8515908 0.40532276 -0.7512438 -0.67735714 0.3696772 0.33046854
-0.80027777 -0.750427 -0.3380061 -1.0839319 0.045115024 0.20128056 0.8231889 -0.36662984
-0.6711701 -0.20016533 0.3829664 -0.1087146 -0.073816925 -1.2734511 0.033951547 0.30846876
-0.14459272 -0.52272946 0.04356893 -0.08421607 -0.044428684 1.0602984 -0.027225308 0.16485076
-0.2695286 -0.25084287 -0.9321496 0.2816274 -0.47399485 1.0107723 0.08857141 8.7827444e-05

fc2.bias f4 [256]
00000000: 9c94 a0be e88c 7c3f ae22 5fbd 8636 e33f
00000010: b5e4 103c e8ab 913f eef5 1e3f 23b2 e63f
00000020: c69f 283d d7f0 853f d7c1 d53f 52d7 aa3f
00000030: 324e 1ebd b360 2d3f 0460 493f 2654 6a3f
00000040: 0708 1abd 909c 54bd 8fc1 b8be 1cd2 3f3f
00000050: 85fb 9c3f dbad 3c3f f0a3 0b3c 96ba 4c3f
00000060: 5b46 05bd 36fa 4a3a ff70 10bf a767 b53f
00000070: b8e3 b83f 35ed 273f 2e2e d63f 43c7 b83f
00000080: cb80 93bd 870b 2b3d 9948 ab3f 4aa1 53bd
00000090: 29ec c63f 74ee 833e ac02 073f 4232 133f
000000a0: 6616 803f a6ed 533d 2f4d 393c 2990 9f3f
000000b0: 05cb aa3f 1c98 f93e f958 0640 d011 fabc
000000c0: 01c7 de3f a439 d03d 439f 35bd 801e c03f
000000d0: a78a fa3f 3b51 9b3c d6ad 243f 8cb7 b0be
000000e0: 1b20 9a3f a0c4 ac3f 247f 9c3f 66c9 af3f
000000f0: 2826 7ebc 850b 753d b353 413d 023e 68be
00000100: 68c1 00bc b47d a83f 02a4 233d ea25 a53f
00000110: 6675 b63f 13d0 a83f 2112 ea3e aec2 bb3f
00000120: de8e c9bc 4504 21bc 8bc8 ab3f cb55 d63f
00000130: 4854 cc3f 8c65 813f 09fd 0e3f 0bf1 a63f
00000140: 506f c83f f938 353d 3101 943f 6444 e6bc
00000150: f699 b23f 80b9 40bc 05d1 a43f 9750 5b3f
00000160: 10b1 b13f 9243 8a3f 62d5 dd3e 09a8 c83e
00000170: 981a 5b3f 4a41 19bb 5575 82bb 5381 db3c
00000180: b1dd 3bbe 1f75 d5bd 3394 e73f 5072 953f
00000190: 827c ec3f cf3a d5bc a0f4 ad3f 9f7a bd3f
000001a0: e54f 4c3f 2742 803e 89d4 d4ba 918e e9ba
000001b0: 1a5f 203c 937d c63f 3bb8 23bd 12cf 6abd
000001c0: 01a0 103f d68d 2e3f 9cf8 9a3f 0f39 d63f
000001d0: 0280 ae3f f35a 77bd d7d8 213d 5c64 843d
000001e0: 67a4 ea3f c1c7 343d 4292 4c3f abe7 f43e
000001f0: 0d76 84bd 1889 983d 937f 153f 1a67 9f3e
00000200: 220f 43bd 4e22 843f 26b1 2b3d 5d8f 203d
00000210: ed96 67bd f016 d33f 8db5 d6be 99f8 663f
00000220: c699 0240 330f e73f a9f2 0240 ee1b b53f
00000230: 19d6 0d40 1d2e 9e3f a837 dd3e 989c 34bf
00000240: 5687 19bd 8b14 ba3f bed6 88bd 2bed 9c3f
00000250: 91c3 b63f e0b2 c53b d066 8c3f 9ddf 6bbd
00000260: db03 2dbd 282e c63f 427c 4ebd 28bc 6c3f
00000270: 14cf 0fbc 2a81 d63f db7e b73f fb11 463f
00000280: fd79 5a3d 13b4 db3f 2b1c d13f 8038 993f
00000290: a1fd e73e 2c6e bf3f 866f 613f 0e49 b33c
000002a0: 0320 fb3e fc7a e1bc 9df3 453d 072d 173f
000002b0: fd48 38bd 1653 0240 eba6 ca3f 0003 83bd
000002c0: 2da9 0040 de9f 8c3f a300 64bd e745 5f3f
000002d0: 1a32 db3f 6d62 f43e 0db3 793f d215 35bd
000002e0: 3035 ba3f 3b02 2abd 5f9d 203f e5ce 723f
000002f0: 6456 113d ef8b 293f 294e b03f 3d30 f23f
00000300: bb75 ee3f 600c 1b3d 9ea4 71be a561 65bd
00000310: 60c5 8bbe ab5c 423f d72a bd3f 082d b63f
00000320: 40d0 0140 1cd0 95be 0b12 05be 836e fe3f
00000330: 0e1e 993c fa91 0abd 7d18 823f 7a3f c93d
00000340: 8a30 453f 0079 7dbe 5627 9d3f 0ffd 2abe
00000350: e59d bc3f db51 203f 70d5 ea3f 1c55 3e3d
00000360: e6ab 85bd 04eb 543d bc55 30bd fe17 17bd
00000370: 5678 963f 3119 8abe eba2 0040 a08b b43f
00000380: dead 5cbd e4b6 1d3f 950e 7abd 09cc 483c
00000390: 9ec9 273d 3dea 373d b2c2 bc3f 9599 3ebd
000003a0: 83f1 c2bc 7cca 1dbd 4273 663f c113 6a3e
000003b0: 35f2 60bd 8176 d63f ae66 9a3e d5a4 8e3f
000003c0: 876a 013c 856d bfbb 3a25 d43f 3f36 51bd
000003d0: 6af3 bf3c 0c49 3a3e 04a6 6c3f d25e 4abd
000003e0: 400e 983c 67fc 9e3f 3e1b aa3f a897 ea3f
000003f0: a119 ae3f 498d 0040 673a e93f 00c8 e3bc
-0.3136338 0.98652506 -0.054476433 1.7751014 0.0088435905 1.1380587 0.6209401 1.8023113
0.041167997 1.0464123 1.669978 1.334696 -0.03864879 0.67725676 0.78662133 0.9153465
-0.03760531 -0.051907122 -0.36085173 0.74929976 1.2264258 0.7370278 0.008522972 0.7997221
-0.0325378 0.0007742973 -0.5642242 1.4172257 1.4444494 0.65596324 1.6732843 1.443581
-0.072023 0.04175904 1.338153 -0.05166749 1.554082 0.25767863 0.5273845 0.5749856
1.0006835 0.05174031 0.011309906 1.2465869 1.3343207 0.48748863 2.0991805 -0.030526072
1.7404481 0.10167244 -0.044341337 1.5009308 1.9573563 0.018959632 0.6432775 -0.34515035
1.2041048 1.3497505 1.22263 1.3733337 -0.015512027 0.05982544 0.047198962 -0.22679904
-0.007858612 1.3163362 0.039951332 1.2902195 1.4254577 1.3188499 0.45716956 1.4668787
-0.024604257 -0.009827678 1.3420576 1.6744932 1.5963221 1.0109115 0.5585485 1.304231
1.565897 0.044243786 1.1562864 -0.028108783 1.3953235 -0.011762977 1.2876288 0.85669845
1.388216 1.0801871 0.4332686 0.391907 0.85587454 -0.0023384863 -0.003981272 0.026795065
-0.18346287 -0.1042273 1.8092102 1.167551 1.8475497 -0.026029019 1.3590279 1.4803046
0.7980941 0.2505047 -0.0016237657 -0.0017818977 0.009788299 1.5507072 -0.039970618 -0.057326384
0.56494147 0.68185174 1.210712 1.6736163 1.3632815 -0.06038947 0.039513435 0.064644545
1.8331422 0.044135813 0.7991067 0.47833 -0.06467829 0.074480236 0.5839779 0.31133348
-0.047621854 1.0322969 0.04191699 0.039199222 -0.05654042 1.6491375 -0.41935387 0.9022308
2.0406356 1.8051513 2.0460608 1.4149148 2.2161925 1.2357823 0.43206525 -0.70551443
-0.037482582 1.4537519 -0.06681584 1.2259878 1.4278432 0.0060332865 1.0968876 -0.0575863
-0.042240005 1.5482836 -0.05041147 0.92474604 -0.008777399 1.6758168 1.4335588 0.77371186
0.053338993 1.7164329 1.6336721 1.1970367 0.4531069 1.4955497 0.88060796 0.021885421
0.4904786 -0.027524464 0.04832803 0.5905308 -0.044991482 2.0363212 1.5832189 -0.063970566
2.0103257 1.0986288 -0.05566467 0.8721604 1.7124665 0.47731343 0.97538835 -0.044210263
1.4547482 -0.041506033 0.6274013 0.94846946 0.03548278 0.66229147 1.3773853 1.8920971
1.8629678 0.0378536 -0.23597953 -0.056001324 -0.27299023 0.7592265 1.4778699 1.4232492
2.0283356 -0.29260337 -0.12995164 1.9877476 0.018691089 -0.03383062 1.0163723 0.0982656
0.7702719 -0.24753189 1.2277629 -0.16698097 1.4735686 0.626249 1.8346386 0.046467885
-0.06526928 0.05198194 -0.043050513 -0.036888115 1.1755474 -0.26972345 2.0099437 1.410511
-0.05387675 0.61607194 -0.061049063 0.012255677 0.04096376 0.04490112 1.4746916 -0.046533186
-0.023796802 -0.038523182 0.9001962 0.22859098 -0.054918487 1.6754915 0.30156463 1.1144053
0.007898933 -0.005841913 1.6573861 -0.051077124 0.023431499 0.18191928 0.9244082 -0.049406834
0.018561482 1.2420777 1.3289564 1.8327532 1.3601571 2.0086234 1.8220948 -0.027805328

fc3.weight f4 [81, 256]
00000000: f9ce c7be a01d 01bd b4f7 c4bc 0255 b03c
00000010: 20f7 0a3d 6205 143d c69d ae3d a771 a6bd
00000020: aa31 9a3b 5b14 af3b e28e 51bd fca5 303e
00000030: a8cc 1e3d fe83 35bd 4f7f 24be 4735 86bd
00000040: 987b 7cbd 0281 47bd a877 4fbe 728e 143e
00000050: a02d 003d 01f2 ccbc f60b 0b3c 2d07 ee3d
00000060: 530b 423d 14de 433d a7ab 3f3e c745 e53c
00000070: 9abe e83b 8436 18be 850f 25bd e38c b03c
00000080: 43ff 25bd 7598 b13b d9f3 993d 404d 3f3b
00000090: 1037 123d f428 903e b951 283d 9fe8 86bd
000000a0: 0019 e2bd bea5 523d a18c 4ebc abd7 fe3c
000000b0: eda3 b63d e005 28bd bbe4 1c3d 00ae 2cba
000000c0: 9fca 90bb b808 a43d 1836 78bd a6a1 6cbd
000000d0: 98a5 523d 7206 073d d095 14be e879 b53e
000000e0: caef bc3d 5952 3c3d f9ab 323c 1229 143d
000000f0: 6233 3a3d bac2 6cbd eea4 1fba 29b4 1c3e
00000100: ec7b 5b3d d927 c43d e4c6 7ebd 579e d33d
00000110: a79b f0ba 9a7d 243d fabf 983c d2b3 aabc
00000120: 9862 e2bc c68d 4dbd 3eb4 e93c a434 113e
00000130: 2c95 ce3d c42d 37be 9142 38be bf4c 84bd
00000140: 69a0 033e aa83 a73b 40ba 86bd f819 69bc
00000150: 2d3e 293d a8e0 893c c690 653e abc7 7ebd
00000160: 990e 6a3c 75ff 88bd addf 1abc 04f6 cc3d
00000170: 27ba bb3d 2e5d 623d 09d5 0f3c 06ab 6d3e
00000180: 6230 89be a41c 66bd f4e1 af3b 1eea 91bd
00000190: 5f6e 553d 9040 3abd 6490 1e3d a48e 30bd
000001a0: 2857 5ebd 3c84 0fbe 4ba7 2e3b c048 e83b
000001b0: 3c3e e4bc 40bf f93c a670 0b3d 6034 f13b
000001c0: 4343 60bd 95ef 3d3e 9729 183e 2aa3 56bc
000001d0: 0613 813d 9c01 603d d034 00bd e5af bf3c
000001e0: 6486 bbbb 0688 21bd d520 f33b 7e5a 3bbc
000001f0: 2012 98bb 6569 ff3d a23d 75bb 0672 3ebd
00000200: 7a5f 7ebd 3a45 3e3d 36ea 32bd e449 06bd
00000210: a8ab 2dbc ac8e a13d d4b0 0cbe 023a bcbd
00000220: 919a dcbc a064 c03c 74a8 ed3d 4f34 efbd
00000230: 438e 073d 951c 783d 756e 953d ce0e 4dbe
00000240: 8427 253d 9746 c4bd 94b2 b2bc 2cda c0bd
00000250: ece1 043e 2e94 173d ccb6 f3bd 10f3 dcbc
00000260: 90e1 94bb 5329 553c c01f efba 4d07 18be
00000270: 170d 6abc a398 83bd c680 253d 62d6 42bd
00000280: aa60 37bd 210e 003d 07f9 483d d3e2 09be
00000290: 5309 683c de6b 2ebd e98f 4abd 0e06 783d
000002a0: bf50 6dbd 3075 bd3c d455 f1bc 857e bdbc
000002b0: 70fd e8bc 1af2 093e b41d c83c 7685 183d
000002c0: 7ae8 073c c298 3fbd ae00 1ebd 762a 6fbd
000002d0: 54b9 553e 66f4 87bc 25f2 9bbd 60e8 663d
000002e0: 096d 1a3c 8c72 c23c 326e 36be 450f 2bbd
000002f0: aa04 0a3d 4ef2 763c ff36 cb3d 2c57 2dbc
00000300: 973c c3bd 38cf ef3c 779b fbbd 8bb8 2b3d
00000310: b9b3 5dbe c01e 93bd 9a10 833d 61e1 b43d
00000320: ed5d 89bd 7804 49be 56f0 54bc 7e9e a63d
00000330: dc32 793d b8cf 65bc 2591 53bd 142e 47be
00000340: 3263 84bd cccf 44be e1a4 1dbd 9916 84be
00000350: 306f f53c 43ee 88bd 14b0 303c 2e3e 673d
00000360: 54ca 49bd 8a8f 5c3d f10d 803c e00e 71bd
00000370: 7792 2dbd 4f04 d3be 3da1 fb3c 4891 983d
00000380: 542b 5bbd 40db aebe 00ce 44ba 906c 6bbd
00000390: 62b3 6abc 4c47 953a d267 fdbd d488 51bd
000003a0: 28c5 313c 56ad 28bd b0f7 5cbd 1594 653c
000003b0: 43b2 fdbc 5569 a33b f075 dabd e30f 10bd
000003c0: 0c28 423c dad3 62bc 99ce 43bd e0f7 023b
000003d0: 8061 38bc 0fbe 0f3d f27d 0ebe b86b 123d
000003e0: 1482 eb3c 10a8 6f3c fd15 013e 2e7b 883d
000003f0: d7cd 743d 7c01 373d 296f 38bc d4fa 04bd
-0.39025095 -0.031522393 -0.024043895 0.02152491 0.033927083 0.036137946 0.08526187 -0.08127146
0.0047056274 0.0053430027 -0.051161654 0.17250818 0.038769394 -0.04431533 -0.1606419 -0.065531306
-0.061641306 -0.048707016 -0.20260489 0.14507464 0.03129351 -0.02501774 0.008486738 0.116224624
0.04737408 0.047819212 0.18717824 0.027987374 0.0071027996 -0.14864546 -0.040298004 0.021551555
-0.04052664 0.0054197856 0.075172134 0.0029190332 0.035697043 0.28156245 0.04109356 -0.06587338
-0.110399246 0.051427595 -0.012606771 0.031108698 0.08917985 -0.041021228 0.038304072 -0.00065872073
-0.0044186856 0.080094755 -0.060598463 -0.057771347 0.051427454 0.03296513 -0.14510274 0.3544457
0.09225424 0.04597697 0.010905259 0.03617198 0.04545916 -0.057802893 -0.0006089945 0.153031
0.053584978 0.09577913 -0.062201396 0.10332935 -0.0018356935 0.040158845 0.018646229 -0.020837698
-0.027634904 -0.050184034 0.028528329 0.14180237 0.10087046 -0.17888552 -0.17994143 -0.06459951
0.1285416 0.005112131 -0.06578493 -0.014227383 0.04131906 0.016830757 0.22418508 -0.062202137
0.014285707 -0.066893496 -0.0094527425 0.10007861 0.09166365 0.055264644 0.008778819 0.23209772
-0.26794726 -0.056179658 0.005367512 -0.071247324 0.05210721 -0.045471728 0.03871192 -0.043104783
-0.054282337 -0.14015287 0.0026650007 0.0070887506 -0.027861707 0.030486703 0.034042977 0.00736098
-0.054751646 0.18548425 0.14859615 -0.013100425 0.063024566 0.054689035 -0.031300366 0.023399303
-0.0057228077 -0.039436363 0.0074196854 -0.011435149 -0.0046408325 0.12471274 -0.003742077 -0.04649546
-0.062102772 0.04645274 -0.043680392 -0.03278531 -0.010600008 0.078885406 -0.1373933 -0.091907516
-0.026929172 0.023485482 0.116043955 -0.11679899 0.033094656 0.060574133 0.07296459 -0.20025179
0.04032089 -0.095837764 -0.021813668 -0.09416613 0.12976807 0.03700655 -0.119001 -0.02697137
-0.0045434907 0.013010341 -0.0018243715 -0.14846535 -0.014285347 -0.064255975 0.04040601 -0.047567733
-0.04476992 0.031263474 0.049065616 -0.13465433 0.014162379 -0.04258334 -0.04945365 0.06055265
-0.057938334 0.023127168 -0.029459871 -0.023131618 -0.02844116 0.1347126 0.024428226 0.037236653
0.008295173 -0.04677654 -0.038574867 -0.058390103 0.20871478 -0.01659603 -0.07614545 0.056373954
0.00942541 0.02373626 -0.17815474 -0.04176261 0.033695854 0.015072418 0.09922599 -0.010579865
-0.09533041 0.029273614 -0.12285512 0.04192404 -0.2165059 -0.071835995 0.06399651 0.0883205
-0.06707368 -0.19630611 -0.012996754 0.08135699 0.06083952 -0.014026575 -0.051652092 -0.19451171
-0.064642325 -0.19219893 -0.03848732 -0.2579849 0.029960245 -0.0668607 0.010784168 0.056455784
-0.04926522 0.053847827 0.015631648 -0.058852077 -0.042376008 -0.41214225 0.030716533 0.07449585
-0.053508118 -0.3415165 -0.0007507503 -0.05747658 -0.014324995 0.0011389046 -0.12373318 -0.05115588
0.010850228 -0.04118093 -0.05394715 0.014012356 -0.03096879 0.004986922 -0.10667026 -0.0351714
0.011850368 -0.013844455 -0.04780445 0.001998417 -0.011253715 0.035093363 -0.13915232 0.03574726
0.02874855 0.014627472 0.12606044 0.0666412 0.059766617 0.04467915 -0.011256971 -0.03246577

fc3.bias f4 [81]
00000000: dc16 1d3f 5cab 413f 2662 3a3e b437 193e
00000010: 8bcf ef3e 35ef 0b3f ce4b 3f3f 8be3 903e
00000020: f579 013f 629c 16be 0f19 943f 1354 773e
00000030: 558b 033c 7a01 373f 80b9 a93e 4eb4 993e
00000040: 4758 863e 9ecf 4d3f bfa0 793f afc2 f33e
00000050: 45c5 f53e 1b5a c73e de01 d43e c4be 8bbe
00000060: fa83 7f3f ea87 043f 3604 c13e 73e1 bd3e
00000070: 5d24 21bc 536f 123f afd9 023f ef12 563f
00000080: c699 c73e 37c4 bc3c eb8a 983d 62ce bc3f
00000090: bc02 fa3d 91df a93e 09cc 993d c168 7e3f
000000a0: 2898 1d3e a17f 0e3f b2e5 ed3e 7b13 c93e
000000b0: ede7 863e b487 373f 2143 213f 4efb 173f
000000c0: c648 183f bff0 473f a64c 353f 8f9b d93e
000000d0: e597 ce3e acfb 0a3f f8f2 c1bd 0a0f 123f
000000e0: 77ac a8be fa0a 0b3f 6922 bcbd fc34 4f3f
000000f0: b19c eb3e 30c8 623f d5b3 3f3f 261b ba3e
00000100: b193 153f 98fc 0a3f 68f8 d13d 5200 223f
00000110: 7fc8 743e 02b6 6d3f 6042 313f f460 653f
00000120: 46a4 573f 0a2b 423f 5ce8 083f 4f89 853f
00000130: 7e63 e53e f711 913e d3fd 313f bb27 6d3f
00000140: 6af6 d63e
0.61363006 0.756521 0.18201503 0.14962655 0.4683803 0.54661876 0.74725044 0.28298602
0.50576717 -0.14708093 1.1570147 0.24153166 0.008028825 0.7148663 0.33149338 0.30020374
0.26239225 0.80394924 0.97510904 0.4760947 0.48002067 0.38935933 0.41407675 -0.2729398
0.99810755 0.5176989 0.37698525 0.37086067 -0.00983533 0.5720112 0.5111341 0.8362264
0.38984507 0.023042781 0.074483715 1.4750483 0.12207553 0.3317838 0.0750962 0.9937859
0.15390074 0.55663496 0.46464306 0.39272675 0.2634882 0.7169144 0.62993056 0.59367836
0.59486043 0.78101724 0.7082008 0.42501494 0.4035026 0.5429027 -0.09470171 0.570542
-0.3294408 0.54313624 -0.09186251 0.8094022 0.46017984 0.8858671 0.74883777 0.36348838
0.58428484 0.5429168 0.10252458 0.6328174 0.23904608 0.92855847 0.69241905 0.89601064
0.84235036 0.7584692 0.5347955 1.0432528 0.4480247 0.2833402 0.6952793 0.9263875
0.41984874
