code/outputs/seed/18/models/dqn_checkpoint.pth (torch, 354981 bytes, 6 tensors)

fc1.weight f4 [256, 5]
000000 55 79 cd bd 19 c3 1a 3c c6 5d df 3f 81 5d ed 3e
       -0.10032908 0.009445929 1.7450492 0.463604
000010 8a 74 ac 3f 11 b2 a1 bd b9 73 e3 3e 50 72 93 be
       1.3473065 -0.078952916 0.44424227 -0.2879815
000020 7e 4c 85 3f 87 6f a2 3e 32 df 0c be 1e 20 58 3e
       1.0413969 0.31725714 -0.13757017 0.21106002
000030 68 05 07 40 a3 c6 7d 3f ff 1c 99 3f 3a a7 41 3d
       2.109705 0.9913122 1.1961974 0.04727862
000040 41 90 21 3f 46 77 8d be d5 72 83 3f 2e 68 b3 be
       0.6311074 -0.2763006 1.0269419 -0.3504042
000050 39 6a fd 3e 8d eb 43 3f 81 b0 09 40 36 5c 19 3f
       0.49495104 0.76531297 2.151398 0.5990633
000060 6e 45 8d bf ce c0 9c bd 90 44 07 3e 2e 68 03 40
       -1.1036813 -0.07653962 0.13209748 2.0532336
000070 a8 a7 74 3f 73 77 a1 bf 0d 80 cf be ba 3f d8 be
       0.95568323 -1.2614578 -0.40527382 -0.4223612
000080 24 5b 33 3d b8 db 01 be 1a 61 18 bc 89 67 b8 3e
       0.04378809 -0.12681472 -0.009300495 0.3601649
000090 40 de 06 3f 31 8d b5 bf f1 ca c6 bd 25 f3 03 3f
       0.52682877 -1.4183713 -0.09706677 0.51542884
0000a0 43 56 0e be 52 ad 85 bd 9a b6 17 3e 3b 04 84 3f
       -0.13900094 -0.06527199 0.1481575 1.0313791
0000b0 28 c6 19 3f 32 75 4d 3e a2 28 82 be 8c db 0b 40
       0.6006799 0.20064238 -0.25421625 2.185275
0000c0 c5 f1 2e 3f 19 94 66 3f 88 1e 29 39 58 3e a6 3d
       0.6833766 0.9006973 0.0001612847 0.0811736
0000d0 af f9 db 3f 77 ea 3d 3f c8 28 37 3f 2f c8 65 3e
       1.7185572 0.7418589 0.715466 0.22439645
0000e0 af 17 07 bf f1 2c 7f 3e e9 0f ff bd 98 8d de be
       -0.52770513 0.24919488 -0.124542065 -0.43467402
0000f0 c4 aa 20 bc 80 97 68 3c 34 2e fd 3f 14 2a 16 3f
       -0.009806339 0.014196277 1.9779725 0.58657956
000100 1a d6 12 c0 96 a6 3a 3e e9 74 8d 3d c1 37 e7 3f
       -2.2943177 0.1822761 0.069070645 1.806389
000110 3c 15 6b 3f 81 b0 40 3f 01 4d 82 3e 37 ca 21 bf
       0.91829276 0.75269324 0.25449374 -0.6319918
000120 8e 7d 48 3f ea b6 f5 be f3 0e 87 3f e0 be c0 3e
       0.7831658 -0.47991115 1.0551437 0.37645626
000130 ee 52 0f 3f 41 f8 34 bf 20 b9 30 3f 1d 6c 8e bd
       0.55985916 -0.70691305 0.6903248 -0.06954215
000140 c9 91 ae 3e 83 8a f3 3e 27 6d df 3f bf 37 91 3f
       0.340956 0.47566614 1.7455186 1.1345137
000150 34 33 02 40 48 d7 a1 be 2a 42 2c 3e f1 dd 4c bf
       2.0343752 -0.3160956 0.16822115 -0.80026156
000160 ea b8 49 3f 3f 97 25 3f 1c 51 2e 3e 2e 89 e2 3e
       0.7879778 0.6468391 0.17023128 0.44245285
000170 df 91 f6 3f 87 84 9a 3f eb 4d 09 40 5d 45 29 be
       1.9263266 1.2071694 2.1453807 -0.16530366
000180 5b ea d0 bd 40 ce 30 be 3d e4 8d be 92 f2 bf be
       -0.1020095 -0.17266178 -0.27713194 -0.37489754
000190 10 dd b1 be 91 93 7d 3e 05 59 b0 3f 26 2e b0 3f
       -0.3473897 0.24763323 1.3777167 1.3764083
0001a0 df a2 05 40 72 97 b7 bb be ac 64 3e dd 82 18 40
       2.0880659 -0.0056027705 0.22331521 2.3829873
0001b0 fb 8b 45 3f e3 cc b1 3f 5c 96 b9 be ad ea 00 3f
       0.7716672 1.3890651 -0.36247528 0.50358087
0001c0 a4 08 4a 3f a7 f6 0d 40 fa c1 97 3f c0 11 a9 be
       0.78919435 2.2181795 1.1856072 -0.33021355
0001d0 75 c9 d6 3e b3 3f c1 3e 16 e3 5d 3f 65 26 1f 40
       0.41950575 0.3774391 0.8667463 2.4867184
0001e0 ad de e4 bd dd 42 bd bc 2d 07 4b 3e 60 c6 fc 3e
       -0.111752845 -0.023103172 0.19826956 0.49370098
0001f0 08 7c 99 3e 05 33 be 3e 62 a6 1e 3e 7f e6 45 bf
       0.2997744 0.371483 0.15493158 -0.77304834
000200 22 e8 ad be 6d a2 31 3f 52 12 7b bc 88 a6 41 bd
       -0.33966166 0.6938847 -0.015324192 -0.047277957
000210 b6 f2 08 40 7b 1d 70 3f da 29 e1 3e cc 59 b3 3e
       2.139814 0.93794984 0.43977243 0.35029447
000220 db 06 b1 bd 99 dd 9c bf c7 cf 91 bf 26 3d 81 bf
       -0.08643886 -1.2255126 -1.1391534 -1.0096786
000230 0b a2 4e be 6a 8a 66 be 6d 87 97 3e a2 6f 36 bd
       -0.20179002 -0.22513738 0.2959551 -0.044540055
000240 5d df b2 3e e1 e3 e3 3e 0c c8 b1 bd 69 13 87 bf
       0.34936038 0.44509795 -0.08680734 -1.0552799
000250 85 f6 44 bf 6e b0 51 3f ab 35 4a 3e 14 81 8a bc
       -0.7693866 0.81909835 0.19747035 -0.016907252
000260 4e 0d ab 3f 4a 63 b7 3e c5 9a e7 bf e5 19 02 bd
       1.3363435 0.3581794 -1.8094107 -0.031762976
000270 33 82 4a 3c c5 76 09 40 3a 78 2e 3f 1c 98 8b bf
       0.0123601435 2.147874 0.681522 -1.0905795
000280 a2 d3 f0 bd 28 20 91 3c 2f 5f d6 3f 8d 37 6d 3e
       -0.11759116 0.017715529 1.6747798 0.23165722
000290 62 bb b8 3f f4 a7 8e 3e c6 46 72 bd 1c 13 e8 3f
       1.4432185 0.27862513 -0.059149526 1.8130832
0002a0 48 c8 e7 3e de 19 ad bf 9d 85 8b be 25 56 c0 be
       0.4526999 -1.3523519 -0.27250376 -0.37565723
0002b0 ee 8f d0 3e 37 f6 b2 3e ca b6 c0 3d d0 e9 7f be
       0.4073481 0.34953472 0.09409864 -0.24991536
0002c0 ed 6e 83 be 9d d7 46 3e a6 27 5e be 41 8b 7b 3e
       -0.25670567 0.19418187 -0.21694812 0.2456484
0002d0 52 40 d4 3e b3 45 20 be cc 37 7e bf 10 03 ff be
       0.41455323 -0.15651588 -0.9930389 -0.49807024
0002e0 2e b3 b1 be 8a 6a 14 bd ce 1f 93 be 7c e9 cd bd
       -0.34707016 -0.036234416 -0.28735203 -0.10054299
0002f0 bc 0b 06 be 57 ab f5 3d 69 21 d9 bd 55 e9 29 3e
       -0.13090414 0.11995571 -0.106020756 0.16592915
000300 62 a8 24 40 6a cb 84 3f cf 24 8b 3f 92 ff 2a be
       2.5727773 1.0374577 1.0870608 -0.16699055
000310 df 43 95 be e8 ec 3d be a4 2e 0d 3e f9 25 86 3e
       -0.29153344 -0.18547404 0.13787323 0.26200846
000320 4a 41 2d 3d a5 c3 4b be df 68 11 bd 34 9a a5 be
       0.042298593 -0.19898851 -0.035500403 -0.3234421
000330 23 5c 04 3d e6 fe c1 be c4 df f3 3e 4f d6 f0 3f
       0.03231443 -0.37889785 0.47631657 1.8815402
000340 3f a6 ae 3f ff 0a 48 3f 7c 16 0e 3f 1c fd 74 3e
       1.3644484 0.7814178 0.5550306 0.23924679
000350 90 70 b6 bf 70 a9 70 bf 7b 69 1c bd bc 6d 62 3e
       -1.4253101 -0.9400854 -0.03818653 0.22112173
000360 a6 55 65 3e 8e 0e ac bf fa 60 2c 3f 41 a5 4e 3f
       0.22395954 -1.3441942 0.67335474 0.8072091
000370 68 2f 3f be 7e 46 c9 3d d1 35 22 40 aa 31 24 3f
       -0.18670428 0.098278984 2.5345347 0.6413828
000380 9a 45 a3 3f 60 0f 3e be 4b b0 dc 3e cb 61 1a 40
       1.2755616 -0.18560553 0.4310325 2.4122188
000390 2e 42 69 3f 4e 41 2e 3e 05 21 35 3f 8f 2b 66 3f
       0.9111661 0.170171 0.7075351 0.89910215
0003a0 ff 23 de 3f 0c 17 2e be 02 fe 91 bf 81 72 8b 3e
       1.7354735 -0.17000979 -1.1405642 0.27235797
0003b0 22 ac 41 bf db 8a 4a 3f d3 88 6e bf c2 14 c1 3f
       -0.7565328 0.79118127 -0.9317753 1.508446
0003c0 7a 36 d7 be 00 b0 52 be ec af d6 3e ae cd d1 bd
       -0.4203375 -0.20574951 0.41931093 -0.102443084
0003d0 3e 61 22 be 29 65 b9 3e 75 e1 c3 3d 5a 6a 43 bf
       -0.15857407 0.36209992 0.09564487 -0.76334155
0003e0 79 8e b8 3b d5 3e 82 3f b4 72 b7 3e a4 e1 8a be
       0.0056322184 1.0175425 0.358297 -0.27125275
0003f0 d8 66 ad bd 96 c3 4c bf 2d 87 df 3e 3a 74 78 3e
       -0.084668815 -0.7998594 0.43657818 0.24263087

fc1.bias f4 [256]
000000 5d 46 23 40 e5 8c 72 3e 93 52 25 40 60 da 82 3e
       2.5511696 0.2368656 2.583165 0.25557232
000010 3f 20 36 3f 16 2e 26 3f 14 fe 3a bd 87 2b 08 bf
       0.71142954 0.6491407 -0.045652464 -0.5319142
000020 fe 08 a8 3f 16 01 07 40 9e ac 0e 40 ae ff b1 3e
       1.3127744 2.1094413 2.2292857 0.3476538
000030 85 e9 10 3f f5 82 1d 40 d5 cf c4 3f d0 08 4b 3d
       0.5660632 2.461118 1.5375925 0.04956895
000040 07 4a 58 40 0c 93 dc be 93 97 37 40 26 4d 97 be
       3.3795183 -0.43080938 2.8686264 -0.29551047
000050 66 3f 56 40 db a3 0f 40 cc d8 2d 40 cf 43 3e 40
       3.3476195 2.244376 2.7163572 2.9728887
000060 27 f7 5d 3f db 85 11 bf 31 6c 14 40 d9 6f 93 bf
       0.8670525 -0.5684487 2.3191035 -1.1518508
000070 6e 6c dc be d8 41 5d bf 3a ff 97 3e ab 3b e4 3e
       -0.43051475 -0.86428595 0.2968691 0.44576773
000080 4b c5 28 40 7f 4c 62 3e 01 be ee bd ba 27 9b be
       2.6370418 0.22099493 -0.11657334 -0.30303746
000090 ad 3c 54 bf 35 43 cd be 80 bc 07 40 82 2a bd be
       -0.82905084 -0.40090337 2.1208801 -0.36946493
0000a0 06 a9 26 bd b8 e3 2e 40 5a 26 42 bf 45 54 33 bf
       -0.040688537 2.7326488 -0.7583977 -0.7005046
0000b0 d2 1d f5 3f d4 4e 0b 40 0e d4 61 3c f7 c0 09 40
       1.9149725 2.1766863 0.013783468 2.1524026
0000c0 64 e9 9d be 18 db 62 bf b5 a7 66 3f 6c 25 55 3e
       -0.30842125 -0.8861556 0.9009965 0.20815057
0000d0 7c f0 9f bd 79 68 1d be e1 b2 c4 be 92 95 c2 be
       -0.07809541 -0.15371884 -0.38417724 -0.38004738
0000e0 89 13 94 3e 83 66 62 3e 3d 99 03 40 2c 76 37 40
       0.28921154 0.22109418 2.056228 2.8665876
0000f0 e0 9e 23 3f 2c db 6e bf 66 08 2f be 96 2a 15 3d
       0.639143 -0.9330318 -0.17093047 0.036417566
000100 8a 0b a5 bf 71 d3 d3 be a2 67 a6 3e 1f 3e 35 3e
       -1.2894146 -0.41372254 0.3250094 0.17699479
000110 59 73 0d 3f d9 f2 04 40 34 20 53 40 70 6b 32 3f
       0.5525413 2.0773222 3.2988405 0.69695187
000120 b2 4c 32 bc 7b fa 18 40 ff 18 28 be e8 aa 6e bf
       -0.010882543 2.390288 -0.16415785 -0.9322953
000130 95 11 32 40 75 0f 19 3e fe fd 32 bd a0 84 3f bf
       2.7823231 0.14947303 -0.043699257 -0.74811745
000140 2f 6e 85 40 2f 1e 04 40 59 8c e1 3e bf d7 fd 3e
       4.1697 2.0643423 0.4405239 0.49578664
000150 84 51 65 be 85 22 39 bf c8 2b a7 be 09 96 8f 3d
       -0.22394377 -0.723183 -0.3265059 0.07011039
000160 1b ca 78 be 61 ea 59 be 30 73 2b 3e b0 eb 11 40
       -0.24295847 -0.21280815 0.1674316 2.2800102
000170 c7 6d 46 bf 54 8a a6 bf ed 6c 37 bd 8d 76 02 be
       -0.77511257 -1.3010964 -0.044781614 -0.12740536
000180 7c f9 11 40 4c 77 02 40 61 dc 97 3f 98 40 d1 be
       2.2808523 2.0385313 1.1864129 -0.40869594
000190 14 1d 49 3e 20 9f e2 3f 27 5e 09 3f 17 05 9e bf
       0.19639999 1.7704811 0.5365929 -1.2345303
0001a0 cf c3 bf bd 05 d3 81 bb 76 5a 6c 40 d1 65 9b 3b
       -0.093635194 -0.003961923 3.6930213 0.004742362
0001b0 bc 1b 0c 40 fb df 0f 3f 3b bd 3e 3f cf c8 1e bd
       2.1891928 0.5620114 0.7450749 -0.038765725
0001c0 8d 0b d6 bb ed 29 7f 3e d5 a1 6c be 86 fa a8 be
       -0.0065321387 0.24918337 -0.23108609 -0.33003634
0001d0 dd ad a4 bf 3b cc f7 3f 2b 7b ee bd 15 13 67 40
       -1.2865559 1.9359201 -0.11644586 3.6105397
0001e0 4a fd 12 be a4 07 a1 3e 5c 39 9d bf 49 50 3e bd
       -0.14354435 0.31451142 -1.228313 -0.046463285
0001f0 7c 24 3d bd 12 2e 18 40 e0 b6 8c 3e 78 3e 7b 3e
       -0.046177372 2.377812 0.27483273 0.24535549
000200 c2 cf 26 bf 2c 48 dc be fd 9c ff 3e 63 13 80 bf
       -0.65160763 -0.43023813 0.4992446 -1.0005916
000210 25 92 f6 3f 76 d2 eb 3f b1 4b d7 be 2e 9e cd 3f
       1.926335 1.8423603 -0.42049935 1.6063898
000220 2a 80 2f 40 6b c4 bb be 8e b2 3a 3d d3 bd 90 be
       2.7421975 -0.36673293 0.04558044 -0.28269824
000230 95 b9 46 3f 18 0c 7d 3e b3 9a 90 bf 1a 01 d8 3f
       0.77626926 0.24711645 -1.129721 1.6875336
000240 b5 01 db 3d b7 74 15 40 12 aa 13 ba 1c bc 92 bf
       0.10693685 2.3352487 -0.00056329474 -1.1463656
000250 ae 0a d7 be 54 6f f2 bd ab f4 9a be 53 85 a4 bb
       -0.42000335 -0.118376404 -0.30264792 -0.0050207763
000260 81 49 6b 3e 1b 21 68 be 45 59 b4 bd 62 ac 04 40
       0.22977258 -0.22668879 -0.08806089 2.0730214
000270 74 5d e1 bd 9f 21 ed 3f a1 73 10 be 54 59 3e 3f
       -0.11004153 1.8525885 -0.14106609 0.74355054
000280 75 5e 57 bf cd 91 3c be f7 9e 53 bf e8 c4 28 40
       -0.84128505 -0.18414994 -0.82664436 2.6370182
000290 ff df 91 be a6 e1 31 bd fc 9b 13 3c 14 99 c3 3f
       -0.28491208 -0.043428086 0.009009358 1.5281091
0002a0 35 e5 8f 3c 29 d9 a6 bd 53 f0 46 bf 98 16 d0 3f
       0.01756535 -0.08146889 -0.77710456 1.6256895
0002b0 04 b8 1a 40 b3 d8 1e be f0 83 f5 3f 12 c6 b3 bd
       2.4174814 -0.15512352 1.9180889 -0.08778013
0002c0 54 c3 10 40 21 e5 b2 3e b1 cb e1 be 82 22 35 bf
       2.261922 0.34940436 -0.44100717 -0.7075578
0002d0 4a 61 12 40 f5 ab bc be f3 fd 1f 40 22 d7 86 3d
       2.287188 -0.36849943 2.4998748 0.06584002
0002e0 61 a3 0a 3f 7d 21 f9 3f 8e 6f c7 3f 1e 98 24 40
       0.54155546 1.9463345 1.5580919 2.5717845
0002f0 66 59 d8 3e 24 eb a7 bf ed e1 c9 be 8a 28 16 40
       0.42255706 -1.3118634 -0.3943018 2.3462243
000300 dc b1 db be ac e8 48 40 bb ae d0 be 5b a8 1c 3f
       -0.42909133 3.1392012 -0.4075831 0.6119439
000310 9c d9 19 40 cd 83 04 40 37 08 74 bf 0d d8 a2 3f
       2.4039068 2.0705445 -0.95325035 1.2722183
000320 da b2 25 40 5a a9 ac bd ad 11 24 be 08 a1 38 40
       2.5890412 -0.08430739 -0.16022368 2.8848286
000330 c4 fa b2 be 2b 35 e4 3f fc 86 cb 3d ad 5e 69 bf
       -0.34956944 1.7828726 0.099378556 -0.9116009
000340 ea 8a 18 40 93 e2 cd be a4 d8 a2 3e 7b c3 ae 3e
       2.3834786 -0.40211925 0.3180591 0.34133515
000350 f7 16 1f 3f 39 2f 4a bf a4 3f cf 3e 34 97 a6 be
       0.62144417 -0.78978306 0.4047824 -0.32537234
000360 1e b8 0d 40 18 2e 00 40 b9 f1 ea 3f ba d6 e1 bd
       2.2143626 2.0028133 1.8355018 -0.11027284
000370 ac ca d6 be 70 dd d4 be 5e 1a 36 40 83 e2 4d 40
       -0.419515 -0.41575193 2.8453593 3.2169502
000380 31 ea d5 be 68 fc ea 3e 4d 77 07 40 eb 78 57 bf
       -0.41780236 0.45895696 2.1166565 -0.8416888
000390 66 e4 6d 40 98 fe 4d 40 61 5a 01 3d c1 09 b5 3e
       3.7170653 3.2186642 0.031580333 0.35359004
0003a0 00 9b 7d 40 a2 b3 4c be c0 52 89 be 2f c8 0f 40
       3.9625854 -0.199904 -0.26820946 2.2465932
0003b0 60 bf 49 3f 15 9b 2c 40 46 06 62 40 f0 65 64 3e
       0.7880764 2.6969655 3.531633 0.22304511
0003c0 82 59 57 bf 04 8a df 3e 20 d6 15 40 52 53 85 bf
       -0.84120953 0.43659985 2.3411942 -1.0416052
0003d0 3d 12 f6 3f 80 20 e7 be 54 06 0e bf 78 ff 34 3e
       1.9224316 -0.45141983 -0.55478406 0.17675579
0003e0 a8 92 aa be 49 9e 33 3f d9 23 e4 3f ac 6e 05 40
       -0.33315015 0.701634 1.782344 2.0848799
0003f0 91 e6 6c 40 c3 14 5f bf f6 c8 d7 be 07 f8 35 40
       3.7015727 -0.87141055 -0.4214551 2.8432634

fc2.weight f4 [256, 256]
000000 d8 b8 0a bd 14 05 cd 3c 70 18 1c bc a4 75 01 3d
       -0.033867687 0.025026836 -0.009527311 0.03160633
000010 7a 65 08 bd a6 13 7f bd 00 f1 3d 3d a0 c0 3c bb
       -0.0332999 -0.062274598 0.046372414 -0.0028801337
000020 ba 20 70 bd 58 2b 57 3c 74 4a 27 3d 30 cd d6 bc
       -0.05862496 0.013132893 0.04084249 -0.026220888
000030 c0 04 09 bb 06 06 5c 3d 16 bb 63 bd fc 5d 38 3d
       -0.0020907372 0.053716682 -0.05559834 0.045011505
000040 48 84 ff bc c4 1c 93 bc 6c c7 b8 bc 30 6a de 3b
       -0.031191006 -0.017958052 -0.02255603 0.006787561
000050 94 d4 d8 bc 80 a3 6b bd e0 a3 f5 bc a8 14 d6 3c
       -0.026468553 -0.057528973 -0.029985368 0.026132897
000060 80 d7 cd 3b bc f2 c8 bc b4 df 7b 3d 18 a2 cd bc
       0.006281793 -0.024529807 0.061492637 -0.025101706
000070 c8 96 64 3c 0e 98 57 3d 1c 26 e9 bc 48 26 02 3c
       0.013951965 0.052635245 -0.028460555 0.007943697
000080 14 bc 97 3c 98 8b 31 bd 5a 32 52 3d 04 49 05 bd
       0.0185223 -0.043346018 0.05131755 -0.032540336
000090 32 d4 5b bd d4 5c 25 3d fc cd d2 bc 1c af c4 3c
       -0.053669162 0.04037173 -0.025732987 0.02400928
0000a0 b8 74 dc 3c dc be 91 3c a0 e7 3e 3b 3a 07 33 bd
       0.026911125 0.017791204 0.0029129758 -0.043708064
0000b0 f0 dd 98 bc 00 d0 c0 37 42 b7 5a bd 02 68 5e bd
       -0.018660516 2.2985041e-05 -0.053397425 -0.05429841
0000c0 60 7b 38 bb 20 da b1 bb 7c 4f 91 3c 6c d3 b7 bc
       -0.002814971 -0.005427614 0.017738096 -0.022439681
0000d0 96 17 4e 3d c0 fb 39 3d 3c 30 c4 bc 00 75 b7 3b
       0.050315462 0.045406103 -0.023948781 0.0055986643
0000e0 16 21 09 bd 60 a7 13 3d c0 ae 37 3b f2 f2 26 bd
       -0.03347882 0.036048293 0.0028027743 -0.040759034
0000f0 90 72 71 3c 30 f1 73 bc d2 64 22 bd e2 1a 7c 3d
       0.0147367865 -0.014889047 -0.03964693 0.061549075
000100 70 27 00 3c 30 78 b1 bc ee be 07 bd d6 81 0b bd
       0.007821903 -0.021663755 -0.03314107 -0.034059368
000110 b0 a3 48 bd 14 5d d0 3c 5e 6c 7f bd c6 3e 10 bd
       -0.04898423 0.025435008 -0.062359206 -0.035216115
000120 90 ab 94 3c ee 6c 23 3d 00 cf 4b 3d 00 d8 c7 b9
       0.018148214 0.039898805 0.049757957 -0.0003811717
000130 5c 36 66 3d 34 38 94 bc 98 60 a0 3c b8 75 0f bd
       0.056204185 -0.018093206 0.01957731 -0.035024375
000140 f8 90 0b bc 9c e7 20 3d f4 f2 44 3d f0 38 9f bb
       -0.00851845 0.03928338 0.04808326 -0.0048590824
000150 c4 03 d2 bc 92 d9 6e 3d 24 47 24 bd 62 0a 13 bd
       -0.025636561 0.05831296 -0.040106907 -0.035898574
000160 76 44 6a bd 68 04 9d bc 24 29 87 bc 02 55 0e bd
       -0.057194196 -0.01916714 -0.01649911 -0.03474904
000170 2c 62 f9 bc 90 14 84 bc 00 60 b0 b9 8e f7 76 3d
       -0.03044232 -0.016123086 -0.00033640862 0.06029468
000180 7c 16 fa bc b4 ff 5e bd 24 57 4e bd 12 a5 52 bd
       -0.0305283 -0.054443076 -0.050376073 -0.051426955
000190 94 07 5a bd f8 37 10 bd 58 91 33 bd da c4 24 3d
       -0.053229883 -0.035209626 -0.043839782 0.040226795
0001a0 cc 71 a4 bc 4c b7 f1 bc 34 8e 8b 3c 70 d8 0c bc
       -0.020073794 -0.029506348 0.017035581 -0.008596525
0001b0 38 27 13 bc 8a 20 67 bd 22 d4 25 3d 4c b7 34 bd
       -0.008981518 -0.056427516 0.04048551 -0.044120118
0001c0 7c 52 8f 3c e0 7d 3b bd 68 e7 4f 3d bc 0a cd 3c
       0.017495386 -0.04577434 0.050757796 0.025029533
0001d0 a4 5b 80 3c 94 8b 8f 3c 80 d8 07 ba 72 76 12 3d
       0.015668698 0.01752261 -0.00051821023 0.03575749
0001e0 90 60 9d 3c ca fb 50 bd d4 5f 29 bd 6c 08 61 bd
       0.019211084 -0.051021375 -0.041351154 -0.054939672
0001f0 00 90 21 ba f8 b0 13 bd 04 aa ee 3c 1c 46 18 bd
       -0.000616312 -0.036057442 0.029133804 -0.037176237
000200 a0 70 0b bc 70 8f 0d 3c a2 41 16 3d 28 88 bb bc
       -0.008510739 0.008640155 0.036683686 -0.022892073
000210 20 3d a2 3b c0 75 04 bb e0 86 60 bc 10 a7 f8 bc
       0.0049511343 -0.0020211786 -0.013704032 -0.0303531
000220 94 cd ef bc 04 f8 2a bd f2 e8 21 3d 10 7d e9 3c
       -0.029272832 -0.041740432 0.039528795 0.028502017
000230 18 7c 27 3d 2e af 3b bd 50 24 87 bc b4 60 5d 3d
       0.04088983 -0.04582136 -0.016496807 0.0540473
000240 24 76 4c 3d 8c c3 26 3d 80 5d 3d 3a 5e 08 48 3d
       0.049917355 0.04071383 0.00072237104 0.048836105
000250 e8 c6 1c 3d 9e 2d 0b 3d 18 64 e6 3c 9a 01 7a bd
       0.03827563 0.03397905 0.0281239 -0.061036684
000260 6a fc 45 3d 90 5d ae bb b6 90 72 3d 0a 8c 05 3d
       0.048336424 -0.005321212 0.05922004 0.032604255
000270 12 de 60 3d ce 83 41 bd c8 0e 83 3c 70 bf 3e 3c
       0.054899283 -0.04724484 0.01599826 0.011642322
000280 e0 77 c8 3b dc 9e 3e 3d 08 d0 62 bd 0c 98 b0 bc
       0.006117806 0.04653822 -0.055374175 -0.021556877
000290 48 fb e5 3c 98 09 28 3c 90 1f 88 bc 04 ce 7e 3d
       0.028073922 0.010256194 -0.016616613 0.06220819
0002a0 10 24 56 bc b8 03 f5 bc e8 c3 8a 3c f8 cf 73 bc
       -0.013070121 -0.029909 0.016939119 -0.014881127
0002b0 ec 5c 01 bd 80 78 41 bd a0 1c 6a 3c 50 13 51 3c
       -0.031582758 -0.04723406 0.014289051 0.012760952
0002c0 1c 6c 49 bd ec 22 a7 3c bc 2b 6d 3d 0c 83 4e bd
       -0.049175367 0.020402394 0.057903036 -0.050417945
0002d0 44 b4 33 bd 84 12 ee 3c 30 40 9d bb 70 02 dd bb
       -0.043873087 0.029061563 -0.0047989115 -0.0067446753
0002e0 ce 46 6c 3d 9e 60 1d bd be b3 55 3d 58 8a 78 bd
       0.057684712 -0.03842222 0.05217337 -0.06067881
0002f0 b0 6d e2 bb 80 4b 83 bc d4 7b 65 bd ce f0 04 bd
       -0.0069100484 -0.016027212 -0.056026295 -0.03245621
000300 62 b2 72 3d c8 07 a3 3c e0 7b c9 3c 40 8d ac bc
       0.05925215 0.019901171 0.024595201 -0.021063447
000310 4c 35 47 3d 0e 82 07 3d f8 6f 56 3d 5c d2 be 3c
       0.048634812 0.033083014 0.052352875 0.023293667
000320 50 75 9f 3b 9c 7d de bc 94 0d fd 3c f4 21 be bc
       0.0048662797 -0.027159505 0.030890264 -0.02320955
000330 d0 1e 22 3c 36 8b 1a bd 84 dc 1d 3d 48 c5 1e bd
       0.009895042 -0.03773042 0.03854038 -0.03876236
000340 84 21 3f bd 12 1b 08 bd 58 61 ac 3c 1c 18 c4 3c
       -0.046662822 -0.03322894 0.02104251 0.023937277
000350 10 18 dd bc 1a 41 63 bd f6 56 25 3d ce 74 40 3d
       -0.026989013 -0.055482008 0.040366136 0.046986394
000360 f8 4c 61 3c d0 5d 3e 3d 98 90 4e bd 80 e7 50 3b
       0.013751261 0.046476185 -0.050430864 0.0031876266
000370 68 24 10 bc c0 71 53 3c 40 c0 be bc c4 b7 ad 3c
       -0.008797742 0.012905538 -0.023285031 0.02120579
000380 b8 25 7e bd 02 9b 65 bd c6 a3 24 bd 20 9e cd bb
       -0.06204769 -0.05605603 -0.04019525 -0.0062749535
000390 2a 3f 63 3d 6c e3 a9 3c f4 ee 0e bd 8c fe b8 bc
       0.05548016 0.020738326 -0.034895852 -0.022582315
0003a0 84 45 c1 bc a4 37 e3 bc bc 8e d9 3c dc 7e 19 bd
       -0.023592718 -0.027736492 0.026557319 -0.0374745
0003b0 9e 7b 11 3d 5c 8e 64 bd 58 ee c9 3c 18 98 fe 3c
       0.03551828 -0.055799827 0.024649784 0.031078383
0003c0 80 d3 b2 3a 7e f6 60 3d 80 4b 05 3b f0 ba 51 bd
       0.0013643354 0.054922573 0.002033919 -0.051203668
0003d0 cc f8 4e 3d 50 40 2c 3d 64 87 c6 bc 1c 7d da 3c
       0.05053024 0.04205352 -0.024234481 0.026670985
0003e0 d6 95 32 3d e8 70 35 3c e6 98 3a bd 70 d2 e9 bc
       0.043599926 0.011074282 -0.04555597 -0.028542727
0003f0 60 22 94 bc 68 91 ca 3c 00 0e 11 3d 02 c4 66 3d
       -0.018082798 0.024727538 0.035413742 0.05633927

fc2.bias f4 [256]
000000 30 71 75 bd f5 32 c9 3e 12 91 80 ba f5 50 6d 3f
       -0.059922397 0.3929669 -0.0009808859 0.92701656
000010 6d bb be 3e 9e da 76 3e 8e d9 a8 3e e2 14 18 3d
       0.3725237 0.24106833 0.3297848 0.03712929
000020 03 f5 ba 3e 67 78 8e 3e f7 48 af 3d 14 cd e8 3e
       0.36515054 0.27826235 0.08558839 0.45468962
000030 83 c7 2b bd d7 75 b0 3e a0 6a 0f 3f 1e cb 38 3f
       -0.041938316 0.34464905 0.5602207 0.7218493
000040 8b f1 34 bc 4d 0b 88 3e 7b 15 87 bd a8 83 c6 3e
       -0.011043916 0.26571122 -0.06595894 0.3877232
000050 a0 3b e5 3e 80 eb 96 3e fe 87 cf 3e 88 08 08 bc
       0.44772053 0.29476547 0.4053344 -0.008302815
000060 6c 96 cc bc 2b 59 ac 3e b6 a4 22 3d 9a de 23 3f
       -0.02497407 0.3366178 0.03970786 0.6401154
000070 3e c7 84 3e bc de 38 bd 59 0f d5 3f e0 90 ce 3f
       0.2593326 -0.04513429 1.6645309 1.6137962
000080 b0 52 bc 3e 3b d6 12 bb 97 05 3a 3e bc 89 ca 3c
       0.36781836 -0.0022405523 0.18166195 0.02472388
000090 1c cd e0 3e b4 49 57 3e b8 70 b6 bc ef 97 7f bc
       0.43906486 0.2102421 -0.022270545 -0.015600189
0000a0 76 c3 8d 3f 0a dd e9 3e 71 e1 89 3f 94 0a dd 3f
       1.1075275 0.45676452 1.0771924 1.7268853
0000b0 d9 7e 46 be 33 42 b9 3e a8 b8 04 3f 37 a6 20 3f
       -0.19384326 0.36183318 0.51844263 0.62753624
0000c0 2c 82 9c bc e9 3f e7 3d f6 d3 0e 3e 1d 7b 75 bd
       -0.01910504 0.11291487 0.13948044 -0.059931863
0000d0 66 1c 85 bd 62 f1 7d bb ec 3f 00 3c 00 92 b3 bc
       -0.06499557 -0.0038748612 0.00782774 -0.021920204
0000e0 1b 7d be 3e 93 ea 28 bd ca 55 c5 3e 0b d6 50 bd
       0.37204823 -0.041239332 0.38542014 -0.050985377
0000f0 4f b5 4b 3e 14 b1 30 3d ff 8e ac 3f c0 bb 66 3b
       0.19893382 0.043137625 1.3481139 0.0035207123
000100 37 82 15 40 02 b4 19 40 ae 28 84 3f 12 b6 ef 3f
       2.3360727 2.4016118 1.0324914 1.8727438
000110 b4 d5 99 3f 5f 23 20 bc e3 e0 cd 3e ed d3 8f 3c
       1.2018342 -0.009774058 0.40210637 0.017557109
000120 e9 da 2d 3d 69 b8 1d 3f 58 d7 45 3f a3 41 94 3e
       0.042445097 0.6160951 0.77281713 0.28956327
000130 83 ba c1 3e cb 9e d2 3e a8 eb 03 be 38 36 69 3d
       0.3783761 0.41136774 -0.12882864 0.056936473
000140 af cc 08 3c 4a d0 f6 3e 9d 27 73 3e 77 09 3e 40
       0.008349582 0.48205787 0.2374558 2.9693277
000150 9d 2e 5b 3e a1 97 ce 3e 17 69 5b bc 9d e8 f7 3e
       0.214045 0.4035006 -0.013391755 0.48419657
000160 42 9c 32 bd bc 5f 86 3c 9d 64 67 3e a1 39 09 3f
       -0.04360605 0.016403072 0.22596975 0.5360356
000170 c9 1b 82 3e c1 b5 b1 3f 65 7c 6b bd 25 31 e3 3f
       0.25411823 1.3883592 -0.05749168 1.7749373
000180 8b 24 7f 3e c4 f5 df 3d dd 56 2c 3f 73 30 2d 3d
       0.24916284 0.10935548 0.6732004 0.042282533
000190 35 5e 76 3c a3 3a 63 3f 07 ab 08 40 9f 82 b3 3b
       0.015037109 0.8876135 2.1354387 0.0054782177
0001a0 68 31 fc 3e f0 14 c2 3b c5 50 f3 3f ab 16 2d bd
       0.49256444 0.005922906 1.9009024 -0.042257946
0001b0 67 e7 00 3e 7b 77 c3 3c e2 8c b4 3e 24 bc a5 bd
       0.12588273 0.023860684 0.35263735 -0.080925256
0001c0 14 bf a8 3e ac 8d 9b 3e a2 08 02 40 51 8a 11 40
       0.3295828 0.30381525 2.031777 2.2740672
0001d0 3b 04 c1 3f 02 6d 76 bd d5 d8 b1 3e 0f 00 cd bb
       1.5079416 -0.06016255 0.34735742 -0.0062561105
0001e0 80 fd 5e 3d d2 01 e7 3e 91 75 f2 3f 7e 83 4f 3c
       0.054440975 0.45118576 1.8942128 0.0126656275
0001f0 b8 2e d5 3f d3 59 07 bd 2e 02 2b 3d 81 29 c7 3e
       1.6654882 -0.033044647 0.041750126 0.38898852
000200 37 0f ba bc ee 84 0e 3e b4 e4 a6 3e 00 87 03 bc
       -0.022712333 0.13917896 0.32596362 -0.008027792
000210 4f 34 24 3e e9 e6 af bd 0c 4e d2 3c e8 c8 cd 3c
       0.16035579 -0.085889645 0.025671981 0.025120214
000220 cb 26 4f 3d f7 16 ae 3e 43 b4 f8 3e b4 43 ff 3e
       0.050574105 0.34001896 0.4857503 0.4985634
000230 ef 7d 54 3e 11 f8 5c 3e 10 89 76 bd 06 df a9 3e
       0.20751165 0.21579005 -0.060189307 0.33177966
000240 cc d1 01 be f7 c2 c6 be dc 6e 15 3f 11 ca 18 bd
       -0.12677687 -0.3882062 0.58372283 -0.03730208
000250 22 e9 2a 3b a7 86 a5 3e 10 b7 c8 3f 49 28 a2 3e
       0.00260789 0.32329294 1.5680866 0.3167136
000260 0e 5f 3c 3f 3a f9 eb 3e b1 f1 57 3b a0 94 88 bd
       0.7358254 0.46088582 0.0032950456 -0.06668973
000270 38 92 76 3e ee 09 51 bd 1a 0f 37 3f 95 2a e3 bd
       0.24079216 -0.05103486 0.7150742 -0.11092106
000280 62 e6 fe 3b 48 8f 71 3f 30 04 0e bd d7 f0 61 bd
       0.0077789286 0.94359255 -0.034671962 -0.055161323
000290 d1 ec 73 3e f7 af 55 3f e8 16 fc bc 2a 7c 2b bd
       0.23820807 0.83471626 -0.030772641 -0.04186646
0002a0 9a 65 05 3d 4f 9c b7 3e a7 ed 89 3e 98 9a 23 40
       0.032567598 0.35861441 0.26939127 2.5563107
0002b0 8e ad 8c 3e 28 9e 98 3e b5 de fe 3e a4 80 d0 3a
       0.27476162 0.29808164 0.49779287 0.0015907479
0002c0 ab 8a b9 3e 06 d8 95 3f 74 14 e2 3c 4b 12 3e 3c
       0.36238608 1.170655 0.027597643 0.011601041
0002d0 17 ca 30 bd 58 81 7f 3d 23 a2 e1 3e d7 65 cf 3e
       -0.043161478 0.06237921 0.44069013 0.40507385
0002e0 f8 a2 8f 3c 03 5b be 3c 7a 7c 60 3e be e5 a8 3e
       0.017533764 0.023236757 0.21922484 0.3298778
0002f0 4e aa ac 3e 68 cb 14 40 14 f1 9e 3e a4 b6 18 3f
       0.33723682 2.324915 0.31043303 0.5965369
000300 2e 21 59 bd 88 8d f0 3c 86 da 00 3d f1 71 2a bd
       -0.05301016 0.029364362 0.0314584 -0.04161257
000310 e9 43 c1 3f 89 84 b7 3e 24 dd 14 be 80 5d 5b bd
       1.509885 0.35843304 -0.14537483 -0.053555965
000320 d3 09 86 3e e3 44 b9 bc 51 a8 00 40 c9 f0 d1 be
       0.2617937 -0.022615856 2.0102732 -0.41004017
000330 b6 fc 87 3e 5f 1a aa 3d 44 27 07 bd 01 ec cc 3f
       0.2655999 0.08305811 -0.03299643 1.6009523
000340 30 77 b8 3f f8 f1 17 3c 43 cc 1e bd 32 84 3f 3d
       1.4411373 0.009273998 -0.038769018 0.04675693
000350 20 17 5b bd 54 97 e9 bc 06 d6 10 3f fc ca 0f 3d
       -0.05348885 -0.028514542 0.56576574 0.03510569
000360 64 b1 15 3c 22 c1 14 3f 1c 40 69 3d 0c 7b 65 bd
       0.0091365315 0.581072 0.056945905 -0.05602555
000370 77 bd 55 3d 16 20 76 3e 9e 00 fe 3e 9c e8 4a 3f
       0.05218264 0.24035677 0.49609846 0.79261184
000380 7b 1e 09 3f 44 b7 67 be ac 8e d1 3f be 74 d2 3e
       0.53562135 -0.22628504 1.6371665 0.41104692
000390 7d 1e 2a 3d 98 68 03 3c cc eb f8 3f 07 ab d2 3e
       0.041532982 0.008020543 1.944696 0.41146109
0003a0 40 79 9c bc 47 75 83 3a 26 c2 a7 3f 7e 05 85 be
       -0.019100785 0.0010029458 1.3106124 -0.25980753
0003b0 d6 70 bb 3d 7c 1b ef 3e 97 e0 04 3e 7d a7 9b 3e
       0.09152381 0.46700656 0.12976299 0.3040122
0003c0 60 94 5b bb dd 08 22 3f 21 1e 75 3e 30 b0 de 3e
       -0.0033505186 0.63294774 0.23937275 0.43493795
0003d0 2c 9d f6 bd 4a a7 8f 3f fa 30 a7 3e 41 e9 b8 3e
       -0.12041697 1.1222928 0.32654554 0.3611546
0003e0 43 25 4c bd a5 9e eb 3e 54 b8 64 3d 84 58 a5 3e
       -0.049840223 0.46019474 0.05583985 0.32294095
0003f0 f9 43 73 bd 20 d6 73 be d5 81 15 3f cc cb 19 bd
       -0.059390996 -0.23812151 0.5840123 -0.03754787

fc3.weight f4 [81, 256]
000000 9e 66 05 bd 37 21 8e bd 6c 83 9f bc bd af c2 bc
       -0.032568567 -0.06939929 -0.019471847 -0.02376544
000010 e8 66 94 bd 54 49 d3 bc 95 99 32 bd 28 6a e6 bc
       -0.0724619 -0.025791802 -0.0436035 -0.028126791
000020 de 71 74 bc a3 a6 e4 3c fe e4 db bd 19 5a d2 3c
       -0.014919726 0.02791149 -0.10737036 0.025677728
000030 c0 ce a9 bb 40 48 3f 3c 90 54 ae bd 44 07 99 bc
       -0.005182117 0.011674941 -0.08512223 -0.018680222
000040 b6 0a 15 bd ce 1a 3e be 88 55 38 bd 86 3e b9 bc
       -0.036387168 -0.18564913 -0.045003444 -0.022612821
000050 a7 ca cb 39 14 64 35 be c4 50 cc bc 90 cd 71 3d
       0.00038870165 -0.17713958 -0.024940856 0.05903393
000060 8a 75 11 bd c6 13 18 bd 3c 8e 05 bd 0c cd 95 3c
       -0.035512485 -0.037128232 -0.03260635 0.01828625
000070 38 20 41 bc 96 b5 81 be b3 0e 57 bd 08 76 b3 3c
       -0.011787467 -0.25333852 -0.052504253 0.021906868
000080 71 ae 1e bc 38 cd 7b 3d e9 9b 16 be 18 92 4c bd
       -0.009685145 0.06147501 -0.14707913 -0.049944013
000090 3a 42 cb 3b 49 17 13 bd a0 08 39 3d 74 77 49 bd
       0.006202963 -0.03591088 0.04517424 -0.049186185
0000a0 26 5e fa bd 8e 1e 10 be 44 9e d7 bd b8 92 85 3c
       -0.12224989 -0.14074156 -0.10528234 0.016305313
0000b0 42 ea e6 bd 04 c5 04 be 3d de b8 bd 67 90 a4 bc
       -0.1127515 -0.1296578 -0.090267636 -0.020088388
0000c0 3c 4c d4 bc fc 95 f7 bc ca fe 9d 3d 66 36 32 bd
       -0.025915258 -0.030222885 0.07714613 -0.04350891
0000d0 11 b6 32 be d8 45 5a 3d ce 92 67 3d 5c a2 84 bc
       -0.17452265 0.053289264 0.05653649 -0.0161907
0000e0 62 cf 05 be 74 72 bc bc 08 a0 b5 bd 7a 92 15 3d
       -0.13067392 -0.023003794 -0.08868414 0.036516644
0000f0 e7 64 9d bd 88 11 1c bd 0c 66 31 3c fc ee f5 3c
       -0.07685261 -0.038102657 0.0108275525 0.030021183
000100 74 48 8c 3d 68 f3 87 3d 88 d6 eb bd f5 45 e7 3b
       0.06849757 0.06638223 -0.11515528 0.0070579
000110 40 e1 99 bd 08 6b 99 bc f1 1b 96 3c f6 e5 4a 3d
       -0.07513666 -0.018727794 0.01832387 0.049535714
000120 56 90 64 3c 8c 31 fd bc f5 f5 bc bd 86 a3 b2 bd
       0.013950428 -0.030907415 -0.092266 -0.08722596
000130 fe 8d 12 3c d7 b7 53 3e ad 70 07 3d c0 10 cb bc
       0.008944986 0.20675598 0.03306644 -0.02478826
000140 ab 5f 3f be 87 35 89 bd 47 d9 0b be 21 a0 ba 3a
       -0.18688838 -0.06699663 -0.13657103 0.0014238396
000150 c4 21 fb bd d6 4e 02 be 0c 9e 67 bd 41 0e 87 bc
       -0.122623 -0.12725386 -0.05654721 -0.016486289
000160 34 db 38 bd 58 31 90 3c 07 a4 46 3d bc 3f 2e 3d
       -0.045130923 0.017601654 0.048496272 0.04254125
000170 51 5a 33 bd 49 6b e1 3c e6 c4 12 bd d8 a1 8c bc
       -0.043787304 0.027516978 -0.03583231 -0.017167017
000180 62 53 33 be d8 1e 76 be 53 3b 0c be 8c c6 cc 3c
       -0.17512277 -0.24035203 -0.13694505 0.024997018
000190 4c ba 95 bc b3 81 6e bc 92 68 05 3d de a9 25 bd
       -0.01827731 -0.01455729 0.03257043 -0.0404452
0001a0 28 3e f9 bb bc d6 f7 bc 59 06 eb 3c b8 e6 bd bc
       -0.0076062866 -0.03025376 0.02868955 -0.023181304
0001b0 69 54 f1 bc c8 0f e4 3c 97 c8 77 3d 71 1d 86 be
       -0.029459195 0.027839556 0.06049403 -0.26194337
0001c0 b6 eb 48 bd 1e 09 4d bd c7 dd db 3c 34 a2 9e bb
       -0.049052916 -0.050057523 0.02683915 -0.0048411135
0001d0 c8 33 13 bc 1a 59 1e 3d c8 7d b7 3c 10 56 81 bb
       -0.008984514 0.038659193 0.022398844 -0.003947027
0001e0 70 6e 42 bd 69 23 1e bd c6 d4 03 bd d7 1a ba be
       -0.047468603 -0.03860799 -0.03218534 -0.36348602
0001f0 96 77 b6 3d 64 49 2f bd 20 8e 62 bc bb d9 7e 3c
       0.08909528 -0.0427946 -0.013827831 0.015554841
000200 f8 87 ef 3c dc 11 3e bd 73 9a b3 bd 00 8c 4e 3d
       0.02923964 -0.04640375 -0.08769693 0.050426483
000210 02 03 40 be db 23 60 be d0 16 b4 3c a5 62 7c 3d
       -0.18751147 -0.21888678 0.021983534 0.061617512
000220 a8 22 29 bc c0 f2 b2 3b 32 88 27 be 9c a3 1b be
       -0.010323204 0.005461067 -0.16360548 -0.15199131
000230 60 70 07 3e f7 4d 7d 3d e8 d0 e6 bc 7c c8 1c 3d
       0.13226461 0.06184193 -0.028175786 0.038277134
000240 a2 5b 1f be 4e 24 91 be 64 d0 1d be 58 16 47 3c
       -0.15562299 -0.2834801 -0.15411526 0.012151323
000250 40 f1 12 3b 25 f1 d5 bd 2a 83 75 bd 54 0d b3 3c
       0.0022421628 -0.10446385 -0.05993954 0.021856941
000260 25 b6 b0 bd 4e 3b b7 bd 2b fb ad 3c 2a fa 36 be
       -0.08628491 -0.08946858 0.02123793 -0.17868868
000270 40 4b fc bc 27 2f 8a bd 2c 8d 06 be dd 09 c1 bd
       -0.0307976 -0.06747275 -0.1313979 -0.094257094
000280 4c 98 9c bc 9a cb 4e bd 06 02 66 bd de d6 90 3b
       -0.01911559 -0.05048714 -0.056154273 0.0044201454
000290 d3 1a 47 bd 81 3c 9a 3e 70 c9 1c 3d 24 48 4b bd
       -0.048609566 0.30124286 0.038278043 -0.049629346
0002a0 a8 7e 0d bc c3 3d 90 bd de 08 b9 bc 13 46 95 3c
       -0.008636154 -0.0704303 -0.022587236 0.01822189
0002b0 49 fd 82 bd f1 20 d0 bb a9 0a 61 bd ad 6a 6e be
       -0.063959666 -0.006351583 -0.054941807 -0.23282881
0002c0 1c 94 f0 bd 54 3b 7b bd 0a eb 1c 3d 48 c8 1a bc
       -0.117469996 -0.061335877 0.03831009 -0.009447165
0002d0 23 e8 43 be 20 1d 7e 3c 48 d6 a3 bd 2e 5e 23 be
       -0.19131522 0.015509874 -0.07999855 -0.15953895
0002e0 d0 5b db 3b 13 f5 4c be 67 65 12 be c9 0a 23 39
       0.0066942945 -0.20015363 -0.14296494 0.00015548909
0002f0 8e 5c e9 bd 5c 7b 93 3d 04 47 23 3d b3 45 7d bd
       -0.113946065 0.07201263 0.039862648 -0.06183405
000300 30 7a 13 3c b9 6b 02 bc 90 d0 3f bc 24 79 b1 bc
       0.0090013 -0.007960253 -0.01170744 -0.02166421
000310 71 ec 99 3e 26 8e aa bd 60 b8 53 be 80 de 1c 3d
       0.30063203 -0.08327894 -0.20675802 0.03829813
000320 c2 7b d3 bc 40 c4 38 3d 85 7f 1a bc 9c c4 f1 bd
       -0.025815848 0.045109034 -0.009429817 -0.118050784
000330 00 db 01 bd 6f ca 5d 3d 04 15 76 3d cf d2 6a bd
       -0.031702995 0.054148134 0.060078636 -0.05732995
000340 be 97 55 3c c4 ce f5 bc dc 3c 22 bd 24 60 78 bd
       0.013036666 -0.03000582 -0.03960882 -0.06063856
000350 70 50 3d bc 0e 76 5a 3d 5f a9 11 3d 22 55 76 3d
       -0.011554822 0.053335242 0.035561915 0.060139783
000360 bc 35 76 bd c3 b1 ea bd 4c 45 a2 3c 00 70 ef 3c
       -0.06010984 -0.114596866 0.019808434 0.02922821
000370 81 13 11 3d f6 8c e1 3d 93 de c5 bd 72 5d 05 be
       0.03541899 0.11013214 -0.09661593 -0.13023928
000380 6d ac a1 bd 2e 6b 32 be f4 71 2e 3e e2 12 93 3c
       -0.07894216 -0.17423698 0.17035657 0.01795334
000390 b8 95 a9 bc 38 de 6f 3c 48 00 21 3d 77 85 ef bd
       -0.020701274 0.014640383 0.03930691 -0.11695378
0003a0 f6 1d 48 3d 04 a3 f6 3c d3 e1 8d bc 9d 4d 3f be
       0.048856698 0.030107029 -0.017319595 -0.18681951
0003b0 4f 55 e2 be 4f 0e 96 bd 31 82 db bc 8d bd 95 bd
       -0.4420571 -0.07326948 -0.026795479 -0.073115446
0003c0 80 b9 18 3a 35 93 55 bd 2f 7b 11 be ca e4 0d bd
       0.00058259815 -0.05214234 -0.14207147 -0.03464202
0003d0 1c 57 f8 3d 61 b3 63 bd ef 00 a2 bd ba a4 3f 3c
       0.1212599 -0.05559099 -0.07910334 0.011696989
0003e0 8b bb cc bb 17 c0 80 3c e2 2d 66 bd 10 4a fd bd
       -0.006247943 0.015716596 -0.0561961 -0.12367642
0003f0 00 d5 c5 b9 2e 65 76 bd 8d bf 02 be 04 45 0b 3d
       -0.00037733465 -0.060155086 -0.12768383 0.034001365

fc3.bias f4 [81]
000000 ea 3e 0f 3f 69 46 28 3e 69 0a 12 3e e2 ab 9c bd
       0.55955374 0.1643311 0.14261784 -0.076499715
000010 11 fd c5 3d 74 30 24 3f 07 29 9f 3e 9d 78 a3 3e
       0.09667409 0.64136434 0.3108599 0.31927958
000020 7a a1 ac 3e 4e bd a2 3e fb d5 20 3f 92 9a 04 3f
       0.33716947 0.31785053 0.6282651 0.51798356
000030 cc 69 3b 3f ed 1d 28 3f 90 84 c4 3e c5 a4 cb 3e
       0.7320831 0.65670663 0.38382387 0.39774147
000040 d8 30 a4 3e 0c 9c df 3e 0f 50 1f 3f ab 71 25 3f
       0.32068515 0.43673742 0.62231535 0.6462657
000050 72 bc 4b 3f c3 1d 12 3f 9b 05 03 3f 7d d9 d0 bc
       0.7958442 0.5707666 0.5118043 -0.025494331
000060 80 a6 15 3f cf 62 06 3f b0 7f 9e 3e 43 f1 05 3f
       0.58457184 0.5249452 0.30956793 0.5232126
000070 8f 0e d6 3e a5 84 e0 3d c7 98 03 3f f9 3b 05 3f
       0.41807982 0.109628 0.51404995 0.52044636
000080 33 a7 a7 3e a1 77 83 3e 83 fe 91 3e 72 3a b9 3e
       0.3274475 0.25677207 0.2851449 0.36177403
000090 68 bd a8 3e 19 c7 2c 3f 22 0d 01 3f 91 b4 c8 3e
       0.32957006 0.674913 0.50410664 0.3920026
0000a0 77 44 bc 3e 18 35 01 3f b3 89 35 3e 75 54 af 3e
       0.36770985 0.5047164 0.1772831 0.34244123
0000b0 21 ee 38 3f 5a 1a 2c 3f 93 5a c5 3e ad bc c7 3e
       0.72238356 0.6722771 0.38545665 0.39011136
0000c0 60 46 15 3f 7b 5e f3 3e e6 5d c9 3e 46 4f c7 3e
       0.5831051 0.4753302 0.3932945 0.38927668
0000d0 72 8f c9 3e 50 66 bb 3e 28 e7 10 3f 4c 28 d6 3e
       0.39367253 0.36601496 0.56602716 0.4182762
0000e0 ac 43 2d 3f d7 b9 4a 3f 68 cf 2b 3f 8b a9 0c bf
       0.67681384 0.7918982 0.6711335 -0.549462
0000f0 89 3a 6b 3e 68 1c 33 3f f9 1a 2b 3f 02 0a 4a 3f
       0.22971548 0.6996522 0.6683803 0.7892152
000100 ad 2b c3 3e cd a5 49 3e b4 94 24 3f cc 3a a7 3e
       0.3811926 0.19692154 0.642894 0.32662046
000110 f7 6d 01 3f 51 e7 46 3e 19 e0 ab 3e 02 8e ab be
       0.5055842 0.19424178 0.3356941 -0.3350678
000120 49 5d 22 3f 03 d0 21 3f 29 2d 88 3e bf 6a eb 3e
       0.6342359 0.63208026 0.26596954 0.45979878
000130 7b 03 38 3f b7 40 17 3f 77 88 0c 3f c4 e0 b4 3e
       0.7188031 0.5908312 0.5489573 0.35327733
000140 93 27 3d 3e
       0.18472128
