code/outputs/EV_Charging_Pricing/training for 3000/models/dqn_checkpoint.pth (torch, 354981 bytes, 6 tensors)

fc1.weight f4 [256, 5]
00000000: 5b5c 833d f8ae 093d 48f1 5c40 c60e a43f
00000010: 2909 6340 a654 cebd 6340 12bd 6014 2540
00000020: 363b 9d3f f9e6 6e3f d046 c1be 02df 0d3e
00000030: 0cce 1640 793a 973f af3b 1140 aca8 50bf
00000040: a7bf dcbf 75f7 05c0 11db 02c0 a1c2 2240
00000050: 36b6 cb3f ab24 b53e 8cf0 39be 9f20 b5bd
00000060: 926d 063f 8f0d b3be 6ce9 f83d ab04 fc3f
00000070: b893 bd3e 816a 1440 1525 babe e16b 033e
00000080: 4421 0c40 bbb0 5f3f cd93 0e40 d59b 40be
00000090: 665d 113c b29a f73e f1cd 513f c81c 943f
000000a0: 2831 853f c8e0 213f fd9d f4bf 4114 9fbf
000000b0: b7d5 81bd e88d 903c 47e6 01be ae3e ca3f
000000c0: c535 7e3f 9d71 6a3f 3897 90bd eef6 a03e
000000d0: 3c40 6140 7b26 d33f 77a4 7240 9290 ac3d
000000e0: 04cc 7dbe ca8e 30be 3e4d a9be bacd 3c3c
000000f0: d801 8d3e 28e5 c0bf f907 4ebf a0ff 09c0
00000100: de09 f13f fc59 e8be 54d1 313e c19d 0240
00000110: 2c76 e13f b745 4740 4b56 7abb 89d8 edbc
00000120: 1da9 543f e8b1 eabd 5279 0ebf 5d1a aebe
00000130: 3982 d5be 3ebc b43d 09e8 dfbe 51ca e1be
00000140: c4f0 543e f877 dcbe c3e0 1e3e 080d 5a3e
00000150: 4c26 59be f939 10be 4ad0 893c d598 8e3f
00000160: 7482 123f ac17 f93e 71bc 65be 3e08 cb3b
00000170: 8b46 373f 9b97 e13f 07f9 3e40 dc39 4a3e
00000180: 65c8 7a3d 3820 a33f 3047 c4be e9f1 c2bf
00000190: 4440 58be acd4 d1bf 468b 2dbf 6ca2 d6bf
000001a0: 1533 eb3f a04a b63e 0812 8bbe 0c50 a8be
000001b0: e8dc 6ebf fab7 2a3f f31c 90be c7f4 503e
000001c0: a8fb 8fbf a82d 9dbe e6f6 dd3c 3899 753e
000001d0: a901 8e3e 4d4e f4bf ef31 2abf 04f9 0d3f
000001e0: e4bc 55be 8154 dbbe 9bf7 c53e e116 9dbe
000001f0: c65e 14be d808 e0be 5f00 8e3d ca3e 3240
00000200: a382 eb3f f032 6040 aa29 77bc 932a 95bd
00000210: 6ede f13f 87a0 123f 4be6 433f 5fdf 5cbe
00000220: 1397 193d 5160 df3f aced 943d 24d4 eb3f
00000230: bdc7 9bbe 7e31 ff3d 2b56 0a40 76b3 db3e
00000240: 2803 703f 3ba7 adbd 0eb5 913d eece ad3f
00000250: 2166 3cbe fbba e0bf 8d69 723b 91b0 d6bd
00000260: 2e47 0d40 17e2 ba3f b346 6140 6d29 3a3e
00000270: 00aa 913e 05c5 c6bf c83e 4abf 120c 913e
00000280: 0f61 4fbe a8a0 e5bc af44 3740 b96a e23f
00000290: 8c30 6640 d279 e23d 2560 e6bc 9eea 8cbe
000002a0: a822 0fbe b708 8e3f 0668 8b3d c956 92bd
000002b0: dcfe 6b3f f54a 11be e75e 223f 8bf1 4abe
000002c0: ad0f e1bf f3f9 f7be 518f 16c0 9ec9 0240
000002d0: 721c 14be f272 063e b066 3940 b5db e13f
000002e0: a432 1e40 cebc 3e3e 8572 af3e fbfd cfbf
000002f0: 10a7 233f 0cc8 8840 549f f33e f3be 96be
00000300: ca95 893f bac2 a6be 8366 cf3f 9934 7a3e
00000310: 5de7 053f 1f18 8040 56a6 dd3f aea4 7f40
00000320: 3aa1 7c3d 4996 dfbd da43 b23f 3fd6 9b3d
00000330: dd92 6f3f 80e8 2bbc e4b4 25bd eeac f33d
00000340: 2d9f c53d a2ba aabe 4540 ddb9 82ab 2fbb
00000350: d780 a9bf f9cd 093f b592 e73f 3584 79be
00000360: 543e b83b af57 f73f 4cc5 5b3f 6e3a 0e40
00000370: 9690 a1be 8f3e 083e d974 97be 209c 013f
00000380: 70c2 ba3f 67ff bf3e 221b 2ebe cfac e7bf
00000390: 954e 28bf 005d acbf 8d1d dfbd 202c bc3b
000003a0: ce16 8c3f 2802 033f cfe9 413c 08bb a53e
000003b0: 24b6 08be 563e 5ebf 6502 46bf 7e4d 00c0
000003c0: 9137 52be 9a31 a53d 56ed 033f 5a44 493f
000003d0: 31f8 6e40 c725 02bc 5112 813d 88f9 6c3f
000003e0: deaa cb3f 6d01 8140 6a2b cc3e 30ab 14be
000003f0: cf70 5abf 66fd 95bf dbb0 94bf 6996 8cbe
0.064141 0.03361413 3.4522266 1.2817008 3.547434 -0.10074739 -0.035705935 2.5793686
1.2283695 0.93321186 -0.37749338 0.13854602 2.356326 1.181472 2.2692678 -0.8150737
-1.7245988 -2.0932286 -2.0446208 2.5431292 1.5914981 0.35379538 -0.18158168 -0.088441126
0.5251094 -0.34971282 0.12153897 1.9688925 0.37026763 2.3190005 -0.36356416 0.12834121
2.1895304 0.87379044 2.227771 -0.18809445 0.008872366 0.4836021 0.81954867 1.1571283
1.0405626 0.63233614 -1.9110714 -1.2428056 -0.06339591 0.017645791 -0.126855 1.5800378
0.99300796 0.9157961 -0.07060093 0.31438392 3.5195456 1.6496118 3.7912881 0.08426012
-0.24784857 -0.1724197 -0.33066744 0.011523658 0.2754047 -1.5069933 -0.80480915 -2.156227
1.8831136 -0.45381153 0.17365009 2.0408785 1.7614188 3.11363 -0.0038198407 -0.029033916
0.83070546 -0.11459714 -0.5565387 -0.3400449 -0.41700915 0.08824967 -0.43731716 -0.44099668
0.2079497 -0.4306028 0.15515427 0.21294034 -0.21206015 -0.14084615 0.016822953 1.1140391
0.57230306 0.48650873 -0.22435166 0.006196051 0.71592015 1.7624391 2.9839494 0.19748634
0.061226267 1.2744207 -0.38335562 -1.5230075 -0.21118265 -1.6393027 -0.6779064 -1.6768317
1.8374964 0.3560381 -0.27162194 -0.3287357 -0.93305826 0.66686976 -0.28147087 0.20405875
-1.1248674 -0.30698895 0.02709527 0.2398423 0.27735642 -1.9086396 -0.6648244 0.5545809
-0.20872837 -0.4283791 0.3866547 -0.30681518 -0.14489278 -0.43756747 0.069336645 2.7850823
1.8399242 3.503109 -0.015085617 -0.07283511 1.8896005 0.57276195 0.76523274 -0.21569584
0.03749759 1.7451268 0.07271895 1.8424115 -0.30425826 0.12460612 2.1615093 0.42910355
0.93754816 -0.08479162 0.071146116 1.3578775 -0.18398334 -1.7557062 0.0036989183 -0.10482896
2.2074695 1.4600247 3.5199401 0.18179865 0.28450012 -1.5528876 -0.79002047 0.2832952
-0.20251869 -0.028030708 2.863567 1.7688819 3.596713 0.11058392 -0.028122017 -0.2752275
-0.13978064 1.109641 0.0680695 -0.07145459 0.9218576 -0.1418875 0.6342606 -0.19818704
-1.7582909 -0.48432884 -2.3524973 2.0435557 -0.14463976 0.13129786 2.8968925 1.7645174
2.4718409 0.18626711 0.3426706 -1.6249384 0.6392679 4.27442 0.47582495 -0.29442558
1.0748837 -0.3257044 1.6203159 0.24434127 0.5230616 4.0029445 1.7316387 3.9944263
0.061677195 -0.109173365 1.3926957 0.076092236 0.9358347 -0.010492444 -0.040455714 0.11898218
0.09649501 -0.33345515 -0.0004220029 -0.0026805107 -1.3242444 0.53829914 1.8091646 -0.24366839
0.0056226645 1.9323634 0.85847926 2.2223163 -0.31555623 0.13305114 -0.29581335 0.5062885
1.4590588 0.37499544 -0.17002538 -1.8099612 -0.65744907 -1.3465881 -0.10894308 0.005742565
1.094446 0.51175165 0.0118355295 0.32369256 -0.13350731 -0.8681387 -0.77347404 -2.0047297
-0.2052901 0.08066101 0.5153402 0.7861992 3.7338984 -0.007943577 0.06302322 0.92568254
1.591152 4.031424 0.39876872 -0.14518428 -0.8532838 -1.1717956 -1.1616472 -0.27458504

fc1.bias f4 [256]
00000000: bb67 a040 3b40 3040 2010 6840 36d5 be3f
00000010: c9e5 c4be a369 6a40 4050 6540 3d93 3540
00000020: 07ca d1bf 5e9f 2c40 5a72 af40 818d 40be
00000030: f7df 4540 04f7 9340 3d99 8e3f 769b 27bd
00000040: 7547 6d3d 4402 0040 aebd 8d40 12ae c1be
00000050: dd4c 1940 72df 723f 18e0 ffbb 88a7 99bf
00000060: 8aff 1fbe 857e ae40 a233 f03f eb11 6140
00000070: 4cd0 4040 f0a5 1a3f ce92 a540 b16d 96bf
00000080: 5bdf a440 0336 cdbe 8cc1 1f40 df26 3a40
00000090: 815e 6f40 d882 7d40 c280 9f3f c840 c240
000000a0: 1639 2440 5c0b 1e3d 5ab8 dc3f bce1 8140
000000b0: b7c3 683e 2929 abbf 82bd cc3f c830 2dbf
000000c0: b3fe 4940 13c5 b940 0a44 8dbf bf68 f3bd
000000d0: 07e6 b940 0f89 1440 663c 11bf 3a6e d83f
000000e0: bdce eabe 0651 dabe 29c9 4a40 7ac3 fc3f
000000f0: bc88 a53f 82c2 54bf 0ba2 8f40 fa8d c340
00000100: e290 2940 955d 6f3f 7d49 8a40 11e4 de3d
00000110: d310 43bf a8aa 0640 bc1e 93bd da94 ff3f
00000120: bb1d 1640 06c2 b640 0d21 ab3f 43a8 2740
00000130: b343 9bbf a072 6640 9405 15bf 1fd4 d040
00000140: f652 ec3f aa56 4b40 1881 9e40 1936 8c40
00000150: 8d02 c340 b622 69bf 309c 78bf bd06 dd3f
00000160: 4ecc 0f40 c010 4b40 87ac 6340 7838 a440
00000170: c8a5 0940 32af c440 6a6d 08be aced 3fbc
00000180: ebfd 17be c4d1 f63f 83ca 4ebf a76c 3e40
00000190: 9fba 9b40 a431 c040 9c7b af40 e0f5 613f
000001a0: a5af 07bf 96e6 4d40 c4e6 b13f dba4 2640
000001b0: 545f 3340 6b0c 6e40 86ca 6240 ad9a b540
000001c0: 0074 813f ce8f cf3f 9439 10bf 2a19 c13f
000001d0: 31c5 bfbc 371c d240 4982 acbd d31f 2f40
000001e0: 2d70 3d40 16e9 fdbe bc27 80be 2c0b 8a40
000001f0: 3f4c a240 23ac 933f 5b41 8140 d7c9 89be
00000200: b980 c13d 1a60 3f40 b387 5640 9720 0940
00000210: db11 00be 9e9c 4d40 b937 0140 211e bc40
00000220: 9710 cabe 75bf 6a3e 291c 3540 5079 5e40
00000230: 5726 703f 3f14 23bf 5df8 e23f 5037 2e40
00000240: e057 35be f63b 3040 752f 8540 10c4 ad40
00000250: 0a4a 51bf 171e b440 f25e ef3f e39e c840
00000260: 18bb 0240 dd18 83bd b214 89bf 742e febe
00000270: b199 9f40 a2e6 47bf 7431 b43e 8c14 413f
00000280: ea43 e93f de05 6c40 5e67 c53f 916e e1be
00000290: 5e4e 0f40 ddd3 10bd f99e e53e 1e03 5540
000002a0: 7b52 77bd a0fc f43e c26b 923f 4d04 32bf
000002b0: 4f44 36bd 07a0 1dbe 4015 09bf a360 b740
000002c0: 79f4 5a3f dc09 1fbf d0bb ae40 0f7e 2740
000002d0: 5e8c a7be fed0 e3be 002c 6d40 1ffd 3340
000002e0: 9111 4d3d 3254 53bd 40f2 2440 31be 1440
000002f0: 2718 c240 aa1e 8e3f 6c58 8040 57bc 2d40
00000300: fcc0 b73e 0e9b 7fbf ef22 6b3e f846 1540
00000310: 5155 b740 4712 1c3f e46d ae40 28c4 8d40
00000320: 35d8 4840 5bd7 d3bc dd8d bfbe 8fb5 6940
00000330: b696 d6be ea1d 4940 c633 3140 c072 4440
00000340: 62cc aebe 369e 3840 1f97 6340 eb0c 9cbd
00000350: 38eb d93f 0292 903f ce72 c8be c9e0 463f
00000360: 5da9 e0be 9079 583f 2e6d 4d40 4a37 6ebe
00000370: b19b d140 526e 9e40 11d3 adbf 6832 2840
00000380: 3055 fb3f 6f93 4a40 2cde 5740 c80e 863f
00000390: a2e3 1240 accb b340 d63c 8bbe 3c09 b840
000003a0: be32 2340 7af7 9240 9c0f d8be 4f03 adbd
000003b0: 7f58 f7bd ac4b dbbe af1c 3e40 9895 853f
000003c0: c905 2740 6ad4 ae40 b583 c7bc 8f4f 07bf
000003d0: ac51 fdbe 6122 65bd a5da 0d40 ae0f 0840
000003e0: 0478 df3f f9a4 9f40 6d05 c140 fb42 3a40
000003f0: 833f ad3f efcf 0b3f 44a9 6e3f bd06 4540
5.0126624 2.7539203 3.6259842 1.4908817 -0.38456562 3.6626976 3.583023 2.8371117
-1.6389779 2.697227 5.482709 -0.1880398 3.0917947 4.6239033 1.1140515 -0.040919743
0.057929475 2.0001383 4.4294043 -0.37828118 2.3953164 0.948722 -0.0078086965 -1.2004251
-0.15624824 5.4529443 1.8765757 3.5167186 3.0127134 0.6040945 5.1741705 -1.1752225
5.152265 -0.4008027 2.4961882 2.9086225 3.740143 3.961111 1.2461169 6.070408
2.5659842 0.038585052 1.724376 4.0588055 0.2273091 -1.3371936 1.5995333 -0.6765256
3.1561706 5.805307 -1.1036389 -0.11885213 5.8093295 2.3208654 -0.56732786 1.6908638
-0.45860854 -0.4263994 3.1685278 1.9747155 1.2932353 -0.83109295 4.4885306 6.111081
2.649468 0.9350217 4.3214707 0.10883344 -0.76197547 2.104166 -0.071835965 1.9967301
2.3455646 5.7111845 1.3369461 2.6196449 -1.2130035 3.6007462 -0.58211637 6.5258937
1.8462818 3.1771646 4.9532585 4.3816037 6.0940614 -0.9106859 -0.97113323 1.7267681
2.2468448 3.1728973 3.5574052 5.131893 2.1507435 6.146386 -0.13322988 -0.01171438
-0.14842956 1.9282765 -0.8077776 2.9753816 4.866531 6.0060596 5.483839 0.882658
-0.5300239 3.2171988 1.3898549 2.603812 2.8026934 3.719508 3.543611 5.6751313
1.0113525 1.6215761 -0.5633786 1.5085804 -0.023409458 6.565944 -0.084232874 2.7363174
2.9599717 -0.49591893 -0.25030315 4.3138638 5.0718074 1.1536907 4.039228 -0.26911804
0.0944838 2.9902406 3.3520324 2.1426141 -0.12506811 3.2126842 2.019026 5.878678
-0.39465782 0.22924598 2.8298438 3.4761543 0.938085 -0.6370277 1.7732044 2.722126
-0.17709303 2.7536597 4.162043 5.4301834 -0.817536 5.628673 1.870085 6.2693954
2.0426693 -0.06401227 -1.0709441 -0.49644816 4.987511 -0.7808629 0.3519398 0.7542198
1.8223851 3.687858 1.542217 -0.44029668 2.2391582 -0.0353583 0.4484785 3.3283153
-0.060381394 0.47848988 1.1439135 -0.6953781 -0.044498738 -0.15393077 -0.5354805 5.7305465
0.85529286 -0.6212442 5.4604263 2.617069 -0.3272428 -0.44495386 3.7058105 2.8123243
0.05006558 -0.051593967 2.5772858 2.3241084 6.0654483 1.1103108 4.0107937 2.7146204
0.35889423 -0.9984597 0.22962545 2.3324566 5.7291646 0.6096539 5.4509144 4.430195
3.1381962 -0.025859525 -0.3741292 3.6517065 -0.41911858 3.1424508 2.768785 3.0695038
-0.34140307 2.8846564 3.5560987 -0.076196514 1.7024908 1.1294558 -0.3915009 0.77686745
-0.43879214 0.8456049 3.2097888 -0.23263279 6.5502553 4.950967 -1.3580037 2.6280766
1.9635372 3.1652486 3.3729353 1.0473261 2.2951436 5.6186123 -0.27194852 5.7511272
2.549972 4.5927095 -0.4219941 -0.08447897 -0.12077426 -0.4283117 2.9705007 1.0436277
2.609728 5.4634295 -0.024354795 -0.5285577 -0.49476373 -0.05594099 2.21647 2.125957
1.7458501 4.9888883 6.0319123 2.9103382 1.3535007 0.54614156 0.9322703 3.0785363

fc2.weight f4 [256, 256]
00000000: f9a8 75bd 26c4 2fbd 5fb9 abbc 3832 38bd
00000010: 2e6f 563d 23f8 183c ad75 7dbc 88f1 8dbd
00000020: ac4c 0bbd 0f01 9bbc 3e30 993c 84a8 e4bc
00000030: a439 743d eb35 5cbd ab51 71bd 78b5 2fbc
00000040: 6ec4 6d3d d5b0 a3bc 3177 05bc 9b17 e73c
00000050: c802 103c ea70 9fbb 2e1a 7bbd 41cd 4c3d
00000060: 5cf6 343d 995e 14bd 6f3b b3bb 1e42 79bc
00000070: 3649 003d 24d5 0b3d 5fa0 8ebd a167 64bc
00000080: 5680 a9bc b210 8c3a b43f fb3c 3ea1 4ebd
00000090: 4655 84bd 4fc0 48bd 18f9 ccbc 0e64 9c3a
000000a0: 885a 5ebc 7844 263d 4f0f 123c 40c4 ae3c
000000b0: 20e1 21bd 92ab 2cbc 5f23 82bd b389 43bd
000000c0: a0f1 453d 0b5e 25bd 2e76 ee3c acaf 7ebd
000000d0: 780d e93b 2d0b 0bbd de70 7b3c 0e83 c7bc
000000e0: 641f a4bc 54e2 b5bc a888 47bc 77f3 e9bc
000000f0: 66f9 cbbc 50fe 1b3d beed 663a bfce a73b
00000100: fc80 4f3d 8f4b c23c 52a1 b7bc a801 543d
00000110: 6516 0abd 8e60 60bd 4869 2ebc 2f11 bdbb
00000120: 07a0 8cbd c53c f3bc eb0c 46bd 80ca 84bd
00000130: 348a 4e3d ad26 d039 665c 3dbd f0aa 46bd
00000140: bee2 f03c fe91 41bd 3af5 a4bc 5262 ddbc
00000150: c57b 35bd d058 b7bb 3c0e 19bd f6a2 9bbc
00000160: b4a6 7cbd 05dd 523c 5dc9 83bc 8bf6 42bc
00000170: 54b4 813c 0022 64bd 0072 1bbd 40d5 d43c
00000180: 00c3 ff3b 00bb ad3c b393 0cbd 685c 283d
00000190: ea0c 84bb bca5 a8bb 8622 09bd e968 08bb
000001a0: 4e41 d03c 04a0 cfbc 99ed bf3c 2de1 31bc
000001b0: 8f27 053d 6fb4 803c ebea 0fbd 445b af3c
000001c0: bb40 823c a097 d7bc 286f 95bc b617 2f3b
000001d0: bcce 783d a0de 2d3d 4068 683d 912a 4a3b
000001e0: 64c3 eebc 06bb d43c 96b7 583d 3514 a83c
000001f0: eba6 4e3b 8439 9ebc 7cc8 4c3d 7440 cc3c
00000200: 9a32 d8bb 2d57 62bd a0fc 85bd 7939 2d3d
00000210: 90d2 fa3c ea99 383d fec6 07bd a832 f93c
00000220: a02c e23c 0dd5 eb3c 6a78 47bc 1c7b 2d3d
00000230: 6584 84bd 36af 0cbb ebc4 fd3c f93e f83c
00000240: f850 7fbc 4b71 32bd c31d c3bc 5c50 0e3d
00000250: b705 14bd da67 ecbc 72c2 3e3d 2604 2dbd
00000260: bfba 40bd 2ca8 fc3c de52 723c be0a 74bd
00000270: 4810 c4bc d3a6 5d3b 0805 e5bc 3461 1b3d
00000280: 92cd 7cbd ba02 0abd 0a1b 353d b092 573c
00000290: 5274 96bd 3ed2 323d 0940 19bd 2c86 cdbc
000002a0: 0644 1bbd 7460 ccbc 4ead 323d ada2 733c
000002b0: b81c 1fbc 8ca9 653d 522b bf3c 27cb 763c
000002c0: 6c91 9d3c f698 643b bc42 a4bc 0304 bfbc
000002d0: 9e7a 33bd 1cdd fcbc 5f08 bfbc 6fb7 0c3c
000002e0: 7007 bbbc 4877 633c b09c f0bc d1f2 973c
000002f0: 874b 45bd 5492 1c3d 59aa 453d 51da 69bd
00000300: 2547 e13c 62ba 923c 2863 0b3d 8455 e2bc
00000310: 5f6a 85bd 8045 bdba c866 97bd 8861 95bd
00000320: a57f aabc 922c 0dbd 4274 583d b5e3 9d3c
00000330: 9036 01bd 4a38 6bbc 149d 90bc 017f 87bd
00000340: 92af 01bc bf75 92bb ed8f 03bc e08c 66bb
00000350: c679 6b3c 079f 06bd bcf5 9e3c 0e31 5dbc
00000360: b9f3 c3bb eecc eebb 51c3 353c fe02 5bbd
00000370: 7ced c33c d159 b9bc 864d 803d bcf1 9f3b
00000380: dda8 3b3d b989 8c3c 215f 9cbd 9352 6b3d
00000390: 4f50 2cbb 8335 8cbd 1861 84bc 9d22 98bc
000003a0: 9002 10bc 9ee4 7ebd 20f0 f7bb 34b2 f0bc
000003b0: 7e7d 7cbd d655 173d 9264 59bd cbb8 0ebd
000003c0: c3a5 04bb 89fd 953c 5c9b c6bc b881 01bd
000003d0: 32de 76bd 52a9 2dbd 1118 2b3c 6893 293d
000003e0: d997 2fbd 1823 983c ed96 80bc 58f4 0f3d
000003f0: a6b0 50bd e454 89bd cc79 243d e107 1f3d
-0.059975598 -0.04291167 -0.020962415 -0.044969767 0.052352123 0.009336504 -0.015469951 -0.06930834
-0.034008667 -0.018921403 0.018699761 -0.027912386 0.059625283 -0.053762358 -0.058915775 -0.010724418
0.058048658 -0.019981781 -0.008146093 0.028209498 0.008789726 -0.0048657553 -0.061304264 0.050000433
0.04418026 -0.036223028 -0.0054697315 -0.0152135175 0.03131982 0.034138814 -0.06964182 -0.013940723
-0.020691078 0.0010686128 0.030670024 -0.05044674 -0.06461577 -0.049011525 -0.02502112 0.0011931674
-0.013571389 0.04059264 0.008914783 0.021333814 -0.039521337 -0.010538952 -0.06354403 -0.047738742
0.048326135 -0.04037289 0.029109087 -0.062179253 0.0071122013 -0.033946205 0.015346734 -0.024354484
-0.0200345 -0.022202648 -0.0121785775 -0.028558476 -0.024899196 0.03808433 0.000880923 0.0051210816
0.05066012 0.02371767 -0.02241579 0.051759392 -0.033712763 -0.05477958 -0.010645218 -0.0057698707
-0.0686646 -0.029692063 -0.048352163 -0.06483936 0.05042477 0.00039701667 -0.046230696 -0.048502862
0.029404994 -0.04725837 -0.020136464 -0.027024422 -0.04430749 -0.005595304 -0.03736709 -0.018998604
-0.061682418 0.012870078 -0.016087228 -0.011899601 0.015833057 -0.055696487 -0.037950516 0.025980592
0.0078052282 0.021207333 -0.034320544 0.04110375 -0.00402986 -0.00514671 -0.03348019 -0.0020814484
0.025421765 -0.025344856 0.023428725 -0.010856909 0.03250843 0.015711037 -0.035136145 0.021405824
0.015900007 -0.026317418 -0.01824148 0.0026717014 0.060744032 0.04244864 0.056740046 0.0030848125
-0.029145904 0.025968086 0.052909456 0.020517448 0.0031532596 -0.019314535 0.049995884 0.024933077
-0.006597829 -0.05525892 -0.06542325 0.04229114 0.030617982 0.04506866 -0.033148758 0.030419663
0.02760917 0.028788114 -0.012174705 0.042353734 -0.06470565 -0.0021466739 0.030977687 0.030303465
-0.015583269 -0.043565076 -0.023817902 0.034744605 -0.036138263 -0.028858114 0.046572156 -0.042240284
-0.047053095 0.03084191 0.014790265 -0.059580557 -0.023933545 0.0033821359 -0.0279565 0.037934497
-0.061719485 -0.033694007 0.04421524 0.013157532 -0.07346405 0.043657534 -0.037414584 -0.025088392
-0.03790667 -0.024948336 0.043622307 0.014870328 -0.009711437 0.056069896 0.023336086 0.015063084
0.019234382 0.003488121 -0.020051353 -0.023317343 -0.04381811 -0.030867152 -0.023319421 0.008588656
-0.022830695 0.013883419 -0.02937159 0.018548401 -0.04816773 0.038225487 0.04825816 -0.05709297
0.027499745 0.01791114 0.03403011 -0.027628668 -0.06514429 -0.0014440268 -0.07392651 -0.07293993
-0.020812819 -0.034466334 0.052845247 0.019273618 -0.031546175 -0.014356682 -0.017653026 -0.06616021
-0.007915394 -0.004469603 -0.00802992 -0.0035179183 0.014372295 -0.032866504 0.019404285 -0.013500465
-0.0059799817 -0.007287613 0.01109393 -0.05346965 0.023916952 -0.022625836 0.062647864 0.004881112
0.045815337 0.017155515 -0.07635332 0.057451796 -0.0026292985 -0.06846144 -0.01615958 -0.018571192
-0.008789673 -0.062229745 -0.007566467 -0.029381849 -0.061643116 0.036947094 -0.053074427 -0.0348442
-0.0020240403 0.018309372 -0.024244003 -0.03161785 -0.060270496 -0.042397805 0.01044275 0.041400343
-0.042869423 0.018571422 -0.015696967 0.035145134 -0.050949715 -0.06705645 0.040155217 0.038825873

fc2.bias f4 [256]
00000000: 1a56 67bd 7560 dd3e eccc 813e 1e8f 0ebf
00000010: 1b7c 9eba 58e9 31bd b2c1 38be 98df 8d3e
00000020: 900a cf3b 1711 96be 4b5d 48bc 1583 353e
00000030: 4184 c3bd 3a18 a3be cd0a 99bc 0cbe 12bc
00000040: f742 073f fe0e babe 0bf0 88bf 37c1 f63e
00000050: 08d0 6abc 9026 c939 ccdc a43c 435b 09bf
00000060: d1b5 453e 0c61 9a3e 05ab 28be d60e 093f
00000070: f988 493d a848 e23f 60d8 a2be deb5 123d
00000080: caf4 8c3f 18f6 95bc ef59 8d3e ab6e bf3f
00000090: 264f 54bd 6912 81bd 198f 80be 1640 d13e
000000a0: 23e5 543e 272b aa3e e4b3 3abc a3bf a53e
000000b0: ba1f 85be c9bd 7a3e 1944 52be 210f 7e3e
000000c0: f2c7 3c3d 66af 053d 74a5 3dbf 3e3b 5abd
000000d0: 7ede 8c3f d71e 8dbf f1e5 1bbd 6164 f43c
000000e0: e410 bebe 55d7 2537 8009 6fbd c6d8 8540
000000f0: 9b42 46bd 6928 8f3c 6195 3cbd 65d1 8abf
00000100: 4974 e9be cdc4 a1bd ea3c c03e 5c68 fd3e
00000110: 8593 9fbc d034 a9bc a778 1fbf a09a d8bc
00000120: dfc7 5b3f c27d 0ebf 0d4e 4d3f f4ae 9dbc
00000130: d9b4 84bd a9c2 f4bd 06d7 76bd b6ac 3b3f
00000140: 203e 3d3d 2d70 ac3f e2a2 3e3f 5f64 053d
00000150: 0ef2 a83f f541 0d3d 4460 16bd 9385 813e
00000160: 4b30 e93e 218c fe3e 517f 6ebf 4c24 183e
00000170: a80b 1f3f b624 423f 950f 53bc c3fd a2bf
00000180: 990f 2a3e 4dd1 f7be a934 41bd 13b0 a1be
00000190: 5553 a8bc a632 be3c 2f20 4d3f b5e4 4e40
000001a0: a340 a2bf 4072 493d 7b34 54bd 5c1d 7b3e
000001b0: b6d3 0abf 6e7b 4bbe 2f9f 5bbe 1841 923e
000001c0: 1d6f 183f 80c6 7c3b d323 133f 7513 413f
000001d0: df7c 59bc 551b 12be 3a8b 63bf a957 273d
000001e0: ac9d d8bd e59c 953e 013d 903e 447a 873e
000001f0: 0004 afbc 040a 22bb 4c85 813c 821d 673f
00000200: 7791 b4be c7d2 74bd b396 52bd ee57 1fbf
00000210: d51a 5d3e ad42 5a3e 2cf6 8a3e 0110 b43f
00000220: a832 c9bc 8ecf d43c 0c49 9140 1ae9 0540
00000230: 895d 74be e4df 413e 4954 acbc 9d9b 0a3d
00000240: 373e 80be dbce fc3e 9928 043e 1dba 143d
00000250: 335a 9e3d 28f0 0ebd e21e 253d 6be8 f1bc
00000260: 7a78 1d3f e60a e43e 40eb 26bf cd94 2bbe
00000270: e663 253f e29d eb3d 922d 523d bbd1 523d
00000280: 4097 7b3c 52a8 193e c067 23bd 1e1c 7b3f
00000290: 66ad 7fbf b5ad 65bd 6994 2c3f f32c 7c3f
000002a0: 6fa9 713b 865f 01bf 2fa4 cb3f c8e2 813f
000002b0: 10cb e33c 9a91 f3be c205 83bd 948c a8bd
000002c0: 122d c5be 0f4c 6bbd 9910 183f 1de8 0abf
000002d0: abf8 babe aaf2 fdbc b957 67bf 1962 c2be
000002e0: 6d4d 24bd 79d9 db3f f45e 98bd 2c6f 9abe
000002f0: ca69 0e3f 0cf8 d0be bb42 b7bf 3325 62bf
00000300: 9d6d e4be 88d1 c33f b57d 433c a383 3f3e
00000310: 9240 f2bb 86fe eb3f 9480 8d3f 8d7c 693b
00000320: 7fed 913f 3170 90be a371 8ebe 76f6 5ebd
00000330: ce21 b6bf d8b3 25bc d3f9 debe 1c2a 85bd
00000340: cde5 cb3d c938 f03d 3081 6f3f 3353 6bbc
00000350: 0725 c23e a26a 32be 6d0a b2be 3554 03bf
00000360: 2fa3 293d 22ed 16bc df6c cfbe 456e 65bf
00000370: 1fec 003f 8ce7 1bbd e543 983f 34a7 27bd
00000380: 5227 03be 601c 33be e7b4 fb3f ecec aabf
00000390: 2c6f 363f 9047 643f 6c35 8a3c be97 1cbe
000003a0: 1989 333f 1590 313a 058c 883f 6a9d 693f
000003b0: 04a6 86bf 6650 4cbd 0f28 81bc 31ee c73e
000003c0: 408e 8c3c 245c ca3f 9f4e 4dbf 8190 c03e
000003d0: 3f1d 793e b17f 47bf 22d6 493d 4c1e 0ebf
000003e0: aa97 133c 0715 41bf 116f 853f 4e06 50bd
000003f0: 6749 213f d162 86bd 9378 50bf 70f2 f53e
-0.056478597 0.43237653 0.25351655 -0.5568713 -0.001209143 -0.043435425 -0.18042639 0.2770965
0.006318398 -0.29309914 -0.012229274 0.17725785 -0.0954671 -0.3185442 -0.018681908 -0.0089564435
0.52836555 -0.36339563 -1.0698255 0.48194286 -0.014331825 0.0003836644 0.020124815 -0.5365488
0.19307639 0.30152166 -0.16471489 0.5353826 0.049202893 1.7678423 -0.31805706 0.035817973
1.1012204 -0.018305823 0.27607676 1.4955648 -0.051833294 -0.063023396 -0.25109175 0.40869206
0.20790534 0.33236048 -0.011395428 0.3237277 -0.26000768 0.2448646 -0.2053379 0.24810459
0.04608912 0.032637976 -0.74080586 -0.053279154 1.1005399 -1.1025037 -0.038061086 0.02983302
-0.37122262 9.884902e-06 -0.05835867 4.1827116 -0.048403364 0.017475324 -0.046040896 -1.0845152
-0.4559653 -0.07898865 0.37546474 0.49493682 -0.019479522 -0.020655066 -0.62293476 -0.026440918
0.85851854 -0.5566064 0.8019722 -0.019248463 -0.064798065 -0.11951191 -0.060263656 0.7331041
0.046201825 1.3471733 0.7446729 0.032566424 1.3198869 0.03448673 -0.0367129 0.25297222
0.45544657 0.49716285 -0.9316302 0.14857596 0.6212716 0.75837266 -0.012882133 -1.2733692
0.16607513 -0.4840187 -0.04716936 -0.31579646 -0.020547548 0.02321751 0.80127233 3.2327092
-1.2675976 0.049181223 -0.05180786 0.24522918 -0.54229295 -0.19871303 -0.21447442 0.28565288
0.59544545 0.0038570464 0.5747654 0.75420314 -0.0132744005 -0.14268239 -0.8888432 0.040855084
-0.105769485 0.29221264 0.28171542 0.2646047 -0.021364212 -0.0024725208 0.015810631 0.902794
-0.3526723 -0.059771325 -0.05141325 -0.62243545 0.21592267 0.21314497 0.2714094 1.4067384
-0.024560288 0.025977876 4.540167 2.0923524 -0.23863806 0.18933064 -0.021036284 0.03383981
-0.25047466 0.49376568 0.12906112 0.036310304 0.07732048 -0.034897 0.040312655 -0.02952977
0.6151196 0.44539565 -0.65202713 -0.16755982 0.6460556 0.11504723 0.05131299 0.051469546
0.015355885 0.15005615 -0.039893866 0.9808978 -0.9987396 -0.056073863 0.67413956 0.9850609
0.0036874672 -0.5053638 1.590948 1.0147333 0.027806789 -0.47572023 -0.063975826 -0.08229938
-0.38510948 -0.057445582 0.59400326 -0.54260427 -0.36517844 -0.0309995 -0.9036823 -0.37965468
-0.0401129 1.7175742 -0.07439986 -0.30162942 0.5563017 -0.40814245 -1.431724 -0.8833801
-0.44614878 1.5298319 0.011931826 0.18702559 -0.0073929513 1.8437049 1.1054864 0.0035627217
1.1400603 -0.28210595 -0.27821073 -0.054434262 -1.4229066 -0.010113679 -0.43549976 -0.06502172
0.099559404 0.11729581 0.935565 -0.014363098 0.37918875 -0.1742349 -0.3477358 -0.51300365
0.04141539 -0.00921181 -0.4051275 -0.8962138 0.5036029 -0.038062617 1.189572 -0.04093094
-0.12807968 -0.17491293 1.9664582 -1.3353553 0.71263385 0.89171696 0.016871177 -0.1529226
0.7013107 0.0006773484 1.066773 0.9125582 -1.0519414 -0.04988136 -0.015766172 0.39048913
0.017157674 1.5809369 -0.8019809 0.37610248 0.24327563 -0.77929217 0.04927648 -0.5551498
0.0090083275 -0.7542271 1.042452 -0.050787263 0.6300263 -0.065618165 -0.8143398 0.48036528

fc3.weight f4 [81, 256]
00000000: 8096 113d 8686 e3bc b690 09bd 80ca fd3e
00000010: f0c3 223d 8455 30bc d9de 2bbf 6598 613d
00000020: c0d0 37bd 33c7 9ebc 28e5 a1bc 3076 37bd
00000030: 5c04 e3bd dcc7 82be 2815 48bd 2f13 96be
00000040: d2a3 c43d 0aa4 81be 0eb2 d5be 2af0 d33e
00000050: 22de 4f3d c4fb 3bbd 5c03 b4bc 02f8 8ebf
00000060: b818 2fbe 5141 c4bc 9e0b 11be 671a 823d
00000070: 064c 49bd da4d 493b 67f2 91be f06e 50bc
00000080: 54d9 d3bd 0064 7bbd 8df6 b7bd 77ff c0be
00000090: 008e 883c 7cb3 2a3d ea9f 05bf 5968 f8be
000000a0: be2b 75bc 012d 4f3e 5114 8b3d f464 d2bd
000000b0: c22e 41bf 072c ab3d c7c4 15bf bd66 ba3e
000000c0: d240 243d d2b6 123d cedf 91bf 8aa9 b2bd
000000d0: 4f74 35be c3db 8abf 53a5 07bd 2836 33bd
000000e0: 7c64 50be 80d8 7b3b 44bd cfbc 6f0f 46bc
000000f0: 5370 82be 0850 2bbc bcca 043d bfb2 b6bd
00000100: d1ba 21be def8 babe b52c cabd ab17 2c3d
00000110: 30b0 d4bb 8662 6d3d 7a80 85bd 8498 87bc
00000120: 74e8 2ebf fc24 233f 574d 3f3e 1c82 45bd
00000130: a802 8abc 99eb 913d 5407 47bd e5f6 e1bd
00000140: 0019 303c 7c90 9ebe 48a9 56be f408 cf3c
00000150: 4c7d c53d 485a 483d a853 7e3a 75cf 8cbf
00000160: 17dc caba 0af4 783d 294f 35bf 228c fdbd
00000170: 8562 46bc d61d 42bd 2e83 1dbd 6006 c5be
00000180: 42fe e3bd 5395 86bf 8437 6dbd 3722 e93e
00000190: 2855 403c 3903 20bd c58f 22be cd90 b73d
000001a0: 3ec6 00bf 6216 10bd e25f 04bd 4886 77bf
000001b0: 129f b9bc 8a7d 06bd a989 8abe 9bb8 4abf
000001c0: c9d5 b83d 72f8 283d 34dc 743e 66b3 513e
000001d0: c42a 6f3d 0fd0 05bf 76e7 043f e0fb f9bc
000001e0: 417b 59be 4963 c5bb faa2 1c3c 223d bebb
000001f0: 4e11 38bd 6c92 303e 7def 46bf 13d2 90bd
00000200: 8c21 c53e dc18 713d 48b6 62bc cc60 7abe
00000210: ee05 a73c 3e23 a3bd d2dc 43bf 9bc5 45bc
00000220: 0070 d2ba 4a6d 89bc ec24 83be fddc 15be
00000230: 8617 4ebe 0006 cebc a49b 72bc 0841 00bc
00000240: a7b9 62be 6469 65bc ab56 fabd 6961 70bd
00000250: 1172 22bd d888 61bd e945 d2be afeb 23bd
00000260: 4ec7 e43e 8154 14bf 00f0 f2bd 8898 623e
00000270: ffad 8b3e e055 b83c 0a0a 3cbe af71 a93c
00000280: 226c 693d 8ef4 a6bd a004 003d 45dc c8bc
00000290: fef2 0abf 7e21 5a3d de2d db3d 7d19 a8bd
000002a0: d994 52bd a8ac 60bf 84f3 95be 1b7c 0ebe
000002b0: 266d 633c 8415 95bf 3ed5 2a3d 82e9 e6bd
000002c0: f9cb f93d f28c 353c 2281 49be 6504 393e
000002d0: c2c5 c9be d0ef e3bd a626 1dbf 075a 9dbd
000002e0: 7cd4 ea3c 2451 0bbe bda4 5bbe 791c d2be
000002f0: 8257 ee3d 54ca 3bbd 3d9b b0be 5e45 56be
00000300: 3a8d 78be a1c9 63be 5b0b 01bd 97d4 05be
00000310: a62a 04bd dcb5 b63d 721a dbbc de49 403d
00000320: 5bf2 ba3d aaa6 36bf 92d1 aabf 6856 e1bc
00000330: fa6a 9ebf 1c63 053d 0a9e 353f 1a62 48bc
00000340: 867d 01bd d493 58bd 6032 053e 1e06 6bbd
00000350: 3f21 19bf 754d aebb ada0 abbd ff3a cabd
00000360: cc8e f03c 82d2 7dbd 93d1 08bf 2597 9dbf
00000370: 92b2 e1be 6e06 00bd 9912 463e 6880 1bbc
00000380: 5a98 b73d cca7 d5be 6862 03be 16d0 57be
00000390: ff58 a53d 1b3b 83bd fffe 903e 92a0 60be
000003a0: 7a6a df3d 08e6 b0bc e780 52be 243f 9a3d
000003b0: 1900 b1be ea8f 69bd c093 953a 51bc f2bc
000003c0: 4c2c f3bc 7684 0abe 8f72 073f f117 19bd
000003d0: cf75 f1be 0148 06be a6d6 5a3d 8c95 13bf
000003e0: 6e21 0cbd ad84 87be edba 27be 1187 25bc
000003f0: a492 fbbd bdd2 873d b766 ccbd 5ce5 0c3e
0.03554392 -0.027774107 -0.033585273 0.49568558 0.03973764 -0.010762576 -0.67136914 0.055076975
-0.044876814 -0.019382095 -0.01976259 -0.044790447 -0.11084816 -0.25543106 -0.0488483 -0.2931151
0.09601559 -0.25320464 -0.41737407 0.41394168 0.05074895 -0.0458944 -0.021974258 -1.1169436
-0.17099273 -0.023956927 -0.14164588 0.06352692 -0.049144767 0.003071657 -0.2850525 -0.012721762
-0.103441864 -0.061374664 -0.08982573 -0.37694904 0.016669273 0.041675076 -0.52197134 -0.4851711
-0.014964042 0.20232011 0.067909844 -0.102731615 -0.7546197 0.08358007 -0.58503383 0.36406508
0.04010088 0.035818882 -1.1396425 -0.08723743 -0.1772015 -1.0848316 -0.03311665 -0.04375282
-0.20350832 0.0038428605 -0.025358804 -0.012088641 -0.25476322 -0.010456093 0.032419905 -0.08920812
-0.15793921 -0.36517996 -0.098718084 0.04201476 -0.0064907297 0.057955287 -0.065186456 -0.016552217
-0.68323445 0.6372831 0.18681847 -0.048219785 -0.01684697 0.07125015 -0.048590973 -0.110334195
0.010748148 -0.30969608 -0.20963013 0.025272824 0.09643039 0.048914224 0.0009701797 -1.1000811
-0.0015476969 0.06077961 -0.70823914 -0.12380244 -0.01210845 -0.047391735 -0.03845518 -0.38481426
-0.1113248 -1.051432 -0.057914272 0.45533916 0.011739053 -0.039065573 -0.15875156 0.089631654
-0.50302494 -0.035177596 -0.032318003 -0.9668927 -0.022658858 -0.032834567 -0.2705815 -0.79187936
0.09025151 0.04125256 0.23912126 0.20478591 0.058390394 -0.522706 0.5191568 -0.030515611
-0.21238424 -0.0060237986 0.009560341 -0.0058056274 -0.044938378 0.17243356 -0.7770918 -0.070713185
0.38502157 0.0588616 -0.013837405 -0.24450988 0.02038857 -0.07965706 -0.7650882 -0.012071039
-0.0016055107 -0.016775746 -0.25614107 -0.14635082 -0.20126161 -0.025149345 -0.014807615 -0.007828005
-0.22141133 -0.014002178 -0.12223562 -0.058686648 -0.039659563 -0.055062145 -0.41068962 -0.040019687
0.44683307 -0.5794144 -0.118621826 0.22128499 0.27281186 0.022501886 -0.18363205 0.020684091
0.05698789 -0.08152114 0.03125441 -0.024519095 -0.54277027 0.053254597 0.10702108 -0.082079865
-0.051411483 -0.8776345 -0.2928735 -0.1391453 0.0138810035 -1.1647191 0.04170727 -0.11275007
0.12197108 0.011080967 -0.19678167 0.18068083 -0.3940869 -0.11129725 -0.613871 -0.07683187
0.028665774 -0.13605171 -0.21449561 -0.41037348 0.116377845 -0.045847252 -0.34493437 -0.20924899
-0.24272624 -0.22244884 -0.03150497 -0.13069378 -0.032267235 0.08921406 -0.026746009 0.046945445
0.09128257 -0.7134806 -1.3345206 -0.027507022 -1.2376397 0.03256522 0.70944273 -0.0122304205
-0.03161385 -0.052875355 0.13007498 -0.05737888 -0.59816355 -0.005319292 -0.08380256 -0.09874534
0.029364966 -0.061968334 -0.53444785 -1.2311751 -0.4408155 -0.03125613 0.19343032 -0.009491064
0.08964606 -0.4172958 -0.12830508 -0.21075472 0.08073615 -0.06407758 0.28319547 -0.21936253
0.10908981 -0.021594062 -0.20556985 0.07531574 -0.34570387 -0.057022013 0.0011411831 -0.029630812
-0.029684208 -0.13527092 0.5290918 -0.037376348 -0.47160193 -0.13113405 0.05342736 -0.57650065
-0.03421157 -0.2646841 -0.163799 -0.010103003 -0.12283829 0.06631992 -0.09980529 0.13759369

fc3.bias f4 [81]
00000000: d93d 2240 98e2 d43f 0e9e c63f ca31 bb3f
00000010: 8e0b b23f 797e 51bd 6c54 d53f 14ba c33f
00000020: fd94 6bbe a080 933f 404e 1940 5efe ab3f
00000030: ced1 2c3f ee78 c93f 02de 2cbe b8ae 853f
00000040: 64db e33f c539 da3f fb23 b93f f7a4 e63f
00000050: 9def 1240 000f f03f 0460 e53f a647 2440
00000060: 0d77 a23f ec3a 0240 0aa7 d13e db06 853f
00000070: b21a ac3f 5f6b 563f b820 903f 333f 8b3f
00000080: 5e1a bc3f 68a6 ce3f 690c 813f d8f0 a03f
00000090: d2f3 8b3f ecdd a13f 0b59 853f 929e 1640
000000a0: b8d4 c2be bf7f f7be 0dc5 c73f aceb a03f
000000b0: 1793 b63f eb4b af3f 699d 0640 98f1 3f3f
000000c0: e199 8f3f 1607 203f 268f bb3f f90a e53f
000000d0: 960d 0b40 dccd fb3f 5ddd b93f 3670 613f
000000e0: c8f5 46bf 1a20 923f d251 dc3f a029 b23f
000000f0: bfaf 8b3f ff7f 773f 58bd c53f 0d3b 0040
00000100: 467a a13f 4844 d93f 29bf a83f c8f5 f33f
00000110: c7bc 3e3f 3287 f73f cf23 cc3f 77a9 993d
00000120: 70cc 523f 40e4 f03f 4391 8f3f 4b7f 7a3f
00000130: 1c65 cb3f 638d b63f 55f9 6ebd 39c8 c13f
00000140: 168a f83f
2.535025 1.6631651 1.5516984 1.462457 1.3909776 -0.051146004 1.6666389 1.5291162
-0.23006053 1.1523628 2.395401 1.3437002 0.67507637 1.574003 -0.16881564 1.0443945
1.7801328 1.704888 1.4464105 1.8019093 2.2958748 1.8754578 1.7919927 2.566873
1.2692581 2.0348463 0.40947753 1.0392717 1.3445647 0.83757585 1.1259985 1.0878662
1.4695547 1.6144533 1.0081912 1.25735 1.0933783 1.264585 1.0417799 2.3534284
-0.38052917 -0.4833965 1.560701 1.2571921 1.4263638 1.3695043 2.1033576 0.7497802
1.1218835 0.6251081 1.465306 1.7893974 2.1727042 1.9672198 1.452068 0.88061845
-0.7771878 1.1416047 1.721247 1.3918953 1.0913008 0.9667968 1.5448408 2.0036042
1.261544 1.6973963 1.3183337 1.9059381 0.745068 1.9338133 1.5948428 0.07503026
0.82343197 1.8819656 1.1216205 0.97850484 1.5890231 1.4261898 -0.05834325 1.5139228
1.941714
