code/outputs/Policy_Gradient/seed1/models/pg_checkpoint.pt (torch, 30227 bytes, 4 tensors)

fc1.weight f4 [81, 5]
0.40552562 0.1610658 -0.2045144 0.39809197 0.36393398 0.2124913 -0.34916133 -0.26019955
-0.3429994 0.5176536 0.23044251 -0.112653494 0.20272733 -0.19024518 0.3542676 -0.034250677
-0.057255823 -0.2265565 -0.25324252 0.2287634 -0.3567141 -0.29476213 -0.15886085 -0.3118657
-0.21429399 0.27665725 -0.03931885 0.39603874 0.52946854 -0.05065209 -0.33486938 -0.15001655
-0.2701629 -0.32386136 -0.011430241 -0.32797813 0.081281014 -0.20194271 -0.07014601 0.13965943
-0.32419926 -0.15883553 0.1646823 -0.35411593 0.05832035 0.29128984 -0.0487756 0.061837412
0.071138956 0.14381835 -0.40894568 -0.19048794 -0.17882966 0.093738034 0.0965707 -0.1048006
-0.07538075 -0.44573095 -0.18546501 0.09752132 0.40128344 0.41370586 -0.238916 0.28303283
0.4508431 0.15971938 -0.3384564 0.10931442 -0.36910337 0.1833821 -0.29390168 -0.22752038
0.26120195 0.15422963 0.18920305 0.14989664 0.32051787 0.35134062 0.1866978 0.88626254
-0.06396385 -0.28274775 0.17864814 -0.07663814 0.1667723 -0.3685927 -0.3794152 -0.43746054
-0.13724256 0.32270482 -0.08895456 -0.2967041 0.08428619 0.19657116 0.17912038 -0.2051182
-0.21889663 0.04487139 -0.28657848 -0.21459398 0.046689544 -0.41507903 0.3481328 -0.41160378
-0.54588306 -0.22582638 -0.060476404 0.23269004 0.123548724 -0.040082745 0.14841317 -0.049170602
0.21777593 -0.2159167 0.33078864 -0.16512088 0.12549782 -0.16248283 -0.28664306 -0.05150419
0.110845864 -0.2976903 -0.14312185 0.31638703 0.20428866 0.19710717 -0.10000376 0.030275581
-0.25975788 0.3604195 0.20074561 -0.51521426 0.13747093 -0.45643473 -0.510671 -0.049380872
-0.34292743 0.27227926 0.005449921 0.5433123 0.17962621 -0.19059424 -0.10439477 -0.39790443
-0.13307235 0.23010135 -0.47000805 -0.1935835 0.07350547 -0.35833156 0.14737308 0.18747157
0.08970994 -0.49665424 -0.13938378 -0.28360724 -0.16967127 0.3102271 0.31405765 0.15975642
0.2782163 -0.0014164855 0.15620235 0.11124322 -0.25315285 0.508851 0.040661216 -0.04025965
0.326313 -0.0767579 0.2633339 0.065521605 0.097909175 0.1633921 -0.1904475 -0.2198058
-0.3932631 -0.42678618 -0.38907358 -0.16150212 -0.23037621 0.1485197 0.3226472 0.4964879
0.16526963 -0.4208205 0.19373119 0.44851586 0.28641018 0.12909392 0.029404316 0.3276602
-0.04274005 0.051572446 -0.1641388 0.16516176 -0.4166935 -0.094095446 0.29469818 0.44896612
-0.07193826 0.012101941 0.14732173 -0.3331541 -0.17968881 0.2050548 0.066369995 0.15024668
0.2744036 0.6264883 0.42296433 -0.12992184 0.9447839 0.48545414 -0.044597924 -0.3126136
-0.107912526 0.21462426 -0.19903822 -0.3970744 0.14413492 0.581296 0.09800674 0.14960058
0.6116339 -0.06043578 -0.28277716 0.07992943 0.043266486 -0.4126601 0.13367385 -0.24241197
-0.3629252 0.39720622 -0.24276942 0.25822276 0.22020486 0.11233407 -0.20459825 0.13071318
0.07239692 -0.24236074 -0.08085775 0.11099359 -0.03574576 -0.11938362 -0.29627866 0.098486215
-0.23364145 -0.40281337 -0.2463297 0.32654732 -0.16408405 -0.07864096 0.5986173 0.12234382
00000000: 0ea1 cf3e 6fee 243e 396c 51be b6d2 cb3e
00000010: 8e55 ba3e 5297 593e 46c5 b2be e038 85be
00000020: 9e9d afbe f284 043f 1ff9 6b3e e0b6 e6bd
00000030: c197 4f3e a2cf 42be 9062 b53e 704a 0cbd
00000040: 1585 6abd 6dfe 67be 01a9 81be f440 6a3e
00000050: 3ba3 b6be 10eb 96be 6bac 22be dcac 9fbe
00000060: e26f 5bbe 05a6 8d3e cd0c 21bd 97c5 ca3e
00000070: 408b 073f 9178 4fbd 0074 abbe f09d 19be
00000080: cb52 8abe 28d1 a5be e845 3bbc c0ec a7be
00000090: a976 a63d 12ca 4ebe b6a8 8fbd e202 0f3e
000000a0: 72fd a5be c8a5 22be 7aa2 283e af4e b5be
000000b0: 52e1 6e3d f123 953e ecc8 47bd 3a49 7d3d
000000c0: 4db1 913d 1e45 133e 5461 d1be 450f 43be
000000d0: 1f1f 37be baf9 bf3d dcc6 c53d b2a1 d6bd
000000e0: 3961 9abd d936 e4be 8aea 3dbe 42b9 c73d
000000f0: 0675 cd3e 41d1 d33e 65a6 74be aee9 903e
00000100: e8d4 e63e 7a8d 233e 284a adbe 3de0 df3d
00000110: 1efb bcbe 84c8 3b3e 487a 96be 1afb 68be
00000120: 43bc 853e 5fee 1d3e 72be 413e 817e 193e
00000130: eb1a a43e ebe2 b33e b52d 3f3e 1ae2 623f
00000140: 7bff 82bd 50c4 90be 8aef 363e 75f4 9cbd
00000150: 5cc6 2a3e 2fb8 bcbe b642 c2be d4fa dfbe
00000160: 5089 0cbe 9139 a53e cf2d b6bd 9ae9 97be
00000170: 3d9e ac3d f349 493e 556b 373e 810a 52be
00000180: 7026 60be 10cb 373d 6aba 92be 86be 5bbe
00000190: 893d 3f3d 3d85 d4be 763e b23e bbbd d2be
000001a0: febe 0bbf 083f 67be 1bb6 77bd 4c46 6e3e
000001b0: 1d07 fd3d ce2d 24bd 9ff9 173e 1d67 49bd
000001c0: a700 5f3e 4419 5dbe 215d a93e 7315 29be
000001d0: 8082 003e e661 26be e1c2 92be 0ff6 52bd
000001e0: 2803 e33d dd6a 98be 898e 12be 7bfd a13e
000001f0: 0c31 513e 76d6 493e c5ce ccbd 7f04 f83c
00000200: fcfe 84be e888 b83e 4290 4d3e 15e5 03bf
00000210: 2ec5 0c3e d0b1 e9be 56bb 02bf 9943 4abd
00000220: 2f94 afbe 3068 8b3e 4095 b23b 8416 0b3f
00000230: efef 373e 232b 43be edcc d5bd 21ba cbbe
00000240: 1e44 08be b09f 6b3e e5a4 f0be c13a 46be
00000250: 098a 963d 3c77 b7be f8e8 163e 8cf8 3f3e
00000260: d8b9 b73d 7749 febe 9fba 0ebe f834 91be
00000270: 4ebe 2dbe 16d6 9e3e 2acc a03e 3097 233e
00000280: 5e72 8e3e 5ea9 b9ba 82f3 1f3e 7cd3 e33d
00000290: 409d 81be 0f44 023f 608c 263d 4ee7 24bd
000002a0: 7f12 a73e 3f33 9dbd b3d3 863e 3130 863d
000002b0: 9b84 c83d 4250 273e ab04 43be c614 61be
000002c0: c859 c9be b883 dabe a734 c7be d060 25be
000002d0: bee7 6bbe 8c15 183e 0432 a53e a933 fe3e
000002e0: 713c 293e c975 d7be 7861 463e dfa3 e53e
000002f0: 5ba4 923e 3231 043e 52e1 f03c 14c3 a73e
00000300: 3110 2fbd a13d 533d 0014 28be 2a20 293e
00000310: da58 d5be 1db5 c0bd aee2 963e e3de e53e
00000320: 5e54 93bd 3847 463c 82db 163e 2d93 aabe
00000330: 5800 38be e3f9 513e feec 873d 44da 193e
00000340: a17e 8c3e 8a61 203f c88e d83e 3b0a 05be
00000350: 5cdd 713f 728d f83e 50ac 36bd e40e a0be
00000360: 3e01 ddbd 76c6 5b3e add0 4bbe 564d cbbe
00000370: 1b98 133e d1cf 143f c2b7 c83d e530 193e
00000380: 0a94 1c3f 828b 77bd 2bc8 90be 0ab2 a33d
00000390: 3338 313d 2f48 d3be cce1 083e d83a 78be
000003a0: 55d1 b9be 9d5e cb3e 8c98 78be c635 843e
000003b0: 627d 613e 680f e63d 3482 51be add9 053e
000003c0: d644 943d 6a2d 78be bf98 a5bd 9b50 e33d
000003d0: 256a 12bd 667f f4bd d6b1 97be 24b3 c93d
000003e0: b43f 6fbe 8e3d cebe da3d 7cbe 3631 a73e
000003f0: a605 28be 830e a1bd fc3e 193f 668f fa3d

fc1.bias f4 [81]
0.3847925 0.48086378 0.17492373 -0.42376325 -0.019162133 -0.20031026 -0.09929809 0.6815788
-0.19963095 0.07118888 -0.2846563 0.4551591 -0.06504715 0.5078363 -0.23933367 -0.10814124
0.44778135 0.24992192 0.5604672 -0.2604674 0.6020959 -0.19617227 0.5040022 -0.5130963
0.32535052 0.20838666 -0.1956318 0.45193535 0.3544285 -0.15022284 -0.32945183 -0.2891247
0.059646416 0.03919612 -0.61583257 0.20566174 0.102641456 0.5400559 -0.38861716 0.13486975
-0.37897077 0.7171185 -0.06640944 0.06254655 0.30559927 0.10800621 0.019377157 -0.27405608
-0.23723526 -0.3055648 0.684595 -0.039460115 0.18102092 0.4242547 -0.22350805 -0.21760505
0.4030569 -0.23103257 -0.24893922 -0.14528191 0.3436485 -0.24342102 0.27862644 0.382644
-0.31488383 0.13808331 0.4513801 0.629873 0.23138699 0.33607358 -0.2862139 0.26871184
-0.15726851 0.08612332 -0.2710409 0.16553065 -0.052350074 -0.41731793 -0.1966093 0.35384712
0.25954184
00000000: 8603 c53e c733 f63e 351f 333e 7ff7 d8be
00000010: e8f9 9cbc 221e 4dbe cc5c cbbd f37b 2e3f
00000020: 0e6c 4cbe 7acb 913d 78be 91be 9d0a e93e
00000030: 7137 85bd 8f01 023f e313 75be 2879 ddbd
00000040: 9943 e53e 88eb 7f3e c77a 0f3f fc5b 85be
00000050: f522 1a3f 62e1 48be 4a06 013f 475a 03bf
00000060: 5894 a63e 5063 553e b453 48be 1264 e73e
00000070: a777 b53e 04d4 19be e9ad a8be 2708 94be
00000080: cd4f 743d 1c8c 203d 34a7 1dbf fe98 523e
00000090: af35 d23d 1a41 0a3f d4f8 c6be 4c1b 0a3e
000000a0: 7508 c2be 1495 373f ac01 88bd 6818 803d
000000b0: 8277 9c3e 5c32 dd3d d8bc 9e3c 1451 8cbe
000000c0: cded 72be fd72 9cbe 9e41 2f3f eea0 21bd
000000d0: 8c5d 393e e937 d93e 4bdf 64be dcd3 5ebe
000000e0: 795d ce3e cd93 6cbe ece9 7ebe c8c4 14be
000000f0: b2f2 af3e 5c43 79be 20a8 8e3e eae9 c33e
00000100: 7438 a1be b665 0d3e 4b1b e73e 5b3f 213f
00000110: b6f0 6c3e d611 ac3e a18a 92be 9994 893e
00000120: ff0a 21be 6c61 b03d dfc5 8abe de80 293e
00000130: 086d 56bd b2aa d5be f353 49be 732b b53e
00000140: abe2 843e

fc2.weight f4 [81, 81]
-0.25244763 0.07814222 0.049366675 -0.097632036 0.105620705 -0.1598762 0.12717868 -0.09033531
-0.13890904 0.09574175 0.0980074 -0.19353293 -0.012884074 -0.022036334 -0.015175356 -0.15688498
-0.09520541 0.0897093 -0.079400465 -0.07041982 0.040854298 0.053091962 0.0945106 -0.20586918
-0.041400783 -0.23434862 -0.19110304 0.051482808 -0.013885022 -0.014024645 -0.053900994 -0.1602803
1.51950735e-05 -0.02360894 0.0036353369 -0.06581664 -0.14853734 -0.0076268706 -0.03979663 0.058970135
-0.04015901 -0.1296337 -0.024241818 0.006491266 -0.10565096 0.07000774 0.011867232 -0.11773655
-0.104373775 0.06382109 -0.2737625 -0.02398124 0.073531106 -0.12621567 -0.09007147 -0.183748
0.109091066 -0.050884485 -0.02951351 -0.12385103 0.06606979 -0.048419632 -0.025787594 0.04231321
-0.064366795 -0.0926186 -0.017725302 -0.15452045 -0.08056272 -4.3448337e-05 -0.07133974 0.08281177
-0.20320578 -0.07245203 -0.13496828 0.061800957 -0.08509182 0.09663083 -0.011939599 -0.028295927
0.097465046 -0.1718175 0.21749657 0.3567105 0.0022691356 0.08803621 -0.19737218 0.135874
0.2360955 -0.087231025 -0.13916714 0.16570427 -0.103132926 -0.060278047 0.23441194 0.09549973
-0.19442211 0.13150841 0.1842101 0.27695617 0.07681191 0.16808113 -0.06606824 0.101660416
-0.041989625 0.3119602 0.023537653 0.04317778 0.15490809 0.2812408 -0.030592285 -0.12901977
-0.042306542 -0.098480776 -0.07094701 -0.09925815 0.069993906 -0.24598338 0.2914494 -0.053747416
0.10580356 -0.043167137 -0.13829021 -0.61380893 0.14472207 -0.05946437 0.1839208 0.09400359
-0.19545586 0.036318183 -0.09928676 -0.002698385 -0.017448412 -0.059921894 -0.03675422 -0.058673654
-0.13476439 0.26525173 -0.02756128 -0.16678715 -0.11784745 0.21234213 -0.053042483 0.016495088
0.15559779 0.032918505 0.017837483 0.35248363 0.018343214 -0.12244808 0.1547129 0.09112704
0.1565053 -0.18943585 0.08786271 -0.09047288 0.12837203 -0.10690424 0.058707464 -0.005771127
0.04983065 -0.19780906 -0.16776553 0.09149503 0.19372462 0.03332338 -0.15805167 -0.10659739
-0.1412032 -0.11036821 0.20344195 0.20074463 0.22818899 -0.14563866 -0.17211108 -0.046634577
0.013916069 -0.01430587 -0.11423697 -0.050489496 0.0064983563 -0.049779177 -0.19559306 -0.05849106
-0.12021518 0.0037207617 0.009918536 0.046450015 0.133094 0.016102184 0.1840257 0.011376619
-0.04511321 0.17726848 -0.04189692 0.17134611 -0.050172366 -0.04547204 -0.27534813 -0.1017398
0.0011298092 -0.004063815 -0.016385026 -0.11371328 0.13968305 -0.04133732 -0.1314187 0.008534774
0.031302094 -0.1153905 0.07973019 0.054808643 -0.14285964 -0.0025651853 0.11546328 -0.00040462188
0.008738174 -0.058146656 0.024723431 0.07027214 -0.09998618 -0.021619402 -0.1218683 -0.060021807
-0.18516994 -0.19321828 0.05737652 0.1646504 0.14503026 -0.02598386 -0.14472224 0.2077971
0.0542917 0.019769747 -0.020146275 -0.07961396 -0.099855796 0.11586564 -0.08691109 0.020603444
-0.0076772976 -0.1325827 -0.19387467 0.01990232 0.046215527 0.25865468 -0.06120234 0.00019984692
-0.03806671 0.1256252 0.11436105 0.08745504 0.12900268 0.17012066 -0.1646274 -0.16735315
00000000: d140 81be 0709 a03d b634 4a3d 4ef3 c7bd
00000010: ab4f d83d 96b6 23be 213b 023e b801 b9bd
00000020: 2c3e 0ebe 4014 c43d 1bb8 c83d 7f2d 46be
00000030: b917 53bc 8b85 b4bc 0ea2 78bc 75a6 20be
00000040: 0efb c2bd 82b9 b73d b69c a2bd 4438 90bd
00000050: d656 273d f576 593d c68e c13d 5fcf 52be
00000060: de93 29bd 16f9 6fbe 84b0 43be a3df 523d
00000070: 017e 63bc a0c7 65bc 4ac7 5cbd 8520 24be
00000080: 58ee 7e37 8967 c1bc d53e 6e3b e0ca 86bd
00000090: 2c1a 18be d4ea f9bb cb01 23bd ab8a 713d
000000a0: c67d 24bd b2be 04be c796 c6bc b0b4 d43b
000000b0: 885f d8bd 3860 8f3d c76e 423c dc1f f1bd
000000c0: ebc1 d5bd a2b4 823d 992a 8cbe 4e74 c4bc
000000d0: 7a97 963d ae3e 01be 6477 b8bd 7028 3cbe
000000e0: 236b df3d 406c 50bd 51c6 f1bc 9ca5 fdbd
000000f0: 994f 873d aa53 46bd 8140 d3bc 9e50 2d3d
00000100: bdd2 83bd d2ae bdbd a734 91bc 9c3a 1ebe
00000110: 11fe a4bd 4c3c 36b8 921a 92bd 3899 a93d
00000120: 2d15 50be bb61 94bd 2035 0abe 0023 7d3d
00000130: 9f44 aebd 62e6 c53d 4f9e 43bc dccc e7bc
00000140: c19b c73d edf0 2fbe 6cb7 5e3e c2a2 b63e
00000150: c7b5 143b 544c b43d ef1b 4abe 8e22 0b3e
00000160: 05c3 713e 2ea6 b2bd d581 0ebe 61ae 293e
00000170: 5b37 d3bd 1de6 76bd af09 703e 5d95 c33d
00000180: 9716 47be 24aa 063e 93a1 3c3e 33cd 8d3e
00000190: 904f 9d3d 761d 2c3e c94e 87bd 5633 d03d
000001a0: 50fd 2bbd 3fb9 9f3e 09d2 c03c 2fdb 303d
000001b0: 3aa0 1e3e cbfe 8f3e ac9c fabc c21d 04be
000001c0: a049 2dbd 4ab0 c9bd aa4c 91bd db47 cbbd
000001d0: f758 8f3d 11e3 7bbe db38 953e 4026 5cbd
000001e0: 89af d83d 06d0 30bd f39b 0dbe 9522 1dbf
000001f0: 0632 143e e990 73bd bc55 3c3e f484 c03d
00000200: 9525 48be 60c2 143d db56 cbbd 63d7 30bb
00000210: f9ef 8ebc a970 75bd 988b 16bd c953 70bd
00000220: adff 09be 13cf 873e 32c8 e1bc 40ca 2abe
00000230: 015a f1bd 3770 593e 1343 59bd b520 873c
00000240: 0755 1f3e 8ed5 063d ea1f 923c bc78 b43e
00000250: 8244 963c 0fc6 fabd 0f6d 1e3e d0a0 ba3d
00000260: ed42 203e 79fb 41be 5df1 b33d d849 b9bd
00000270: f573 033e 9cf0 dabd 3d77 703d b91b bdbb
00000280: 391b 4c3d 758e 4abe baca 2bbe bf61 bb3d
00000290: bf5f 463e 197e 083d 4cd8 21be bb4f dabd
000002a0: 9297 10be ba08 e2bd 1653 503e 0090 4d3e
000002b0: 60aa 693e 4d22 15be e33d 30be e603 3fbd
000002c0: 3900 643c 2b63 6abc 13f5 e9bd 13ce 4ebd
000002d0: 2af0 d43b 40e5 4bbd 8c49 48be 5294 6fbd
000002e0: 6033 f6bd 06d8 733b 5b81 223c 5f42 3e3d
000002f0: cb49 083e bae8 833c 3c71 3c3e 0065 3a3c
00000300: a1c8 38bd de85 353e 1b9c 2bbd 5b75 2f3e
00000310: 8a81 4dbd e440 3abd 6efa 8cbe f55c d0bd
00000320: 1b16 943a c029 85bb e439 86bc 82e2 e8bd
00000330: 1309 0f3e 5251 29bd a092 06be 70d5 0b3c
00000340: a036 003d db51 ecbd 9549 a33d 077f 603d
00000350: cc49 12be ab1c 28bb 0378 ec3d 6e23 d4b9
00000360: 8f2a 0f3c 302b 6ebd cb88 ca3c d7ea 8f3d
00000370: 8ec5 ccbd 2c1b b1bc 1696 f9bd 6dd9 75bd
00000380: 309d 3dbe 03db 45be a403 6b3d 1d9a 283e
00000390: d082 143e 1bdc d4bc 1132 14be c3c8 543e
000003a0: f960 5e3d 2af4 a13c cd09 a5bc a50c a3bd
000003b0: 3281 ccbd f74a ed3d 71fe b1bd 8ec8 a83c
000003c0: d791 fbbb c2c3 07be 1587 46be 310a a33c
000003d0: 7e4c 3d3d 636e 843e 4eaf 7abd 008e 5139
000003e0: d7eb 1bbd e4a3 003e 2036 ea3d a11b b33d
000003f0: 4719 043e 1c34 2e3e 1694 28be a05e 2bbe

fc2.bias f4 [81]
-0.0387366 0.15087487 -0.14967413 0.18240413 -0.12924153 -0.18813829 -0.083927 -0.025878688
0.16498777 -0.057341877 0.013358805 -0.17658347 0.011869587 -0.038588688 0.12069012 -0.22223127
-0.1940868 -0.10322407 0.18898863 0.26951277 -0.20255023 0.023118759 -0.22013412 0.16710725
0.0008575385 0.13965333 -0.06881122 -0.11019936 -0.0056267423 0.15358609 -0.039681356 -0.04971424
0.16580309 0.49264815 -0.19128737 -0.14727823 -0.10655699 -0.111582235 -0.113552496 -0.27048564
-0.18572374 0.0587707 -0.28807816 0.10653436 -0.02150925 -0.033861913 -0.2398958 -0.060359683
-0.2618199 -0.13540237 -0.11784595 0.16965896 -0.232605 0.13304178 -0.32237563 0.038713153
0.20002379 0.17308708 0.11226298 0.3538098 -0.025456188 -0.17145216 -0.065446734 -0.061197307
-0.18593009 -0.12244986 0.24191797 -0.2467701 0.041973263 0.097161695 -0.122606546 0.23329149
0.016995039 -0.05442485 -0.06807764 0.16873811 0.0438348 -0.060362 -0.04108433 -0.28541592
0.26791686
00000000: 45aa 1ebd f17e 1a3e 2d44 19be 26c8 3a3e
00000010: e457 04be 53a7 40be ebe1 abbd 8bff d3bc
00000020: 8ef2 283e 51df 6abd e4de 5a3c 4cd2 34be
00000030: a878 423c 2c0f 1ebd 622c f73d 9890 63be
00000040: b1be 46be 2467 d3bd 3c86 413e 94fd 893e
00000050: 5469 4fbe 8d63 bd3c d76a 61be 2a1e 2b3e
00000060: 6fcc 603a 4801 0f3e e6ec 8cbd 34b0 e1bd
00000070: 8960 b8bb ac45 1d3e eb88 22bd 29a1 4bbd
00000080: 49c8 293e 613c fc3e d6e0 43be 1bd0 16be
00000090: 8d3a dabd 3a85 e4bd 368e e8bd 187d 8abe
000000a0: 5d2e 3ebe 8cb9 703d fb7e 93be b02e da3d
000000b0: 2b34 b0bc cab2 0abd 3fa7 75be b73b 77bd
000000c0: 420d 86be eba6 0abe 3859 f1bd 14bb 2d3e
000000d0: 0130 6ebe 1b3c 083e 6b0e a5be af91 1e3d
000000e0: 09d3 4c3e bd3d 313e 22ea e53d 8f26 b53e
000000f0: 7f89 d0bc 2891 2fbe f008 86bd 07aa 7abd
00000100: 7564 3ebe fec6 fabd 58b9 773e 4db1 7cbe
00000110: 28ec 2b3d b6fc c63d 2419 fbbd f7e3 6e3e
00000120: 2e39 8b3c 97ec 5ebd 4a6c 8bbd afc9 2c3e
00000130: 1f8c 333d 253e 77bd 0b48 28bd 0922 92be
00000140: 662c 893e
