code/outputs/Policy_Gradient/seed2/models/pg_checkpoint.pt (torch, 30227 bytes, 4 tensors)

fc1.weight f4 [81, 5]
00000000: 2e17 a1bd 528a 9bbe eefb 5ebd 5cd2 96be
00000010: 14a2 e43d c91a ccbe 5987 c5be d651 d43e
00000020: f20c b9bd 5731 ff3d 67b6 1e3e 87f6 d6be
00000030: a698 00be 80dc 933e 0b16 13bd 61a4 bebe
00000040: 38fe 8a3e f00b cf3e 3400 37be 39b6 043f
00000050: ca1a ddbd e839 a4bd 5a2d c7be e2f2 ae3e
00000060: a2c5 59be 5c97 813e 95e1 db3e 3606 423e
00000070: 4a07 073e 9dc9 0fbf 0940 e43c cfa5 d1be
00000080: b565 dbbe 5833 c23e 3eae c6be 7cba 9ebe
00000090: 8efc 05bd 9d04 cc3e 370b 77be 00bc d73d
000000a0: f11f b4be bb9b c3be 60dd f63d 34c0 4dbe
000000b0: 9eea e3bd 056b 203e 7d78 083f 2554 a9bd
000000c0: b905 48be 871a 87be 04f5 d53d de9e bf3e
000000d0: ea05 173f ae26 c5be df32 a4be 8e64 003f
000000e0: e77e 163e bc8d cc3e 6100 79be 2766 2d3f
000000f0: 3602 f83e 2af8 893e 744a 7ebe 3cbb 57be
00000100: a615 e03e da01 d1be 7fc9 91be 7a3c e0bd
00000110: 8d8d a53e 883d 7b3e 1c82 45be 5fa4 06be
00000120: 09b1 86be 27da 73be ac12 c4be eda6 663e
00000130: bb1f 8f3e 3570 00bd 4fc6 1abe 2530 17be
00000140: f550 4d3e 0b28 3e3e d5e8 c3be c77c cf3e
00000150: cdc7 c3bd dc40 11be 3dc2 acbe 7d08 e1bc
00000160: 2b5f 99be 4a7b 4ebe a66a a6be 2fc4 73be
00000170: 200f 773e 8e68 60bd 8c97 173e ede8 f23d
00000180: 14b2 0ebe 68b3 acbe 05a7 db3d 8b29 16bf
00000190: 0796 28be 2d9d 2cbd 510a dcbe 4ebc 29be
000001a0: 213a 07bf d03a 9b3e 020d 093e 5924 013f
000001b0: db3e b63e f7e4 aa3e d49f 923e 6d7f 813e
000001c0: 2990 efbe 384a 4bbe ca71 fe3e 1a68 e83d
000001d0: edb6 8cbe 8bac 123e 7c34 523e 06e6 2ebe
000001e0: 52fa 10bd 54bf b23e 4c58 c4be ec5e 663e
000001f0: 7a9f 833d fa63 a13e e72f ecbe 02d5 473e
00000200: 365d f3be 6a08 8dbe 6c17 da3e 7627 523e
00000210: 681f 323e 3587 b93e 6b38 553d 75a2 563e
00000220: b918 903e d74d 8cbd ef5b f33e 813a da3d
00000230: 3888 59be a0ed 86bb 2dea 62bd cafc cabe
00000240: 79c8 7fbe 5f92 59bd c787 f03d 509e 9e3e
00000250: 450c d63e 9f86 c23b a47e cbbe 0f0b 93bd
00000260: 49e1 8a3d 683d aabe ee4a 42bd 4854 afbe
00000270: 2cd9 053f 8b94 303d 6f6d 813e 7610 2d3e
00000280: a3bc cd3e 01bb 9bbe e249 26be 051c 893e
00000290: 6c6f d9bd 6076 85be dbb3 fa3e 506a 943e
000002a0: 5f36 8a3e df90 013d f275 52be dad4 8dbe
000002b0: 2a2a 5e3c 5bcb 8cbe d034 d1be 61c3 b5be
000002c0: 1dff d9bc 5076 dcbe 20cc d93e f628 5c3e
000002d0: 3851 00bf c020 aebb 32d0 2d3d 8f24 36be
000002e0: 7acd 243e bbe0 9dbe 0d7d 963d 165c 5a3d
000002f0: 0e3e 49be 96b1 0e3d 46c4 d73e 1671 c43d
00000300: 468f 0a3f bde6 db3e ba1a 913e 5050 dfbe
00000310: f492 8cbc b70a 0b3f 316a 8a3e 0a78 22be
00000320: 575a 6c3e e9a2 e53e 8784 fe3e fea1 04be
00000330: 87d5 883e 6a05 a4be 7b90 21be ee06 c93e
00000340: 269c 89be c727 f7bb 5f6a 94bb 31b4 61be
00000350: 01b8 aa3e 6b89 cdbe 77c4 b3be 83a1 0cbe
00000360: 2c30 223e 1b24 8f3e 9743 bcbd 956f 8f3e
00000370: 82e3 f9bd 4960 643e c0f4 76be 7f31 713e
00000380: 9120 dc3d ec63 ad3e 0f0f 023e 9c84 5f3e
00000390: da22 0abe addd 173d baf4 03bb 681c b9be
000003a0: d33e 51be b5ad c2bc 083f bfbe 6eca 04bf
000003b0: b019 033e 02a1 cebe acf1 bebe c5e2 b4be
000003c0: 192f 3c3d 0501 8a3e 6acb d0be e696 76bc
000003d0: b9d1 9f3d dae4 4abe 58b5 fb3d 51ce b83e
000003e0: 714b 043e 76ed 95be 0787 183e ca7f 8a3e
000003f0: 034d 373d 17ae f1be 5016 5abe 9fc5 92be
-0.07865749 -0.30378968 -0.054439478 -0.29457366 0.111637264 -0.39864185 -0.38579825 0.41468686
-0.09035672 0.12460583 0.15499268 -0.4198496 -0.12558231 0.28879166 -0.035909694 -0.37234786
0.2714708 0.40438795 -0.17871171 0.5184055 -0.10796125 -0.08018857 -0.38901788 0.3416968
-0.21266797 0.2531079 0.42945543 0.18947682 0.13186374 -0.5616701 0.027862566 -0.40946814
-0.42851034 0.37929797 -0.3880481 -0.3100165 -0.032711558 0.3984727 -0.24125372 0.10533905
-0.3518062 -0.3820475 0.12053943 -0.20092851 -0.11128734 0.15665825 0.5330885 -0.082680024
-0.19533433 -0.26387426 0.10447124 0.37425894 0.589934 -0.38506073 -0.32070062 0.50153434
0.14696847 0.39951885 -0.24316551 0.67734 0.48439187 0.26947147 -0.24833089 -0.21067518
0.43766516 -0.40821725 -0.28474042 -0.10949035 0.32334557 0.24535191 -0.19287914 -0.1314864
-0.26306942 -0.23813687 -0.38295496 0.22524615 0.27953896 -0.03135701 -0.15114711 -0.1476446
0.20050414 0.18569963 -0.38263574 0.40524885 -0.09559593 -0.14184898 -0.33741942 -0.027469868
-0.2995542 -0.20164219 -0.3250324 -0.23805307 0.24126863 -0.05478721 0.14803904 0.11860833
-0.13935119 -0.33730626 0.10725216 -0.5865714 -0.16463481 -0.042142082 -0.4297662 -0.16575739
-0.5282307 0.30318308 0.13383868 0.5044609 0.3559483 0.3337781 0.28637564 0.2529253
-0.46789673 -0.19852531 0.4969619 0.11347981 -0.2748331 0.14323632 0.20527834 -0.17079934
-0.035394974 0.34911597 -0.38348615 0.22497147 0.06426902 0.3152159 -0.46130297 0.1951485
-0.47532052 -0.27545482 0.42595994 0.20522866 0.17394793 0.36235967 0.052055757 0.2096041
0.28143862 -0.06850784 0.47531077 0.1065569 -0.2124337 -0.0041176826 -0.05539911 -0.39645988
-0.24978818 -0.053118106 0.117446475 0.30980158 0.41806236 0.0059364582 -0.39745057 -0.07179844
0.06781251 -0.33249974 -0.04743474 -0.3424399 0.52284503 0.04311041 0.25278804 0.1690081
0.4018298 -0.3041611 -0.16239122 0.2677919 -0.10616955 -0.26066875 0.48965344 0.2898736
0.26994607 0.0316323 -0.20552805 -0.27701455 0.013559857 -0.27498898 -0.40860605 -0.35500625
-0.026610905 -0.43059015 0.42538548 0.215 -0.5012393 -0.0053139627 0.04243488 -0.17787383
0.16094008 -0.30835518 0.0734807 0.053310476 -0.19652578 0.034837328 0.42141932 0.09591882
0.5412487 0.42949477 0.28340703 -0.4361596 -0.017159916 0.54313225 0.27034143 -0.15866104
0.23081337 0.44850853 0.49710485 -0.1295242 0.26725408 -0.3203538 -0.15777771 0.392631
-0.26876944 -0.0075425836 -0.004529282 -0.22041394 0.3334351 -0.40143904 -0.35110828 -0.13733487
0.15838689 0.27957234 -0.09192579 0.28014818 -0.12201597 0.22302355 -0.24116802 0.23554038
0.10748399 0.33865297 0.12701057 0.2182793 -0.13489857 0.03707664 -0.0020134882 -0.36154485
-0.20434122 -0.02376447 -0.37352777 -0.51871383 0.12802768 -0.40357214 -0.37293756 -0.3532926
0.045943353 0.26953903 -0.40780193 -0.015050625 0.07803673 -0.19813862 0.12290448 0.36094907
0.12919404 -0.2928273 0.14895259 0.2705062 0.04475118 -0.47203133 -0.21297574 -0.28666398

fc1.bias f4 [81]
00000000: 6d54 f03d e8aa b1be 1b22 bbbe bc78 c83e
00000010: 6f54 bbbe bca5 1a3e c67c e33d 6966 c1be
00000020: 2340 97be e981 9abe 5dff 0cbe 8879 b73d
00000030: 941c 093e d420 14be 59ed 5fbe 8199 6ebd
00000040: fd85 afbe bc82 3bbd ea6d 85be edac 52be
00000050: 751a b53e c788 05bd 64e7 563d c807 dabe
00000060: 3df6 683e d577 0a3f f820 03be c2ec dd3e
00000070: c546 1b3d 89c0 30be e8e5 eabd 16ab b2be
00000080: 53d3 41be a0ef 98be 3d9e 7c3e 1b3b d4be
00000090: f880 c4be be4b 44bd 9b7a c63e 4846 08be
000000a0: 4234 d03e c55b 2cbd 9729 1fbe 8ec4 6f3e
000000b0: 284e 99be f64a 87be 3457 d93d 1830 79be
000000c0: 6b02 05bf 1eba 6d3d 320f fbbc 012a 0639
000000d0: 706f 12bb 73d9 be3d e415 723d 8caf d23c
000000e0: 003c e6bd 12f0 bdbd 4a68 c8be 0d71 1fbe
000000f0: 5023 023d 4be6 133d 5958 b3be 174e b1bd
00000100: 3a12 12be 6287 77bd 6009 40ba 3106 cabd
00000110: f6db dabd d1dc 36be f1fa dbbe cbbe 9c3e
00000120: b641 8fbd a37d 13be dd2a 5ebd 882d 5b3d
00000130: 3c2a 57bd a160 9a3e f8ce afbe 019c 33bd
00000140: e223 a1be
0.11734853 -0.34700704 -0.36549458 0.39154613 -0.36587855 0.15102285 0.11107783 -0.37773445
-0.2954112 -0.3017724 -0.13769288 0.08958727 0.13389808 -0.14465648 -0.21867885 -0.05825186
-0.34281912 -0.045778975 -0.2606042 -0.20573778 0.35371748 -0.032601144 0.052466765 -0.42584062
0.22750182 0.540891 -0.12805545 0.43344694 0.037909288 -0.17260946 -0.114696324 -0.34896153
-0.1892827 -0.2987032 0.24669738 -0.41451344 -0.38379645 -0.047923796 0.38765416 -0.1330806
0.4066487 -0.042079706 -0.15543209 0.23414823 -0.2994244 -0.26424378 0.10612336 -0.24334753
-0.51956815 0.058038823 -0.030646894 0.00012794884 -0.0022344254 0.09318819 0.059102908 0.025718473
-0.11241913 -0.092743054 -0.39142066 -0.15570469 0.031771958 0.036108296 -0.3502834 -0.086574726
-0.14264765 -0.060431845 -0.0007325616 -0.09864462 -0.106864855 -0.17857672 -0.4296489 0.30614313
-0.06994955 -0.14403395 -0.054240096 0.05351022 -0.052530512 0.30151847 -0.34337592 -0.04384995
-0.3147269

fc2.weight f4 [81, 81]
00000000: 8238 473e c40b 12be d9ff 6cbd 7053 543e
00000010: 395f 00bd b4d8 6f3e d25e 1f3e 15e6 e13d
00000020: 4ee9 c93d 7210 15bd 6f71 17bd a083 983e
00000030: 3a9a 853e 29e1 f1bc 5413 9fbd 20bc c33d
00000040: 5910 093c 6425 673d 992c 733d a9d5 d3bb
00000050: 1504 983e cff5 f33d 1fab 8d3e 7487 31be
00000060: a44b 7c3e 3cef e83e fd85 6e3d d85d cc3e
00000070: 3a6a 983d f9df fabd abf2 f33a d10c 72be
00000080: dfa3 8f3d 2007 b1be a850 553d 4065 f93c
00000090: afce 3cbe 499b abbd 8304 2c3e 144e 403e
000000a0: cdc2 4a3e 5544 7a3c 805f b0bc 047c dd3d
000000b0: e77f 94be ebf4 6b3b e921 1f3b 58a3 f83d
000000c0: 51ab 463e 3def 88bb a86a 243e 47a7 603c
000000d0: cd93 67bd f645 db3d 77c2 0abc c763 e7bb
000000e0: 9f07 0e3e 7cfd 403d 80fc b9bc bc27 753e
000000f0: d335 1dbd af1e 483e 3b32 43be 4153 343e
00000100: fd40 df3d 5722 e1bd 4383 a93e b9d6 a03d
00000110: 0612 cc3d 7eaf 9c39 5e5e 83bd b030 043e
00000120: 4539 c43d e746 35bd 485a adbe 9f41 3cbe
00000130: ae5d 563d f27b 693e 597a 083e 3a11 b9bd
00000140: 0229 af3d 42e5 fdbd f2f7 2c3e 6b0e 9ebd
00000150: f0cc b8be fd07 6a3d 69b1 3cbe b208 98be
00000160: 50b1 8a3d 50bb b0bd fbc1 0cbc 52e1 37bd
00000170: 8e74 d3be 73ec a1be fcf2 23be 1d8b febc
00000180: 258e 23be 3f75 b1bd 1410 863d 6058 8dbd
00000190: 5005 ecbb b0ff a7be 39eb 95be c788 46be
000001a0: 30f8 a63b ddf2 74be b8d3 07bf 94e8 543b
000001b0: 3d96 8dbe 7496 9fbd aa33 573b b258 9bbd
000001c0: 93f2 73bd 80d0 a8bd d9b1 4ebe c0ff 06bf
000001d0: 0720 cfbd 4bf1 a33d 8e11 65bd 8202 79be
000001e0: f6f4 003d 67e5 83be dd27 bfbd 00f4 49bb
000001f0: 6a67 b3be 74cb 55bd 5c35 24be ef83 91be
00000200: a653 293e f605 57be c719 0bbe ac4c 2fbe
00000210: 4700 28bc f81f 33be 43f9 7ebd 8e54 59bd
00000220: 8df0 34be 367a d9bd d06f aabe e0de 89bd
00000230: 6a91 ffbd 80db 2fbe 337b 9dbe 41ea a2bd
00000240: c519 f1bd b213 55bd 2397 57be 57da 34be
00000250: 56b6 7fbd 82a1 8cbe dbf9 0ebe 01db 413e
00000260: b0e2 92be 4d97 49bd 468b 39be 1370 b13c
00000270: bc42 aebd ba0f 14be 099b 7fbe c031 47bd
00000280: 2647 3cbe 8a79 05be 84f5 13be 5070 f33c
00000290: 80f1 6cbd 960c 09be a44b 433d 2241 9bbd
000002a0: ac36 1dbc 4540 e33d c59c 92bd 3567 69bd
000002b0: b97c cc3d 1a5c c43d 7bed d7bc d8ea 33be
000002c0: e707 673d a989 bdbc e299 8cbd 67d3 75bd
000002d0: ed01 933d cc3f 91bc 4897 22be 3ebf d43d
000002e0: de5b 833d 3dac 04be 9588 a63c 32c2 a5be
000002f0: af0b 373d fca2 363d 8c68 02bc 64a9 693c
00000300: 2ec1 b93d 7337 9ebd 581e 143d 964a 113c
00000310: 3f7b 6ebe 4084 a73c fded c63d 1efe 8b39
00000320: 4e3c f33b e0b3 e33d 38ea 6e3d b971 a9bd
00000330: eed7 05bd ba1e 18be 7bb7 6e3d 0e78 ba3d
00000340: 2d6e 9fbd b853 42be 07f3 a1bd 8db4 d03d
00000350: 834b 44bd 52d9 bb3d ed97 b0bd d47c a53d
00000360: 6373 b53d b6ed c03b 512e 03bc c726 89bd
00000370: 0779 a43c 71f0 873d d80d 2e3c 5783 493d
00000380: 224f 8f3d fea3 473e 2b5a 933c cc37 6d3d
00000390: 113c 76bd f4f1 e23d a507 81bd defa 1f3d
000003a0: 107e 303d cc32 97bd 4e68 97be d618 e83d
000003b0: 34d4 b4bd 4539 66bc 6c24 ddba a474 d43d
000003c0: b0cd dbbd e0fe 5ebe 7e60 80be 351d e2bc
000003d0: a20e 0d3d b97e 2cbc 922c b23d 0b83 54bd
000003e0: 5c4a 4abe df21 6cbd eebb 09bd dd31 cebc
000003f0: bead 3ebe d808 08be 3abd 55be dbd6 53be
0.1945515 -0.142623 -0.057861183 0.20734954 -0.03134081 0.2342251 0.15563515 0.11030213
0.098589525 -0.036392637 -0.036973413 0.29787922 0.26094228 -0.02952631 -0.077673584 0.09557366
0.008365714 0.056432143 0.059368704 -0.0064646793 0.29690614 0.11912119 0.27669618 -0.17336828
0.2463823 0.4549502 0.05823325 0.39915347 0.07442136 -0.12249751 0.0018611749 -0.23637702
0.07013678 -0.34575748 0.052078873 0.030443788 -0.18438219 -0.08379228 0.16798596 0.18779784
0.19800873 0.015275081 -0.021529913 0.1081467 -0.29003832 0.0036004137 0.0024281687 0.1214053
0.1940129 -0.00417891 0.16056311 0.013711757 -0.05653744 0.10706703 -0.008469216 -0.007061455
0.13870095 0.04711674 -0.02270341 0.23940939 -0.03838141 0.19542955 -0.1906213 0.17609884
0.109010674 -0.10992878 0.33107957 0.07853455 0.09964375 0.0002988539 -0.064144835 0.12909198
0.09581236 -0.04425707 -0.33857942 -0.18384407 0.052335434 0.22801188 0.13327922 -0.09036489
0.085527435 -0.12397243 0.16891459 -0.07717594 -0.36093855 0.057136524 -0.18427052 -0.29694134
0.06772101 -0.08629477 -0.00859117 -0.044892617 -0.41299862 -0.3162571 -0.1601066 -0.031072194
-0.15972193 -0.08664941 0.065460354 -0.06901622 -0.0072027817 -0.32812262 -0.29281023 -0.19388114
0.005095504 -0.2392077 -0.5305743 0.003248726 -0.27653685 -0.077923685 0.003283719 -0.07585277
-0.05955751 -0.08242893 -0.20185031 -0.52733994 -0.101135306 0.08005007 -0.055924945 -0.24317363
0.031483613 -0.25760958 -0.09333775 -0.0030815601 -0.35039836 -0.05219598 -0.1603598 -0.2842097
0.16535816 -0.20998368 -0.13584052 -0.17119092 -0.010253972 -0.17492664 -0.062249433 -0.053059153
-0.17669888 -0.10619013 -0.3328843 -0.06731963 -0.124789074 -0.17173576 -0.30758056 -0.07954837
-0.11772493 -0.052020736 -0.21053748 -0.17661415 -0.06242975 -0.2746697 -0.139625 0.189312
-0.28688574 -0.049216557 -0.18119535 0.021659886 -0.08508822 -0.14459124 -0.24961485 -0.04863143
-0.18386516 -0.13034645 -0.14449126 0.02971664 -0.0578475 -0.13383707 0.04767956 -0.075807825
-0.009595554 0.11096243 -0.07158808 -0.05698319 0.099847265 0.095878795 -0.026358357 -0.17570055
0.05640402 -0.02313693 -0.06865288 -0.060016062 0.07178102 -0.017730616 -0.15878022 0.10388039
0.06414007 -0.12956329 0.0203288 -0.32374722 0.044688877 0.044589028 -0.007959496 0.014261577
0.09070049 -0.0772542 0.03616175 0.00886788 -0.23289202 0.020448804 0.097133614 0.00026701478
0.0074229604 0.11118293 0.058328837 -0.08273644 -0.03267663 -0.14855471 0.05828045 0.0910493
-0.07784686 -0.18977249 -0.07907682 0.10190687 -0.047923576 0.0917231 -0.086227275 0.0808045
0.08859899 0.0058877124 -0.008006648 -0.06696849 0.020077242 0.066376574 0.010623418 0.04919752
0.06997515 0.19496152 0.017987331 0.05791454 -0.060115878 0.11081305 -0.06300286 0.039057605
0.043088973 -0.073827356 -0.29571766 0.11332862 -0.08829537 -0.01405174 -0.0016871816 0.1037381
-0.10732591 -0.21776915 -0.25073618 -0.027601818 0.034437783 -0.01052826 0.08699907 -0.051882785
-0.19754928 -0.05764949 -0.03362649 -0.025170261 -0.18620965 -0.13284624 -0.20872965 -0.2068743

fc2.bias f4 [81]
00000000: 1fab 673e 457b a7be 32cd e0bd 6631 d6bd
00000010: 2d93 193f aa08 a53e 3521 9bbe 37fc 09be
00000020: a701 2cbe d666 ca3e fff8 62be c2cb 02bd
00000030: b1e6 4fbd 9a43 d93c 8f97 36bd 9de4 b53d
00000040: b065 1f3e eeb9 913e 5d22 c6bd cbb8 323e
00000050: acb7 83be a4e9 d1bc 7533 24bd 9063 cbbc
00000060: d3eb 92bd 2601 9ebe 7af0 d7bc 4b29 7f3d
00000070: ac10 373d ee19 5abd d467 efbe e41d f33d
00000080: 5784 bc3d 6db5 a43d 07a5 8f3e 8001 703e
00000090: 9737 4a3e a60b 8d3e 452b 833e 2ca8 d63d
000000a0: 5a5f ab3d 1a54 41be 6ed8 da3d 72ac f7bd
000000b0: 9a74 823e 7295 e2bd 7f7f ecbd d723 37be
000000c0: bbe8 6c3e 1ad5 21be 093f 59be 9a2d 283e
000000d0: c003 833d 12b0 4dbd 69a5 5ebe 8785 8fbd
000000e0: 577c a13d 7262 593e ba74 66bd aa99 423e
000000f0: 789d b8bd da39 883d 9167 3c3e d9a2 84bd
00000100: bbec 623e adb4 5dbe 36a2 ffbd 2029 49be
00000110: 319d 17be 6ca1 bd3e b197 373d 21e9 5cbe
00000120: 1600 a23d 384a b1bd e905 8c3e aa99 febd
00000130: 038c 51be eebb 21be 3160 95be 3a5e d23c
00000140: c1db 143e
0.22623871 -0.32711235 -0.10976638 -0.10458641 0.599902 0.32233173 -0.30298772 -0.13475119
-0.16797505 0.39531583 -0.22165297 -0.0319326 -0.050757114 0.026521493 -0.04457813 0.08881495
0.15566134 0.28462166 -0.09674523 0.17453305 -0.25726068 -0.025624104 -0.040088136 -0.024827749
-0.07173886 -0.3086025 -0.026359785 0.06229524 0.044693634 -0.053247385 -0.46758902 0.118709356
0.09204929 0.08042417 0.28055593 0.23438072 0.19747768 0.2754795 0.2561895 0.10481295
0.08367796 -0.18879738 0.10685812 -0.12093438 0.25479585 -0.11063661 -0.115477555 -0.17884766
0.23135655 -0.15803948 -0.21215452 0.16423646 0.063972 -0.05021674 -0.21742786 -0.0700789
0.07885044 0.2122896 -0.056263663 0.1900393 -0.0901441 0.06651659 0.18398882 -0.06476373
0.22160618 -0.21650954 -0.12482111 -0.19644594 -0.14806058 0.37037218 0.0448224 -0.21573307
0.07910173 -0.08656734 0.2734826 -0.12431653 -0.20463566 -0.15794346 -0.2917495 0.025679696
0.14536954
