code/outputs/Policy_Gradient/seed8/models/pg_checkpoint.pt (torch, 30227 bytes, 4 tensors)

fc1.weight f4 [81, 5]
00000000: 0551 aebe c9fa 16be cfa3 66bd c4dd 9a3c
00000010: e4a6 103e 1dbb 50bd 84fb 8e3e 1283 d73c
00000020: 9a96 be3d 0f6f 4ebe 663a 82bc c58d 543e
00000030: d8b6 30bd c553 743e 08d8 013e 74e1 f6bd
00000040: f330 c7be 029e 663d e110 813e 3eba a4bd
00000050: 89f4 78be 8396 80be 695a c03d 97e6 173e
00000060: 42fe a9be 0154 973e 8f7e 50bd ddc7 293d
00000070: 062b e2bc eb96 5b3e d337 bbbe e108 8dbe
00000080: a396 1f3e 24dd 253c 9cb0 9ebe 8f76 d5be
00000090: d60a f0bd 440e c2be f38a e83c 3ed3 013e
000000a0: 61fb 18be e9e3 533e 761e 9a3e 349b 9bbe
000000b0: 6c06 dcbd 3adb 923d a1b0 a7be 7634 123c
000000c0: d01f 24bb e614 d03e 7a2a b63d 028b 543e
000000d0: 8119 193e 48fa 273e 0e3b 733e be14 aebe
000000e0: 204b f03a 57cb 883d 5ca6 d3be b187 613e
000000f0: f91b 8ebe 32cd c0be c350 8c3e 7dbd 71be
00000100: 80b4 d7be 8f47 a43d 9dc4 373e 0e9e 2ebe
00000110: 31ea afbd 3d8f bbbe fe5d c23c d4e1 64be
00000120: 9ccc a23e 9591 82be 4eb9 df3e dcbf 41be
00000130: 179c 20be 1f19 593e eedc f8bd c561 fd3d
00000140: bcdf e83e 400f cbbe 2c0a be3e 8a4e f5bb
00000150: 750d c63e 7970 3a3e 57e1 953d e549 c43e
00000160: ca0c d73e ed9d 1ebd 7705 c03d e8fe dabe
00000170: 39f4 edbd c9ee 47be 0331 59bd 0dff 9dbe
00000180: 497d e73e 3e66 c7be 49af c0bd 5040 eabd
00000190: 5cbe 4d3d 633c b03e aa42 7bbe 1c12 d83e
000001a0: 0522 773e 4e31 bf3e daa7 3fbe 9498 b1be
000001b0: 5f2a 99bc 39b2 d0be 58b4 abbe fd0c b3bd
000001c0: f16c 8b3e d1af 43be e4a3 30be 4b3a a13e
000001d0: 0ebf 5e3e 3535 d3bd 1730 a4be 7de4 623e
000001e0: 2afe d5be 261c b4bd 2668 803e 3993 8c3e
000001f0: 757a 4e3e eb54 e43d 83f2 913e 678f d23e
00000200: 3d05 9cbd d423 0dbe ce89 a1be a6f5 c4bc
00000210: e0dd 993e fcc9 063e f0db 823d 563c a43e
00000220: b85d 993e 2f3e f93d b8a3 09be b301 c1bc
00000230: f8ad aa3e 0536 113e 913d 9bbe 600c f9be
00000240: bb7c 96be c827 8c3e c6fa 263e 3bba d7be
00000250: 1c71 50bb e9d2 20be 85ab da3e 75b5 b0bd
00000260: 93b5 a0be 9fad 41be df42 d23c 53ab b53d
00000270: 7f1c b13e 6d33 80be fd4d c7be 27fa 9a3d
00000280: df25 c9be 835d d6be 33b6 b83e 6954 4d3e
00000290: 581b 1e3d ac11 c9be 736c 0abc 38a5 e23d
000002a0: 780c f3bd dce8 633e 0e5d 8ebe bae6 213d
000002b0: 96c6 4c3e 31f7 e9bd 9085 d2be 7cf2 5bbd
000002c0: 44ea 26be c995 6abe b3c2 523e 7d64 bb3c
000002d0: 48eb e3be f9cb 92be cbc5 643e 4b52 8cbe
000002e0: 109d 0fbe de21 84bd 7c71 e7bd e685 d5be
000002f0: 873c cebd 9537 52bd 6251 85bd d5cf dcbe
00000300: ab1d aa3e 934d c93e d40c f2bd a30a 21be
00000310: 9e46 bc3e 257d 1abd c043 a63e c700 b7be
00000320: 6bc4 523e 2f76 463e 6590 8cbe 04d4 2dbe
00000330: 967a ccbe b502 52be c3e4 e13e fe06 e5bb
00000340: 3d90 843e ad3f a4be 9a27 863e 73dd c0be
00000350: e710 70be 8842 9dbe 2480 d83e f938 fabd
00000360: 3711 c5be 68db 9d3e fde2 273e 241d 90be
00000370: 79e0 013e 21ff b33e 8efb 96be b7d1 67bd
00000380: 26db db3e 4da8 54be 8cfb 7dbe 7db0 9c3c
00000390: 5f8c d8bc 8ad2 cf3c 1f87 9fbd 93e1 e03e
000003a0: 03c1 b23e 8d51 733e 1967 9b3e 8a1d b93d
000003b0: f42c 5d3e 768d 2fbe 4edc d0be 3fd3 c6be
000003c0: ad10 32be 1e42 91be bfaf d43e bec6 0f3d
000003d0: f68f cabe 6da6 e4be 9499 50be bc00 c6be
000003e0: 7c92 a03e b1cc 0e3e a59d 96be 5862 bbbe
000003f0: 8ffd fdbd f50d 533e d577 953e f09b d93e
-0.34046188 -0.14744104 -0.056308564 0.018904574 0.14126164 -0.050959695 0.27926266 0.026307616
0.09306069 -0.20159553 -0.015896987 0.20757206 -0.043143123 0.2386008 0.12680066 -0.120547205
-0.38904533 0.05630303 0.2520819 -0.080433354 -0.24312033 -0.2511483 0.09392244 0.14834057
-0.33201796 0.29556277 -0.050901946 0.04145037 -0.027608406 0.2144429 -0.36566028 -0.27545837
0.15584807 0.010123525 -0.30994117 -0.41692016 -0.11720817 -0.3790151 0.028386569 0.12678239
-0.14939643 0.2069241 0.30101365 -0.30391848 -0.107434124 0.071707204 -0.32751945 0.0089236405
-0.0025043376 0.40640944 0.088948205 0.20756152 0.14951135 0.16404068 0.23752996 -0.340002
0.0018332936 0.06679409 -0.4133786 0.22024418 -0.27755716 -0.37656552 0.27405366 -0.2360744
-0.42129898 0.08021461 0.17946096 -0.1705248 -0.0858959 -0.3663272 0.02372646 -0.22351772
0.3179673 -0.25501695 0.43696064 -0.18920845 -0.15684544 0.21200989 -0.12151514 0.12372164
0.45483196 -0.39660072 0.37117136 -0.007486169 0.38682142 0.18206967 0.07318371 0.38337627
0.42001945 -0.03872483 0.09376042 -0.42772603 -0.116188474 -0.19524683 -0.053025257 -0.3085865
0.45212772 -0.38945192 -0.09408433 -0.11438048 0.05023037 0.3442107 -0.24537149 0.42201316
0.24134071 0.37342304 -0.18716374 -0.3468672 -0.018696962 -0.40760973 -0.3353603 -0.08742712
0.27231553 -0.19110037 -0.1725002 0.31489787 0.21752569 -0.10312883 -0.3206794 0.22157474
-0.41795474 -0.087944314 0.2507946 0.27456072 0.20163901 0.11149009 0.28505334 0.41125032
-0.076181866 -0.13783199 -0.3155045 -0.024042916 0.3005209 0.13162988 0.06389606 0.32077283
0.29954314 0.12170064 -0.1344136 -0.02356038 0.33335853 0.14180763 -0.3032041 -0.48642254
-0.29392037 0.273741 0.163066 -0.4213427 -0.00318057 -0.15705456 0.42708984 -0.0862836
-0.3138853 -0.18913887 0.025666652 0.08870568 0.34592053 -0.25039235 -0.38926688 0.07567244
-0.39286706 -0.4186822 0.36076507 0.20051731 0.038600296 -0.39271295 -0.008448708 0.11066669
-0.118676126 0.22256798 -0.2780537 0.03952668 0.1999763 -0.11424101 -0.41117525 -0.053698048
-0.16300303 -0.22908701 0.20582084 0.022875065 -0.44515443 -0.28671244 0.22341077 -0.27406535
-0.14024758 -0.06451772 -0.11300942 -0.4170372 -0.100701384 -0.05132254 -0.06509663 -0.43127313
0.3322576 0.39316997 -0.11818853 -0.15726714 0.36772627 -0.037717003 0.32473564 -0.3574278
0.2058274 0.19381021 -0.27453914 -0.16975409 -0.39937276 -0.20508845 0.44119844 -0.006989359
0.25891295 -0.3207983 0.2620209 -0.37668952 -0.23443948 -0.30714822 0.42285264 -0.12217898
-0.38489696 0.30831456 0.16395183 -0.28147233 0.12683286 0.35155585 -0.29488796 -0.056596484
0.42940634 -0.20767327 -0.24802989 0.019127125 -0.026434122 0.025368948 -0.07789444 0.439221
0.3491288 0.23761578 0.30352095 0.09038837 0.2159918 -0.17143807 -0.4079308 -0.38833043
-0.17389174 -0.28370756 0.41540334 0.035101645 -0.39562958 -0.44658223 -0.20371085 -0.38672435
0.3136176 0.13945271 -0.29417148 -0.36598468 -0.12401878 0.20610793 0.29192987 0.42501783

fc1.bias f4 [81]
00000000: 7957 973e b6bb c73e 860f 2f3e 4cc9 b43d
00000010: fe39 c33d 2062 8e3e d28b 53be c654 7a3e
00000020: 3ac7 993e 919e 833e 7c72 87be 50a7 933c
00000030: 7441 e1bd 30c9 a6be aa98 b2be 78f8 fcbc
00000040: 5f62 1c3e b8bc 413e 4bcb 193c deec 8f3d
00000050: 2d6e bc3e a2d7 473e bb25 b6be 528b c8be
00000060: 1f05 00be 4017 df3e 05f2 4bbe f237 58be
00000070: 69af cbbd fe01 9bbe 42a9 d93d ea57 03be
00000080: 296d d8be 3107 40bd 165f b33e 7d7c 9bbe
00000090: ab00 7c3d 5034 ee3c f1ac 8a3e 8a4f 8bbe
000000a0: b2a8 d2be b913 273e 0f89 2f3e 458d b33e
000000b0: 89c8 53be 5adb b93e f192 973e b297 1e3e
000000c0: e881 a3be 18b9 bcbe 3ead 69be ab20 a0bb
000000d0: 3463 1c3e 0b5f edbe acb3 743e 312e 603e
000000e0: 861f 97bd fd70 263e 3f46 053e 5a02 ea3c
000000f0: 395f 6e3e c917 303e 20b7 1bbe 5937 bd3e
00000100: 0bff a8be 4858 d8be 19cd a73e 36e6 a93e
00000110: 2168 093e 8103 803e 0f46 4a3e 8db9 febb
00000120: 58de 87bd 5a48 d53e 11bd 73bd be6a 843d
00000130: 53eb e7be 4430 87be cfa2 ac3e 631b 93be
00000140: a2d3 c1bd
0.29558924 0.390104 0.17095765 0.08827457 0.095325455 0.27809238 -0.20658806 0.24446401
0.3003481 0.25706914 -0.26454532 0.018024117 -0.10998812 -0.3257537 -0.34882098 -0.030880198
0.152719 0.18919647 0.009386848 0.07027601 0.36802807 0.19515851 -0.3557566 -0.39168793
-0.12501954 0.43572426 -0.19916542 -0.21115091 -0.09945566 -0.30274957 0.106279865 -0.12826505
-0.42270783 -0.04688186 0.35033482 -0.30368415 0.061524075 0.029077679 0.2708507 -0.2720912
-0.4114433 0.16316117 0.17142127 0.35068718 -0.20681967 0.36300164 0.29604295 0.15487555
-0.31935048 -0.36859965 -0.22819993 -0.004886707 0.15272218 -0.46361575 0.23896664 0.2189262
-0.073790595 0.16254039 0.13015078 0.028565574 0.23278512 0.17196573 -0.15206575 0.3695629
-0.33007082 -0.42254853 0.32773665 0.3318345 0.13418628 0.25002673 0.19753288 -0.007773584
-0.066342056 0.41656762 -0.05950648 0.06465672 -0.45296726 -0.2640401 0.33717963 -0.28731832
-0.09464194

fc2.weight f4 [81, 81]
00000000: 3972 933d 219e 07be 650e 43bd 78a6 04be
00000010: 3158 733a 9e52 443c b7cd c0bd 569c d53c
00000020: 144d 0dbd 7aa2 843d 0ff9 223d 9930 7abd
00000030: abf7 0bbd a4bc efbd 7f44 3c3c 8060 a93c
00000040: 6a65 bbbd 5328 2d3d bf4a d7bd 3c2e 8ebd
00000050: 9129 5fbd 66a4 6d3d 7207 a53d b359 32bd
00000060: c290 3d3c 7f7c cbbd 1414 0d3d 9442 a5bd
00000070: de86 e23c 918b abbd d0f6 cbbd 7bb6 0d3d
00000080: b243 363d b8b0 723d d891 c5bd 2b03 0d3d
00000090: bfde 193d 10b9 09be ad8d 903c d211 063d
000000a0: 88e6 dfbd 5d49 dcbd 76c6 3fbd 1ac4 fcbd
000000b0: ff4a 3d3d 504a bb3c be2f 4c3d 15a1 953c
000000c0: 394d 633d 4b21 513d 2154 1c3d 789f c93d
000000d0: a73b 7dbc 9e21 3a3d 3bfd 243d b6e8 c2bd
000000e0: 31b4 3a3d 6f7d f6bd 4824 8fbd f624 133d
000000f0: a867 f6bb d242 703d f74b 9dbd b325 05be
00000100: f005 b73b 7d0e 733d 2054 b53c dc08 983d
00000110: 0335 2a3d 3cea df3c 663c 94bc 68f5 cd3c
00000120: 371e c3bd 7b23 0d3d 2236 943d 3261 9cbc
00000130: d0f9 d6bd d580 a23c 5bb6 03be af76 21bd
00000140: e01a 3cbd 109a 253d ea57 953c d381 52bd
00000150: a12d a4bd 783c 223d 9c45 733d 499a 903d
00000160: 1a0d e3bd 7e92 cfbc 1413 f3bd dac0 0bbe
00000170: df72 513d 27c9 bd3d cd77 99bc f0b3 233d
00000180: 247a 16bd 1f58 793d 9253 e2bc 5179 54bb
00000190: 8857 223d fe50 6abd 8af6 2e3b 2b43 703c
000001a0: 1cc8 88bc 43cf 72bd 1029 6cbc 14e4 3f3d
000001b0: 1b6c 5f3c a6e8 7ebd ada2 ccbc 0fc4 1fbd
000001c0: 60e3 84bd c494 a5bd 48d9 ffb9 7541 81bd
000001d0: a7a3 10bd 2700 ab3c 1aa1 633d c630 9b3c
000001e0: e7c8 a7bd 6bf1 01bc b30b 21be 2ecb fdbd
000001f0: 825a 203d 2fa5 cc3c 75c5 973d 3e00 7ebc
00000200: 3d34 b3bd 77f7 aa3d 9764 a2bd 6673 3c3d
00000210: 4231 cebd 451b 8c3c b19a bdbd fa95 c9bd
00000220: 3582 9a3d 0e6a 22bd 7272 753d edcc b2bd
00000230: c193 f3bd def9 773d 96bd 01be 0c99 8abd
00000240: dcac 9dbd 483b 883d 39fe da3d 0ba9 8d3d
00000250: 4c89 2e3d 75b4 c6bd 40fb 6abd f14b edbd
00000260: c7a8 ecbd 2281 bc3c 6666 0fbe 2c92 fdbd
00000270: 0929 87bd 752e 03be a74c 9b3d 730b 10bd
00000280: ee24 20bd 99a4 e2bd 383a 63bd d648 05bd
00000290: 2d16 37bd 9c7e f8bc 2d92 1c3d e694 7f3d
000002a0: 3eae 863d 8799 663d fa94 e7bd 1aa1 dc3c
000002b0: fd9d c53c 9fe1 34bd ab85 44bc dced cabd
000002c0: ab3a 8cbd caa1 02bd c1bf 64bd 9b24 d83c
000002d0: fac5 9cbc 9512 ccbd ca0d ea3c 9e8f 15bd
000002e0: 27c2 36bd e37f 1bbd 0124 84bd 31eb 0cbe
000002f0: fb06 a3bd 93ef 083d 1034 c1bb afc9 a8bd
00000300: a371 f7bd 28d6 09bd ce96 3e3d 2e1f efbc
00000310: b849 0ab9 f40b d4bd 5c29 db3c a8d6 33bd
00000320: 9610 c2bc 2bca f2ba 363f 1c3d 2948 9c3d
00000330: 70c8 12bd b811 743d cfeb 3b3d 703c c13d
00000340: 3ac4 0abe 6950 e9bd 6575 e3bd d2c0 cbbd
00000350: 918f ab3c 9fc7 83bd a294 02bc 129a aabd
00000360: 7724 1abd 74b1 93bd 2235 9cbd c8d6 b7bc
00000370: a340 473d 4255 f7bb 7cf3 d13b 5e3e 42bd
00000380: ced1 773d b891 5cbd 0ecf 93bd a4e8 943c
00000390: 96ea 1abc 9414 943d c4c1 bdbd 9adc b4bd
000003a0: a9b5 ddbd 1c10 b83b 3eb2 833c 5dec 883c
000003b0: 190c 713d 0230 08be bb18 243c d5a4 583d
000003c0: 104d 31bd e6bd 9ebd f98d 023d f154 cfbc
000003d0: 25a6 263c 6b54 9e3d cce8 d3bb c2c5 b03d
000003e0: d2ce 6abd c4e3 113d 7ba9 d73d 30bd 9ebd
000003f0: 84c2 aabd 85b4 cbbd 0ade c83b 19f5 74bd
0.071995206 -0.13243915 -0.04762115 -0.12954128 0.0009282856 0.011982588 -0.09414237 0.026075523
-0.034497336 0.064763024 0.039788302 -0.061081503 -0.03417174 -0.11705902 0.01149094 0.020675898
-0.091502026 0.042274784 -0.105123036 -0.06942412 -0.054483 0.05801811 0.08058061 -0.043542575
0.0115701575 -0.09935855 0.034442976 -0.080693394 0.0276522 -0.083762296 -0.09959185 0.034597855
0.044498153 0.059250563 -0.09646958 0.03442685 0.037565943 -0.13449502 0.017645681 0.03273184
-0.10932642 -0.107561804 -0.046820126 -0.12342091 0.0462141 0.022862583 0.049850218 0.018265286
0.055493567 0.05105714 0.03816617 0.098448694 -0.015456117 0.045442216 0.040280562 -0.09517042
0.045582 -0.12035643 -0.06989342 0.03592392 -0.007519681 0.058657475 -0.07680505 -0.13002662
0.0055854246 0.05933999 0.02213484 0.07423565 0.041554462 0.027333371 -0.018095206 0.025141433
-0.095272474 0.034457665 0.072368875 -0.019089315 -0.10496867 0.019836823 -0.12862532 -0.039419826
-0.045924067 0.04043013 0.018230397 -0.05139334 -0.080165155 0.03960845 0.059392557 0.070606776
-0.11086483 -0.025338408 -0.11868873 -0.13647786 0.05113494 0.092668824 -0.018733883 0.039966524
-0.036737576 0.060875054 -0.02762774 -0.0032420943 0.039634258 -0.057206146 0.0026697242 0.014664452
-0.016696982 -0.05927969 -0.014414087 0.04684837 0.013636614 -0.06223359 -0.024979914 -0.039005335
-0.06488681 -0.080850154 -0.00048799277 -0.06311313 -0.03531232 0.020874096 0.05557356 0.018944155
-0.08192616 -0.007931094 -0.15727119 -0.12392269 0.039148815 0.02498111 0.07410709 -0.015502987
-0.08750198 0.083479814 -0.07929342 0.04600849 -0.10067989 0.017102847 -0.09258021 -0.09843059
0.07544366 -0.039651923 0.059923597 -0.08730493 -0.11893416 0.060541026 -0.12669978 -0.067674726
-0.07698986 0.06651932 0.106930204 0.06917008 0.042611405 -0.09702388 -0.057368517 -0.1158675
-0.11555629 0.023010794 -0.14003906 -0.12381396 -0.06599624 -0.1281069 0.0758298 -0.03516717
-0.03909772 -0.11066551 -0.055475444 -0.032540165 -0.044698883 -0.03033381 0.03822534 0.06239786
0.06576203 0.05629876 -0.11307712 0.026932288 0.024123186 -0.04416048 -0.01199476 -0.09908649
-0.068471275 -0.031892575 -0.055846933 0.026384642 -0.019137371 -0.09964482 0.028571028 -0.036513917
-0.04461875 -0.03796376 -0.0645218 -0.13761593 -0.07960316 0.0334316 -0.005896099 -0.08241593
-0.12082221 -0.0336515 0.046530537 -0.029189672 -0.00013188168 -0.103538424 0.02675312 -0.043905884
-0.02368955 -0.0018523386 0.03814622 0.07630951 -0.035835683 0.05958721 0.04587918 0.09435356
-0.13551417 -0.1139229 -0.111063756 -0.09948887 0.020942481 -0.06434559 -0.007970007 -0.08330168
-0.03763243 -0.07211581 -0.07627322 -0.022441283 0.048645627 -0.0075480053 0.0064071994 -0.04742276
0.06050282 -0.053849906 -0.07217227 0.018177338 -0.009455344 0.072304875 -0.092654735 -0.08831139
-0.108256646 0.0056171548 0.016076203 0.01671427 0.058849428 -0.13299564 0.010015662 0.05289157
-0.043286383 -0.07751064 0.031873677 -0.025309058 0.010171448 0.07730945 -0.0064669605 0.08631469
-0.057326145 0.035617605 0.10530373 -0.077509284 -0.08337882 -0.09946541 0.0061299847 -0.059804056

fc2.bias f4 [81]
00000000: e199 293d b035 c7bd c390 d43d 89ff 36bd
00000010: b17e a4bd 802d c43c ec75 6cbc ede1 593d
00000020: e97b 913d e380 febd 5c64 8abc 4161 d13d
00000030: 0a15 1abd 0eb1 b0bc 8d41 20bd b711 cb3d
00000040: c49a 983c e5ee 03be d3d9 7e3d 7e4f 89bd
00000050: 0f1f 9b3d 0cb1 ccbd f10f 3b3d 3489 dcb9
00000060: 7aa0 83bd 7377 37bd d765 52bd 7672 0bbe
00000070: 1dc4 223c 8b55 243d c626 06bc 8e7a 56bd
00000080: 7deb c5bc 0cd5 993b 921a db3d 3c76 7b3d
00000090: 8888 8a3c cd45 4bbd 4d99 4abd 4e20 8c3d
000000a0: af90 3e3d 3af8 aabd 68eb 8f3b a0d4 893d
000000b0: 577f b43c 64b0 45bd 0588 f33d 8086 143d
000000c0: 7566 f93c 82f4 f4bc bc02 61bd b4c4 4dbd
000000d0: 9a3f b73d 22fb 80bd 4837 c1bd da9e e33d
000000e0: ab1a ee3d e500 0ebd d5a2 cf3d 0749 89bd
000000f0: 0e0d 203d fa1d fc3d 6847 9bbc 5a4f 7c3d
00000100: 76ab 893d b9a2 c13d 808c 4838 ffce a73d
00000110: d1fb a7bd 9d94 55bd 7c19 833d 6e7d d3bd
00000120: 5aea 80bd ee8a 40bd 131a 97bd bc70 77bd
00000130: 1f61 9d3d 295e 513c 1e86 7fbb d002 08bc
00000140: 12a9 01bd
0.041406516 -0.09727037 0.103791736 -0.04467729 -0.08031977 0.023947477 -0.014432412 0.053193975
0.07103712 -0.12426927 -0.016893558 0.10223628 -0.03761772 -0.021568801 -0.039125014 0.09915488
0.018628486 -0.128841 0.062219452 -0.06704615 0.07574283 -0.099947065 0.0456695 -0.00042063894
-0.06427093 -0.04479165 -0.051366653 -0.13617882 0.009934452 0.040120643 -0.008187955 -0.05236297
-0.024160141 0.0046945866 0.10698427 0.061392054 0.016910806 -0.049627114 -0.049462605 0.06842099
0.0465247 -0.08348127 0.0043920763 0.06730008 0.022033377 -0.048263922 0.11891178 0.03626108
0.030444363 -0.029901747 -0.05493425 -0.05023642 0.08947678 -0.062979 -0.09434372 0.11114283
0.1162618 -0.03466882 0.101384796 -0.06703382 0.03907495 0.12310405 -0.018954948 0.061599113
0.06722157 0.09454865 4.7814567e-05 0.08193778 -0.08202327 -0.05214368 0.06401345 -0.10326658
-0.06294699 -0.047007494 -0.0737802 -0.060410246 0.0768454 0.012778797 -0.0038989852 -0.008301452
-0.03165538
