code/outputs/EV_Charging_Pricing/traing for 3000_epsilon0.6/models/dqn_checkpoint.pth (torch, 354981 bytes, 6 tensors)

fc1.weight f4 [256, 5]
000000 db 8c 42 bf 04 26 8a bf 8e 84 83 bf c5 45 85 bf
       -0.7599618 -1.0792851 -1.0274827 -1.0411917
000010 fa 8e 47 3f d5 1c 31 be 4e 3b 61 be 48 18 dc 3e
       0.7795254 -0.17296155 -0.21995279 0.42987275
000020 4f 73 7a be 0b e1 ae be 43 29 e3 3d 32 b6 91 3e
       -0.24458049 -0.3415607 0.110918544 0.28459316
000030 02 f1 0d 3f 0a 0e 8a 3e 28 0a 3d 3f 3b 59 f4 3e
       0.55445874 0.26963836 0.7384362 0.47724327
000040 fb 65 b2 be 77 a3 c1 bf 44 b6 90 bf b4 b0 6a 3f
       -0.3484343 -1.512801 -1.1305623 0.9167588
000050 ff 05 36 3e a4 4a 88 be b2 38 95 3f 02 c3 e7 be
       0.17775725 -0.26619446 1.1657927 -0.45265967
000060 53 b6 e6 bf 7a 6f 55 bc 87 bc a0 bf b3 96 de 3e
       -1.8024391 -0.013027066 -1.2557534 0.4347435
000070 cb 30 a4 bf a4 8c 60 40 dd c7 37 bd 6f d7 80 bd
       -1.282739 3.508584 -0.04486834 -0.06291091
000080 67 b2 95 3f d6 de 41 3f e4 69 0f 40 dc e6 03 bc
       1.1695069 0.75730646 2.240838 -0.008050647
000090 ea 37 d6 bd c4 71 f5 3e 7b 52 b0 3e 1e 27 9a 3f
       -0.104598835 0.4793836 0.34437928 1.2043188
0000a0 ce 1a fd bc 5d 20 ef 3b 89 6d c9 3f ac b9 7b 3f
       -0.03089657 0.007297559 1.5736552 0.9833019
0000b0 37 f7 29 40 76 27 27 be e2 ba a6 3d 53 27 ba 3f
       2.6557138 -0.16323647 0.08141114 1.4543251
0000c0 2a 8b 23 3f 26 14 e7 3f a9 86 84 3e c3 4a 93 3e
       0.6388422 1.8053024 0.25883988 0.28767976
0000d0 16 46 1e 3e e7 a4 07 3e 7e 45 ce 3f 93 3f b5 bc
       0.15456423 0.13246499 1.6114957 -0.022125041
0000e0 c3 9a 96 be be 84 80 3e b4 19 08 3e 3a f6 93 3c
       -0.2941495 0.25101274 0.13291055 0.018061746
0000f0 cc 7f 26 be 82 56 9e 3d 3d 68 07 40 d7 1b 62 3f
       -0.16259688 0.07731344 2.1157372 0.8832373
000100 14 5c 0b 40 37 94 ce be db 52 00 bd fa 6a cc 3d
       2.177495 -0.40347454 -0.031329017 0.09981342
000110 29 0b db 3e 3c 91 99 be fd de fa bc 0c 60 f2 bb
       0.42781952 -0.29993618 -0.030623907 -0.0073967036
000120 eb 4b 05 3e df 93 b1 3e bd ff 24 3f a1 f3 da bc
       0.13017242 0.3468313 0.64452726 -0.0267275
000130 df bc 89 be 46 c7 d4 3e 1f 34 24 be 79 ff 21 be
       -0.2690191 0.41558284 -0.16035508 -0.15820111
000140 75 9d 54 be a9 ba a4 3e 0a 7e 43 3f 43 00 ab 3e
       -0.2076319 0.3217366 0.76364195 0.33398637
000150 30 05 14 40 b4 fc da 3f 23 1d f3 3f 32 3f 9c 3f
       2.3128166 1.7108369 1.8993267 1.2206786
000160 c4 74 30 3f 85 71 c3 3d 34 cd 29 3f 15 21 18 be
       0.6892817 0.095431365 0.6632874 -0.1485637
000170 82 7a d2 bf c7 03 c3 bf c7 eb d0 be f0 d5 97 be
       -1.6443636 -1.5235528 -0.40804884 -0.2965541
000180 c7 b0 4b 3e 2b ca 8d 3f 91 df d0 3f 8b 1b 5a 40
       0.19891654 1.1077322 1.6318227 3.407931
000190 60 02 cf 3d b9 30 27 3f c7 6c 0c 40 45 2e ac 3f
       0.10107875 0.6530872 2.1941392 1.345162
0001a0 31 a7 32 40 83 6f 22 be b4 01 21 bd 45 85 28 3f
       2.7914546 -0.15862851 -0.039308265 0.65828353
0001b0 fc 46 8f 3f 17 e0 20 3e 19 a1 ef 3e fd 2f ac be
       1.1193538 0.15710483 0.46802595 -0.33630362
0001c0 21 a3 ac bf 81 ef 14 bf 7f 40 20 3f 88 70 73 3e
       -1.3487283 -0.58177954 0.62598413 0.23773396
0001d0 0f 1d 9d be 0a 6b 41 bd a0 db 8f be 34 73 49 3e
       -0.30686232 -0.04722122 -0.28097248 0.19672853
0001e0 6e 25 f7 3e 96 ef 71 be 1e b1 e5 bf 83 e9 87 bf
       0.48270744 -0.23626551 -1.7944677 -1.0618137
0001f0 a2 b5 49 bf 94 70 eb 3d 8a 6b 90 be d6 64 30 3e
       -0.78792775 0.11496082 -0.28207046 0.17225966
000200 e3 dd 9a 3f 76 cc b6 3f b8 6e a8 bf 27 11 fc bf
       1.2098964 1.4281147 -1.3158789 -1.9692734
000210 d8 24 e0 bf f0 43 d6 bf c0 c1 af 3f 4d 16 cf 3d
       -1.7511244 -1.6739483 1.3731003 0.101116754
000220 a5 dd 49 3f 38 93 02 3f 8a 80 8f 3f 78 d8 0a be
       0.7885383 0.5100589 1.1211102 -0.13559139
000230 a2 19 17 3f 5c 6c 62 3b 01 dc 5d bf 75 22 d7 be
       0.5902349 0.003454945 -0.86663824 -0.42018476
000240 69 67 35 bf c2 18 24 3e 68 01 64 3d b1 5c a0 3f
       -0.70860916 0.1602507 0.055665404 1.2528287
000250 54 d5 33 3d 81 cf 09 c0 9d 76 c2 bd db 79 ae 3c
       0.043904617 -2.15329 -0.0949528 0.02129834
000260 c7 21 b7 3f e2 e6 55 3d d0 a0 da 3f 1e 0d 15 3e
       1.4307183 0.05222214 1.7080326 0.14555785
000270 ab fe b7 be 1b 03 77 be b8 28 2d 3e 50 46 5f bd
       -0.35936484 -0.24122278 0.16910064 -0.054510415
000280 cf 68 c2 be 2b 24 55 be 45 68 6c be 96 86 21 3e
       -0.37970588 -0.20814578 -0.2308665 0.15773997
000290 4e 6d 0e 3e 14 89 56 3e a8 cc d6 be fd 34 f7 3f
       0.13908884 0.20950729 -0.41953015 1.9313046
0002a0 3a d9 2b 3f 4e 6e 91 3e 2a f1 4d 3c 00 2b 5d bc
       0.67128336 0.28404468 0.012569705 -0.0134990215
0002b0 c8 a8 35 bf 84 bc 1c 3f d2 fc 31 3f 8d 91 07 bc
       -0.70960665 0.6122515 0.695264 -0.008274448
0002c0 b0 40 e7 bd d0 91 89 3f 46 ba 26 3f 09 f8 31 40
       -0.11291635 1.0747623 0.6512798 2.7807639
0002d0 29 a7 33 3f f0 b8 37 3f bc 49 2f 3c f1 c0 5e be
       0.7017694 0.7176657 0.010698732 -0.21753289
0002e0 f3 77 62 3f a9 e1 02 be ea 2a 83 be 6c f5 55 be
       0.8846428 -0.12781395 -0.25618678 -0.20894402
0002f0 3f f7 4b be b6 aa ce bd df a5 83 3e b1 c7 d7 be
       -0.19918536 -0.10091154 0.25712487 -0.4214454
000300 3e 4b bf 3e 8e 88 48 be 12 f5 74 3e 23 3f 97 bd
       0.37362093 -0.19583341 0.23921612 -0.07385089
000310 51 59 d6 be d0 18 8c 3e 40 97 ca 3c e0 5b 57 3e
       -0.41865018 0.2736268 0.024730325 0.21031141
000320 4c 0b e3 3e fb 56 ff be 9c 7a dc 3f e2 0c 39 3f
       0.44344556 -0.49871048 1.7224917 0.7228528
000330 54 63 5f 3f 5f 48 8d be d2 d8 d2 be 74 7c cf bc
       0.8726094 -0.27594277 -0.41181046 -0.025327899
000340 37 76 94 3e 14 89 30 3e 7e 45 7d bf 84 2e b4 be
       0.2899644 0.17239791 -0.9893416 -0.3519174
000350 d4 e9 8d 3e 57 c7 a1 bc ff 1f 09 40 fb cd d1 3f
       0.2771746 -0.019748373 2.142578 1.6390985
000360 99 57 0b 40 fc 6f 60 3f d3 bc a9 3e e7 4e 23 40
       2.1772215 0.87670875 0.33151874 2.5516908
000370 09 20 d8 be ec e5 55 be a2 29 3f 3d 5f e8 cc 3e
       -0.4221194 -0.2088849 0.046670564 0.40021035
000380 90 74 91 be 68 64 09 3f a0 d6 73 3d 86 22 a3 bf
       -0.28409243 0.5366883 0.059530854 -1.2744911
000390 2e 43 b1 bf c3 99 0d bf 3f 0d 63 bc 85 40 44 be
       -1.3848627 -0.55312747 -0.013858139 -0.19165237
0003a0 90 e1 8a 3d 5e 69 ab 3e ce 02 dc bd 6b ab 53 be
       0.06781304 0.33478826 -0.107427225 -0.2067086
0003b0 e2 40 b3 bf 13 4b 9b be 8a 3d 39 bf 1e ad da bc
       -1.4004176 -0.30330715 -0.72359526 -0.026693877
0003c0 39 2a 0f 3f a5 83 c2 3e 6a 04 c1 be 3a d5 46 3e
       0.559238 0.37991062 -0.3769868 0.19417277
0003d0 f0 e3 6b 3f bb 5a 8a 3e ef 47 12 3f 80 01 09 40
       0.9214468 0.27022347 0.5714101 2.1407166
0003e0 d1 01 8a 3f d8 86 e1 3f 00 a6 66 bd cf 16 a5 be
       1.0781804 1.7619276 -0.056310654 -0.32243964
0003f0 b5 9c a0 bc 83 85 7e 3d 1d ac e2 3d b8 0b c7 be
       -0.019605974 0.062139045 0.11067984 -0.38876128

fc1.bias f4 [256]
000000 0a a1 df 3f f8 1c 01 be f1 f1 ea 3f 6b be 75 bd
       1.747102 -0.12608707 1.8355085 -0.05999605
000010 4d 30 1c be 33 97 96 40 e7 1f 7a 40 5a ed 93 3f
       -0.152528 4.705957 3.9081972 1.1556809
000020 94 e0 77 40 96 d5 78 40 b5 9a f2 3e 8f de be bc
       3.8730822 3.8880363 0.47383657 -0.023299484
000030 50 f1 5c 40 ef 80 9a be 4f ff a2 3f 20 d6 79 be
       3.4522285 -0.30176494 1.2734164 -0.24398088
000040 7b a9 54 3f 72 c2 dc 3e 4f 3c b6 bf 7a 31 8c 40
       0.83071107 0.431171 -1.4237155 4.3810396
000050 d3 42 6c 40 e1 69 7b 3d 02 d2 fa be 3d 06 87 be
       3.6915786 0.06138027 -0.48988348 -0.26371947
000060 6d a4 8b bf 01 6e ca 3f b1 29 5d 40 7a 67 d7 3e
       -1.0909554 1.581482 3.4556696 0.42071134
000070 c2 b4 75 bf dc ac 65 3e c2 5a 51 40 c4 c3 27 bd
       -0.9597894 0.22429222 3.2711644 -0.04095818
000080 dd 4f 30 be 87 0b 3e 40 9b c0 cb be 9a aa 7c 40
       -0.17217965 2.9694536 -0.39795384 3.9479127
000090 91 f5 e0 be e2 03 97 be 0a 1a 97 be fd 82 d0 be
       -0.43937352 -0.2949515 -0.29512054 -0.40724936
0000a0 f7 20 c9 3f bc 25 5a be 98 70 3f 40 44 79 01 40
       1.5713185 -0.21303457 2.9912472 2.0230265
0000b0 bc 4c ae bd 9f 4c a2 bf 3f c6 84 bd 8e ce 1c 3f
       -0.0851073 -1.2679633 -0.06483125 0.6125268
0000c0 65 af 4a be ff 3e 50 40 4c e6 0b be b7 49 7c 40
       -0.1979347 3.253845 -0.1366207 3.9419992
0000d0 c1 aa a0 3f c7 6d 43 40 82 87 f6 3f 72 86 c3 be
       1.255211 3.0535753 1.9260104 -0.3818851
0000e0 a8 df 87 be c1 0e 97 bd cb 91 84 3e 27 ec 81 40
       -0.26537824 -0.07375861 0.2589248 4.060077
0000f0 c7 63 17 be 4f e1 13 40 98 30 bc be a3 12 d5 3f
       -0.14784156 2.3106267 -0.36755824 1.6646312
000100 be 26 fa 3f a5 e7 24 3f 3d 02 88 40 c3 5e 8c 40
       1.9543073 0.6441596 4.250273 4.3865676
000110 4b 94 8b 40 f6 1f 5f 40 73 24 d7 3f 40 95 7a 40
       4.361852 3.4863257 1.6807998 3.9153595
000120 d2 f8 10 40 f1 8a e3 3f 87 f0 ce bf de c5 aa be
       2.2651868 1.7776777 -1.6167153 -0.33354086
000130 82 f6 9d 3c 10 19 8d 40 16 59 c8 3f 16 5e 96 3f
       0.019282583 4.4093094 1.5652187 1.1747463
000140 cc e0 94 3f fe b6 7a be d4 ed 77 40 a3 9a df 3f
       1.1631103 -0.24483868 3.8738909 1.7469066
000150 9d 7f 8f be 2b 69 66 bd 73 f0 4b 3f 35 79 cd be
       -0.2802705 -0.05625264 0.7966377 -0.40131536
000160 c5 45 67 40 af 7f 73 40 0e a4 e3 be 0f 68 73 3b
       3.6136334 3.8046682 -0.444611 0.0037140881
000170 25 2f b3 bc 2e 81 7e be 3c d6 89 be cf 6f 80 be
       -0.021873066 -0.24853966 -0.2692126 -0.25085303
000180 d0 19 ca be 03 2e fb 3f 20 43 88 40 0b d4 20 40
       -0.39472818 1.9623417 4.258194 2.512942
000190 a2 bc 78 40 bb 27 d3 3d dc 3d 83 3d 88 1f 69 40
       3.8865132 0.10310312 0.06408283 3.6425495
0001a0 cb 7d 0e 40 37 4d 2d 40 31 ca c8 be e7 65 ff 3e
       2.2264278 2.7078378 -0.3921676 0.49882433
0001b0 35 8e ab be a8 18 19 bf 44 6c 22 40 40 98 18 40
       -0.33506933 -0.5980325 2.537858 2.3842926
0001c0 6f 1d 5d 40 fc 6e aa 3e a7 4d 22 3e 7c cc 38 be
       3.4549215 0.332878 0.15849935 -0.18046755
0001d0 43 ca 27 40 3c 20 f9 3b 5b 2b 14 40 b3 4f 7d 40
       2.62172 0.0076027196 2.3151462 3.9579895
0001e0 0f 2a 6b 40 1c d9 32 3f 44 45 96 40 8f 0d b7 3d
       3.674442 0.6986253 4.6959553 0.08938133
0001f0 70 cb 27 be 24 cf 2d 40 5f 4b 10 40 b0 f0 a4 bf
       -0.16386199 2.7157679 2.2546003 -1.2885952
000200 ce 74 2d 40 0b a7 4c 3f 91 15 81 40 5f 6b 56 40
       2.7102542 0.7994239 4.0338826 3.3503034
000210 cb ea f5 3f 93 04 d7 3f bd 9e de be 83 48 04 40
       1.9212278 1.6798271 -0.43480483 2.0669258
000220 60 2c 5b 40 54 ec 32 40 11 25 3a bf b2 39 79 40
       3.4245834 2.7956743 -0.7271281 3.8941464
000230 16 9f 4e 40 8c ed 93 bf 99 c5 09 40 f4 a5 bf 3f
       3.2284598 -1.1556869 2.1526854 1.497252
000240 69 4e 1d 40 16 c0 46 bc 43 a4 45 40 a5 86 d4 3f
       2.4579108 -0.012130758 3.0881507 1.660359
000250 1b 31 c8 be ad e5 42 be 53 30 94 3d ed 0b 0e 40
       -0.39099964 -0.19032927 0.072357796 2.219478
000260 7c 10 58 40 9a ed 87 3f e2 22 a4 bd 06 cf 0d 40
       3.3760061 1.0619385 -0.08014466 2.2157607
000270 a7 d9 b0 3e a7 60 35 40 c8 84 11 bd 1e e4 09 bf
       0.34541056 2.8340242 -0.03552702 -0.53863704
000280 6d 26 45 3e 11 87 4b be 8f 7e f0 be d2 af 49 40
       0.1925294 -0.19875742 -0.46971557 3.1513562
000290 92 5c 29 3f 99 e8 5b bf 85 6c 57 40 7d 69 20 40
       0.66156876 -0.8590179 3.3659985 2.5064385
0002a0 3e 47 de be ee 83 f5 bd fc e2 b0 be 93 d7 cd bf
       -0.43413728 -0.11988054 -0.34548175 -1.6081413
0002b0 9a f5 a3 3e dc 46 2a be 36 f8 07 40 64 0c 82 3d
       0.32023317 -0.16628593 2.1245246 0.063500196
0002c0 44 eb e8 3f 39 38 0b 40 6f 1c 87 40 b6 82 06 be
       1.8196797 2.1753066 4.222221 -0.131358
0002d0 be 8a 00 40 67 c9 e0 3f 03 21 e8 3f 19 94 1c 3d
       2.0084682 1.7561463 1.8135074 0.038227174
0002e0 34 86 62 40 6a 8f e7 bc 7a 5b d0 3f 2c e4 35 be
       3.539441 -0.028266627 1.6277916 -0.17762822
0002f0 84 53 79 be c7 50 23 3e 24 b0 49 bf 9d 70 11 bf
       -0.24348265 0.15948783 -0.78784394 -0.5681246
000300 4c 3e 9b 3f b4 1d 49 be c1 69 6a 40 47 60 12 3d
       1.2128386 -0.19640237 3.6627047 0.03573635
000310 da cf 9d be d7 88 20 bf 97 53 88 be 1d e7 b1 be
       -0.3082264 -0.627088 -0.26626274 -0.34746638
000320 f2 b1 e7 be 57 a6 4a 40 a7 ff 6c 40 7f 98 f4 3f
       -0.4525295 3.1664026 3.7031038 1.9109038
000330 db 0f 2b 3e 8b 81 76 40 f0 34 51 40 ff 27 3f 40
       0.16705267 3.8516567 3.268856 2.9868162
000340 6a ca 82 40 ff b8 84 40 ca e9 76 40 ac d7 18 40
       4.0872087 4.1475825 3.8580194 2.3881636
000350 bc cf ed 3f e8 58 5b bf 00 e2 18 3f 46 b9 32 bf
       1.857902 -0.85682535 0.5971985 -0.69813955
000360 78 c7 7a 3f bc aa 3f be 34 f9 1a 40 d6 ac 86 be
       0.97960615 -0.18717474 2.4214602 -0.26303738
000370 77 30 06 40 08 44 a2 3f 9d 92 3e 40 b5 73 ba be
       2.096708 1.2677011 2.9776986 -0.36416402
000380 0c 2a cc 3f 8c 66 98 be 56 d1 5d bf 8f 81 3a 3e
       1.5950332 -0.29765737 -0.86647546 0.18213485
000390 a7 a8 48 40 f3 33 48 be fb eb 36 be 1b b5 8b be
       3.1352937 -0.19551067 -0.17863457 -0.2728661
0003a0 32 38 79 40 02 00 5b 40 3b bf c5 3f e4 2c 4d 40
       3.894055 3.4218755 1.5448984 3.205865
0003b0 da 91 1f be 4b 90 1c bf 78 35 72 40 e8 4d f0 be
       -0.15582982 -0.61157674 3.7845135 -0.46934438
0003c0 14 dc 5a be 64 c2 81 be a4 a6 53 be b2 f4 0f 40
       -0.21373016 -0.2534362 -0.20669037 2.24931
0003d0 fd e4 4e 40 4a b6 66 40 1b 5c 60 3e 8d aa a5 40
       3.2327263 3.604876 0.21910135 5.177069
0003e0 37 a0 3c 40 15 f9 7b 40 4f 8c d0 3f a5 54 dc be
       2.9472787 3.9370778 1.6292819 -0.4303333
0003f0 56 50 4d 40 15 c0 8c 3d 1e 46 22 be 90 88 96 3f
       3.2080283 0.06872574 -0.1584706 1.1760426

fc2.weight f4 [256, 256]
000000 c1 d9 67 bd 38 a6 29 bd 0e c8 b5 3f 81 e0 8c be
       -0.05660415 -0.041418284 1.4201677 -0.27515033
000010 d2 29 85 3e 86 ab 1c 3f a5 84 82 bf ba 0e 06 3f
       0.2600847 0.61199224 -1.019673 0.5236622
000020 16 8b 07 3e 5a 77 3e be b2 eb fb bb f9 1a 74 3f
       0.13236651 -0.18600217 -0.007688009 0.95353657
000030 2d db 1c be 70 8c 24 bd 73 53 8a bf e2 3f 23 bd
       -0.15317984 -0.040172994 -1.0806717 -0.039855845
000040 14 fc 17 bf fd f8 ad 3d bc 5b 99 be 2f 9e 84 3d
       -0.59369016 0.08494756 -0.299528 0.064754836
000050 cf 9f 05 3f 0d a9 e0 3e b7 87 25 bf 8a bf e0 3f
       0.52196974 0.43878976 -0.6466021 1.7558453
000060 31 ff be 3e aa 9f 2c 3f 35 10 3a 3f dc 7b 87 bb
       0.3730407 0.6743113 0.7268098 -0.0041346382
000070 71 9f dd be 8f 4e c2 3e 4f 26 1e 3e a6 1f 4f bd
       -0.43285707 0.3795056 0.15444301 -0.05056729
000080 a7 9f 43 3f 7f ad 80 be 61 d0 92 3e 1a b3 7d bf
       0.76415485 -0.25132367 0.28674605 -0.9910141
000090 dd 3e ad bd 50 17 a5 bc d9 0a 95 3f 0e 15 66 bd
       -0.08459256 -0.020152718 1.1643935 -0.056172423
0000a0 66 9f 0c 40 f7 1b 4f 3f 28 74 47 3f a5 e3 a3 bd
       2.197229 0.80902046 0.77911615 -0.08002404
0000b0 fa 8b 47 3d 2a b9 94 bf 20 31 6b 3b f2 08 a5 be
       0.048717476 -1.1619008 0.0035887435 -0.32233387
0000c0 62 28 7d 3e c8 07 95 3f 2d 31 8b 3f 7d 3c f8 3d
       0.24722436 1.1643 1.0874382 0.12120912
0000d0 9c c7 df 3e 47 4b b0 be 52 86 77 3e 12 1f 46 bd
       0.43706977 -0.34432432 0.24172333 -0.048369475
0000e0 40 6b b0 bc c0 08 57 bc 16 3e e1 3c 77 07 cc 3d
       -0.021535516 -0.013124645 0.027495425 0.09962361
0000f0 c6 45 13 be 02 85 a9 3e 18 db 53 3d 26 e3 e0 3f
       -0.14382085 0.3310929 0.051722616 1.756932
000100 9c 19 a1 3c 29 f9 b6 3d f1 fa a5 3e fe a0 f0 3e
       0.019665532 0.08934242 0.32418016 0.46997827
000110 7a 8c 03 3f 41 89 09 3f ea a2 e6 be 86 aa 03 3f
       0.51386225 0.5372506 -0.4504617 0.51432073
000120 bb 74 45 be ec 38 5a be 24 21 85 3f 00 de a9 bc
       -0.1928281 -0.21310776 1.0400739 -0.02073574
000130 38 05 29 bc e2 6e 3e 3f e0 38 67 bf 07 77 4e be
       -0.010316186 0.74387944 -0.9032116 -0.20162593
000140 45 34 82 3e c2 13 36 bd 00 56 40 c0 5d e8 98 3e
       0.25430503 -0.044452436 -3.005249 0.2986478
000150 76 96 be 3d f4 15 7b 3f 80 05 10 bf c8 4e 5d 3f
       0.09306042 0.9808037 -0.5625839 0.86448336
000160 77 d0 ea bf 2d e4 17 3f 46 6c 76 bd 55 1e fc 3d
       -1.8344868 0.59332544 -0.06016185 0.12310473
000170 a0 70 64 3b 70 34 a5 3c e0 32 55 bd 44 b0 8a bc
       0.0034857169 0.020166606 -0.05205047 -0.016929753
000180 f8 ea d5 3c 81 26 27 c0 87 5a ba bc c5 a9 0b bf
       0.026113018 -2.611725 -0.022748245 -0.5455592
000190 f6 e3 82 bd b4 34 c4 3d 68 44 1a 3e dd 42 56 3e
       -0.06391136 0.09580365 0.15065157 0.20923944
0001a0 e3 1e 2a bc 94 8e d4 3e 5c 62 96 3f c2 59 73 3e
       -0.0103833405 0.41515028 1.1748767 0.23764709
0001b0 c0 0c f0 3b 39 90 fb 3c 19 2e a8 be 73 53 7a bd
       0.0073257387 0.03070842 -0.3284767 -0.06111474
0001c0 2d e3 cc bf 5a c3 8e be 60 7f f4 3d f6 0c 98 3f
       -1.6006829 -0.27883416 0.11938357 1.1878955
0001d0 bc 0b 45 c0 a0 48 7d bc 7d be 71 3f a1 6b aa 3e
       -3.0788412 -0.01545921 0.9443129 0.3328524
0001e0 dc e2 3b 3f c2 34 d8 be 32 11 d3 3e 50 ec e9 bd
       0.73393035 -0.4222775 0.41224056 -0.11422026
0001f0 06 be 80 3f 68 cd da bf 62 ef 72 bd 91 81 02 3f
       1.005799 -1.7093935 -0.059310324 0.5097895
000200 f8 de 9e 3f 16 28 47 40 16 a1 a1 3e 31 7b 41 3f
       1.2411795 3.1118217 0.3156821 0.755786
000210 36 cf 24 3e 3d 70 b5 3e a5 12 e4 bd bc 9a 22 3d
       0.1609467 0.35437194 -0.11136369 0.039698347
000220 22 cb 70 3e 0b 6a 49 be d0 1f 01 be 0a ba 33 c0
       0.23514989 -0.19669358 -0.12609792 -2.80823
000230 67 57 fb 3e 15 3c b5 be ec 74 e9 be 0b a5 f9 bf
       0.4909012 -0.353974 -0.45597017 -1.9503492
000240 c2 77 71 3e 11 bb 64 3f e3 b3 5f be 1d 22 71 bc
       0.2358084 0.8934794 -0.21845965 -0.014717606
000250 94 fc b2 3c c4 40 36 3d 6b 2f 06 3e 2c b2 b1 bf
       0.021848954 0.04449536 0.13104026 -1.3882499
000260 f6 a0 b1 bf f7 99 92 3e fb fd 88 bf 09 6a ee bc
       -1.3877246 0.2863309 -1.0702509 -0.029103296
000270 ed 22 7f bd ca 49 b6 3e 58 06 e0 bc 61 d8 41 3e
       -0.062289167 0.35603172 -0.027346775 0.18930198
000280 7f 8f 26 3e ce f6 45 40 42 8a 3a be 46 4f 57 3e
       0.16265677 3.0931888 -0.18216804 0.21026334
000290 bd 3c c9 3e b0 4c d3 3e b7 7f 58 be 7b bb ff 3e
       0.39304152 0.41269445 -0.2114247 0.49947724
0002a0 2e b8 4f bd 69 9a f0 3e ea 0e 81 3f ad fa 26 3f
       -0.050712757 0.46992806 1.0082676 0.6522625
0002b0 e3 b3 86 3f c3 2c 1c 3f 54 bf bc bf e8 8f c6 3f
       1.0523647 0.610058 -1.4745889 1.5512667
0002c0 4a 0a 0d 3d 74 48 9c 3e 5d 93 82 bd 06 c9 4b 3d
       0.03443364 0.30524027 -0.063757636 0.049752258
0002d0 ea 3d 09 3f 83 49 de bf bb 28 de 3d 71 ef ab 3f
       0.536101 -1.7366184 0.108476125 1.3432447
0002e0 dd b5 6e bc b7 f0 c5 bf 8c 4d 86 be f4 ea 4d bd
       -0.014569727 -1.5464085 -0.2623104 -0.050272897
0002f0 d9 81 88 3f 14 61 80 3e 8b 94 33 3f 06 af 06 be
       1.0664626 0.25074065 0.70148534 -0.13152704
000300 e7 e8 27 40 b8 86 ad bc 76 99 d3 3e 74 40 a0 3c
       2.6235902 -0.021182403 0.4132802 0.019561984
000310 26 95 89 3f 83 c0 16 be 31 41 9a bc 33 4a cd bc
       1.0748641 -0.14721875 -0.018829914 -0.025059795
000320 b1 ee c9 bd f5 f0 18 bf 20 4f ab 3e 1c 49 0d 40
       -0.0985998 -0.5974267 0.33458805 2.2075872
000330 0c f9 d6 3d 27 aa a5 3e 85 9e 4e be 0b b2 6a 3d
       0.10496721 0.32356378 -0.20177658 0.0572987
000340 61 4e 84 3e dc 1f 37 3f ae 29 4d bf 91 8c af bc
       0.25841048 0.7153299 -0.80141723 -0.021429332
000350 1d f1 e3 3d bd 02 1c be 8b 64 b5 be a5 ff 14 bf
       0.11129973 -0.1523542 -0.3542827 -0.5820258
000360 b2 3b aa 3e a6 c8 77 40 a9 39 fe bf d0 20 7e bd
       0.3324867 3.8716216 -1.9861346 -0.06204301
000370 1d 89 1e be 33 80 9e 3e e1 9f fe bc 9c b8 a5 3c
       -0.15481992 0.30957183 -0.031082096 0.02022963
000380 cd e2 00 3e ae 7e 30 40 52 9e 94 3f 9e 52 a4 3b
       0.12586518 2.757732 1.1610816 0.0050147315
000390 0e 97 02 3f 64 d4 c2 bc 32 a5 c1 3f f4 90 8e bf
       0.5101174 -0.023782916 1.5128539 -1.1137986
0003a0 ff 96 99 3d 97 3a 3c 3e 5a 30 1d 3e e7 60 46 3f
       0.07499503 0.18381725 0.15350476 0.7749161
0003b0 ed d1 c5 3b 58 ab 80 bd 76 42 2c 3d 1f e1 97 bd
       0.006036988 -0.06282681 0.04205557 -0.07415985
0003c0 f0 c4 04 3d 8e 32 78 3f 27 ce 45 3f 44 20 a1 be
       0.032414377 0.9695214 0.7726769 -0.3146993
0003d0 9e d5 91 3d c5 1a a2 3e 50 6c e7 3d cc eb 29 3f
       0.07120822 0.3166105 0.11299956 0.6637542
0003e0 6f 0e 83 3d 26 2c 18 c0 f4 3e 93 bf 8c 6f a4 3c
       0.06399237 -2.3776946 -1.1503587 0.020072721
0003f0 9d f8 b3 3e 80 8c 46 ba 6c 73 34 bd bf 3b c1 bf
       0.35150614 -0.0007574037 -0.044055387 -1.5096358

fc2.bias f4 [256]
000000 03 3f b5 3f 2b d8 6f bd 8e 66 40 3f f5 12 3b bd
       1.4159855 -0.058555763 0.75156486 -0.045672376
000010 9d 1e 7f 40 eb 33 1a be 5e a8 5a bd 00 74 b9 39
       3.9862435 -0.15058868 -0.053383224 0.00035372376
000020 a1 66 60 bd 20 34 61 bb 9d 53 30 3f 90 af 01 3c
       -0.054785375 -0.0034363344 0.68877584 0.0079153925
000030 af a4 f0 be d3 98 43 3f 69 30 41 bd 33 89 84 3e
       -0.47000644 0.76405066 -0.04716531 0.25885925
000040 4a 36 81 bf 18 9c dd 3e 56 8d 48 40 0a 50 fb 3c
       -1.0094693 0.43283153 3.1336265 0.030677814
000050 e6 b7 09 3f dd 11 11 bf b5 01 42 40 4d a6 b9 bc
       0.5379623 -0.5666788 3.0313542 -0.022662306
000060 4e 98 02 3f 68 f1 50 3f 63 6e de 3c 4f 29 f6 3f
       0.5101365 0.81618357 0.027152246 1.9231356
000070 ed b7 31 bf 8c bb 17 3d 68 c3 18 bd d3 ad 3d be
       -0.69421273 0.037044093 -0.03729573 -0.1852334
000080 db 18 09 be 66 e9 22 bd 40 01 fe bb 33 e1 a3 3f
       -0.13388388 -0.039773367 -0.007751614 1.28031
000090 6e 22 28 3f 37 86 c6 be f2 ed 53 3f ee d2 1c 3f
       0.65677536 -0.38774273 0.8278495 0.61259353
0000a0 bd 10 5a 3f 8e 37 18 40 a8 0c 9d 3e 21 2a 56 3f
       0.8518179 2.3783908 0.30673718 0.83658034
0000b0 b5 3a a9 3e e8 a9 52 40 5e cc 2d bc ed 53 9a bd
       0.33052602 3.2916203 -0.010607807 -0.07535539
0000c0 26 4e 33 3d 69 e1 61 bc 0a ad 60 3d f8 4b 72 bc
       0.0437757 -0.013786652 0.054852523 -0.01478862
0000d0 1c f1 6b 3d eb c7 f8 be f4 39 19 bf 12 a2 93 3b
       0.057602987 -0.48590025 -0.59854054 0.0045054043
0000e0 50 44 11 3f 46 13 37 3e 15 94 6d bf a0 b9 45 bc
       0.5674486 0.17878446 -0.9280408 -0.012068182
0000f0 c6 e6 99 3e 3e 99 66 bd 4c 8a 28 3e bc c5 ad 3c
       0.3005888 -0.056298487 0.16459006 0.021212451
000100 7a 72 22 3f 1c b0 aa 3c 98 9a ce bd 90 05 84 3f
       0.6345593 0.020835929 -0.1008808 1.0314198
000110 7f 87 72 be 9e 21 55 3d dc 79 ee be e5 5a 16 3c
       -0.236845 0.052034013 -0.46577346 0.009176944
000120 67 dd 93 bc 7a 0f 84 bc 59 9e 9a 3f 61 f6 a6 3e
       -0.018049909 -0.016120661 1.2079574 0.32609847
000130 11 02 82 3f cb 27 3e bc 02 a9 cd 3d d6 75 79 bd
       1.0156881 -0.011606167 0.10042001 -0.060903393
000140 ba 67 7c bd e8 ef 27 be a5 fb 68 bf 3b ef d0 bd
       -0.06162236 -0.1640011 -0.9100898 -0.102018796
000150 32 e3 fb 3d 1a 07 1d 3f cb 84 2d bd 24 5c 90 3e
       0.122991934 0.6133896 -0.04236297 0.28195298
000160 73 f2 ff be f3 3d a5 3f 0c 01 11 bf af 73 fa 3e
       -0.49989662 1.290953 -0.5664222 0.48916385
000170 6a 65 06 3d cc ab 3d bd d2 bd 8b bc 8a 57 09 40
       0.03281156 -0.046306416 -0.017058287 2.145968
000180 4f 08 20 3e fb cf 2c bd 48 a8 ca 3c 72 b5 e3 bc
       0.1562817 -0.042190533 0.024738446 -0.02779648
000190 98 ec e0 bd 51 a5 05 40 df ba a6 3f 8c 9b 33 3f
       -0.10982627 2.088215 1.3025779 0.7015922
0001a0 62 9f c2 be 19 de 5d 3d e0 3f be bd 8a f7 1e 3f
       -0.38012224 0.054166887 -0.09289527 0.62096465
0001b0 1d 77 26 be da e8 10 3f 49 c5 79 3e 71 2f 83 bf
       -0.16256376 0.56605303 0.24391665 -1.0248853
0001c0 6f 02 c7 3c d1 af 8e 3d 8d 36 1f bd 4a 11 37 bf
       0.024293153 0.06967128 -0.038870383 -0.71510756
0001d0 e4 55 5f bd a8 2f ad bc 59 29 ad bc 42 06 35 3d
       -0.05452527 -0.021140888 -0.02113788 0.04419542
0001e0 37 e9 65 bd 2b 5e 59 40 da 65 93 bd 59 c0 01 bf
       -0.056130614 3.3963726 -0.07197161 -0.50684124
0001f0 d9 6f a1 be e0 9e 5d bd 33 6f 52 40 ab 26 aa bc
       -0.31530645 -0.054106593 3.288037 -0.020770391
000200 58 3c 4a bb f5 e4 19 ba 9c a8 69 3f 20 2e c3 3e
       -0.0030858722 -0.0005870604 0.912729 0.38121128
000210 b7 41 ea bd 56 ff d3 3d 56 c6 14 40 8a 41 9c 3e
       -0.11438315 0.10351436 2.3246055 0.30518752
000220 91 92 b7 be 8e 90 5b 3e f8 12 20 bf 64 23 23 3f
       -0.3585401 0.21441862 -0.62528944 0.63725877
000230 d7 b0 57 3d fc 40 4a 3f 84 01 05 bf fa c2 63 bd
       0.052658882 0.7900541 -0.5195544 -0.055605866
000240 89 d8 28 3d 1c 2a 14 bd 33 33 97 bf b5 58 df bc
       0.04122213 -0.03617297 -1.18125 -0.027263978
000250 e6 fa c9 3e f4 92 78 3e f9 33 76 bd 9d f7 a5 bd
       0.39449233 0.24274808 -0.06010816 -0.08103869
000260 15 59 e3 3e 99 77 c0 3b c6 13 81 bf b5 6b 4f 40
       0.44403902 0.005873632 -1.0084159 3.240949
000270 b7 39 fb bc dd d6 19 3f 31 ea 10 3e a0 40 14 bc
       -0.030667169 0.6009348 0.14151837 -0.009048611
000280 26 0b 56 3d 52 d2 1c 3f df af cc bc 85 c3 85 40
       0.052256726 0.61258423 -0.024986206 4.180117
000290 94 e0 c2 3e e5 99 72 bd 2d 7f 56 3f c0 87 35 bf
       0.38061965 -0.059228797 0.83787805 -0.70910263
0002a0 64 8e 91 3d d2 de 3f be e7 4f 67 3d 95 4c 12 bd
       0.07107237 -0.18737343 0.056472685 -0.035717566
0002b0 29 ce 85 bc 4a 28 ac bd 5a bd ae 3f 7d 6a 34 3c
       -0.016333656 -0.08406122 1.3651536 0.011011717
0002c0 9e 0c 19 bc d8 a5 a8 3c 70 cd c2 3f 65 1f 08 be
       -0.009341387 0.020586893 1.5218945 -0.13293226
0002d0 d8 37 65 3f 79 e7 a2 3f df 4c bc 3e c1 a9 a8 be
       0.89538336 1.272689 0.36777398 -0.32942012
0002e0 35 bf 55 bd fd 50 a8 3d 70 96 a8 be c3 ae d9 3f
       -0.052184302 0.08218572 -0.32927275 1.7006458
0002f0 9f 92 37 bd af 60 4c bf 60 04 63 3f b2 f0 26 3d
       -0.044817563 -0.7983503 0.8867855 0.04075689
000300 b5 ec 1e 3f f8 89 77 bc 3f a1 43 3e a4 02 70 bf
       0.62079936 -0.015108578 0.19104479 -0.9375403
000310 7c 6b 51 3d cd 74 6a 3e c6 46 65 3f 1c e0 18 bf
       0.051127896 0.22896118 0.89561117 -0.59716964
000320 70 bd 44 bf ce 75 22 3d b7 9b 84 3e 9e 71 14 bd
       -0.7685156 0.03966313 0.2590005 -0.036241166
000330 5b 4a df 3e 9a b6 b2 bc a6 45 08 bf 1d 31 c4 bb
       0.43611416 -0.021815587 -0.53231275 -0.0059873
000340 eb 47 e6 3f 93 86 25 3e 51 d1 78 ba d3 2c 03 3c
       1.7990698 0.16164617 -0.000949164 0.008006292
000350 fe 43 55 bd c8 59 9a 3f e6 94 b5 3c a5 e3 41 3f
       -0.052066796 1.2058649 0.022165727 0.75737983
000360 6b bb 13 bc 2e 35 02 bd 94 2e 48 bd 32 c5 6f 3d
       -0.009016852 -0.031788997 -0.048872545 0.05853767
000370 ca 0b 68 bd d2 39 83 3f e4 4f c0 3d d2 fc 8b bd
       -0.056651868 1.025202 0.09390238 -0.06835331
000380 d2 85 2b be 12 23 d4 3c ed 26 87 3f 08 4e 89 3e
       -0.16750267 0.02589563 1.0558754 0.26817346
000390 b4 44 ea 3f b3 a5 86 3f 76 b3 85 bd 1a c5 19 40
       1.8302217 1.0519317 -0.0652837 2.4026551
0003a0 60 29 47 3c 5b 1b 29 40 54 67 07 3d 7e 26 f0 3f
       0.012155861 2.6422946 0.033057526 1.8761747
0003b0 9b 02 e3 be 19 c5 4c 3d 65 f3 44 3f 40 c7 f7 3c
       -0.44337925 0.049992654 0.7693389 0.030246377
0003c0 24 ee a5 be 01 3f e5 3e 6e fa de 3d 1b b0 fa be
       -0.3240825 0.4477463 0.108876094 -0.48962483
0003d0 67 84 30 3d d1 f2 fd 3e 95 0a 12 40 71 82 7d 3f
       0.04309502 0.49599317 2.2818959 0.9902716
0003e0 aa df 94 bc a8 02 a4 3e 4d 62 c5 3a 66 8b 39 3f
       -0.018173058 0.32033277 0.0015059203 0.7247833
0003f0 e2 52 a5 bb 44 d5 b9 3e ce 6f 84 3f 6a de 27 3e
       -0.005045281 0.3629552 1.034662 0.16393438

fc3.weight f4 [81, 256]
000000 c8 1b cf bd cc 9a b2 bc 3b e5 03 3d 05 45 85 3d
       -0.10112721 -0.021802329 0.032201033 0.06507305
000010 79 a8 2c bd 77 8f b8 bd 6a f8 47 bc b4 24 9b 3c
       -0.042152856 -0.09011739 -0.012205223 0.0189384
000020 60 58 64 bb 4c aa 51 3d 8a bf f4 bd 74 7e 19 bd
       -0.0034842715 0.0511878 -0.11950596 -0.03747411
000030 2a 7c 2f bd 0e be 4f be b0 cd fe 3b ee 60 93 be
       -0.04284302 -0.20287344 0.0077759847 -0.2878489
000040 5e fb 0d be 32 32 f3 bd 72 73 31 bd 26 aa 5f 3c
       -0.1386542 -0.11874808 -0.043322988 0.013651406
000050 f3 89 98 bd 69 ae 17 3d 8e dc 99 3c 2f ce 90 3b
       -0.07448187 0.037031565 0.018781926 0.0044191102
000060 17 6d 84 3e a1 45 13 3d c0 87 53 bc 86 cf 70 bd
       0.2586448 0.035955075 -0.012910783 -0.05879166
000070 52 25 dc bd 75 3a 25 bc 1b ee ba 3e 80 10 9d bd
       -0.10749306 -0.010084738 0.36509785 -0.07669163
000080 eb 63 9c be 28 cb f5 3c 4c 7c de 3c 0e 5e 50 be
       -0.3054498 0.030004099 0.027158879 -0.20348379
000090 13 06 7d bd 7a ea 32 3d 6b d4 ec 3e 2c 03 ca bd
       -0.06177337 0.043680646 0.46255812 -0.09863886
0000a0 d2 34 55 be 63 b1 30 bd c3 db a7 3c ef e1 ae 3e
       -0.2082093 -0.04313792 0.020490533 0.3415675
0000b0 1d 8b b7 be c6 f4 bf bd a8 18 ab bd 03 73 02 be
       -0.35848323 -0.09372859 -0.08354312 -0.12739186
0000c0 a6 df 59 bd c4 f1 2d 3d 4e b1 7a bd 8e a3 0e bd
       -0.053191803 0.042466894 -0.061204247 -0.034823947
0000d0 6e ca 20 3d c6 20 04 be 03 97 bc be a1 19 45 3d
       0.039255552 -0.12903127 -0.36833963 0.048120145
0000e0 2c 51 f0 bd e5 4a a8 bd 7f 61 12 bf e8 92 c5 bc
       -0.11734232 -0.0821741 -0.5718002 -0.024117902
0000f0 18 53 98 bd 24 67 00 bd e0 a6 de bd e0 b9 52 bd
       -0.07437724 -0.031348363 -0.10871673 -0.051446795
000100 e6 fe d4 bb 80 6e c7 bc f7 e3 0b 3e 98 71 f5 bb
       -0.006500113 -0.024344683 0.1366118 -0.007490348
000110 4c 61 e7 bd 9d a2 cc bc 55 1f 02 be 68 6b 32 bc
       -0.11297855 -0.024979884 -0.12707265 -0.010889865
000120 8a e6 37 bd 48 81 2b bd 5e 56 11 bd 42 35 8e be
       -0.044897594 -0.04187134 -0.035482757 -0.27775007
000130 0e 48 bb bd 00 ca b5 bb 8c 16 89 be ee 04 5c 3d
       -0.09144603 -0.005547762 -0.26775014 0.05371564
000140 d8 b7 28 3c 92 23 1a bf 93 5a 7e bf b1 d1 ca 3d
       0.010297738 -0.60210526 -0.99356955 0.09903277
000150 ab a8 f1 bc 67 76 00 be 54 c4 16 bd 12 dd 93 bc
       -0.029499372 -0.12545167 -0.036808327 -0.01804975
000160 b0 3d 7e be 90 d9 9d bd 17 ca ce bf 61 61 a1 bd
       -0.2482822 -0.077075124 -1.6155423 -0.07879902
000170 b7 29 89 be 6e 3c 2d bd 10 dd 33 3d 90 96 ca bd
       -0.26789638 -0.04229396 0.043911994 -0.09891999
000180 4c 5a 2c be 90 6f 7c 3c f8 8d 14 3d a8 7a fc bc
       -0.1683132 0.015407458 0.036268204 -0.030820206
000190 01 fd a9 be c4 3b a0 3b 8f 2b dc bc 83 2e 1b bd
       -0.3320084 0.004889937 -0.02687624 -0.037886154
0001a0 e9 98 00 be 00 b7 bf 3a f8 bb 4f 3e 90 b3 b9 bd
       -0.1255833 0.0014626682 0.20286548 -0.09067452
0001b0 1e 6a ba be 37 03 70 be da c2 a0 bc de 17 78 be
       -0.36409086 -0.23438726 -0.019624162 -0.24227855
0001c0 47 bf 68 be 5f ae 97 be 2c c1 65 bd 9f c4 90 be
       -0.22729217 -0.29625222 -0.056092426 -0.2827501
0001d0 e0 b9 7e bb c6 9f 06 3d 65 25 9a be 50 ea 6a 3c
       -0.0038868114 0.032867216 -0.30106655 0.014338091
0001e0 2b 24 43 3b ce a2 a2 bc 33 ce 31 bd 52 0a 22 be
       0.0029776196 -0.019853022 -0.043409538 -0.1582425
0001f0 8e 76 cf 3d 28 07 ce 3c 40 94 88 3c 46 da 22 bd
       0.101300344 0.025149897 0.016672254 -0.039758943
000200 3e a1 53 3d 10 0d 10 3c d0 d3 2c 3d 17 62 a5 bd
       0.051667444 0.008792177 0.042194188 -0.0807535
000210 99 85 93 bd c7 e6 b6 3e 5f 83 e4 bc d9 88 e9 bd
       -0.07203216 0.35722944 -0.027894674 -0.11403055
000220 a7 97 9f be eb cc ac be 98 9d 87 3d d2 9f 9f be
       -0.3117039 -0.3375009 0.066218555 -0.3117662
000230 08 9b c4 be 82 16 80 3e 61 5a a0 be 04 40 98 bc
       -0.3839953 0.25017172 -0.31318954 -0.018585213
000240 88 6c 60 3d 18 95 6c 3d b7 a2 71 bf ce a8 7b bd
       0.054791003 0.057759374 -0.9438891 -0.06144028
000250 0a 00 d7 3a 8b c3 0b be e0 f8 84 3b 56 b4 15 3d
       0.001640321 -0.13648812 0.0040579885 0.036548935
000260 88 51 a5 bd 70 38 ec bc 74 f8 9f bf 1f 1c 0b 3c
       -0.080721915 -0.028835505 -1.2497697 0.008490591
000270 da 6b 76 bd 43 5c 09 bd ef ba 97 bd a0 4a 2f bb
       -0.06016145 -0.033535253 -0.07408702 -0.002674736
000280 4e 62 6d 3d 0c f0 e7 3d 7c e5 00 bd 2f 1c 83 3d
       0.05795508 0.11325082 -0.031468853 0.0640186
000290 23 2a 82 be 40 be 7d bb ad 31 8f 3e a9 8c 48 bf
       -0.25422773 -0.0038718134 0.27967587 -0.7833963
0002a0 15 64 9f be af d2 74 bd 28 09 2f bd 81 8c e4 3b
       -0.31131044 -0.059771236 -0.04273334 0.006974757
0002b0 4c 41 6b bd b3 2f 17 be 7a d4 38 be 80 86 a4 3c
       -0.05743532 -0.1476429 -0.18049803 0.020083666
0002c0 a5 fc 56 3d 98 a5 e7 3c a5 ee 1d bd e4 8f 09 be
       0.052487034 0.028277203 -0.038557667 -0.13433796
0002d0 e7 9b 95 be e0 ce c9 bc f6 dd 3f 3c ff 16 29 be
       -0.29220507 -0.024634778 0.011710634 -0.16512679
0002e0 00 11 9a b9 9c 96 1c 3e 08 a0 8b 3d fa 41 0c bd
       -0.00029385835 0.15291828 0.06817633 -0.034242608
0002f0 ce 63 3d bd 39 88 3a be d5 32 41 3b 80 d7 30 3c
       -0.04623776 -0.18216027 0.002947976 0.010793567
000300 69 63 64 bd ac e1 f3 3c a5 41 60 be af 10 c3 be
       -0.055758867 0.029770695 -0.21900041 -0.38098666
000310 a3 3e 35 be e9 1c bb be 1d 1b a2 bd 30 e2 56 3d
       -0.17699675 -0.36545494 -0.07915328 0.052461803
000320 da 1c 87 3c fa a8 4f 3d e7 b1 16 bd 16 09 54 bd
       0.01649325 0.050698258 -0.036790755 -0.051766478
000330 04 bf ba be e8 e2 3d 3b 3a 72 2c be 2b f1 d6 bc
       -0.36473858 0.0028974358 -0.16840449 -0.026238045
000340 3a 34 7c bc 6f 19 5c bd 95 11 5c 3d 4e 8b 4e 3c
       -0.015393311 -0.053735193 0.053727705 0.012606455
000350 d3 ee ba be 5b 34 d3 3c 3f bb 19 bd a3 43 1c be
       -0.36510333 0.025781801 -0.037532087 -0.15260176
000360 46 9f 56 3d 4c af c9 bc de 0b 5c bd 24 ab 7d bd
       0.05239799 -0.02461972 -0.053722255 -0.06193079
000370 18 ba eb 3c 97 b7 aa be f8 6b 5b 3c 7e 07 28 be
       0.02877526 -0.33343193 0.013392441 -0.16409108
000380 f3 21 c5 be 77 51 c9 bc ae f7 b9 bd 7b 1e ab bd
       -0.38502464 -0.024574978 -0.09080444 -0.08355423
000390 89 9d d8 3c fe c8 bb 3e e5 41 a6 3c 88 44 c5 bc
       0.026442306 0.36676782 0.020295093 -0.02408053
0003a0 72 bd 8b bc 96 3f df 3c 40 ad a7 3c 20 72 b3 3d
       -0.017058108 0.027252 0.020468354 0.08762002
0003b0 61 49 19 3e 8a 87 a8 bc 53 69 83 bd 28 7b f5 3c
       0.14969398 -0.020572443 -0.064165734 0.029965952
0003c0 3a f4 1e 3e 65 35 bd be bf 1e 35 3c 84 8b 5f be
       0.15522853 -0.369548 0.011054694 -0.21830565
0003d0 d8 d9 7f bd 02 d1 0a bc b1 47 a1 3d ca 74 e2 bd
       -0.06246361 -0.008472683 0.07875002 -0.11057432
0003e0 62 bc 4c bd 13 ae 57 be e6 8e 44 3d ae ea a3 3e
       -0.049984343 -0.21062498 0.04798784 0.32014984
0003f0 e2 ff 53 bd b1 fa 85 be c9 41 5f 3e f2 7e 3e bd
       -0.0517577 -0.26167825 0.21802439 -0.046507783

fc3.bias f4 [81]
000000 bb 12 a6 3f 09 9d 65 40 f7 b2 29 3f d0 2e 8b 40
       1.2974466 3.5877097 0.66288704 4.3494644
000010 91 ef 5f 3f 71 52 98 3f 1f 6a 28 40 a9 87 f3 3f
       0.87474924 1.1900159 2.631477 1.9025775
000020 76 28 12 bf 3f cd eb 3f 0c 31 a2 3f 65 d1 64 3f
       -0.5709299 1.8422011 1.2671218 0.8938201
000030 6e ea 83 3f ff 2a 32 3f 5f 08 6f 3f 05 d2 09 40
       1.0305917 0.69596857 0.9337215 2.1534436
000040 d9 9c 7f 40 2a 09 88 3f 8a 0d bd 3f dd 73 24 40
       3.9939482 1.0627797 1.4769757 2.5695717
000050 78 dd 19 40 fb 4d 02 40 ec b7 13 3f c6 55 fd 3f
       2.4041424 2.0360096 0.5770252 1.9791801
000060 3c a7 10 40 4e 8b ba 3f 82 08 6e 3f 97 3a e2 3f
       2.2602072 1.4573762 0.9298173 1.767413
000070 3d 6f ed 3f b1 38 2e 40 5a 4c 1c 3f 76 00 fb bd
       1.8549572 2.7222102 0.61054003 -0.12255947
000080 fe 5d dc 3f 5e 5b 5f 40 3a 74 26 3f 23 e5 b4 3f
       1.7216184 3.4899516 0.650211 1.4132427
000090 03 a6 8f 3f c1 71 ad 3f 88 21 03 40 63 a0 29 40
       1.1222538 1.355034 2.0489216 2.6504142
0000a0 41 34 62 40 3e da 1f 3f 55 17 a6 3f 1c 30 69 3f
       3.5344393 0.62442386 1.297587 0.91089034
0000b0 85 63 ad 3f 89 25 27 40 63 ed 8c 3f 5f da 8b 3f
       1.3545996 2.611666 1.1009945 1.0926017
0000c0 e8 f9 23 40 b4 16 4b 40 08 93 01 40 92 34 b0 3f
       2.562128 3.1732607 2.024599 1.3766043
0000d0 32 9f 09 40 d5 2b b3 3f 27 55 ec 3f e2 d8 50 40
       2.1503415 1.3997751 1.8463486 3.2632375
0000e0 70 d5 c5 3f e9 ed 03 40 84 34 c7 3f f5 14 51 bf
       1.5455761 2.061396 1.5562901 -0.816726
0000f0 5a 3f c1 3f 18 cd bf 3e 9d 82 49 40 8c 6d 52 40
       1.5097458 0.37461162 3.148597 3.2879362
000100 b2 9b 26 40 5c 1c 22 40 f9 48 ae 3f 18 5a 37 40
       2.603253 2.532981 1.361602 2.864874
000110 08 9c b4 3f b9 2d cb 3f d2 9b 21 40 99 27 7a 3f
       1.4110117 1.5873328 2.5251355 0.9771667
000120 c5 59 45 3f c6 fb 4d 40 e0 29 f0 3e 9e 5b 54 40
       0.770901 3.218492 0.46906948 3.3180919
000130 03 21 93 3f 2d 20 a6 3f db 94 ff 3f ff 81 35 40
       1.1494449 1.2978569 1.9967302 2.8360593
000140 ca ed 3b 40
       2.9363885
