code/outputs/seed/17/models/dqn_checkpoint.pth (torch, 354981 bytes, 6 tensors)

fc1.weight f4 [256, 5]
00000000: cb1a a63e f10e c63e 23a8 1d40 0867 cb3f
00000010: dc93 b43f 5eb2 24bf bd51 04bf c956 1cbf
00000020: 582b 48bf d3df d33f c337 c73e 7e09 b33d
00000030: f60b 52bf 5242 17bf f203 233f cfb7 d73d
00000040: 07d6 d7bd 0b78 f13f c218 863f ae8f c2bf
00000050: 8ae6 9b3d 482d f53d 93cb cb3f a208 383f
00000060: 628e 253f 507d 1ebe 1563 b5bc 5f9b 1d3e
00000070: 0373 87bd 7e35 87be 4a7b 1abf 6233 1cbf
00000080: 2cfc 2abf 7303 cbbe dd1a b93f 3da4 e43e
00000090: 3495 6cbf a32b 8cbe a958 82bf ccb9 ca3f
000000a0: 87da 7bbe fed7 603e 6a17 db3f b216 903f
000000b0: 5426 f33e c0d2 293c 8082 b9be d2c4 6fbe
000000c0: 3e8f 3c3e d9f7 3b3e 8e43 44be fcb1 643e
000000d0: 20ee 0540 9818 0d3f 9e59 a6bf 198c 9dbe
000000e0: af75 093f 39d8 1340 7cf6 af3f 440e ca3f
000000f0: b4d7 d13e 53f2 b1be 3e4e 4cbe 19d0 97be
00000100: 4ef9 48bf 3808 f23d f8a3 e33e ee09 1540
00000110: 5983 fa3f e8b2 e03f c0fd e23e c360 473f
00000120: f142 463f bab3 aa3e a6ea dc3f 373e 803e
00000130: 529b 973e 66c9 81bf f912 f9be fdca 803f
00000140: 6bd9 e23e 67b9 92bc da08 33bf 7076 04bf
00000150: 090a d43e 1d58 4dbf f356 55bf a798 61bf
00000160: 0421 b4be 7a9a f73f 6e86 02be b6b7 883d
00000170: eb33 0840 791a 323f 9bdb af3e e5fb f73e
00000180: 02c9 9d3d 2675 36bf 8dcf 0ebf 5451 473f
00000190: d19f ebbe a378 45bf 9188 09bf 006b 88be
000001a0: e36c ce3f 3a31 2dbe 6c6c 053e 502e a33f
000001b0: 0f2c d63e 8533 c0bf a488 f4be c54d 61bf
000001c0: 4ec6 18be 74d0 53bf d52b db3f 612d 55bd
000001d0: 6174 c63e 586d 1b40 6939 b93f c2cd af3f
000001e0: 7880 e8bd 38ff 0abc ed06 c3ba 832f 35be
000001f0: 3539 153c e722 883e e7a6 8ebf 4409 66bf
00000200: 3624 80bf 720d 0b40 7e7e af3e b0c1 2b3f
00000210: 6ac2 1640 1a67 fb3f 1d02 2b40 863e eb3d
00000220: f983 073f 1c06 3440 be97 0740 378f 0140
00000230: 24e2 3c3d e025 3e3f a711 1a3f 7ddc 193e
00000240: 260c 893f dd94 23bd 9f06 9e3b 246d 9e3f
00000250: 9d2b 653f 74d9 1dbf 410d a7be 826c 6ebe
00000260: db43 8dbe cce1 d4be 8b48 c9be dca0 65bf
00000270: de95 27bf 6dee 35be 947e 09bf 19fe c43f
00000280: a29c a6be 2fc7 8cbe be03 c2be ba9f 7dbe
00000290: 45db 5abe a224 8e3d 586d 9cbd c1e9 f43f
000002a0: 8653 1e3f bdfa 8bbf d1c3 ba3e 3a4c 053f
000002b0: 53fe 04bf 160a 023f 2e5b 6d3f fb31 1f3f
000002c0: 8e8c 70be a2bd 8bbf 046d a8bf 0120 43bf
000002d0: c823 47bd 39c5 f53d e38e 9a3f 1488 1e3c
000002e0: 2267 cabf aa3f e1be 6df2 86be 1717 c0be
000002f0: 9e22 91bc 2868 ccbd 3f34 773d 6a3d 05be
00000300: 2671 903e e692 a13d a401 593e 82c6 bb3d
00000310: 779f 373e df84 c23f 5ad1 463f 0583 80be
00000320: 2a08 f2bd b50a 9abd 1c4b 723e 572e 303f
00000330: 7793 e13f 0272 26be 35b3 b8be c793 dbbe
00000340: 1e0c 9c3e 97b5 e23a e700 41be 4de2 f03e
00000350: 8792 f83f 312c c13f 679d a23f ca8a d73d
00000360: fec4 0a3d bb12 15bf 8271 6fbf 033c 8fbf
00000370: 1ec8 2bbf 9a63 23bf 93d6 dabe a512 1bbf
00000380: c6ee d83f 9245 5f3d e6c0 a03e b6af 1440
00000390: d86b f73f 1f50 e43f 6f6f d1bd 19e0 963e
000003a0: 7391 1140 884d a33f a4f7 9e3f 641d 2d3e
000003b0: 79f9 24be 9471 c43f 4861 543f 871b 493d
000003c0: 14b6 9e3e 7a86 093e 2da7 b2bf 2f53 a3bf
000003d0: a447 813d 8522 8abe 0ad0 a4bb 2139 263e
000003e0: cbf7 433f 3167 213c 0e8d 18be 632d fd3d
000003f0: 9387 fa3f 6f49 263f 0c19 0c3d a20d 0bbd
0.32442316 0.38683274 2.4633873 1.5890818 1.4107623 -0.64334667 -0.5168722 -0.61069924
-0.7819114 1.6552681 0.3890973 0.08742045 -0.820495 -0.5908557 0.63677895 0.105331056
-0.10538869 1.8864759 1.0476305 -1.5200098 0.07612331 0.11971527 1.5921501 0.7188817
0.64670384 -0.1547749 -0.022141973 0.153913 -0.066137336 -0.26408 -0.60344374 -0.61015904
-0.66791034 -0.3965107 1.4461323 0.44656554 -0.92415166 -0.27377042 -1.0183307 1.5837951
-0.2459508 0.21957394 1.711652 1.1256926 0.4749018 0.010365188 -0.36232376 -0.23414925
0.18414018 0.18356265 -0.19166395 0.2233352 2.092659 0.5511565 -1.2996099 -0.3077095
0.53695196 2.3100722 1.3747096 1.5785604 0.4098488 -0.3475519 -0.19951722 -0.29650953
-0.7850541 0.11817974 0.44461036 2.328731 1.9571334 1.7554598 0.4433422 0.7788202
0.77445894 0.33340245 1.7259109 0.25047466 0.29610687 -1.0139587 -0.48647287 1.0061947
0.44306502 -0.017910672 -0.6993538 -0.5174322 0.41413906 -0.80212575 -0.833358 -0.88123554
-0.3518144 1.9344018 -0.12746593 0.06675665 2.1281688 0.69571644 0.34347233 0.48434368
0.07704355 -0.71272504 -0.5578545 0.7785847 -0.46020368 -0.771372 -0.5372401 -0.26644135
1.612698 -0.1691331 0.13029641 1.2748508 0.4183049 -1.5015723 -0.477605 -0.8800929
-0.14919397 -0.8273995 1.7122751 -0.05204523 0.38760665 2.4285488 1.4470645 1.3734667
-0.113526285 -0.0084837 -0.0014879383 -0.17693906 0.0091078775 0.26589128 -1.1144685 -0.8985789
-1.0011051 2.1726956 0.34276193 0.6709242 2.355616 1.9640839 2.672004 0.11486535
0.5293575 2.812873 2.1186366 2.0243661 0.046114102 0.7427654 0.60183185 0.15025516
1.0706832 -0.03993689 0.0048225666 1.2377057 0.89519674 -0.6165993 -0.326273 -0.2328358
-0.27590832 -0.4157852 -0.39313158 -0.89698577 -0.65463054 -0.17766733 -0.5370877 1.5390044
-0.32541376 -0.27495715 -0.3789348 -0.24767962 -0.21372707 0.06940581 -0.07638043 1.9133836
0.61846197 -1.0935894 0.3647752 0.5206944 -0.5195057 0.5079664 0.92717254 0.6218564
-0.23491117 -1.0917246 -1.3158269 -0.7622071 -0.048618108 0.12000508 1.2074856 0.009675998
-1.5812724 -0.43993884 -0.2635683 -0.37517616 -0.017716702 -0.09980804 0.06035256 -0.13011709
0.28211325 0.07889347 0.21192032 0.09168722 0.17931925 1.5196799 0.77663195 -0.2509996
-0.118179634 -0.075215735 0.23661464 0.6882071 1.7623128 -0.16254428 -0.36074224 -0.42886183
0.30477995 0.001729655 -0.18848 0.47047654 1.9419717 1.5091611 1.2704285 0.10524519
0.033879273 -0.58231705 -0.93532574 -1.1190189 -0.6710223 -0.63823855 -0.42741832 -0.60575324
1.6947868 0.054509707 0.3139717 2.3232245 1.9329786 1.7836951 -0.102263324 0.29467848
2.2745025 1.2758036 1.2419324 0.16905743 -0.16110791 1.5347161 0.8296094 0.049098518
0.3099829 0.13430205 -1.3957268 -1.2759761 0.063124925 -0.2697946 -0.005029683 0.1623273
0.7654998 0.009851263 -0.14897558 0.123621725 1.9572624 0.649558 0.034203574 -0.03394855

fc1.bias f4 [256]
00000000: bcbf 5040 ce2e 883f 1031 eebe 000b 6d3f
00000010: 510b 1e40 b3e4 61be 330e 8b3f dc3d 1d40
00000020: 9ca9 2640 4752 94be d98d 7b3f 5bfa 7840
00000030: b181 2d3f 1795 5b40 6273 a43f 2aaf 93be
00000040: 44bb 31bf d166 2a40 9ea9 cb3f b032 12bf
00000050: cf3f 873f d2a3 fc3e 7765 c33f 651f 3940
00000060: 8c33 95be 5b45 3140 bcec 7340 25f3 5240
00000070: 32fb 583f dd46 a43f cd27 98be b7d9 1f40
00000080: 7367 e63c a075 373f 413b 363c cd71 47bf
00000090: 7b05 b33e 1427 a2be 328c a1be 3f85 0240
000000a0: e6f3 b43f ccca e2be e859 5340 b76c 9bbf
000000b0: a51d 8f3f df3b 5740 5b9c 4040 81db fb3f
000000c0: 6006 63bf 1366 c03f 4c35 1040 89dd f83f
000000d0: 1925 7e3f d628 883f 851e 4040 0458 e83f
000000e0: 0652 2c40 1088 ba3d cd9c 5bbe 45b6 3840
000000f0: 83c1 f53f a28a 0840 e4e9 2540 c0d4 973f
00000100: 378f e3be 0369 ed3f b213 fc3f e1b7 b3bd
00000110: cb2c f23f b95e 36be 0277 a9be cd5a ff3f
00000120: 67c4 d2be 5efe 7fbf 8fbe 03be 653f 0840
00000130: 9565 4dbf b405 ec3f 1f0f 4d40 d35c 7740
00000140: c39a 5dbe 10b9 303f d6dd f53f 63db a63f
00000150: 6cda 2f40 8bcf 2040 ad84 bb3e f114 babe
00000160: 4339 23bf b597 3140 4b3a a93f c0f2 ef3f
00000170: 3c32 953f 5507 2840 e357 0440 9f58 3240
00000180: af23 0640 0314 7640 e194 953f a412 a7bf
00000190: f14c e4be 4833 8a3e 5754 80bf c6e3 eebe
000001a0: 81eb 4540 fa4b 5740 18e6 3a40 7c48 af3f
000001b0: b7b3 7c3f 9ad9 f43f 87ad 4f3f 4ffb 01bf
000001c0: 5e9d 10bf 4c6f 3a40 7c62 2740 2e57 21bf
000001d0: 4b8a 9f3f 2b69 883f e69b 0340 b316 dd3f
000001e0: 31b3 5f40 87af 8d3e d669 573f 57ef 1540
000001f0: 906c 3bbf d9d7 6bbe da48 e23f 299d f23f
00000200: c5cb 0240 2898 2d40 67cb 073f a30a 1c40
00000210: 7e0b 2640 d726 4540 cb32 e93f 2e15 5940
00000220: c2d5 de3f 68c1 0440 7e7b a3bf 3cef 1c3f
00000230: 13ec 8e3f bddb d23f 64ef 1b40 b6fa 0c40
00000240: 7f8c 0140 2a68 2b40 2995 013f 05fa 873f
00000250: 6205 1540 980f 4dbe 0459 ca3e 7867 4abd
00000260: f972 dfbe 0737 7fbf 15f2 2dbf 19b7 33bc
00000270: 100d 2a40 6bfb 1940 fd7e e13f 99f3 e8bd
00000280: 5cd5 4e40 ac3e 7140 5169 0840 7f98 2340
00000290: 3037 c03f aa72 0fbe 4808 163f 9eb8 1340
000002a0: fef3 903f 2624 1cbe 3ddb dd3f 14ea 3a3e
000002b0: c79b d53e b70e 943f 5ec3 10bf 039c 3740
000002c0: e4ba c6be 9089 8a3c 12b4 2040 34cd 41bc
000002d0: 7ee8 96be 9915 28bf 91cb 0140 1d1a 6040
000002e0: 46cb 2540 64e5 10be ac63 2c3e 48e4 0040
000002f0: 2659 0540 a1ff 7040 f2b6 3e40 1395 4240
00000300: 3aac 89be 122c c3be 60af 0740 d8f3 afbd
00000310: cb7d 6cbf 9ff1 66be eaed f33f 24f5 9f3e
00000320: 4a85 aabe 3143 f13f 6dd5 963f 7446 2440
00000330: b750 2840 97ff 0ebe d529 ce3d 1988 d93f
00000340: c576 1840 3121 5540 478e e63f db8f 0ebf
00000350: e53e 833e 8f84 0b40 5212 41bf 3657 0a40
00000360: 1e2b ea3d af7a f93f 8252 ccbe db99 26bf
00000370: 1a9e 0340 7855 783f beb8 3e40 edee ad3f
00000380: c96a 9f3f 47ce 5340 6dfc fc3f 30b9 3640
00000390: df3f d43f 17aa 2b40 ec61 1b40 ae6c 3bbf
000003a0: 52dc 5cbd 4fab b2be c4ee 1840 e66b 0840
000003b0: 87f8 e03f d017 6bbf 0bea 373f 3eb9 b73f
000003c0: bd24 2240 d94a f8be ffde 2d40 e815 25bf
000003d0: 297f 2140 1343 1f3f 2a09 4abf 31cd 9a3f
000003e0: d126 3740 173b 3b3e 3015 3340 ef2b 3d40
000003f0: 01fc 01be f797 0540 cf14 e73f a985 2140
3.2617025 1.0639284 -0.46521807 0.9259491 2.4694407 -0.22059898 1.0863708 2.4569006
2.6041021 -0.28969023 0.9826332 3.8902805 0.6777602 3.4309747 1.2847712 -0.28844577
-0.6942637 2.6625254 1.5911138 -0.57108593 1.0566348 0.49343735 1.526534 2.8925412
-0.2914089 2.7698581 3.8113241 3.2960904 0.84758294 1.2834126 -0.29717866 2.4976633
0.0281255 0.71663857 0.011122526 -0.7790802 0.3496512 -0.3167044 -0.31552273 2.0393827
1.4136932 -0.44295347 3.3023624 -1.2142552 1.1180922 3.3630292 3.0095432 1.9676362
-0.886816 1.503115 2.253253 1.9442607 0.99275357 1.0637462 3.0018628 1.815186
2.6925063 0.09107983 -0.21446534 2.8861248 1.919968 2.1334615 2.5924006 1.1861801
-0.44445202 1.8547672 1.969351 -0.087753065 1.891992 -0.17809571 -0.33098608 1.9949585
-0.41165468 -0.9999751 -0.12865661 2.1288693 -0.80233127 1.843924 3.204048 3.8650405
-0.21641068 0.6903238 1.9208324 1.3035702 2.7477064 2.5126674 0.3662466 -0.36344102
-0.6375925 2.7748845 1.3220915 1.8745956 1.1655955 2.6254475 2.0678642 2.786659
2.095928 3.8449714 1.1686059 -1.3052564 -0.44589952 0.2699225 -1.0025738 -0.46658152
3.092499 3.3640122 2.9202938 1.3693995 0.98711723 1.9128907 0.81124157 -0.5077409
-0.56490123 2.913043 2.615386 -0.6302365 1.2464079 1.0657095 2.0563903 1.7272552
3.495312 0.2767298 0.8414587 2.3427331 -0.7321253 -0.23031558 1.7678483 1.8954211
2.043687 2.7124119 0.5304474 2.4381492 2.5944514 3.0804956 1.8218626 3.3919177
1.7408984 2.0743046 -1.2772062 0.6130254 1.1165794 1.6473309 2.4364862 2.2028022
2.0242002 2.6782327 0.50618225 1.0623175 2.3284535 -0.2002548 0.3952104 -0.04941508
-0.43642405 -0.9969334 -0.6794751 -0.010968947 2.6570473 2.4059703 1.7616879 -0.113745876
3.2317724 3.7694502 2.131428 2.5561826 1.5016842 -0.14008585 0.58606386 2.3081431
1.132446 -0.15248165 1.7332531 0.18253356 0.4172041 1.1566991 -0.56548107 2.8688972
-0.3881446 0.016911298 2.5109906 -0.011828709 -0.29474252 -0.65657955 2.0280497 3.5015938
2.5905318 -0.14150006 0.16834897 2.0139332 2.0835662 3.7656024 2.979916 3.0403488
-0.2688921 -0.3811956 2.120079 -0.085914314 -0.92379445 -0.22553109 1.9056981 0.31241715
-0.33304816 1.884863 1.1783882 2.5668 2.6299264 -0.13964687 0.100665726 1.6994659
2.382249 3.3301508 1.801217 -0.55688256 0.25633922 2.1799657 -0.7541858 2.161573
0.11434005 1.9490565 -0.39906698 -0.65078515 2.0565248 0.97005415 2.9800258 1.3588539
1.2454463 3.3094652 1.9764534 2.855053 1.6581992 2.6822565 2.4278517 -0.7321271
-0.05392105 -0.34896323 2.389573 2.1315856 1.7575845 -0.9183321 0.71841496 1.4353406
2.5334923 -0.48494604 2.7167356 -0.6448655 2.5233862 0.6221172 -0.78920233 1.209387
2.8617442 0.1828426 2.7981682 2.9558065 -0.12693788 2.0874002 1.8053225 2.523783

fc2.weight f4 [256, 256]
00000000: a33e 13bd bb76 a63d 8cc8 a2bb ba3f b6be
00000010: cc05 003d a089 78bb 2a3c 9f3d dbdc 22bd
00000020: b069 573d 0433 babc bfdc 5a3d 4142 9d3d
00000030: 1bb5 3b3f bfd4 833c a248 bf3c 940d 8fbe
00000040: 749d 383d d3ec 4e3e 61fe 243b 7bb4 723d
00000050: 38c6 a43c d00f 6bbd 2ee4 283e 0ba0 4c3d
00000060: 3837 173d ad35 f73d f9cc 173c f77f ea3c
00000070: f67c 843c 9bbb 24bb b8bf 783c 011a aa3e
00000080: a879 62bc b887 03be 5257 203c e023 26be
00000090: b1e9 54bb c6d6 143d 9043 31bd f46a b6b9
000000a0: 1118 d83d a0a3 16bd 620d d73c 4d1f 7cbf
000000b0: 1435 2c3d b958 b33c fb7b d83d dcbb 8c3c
000000c0: 0fdc 9d3d 02a3 e8be ddbd 143e 3b9e 033e
000000d0: 770c 563c fbf9 2e3d 585d 813d 99d3 3f3d
000000e0: 83d5 24bd aab9 57bd f822 743c 7b10 7c3e
000000f0: 374d 5ebd d146 d1bc c485 913e a651 9b3c
00000100: b05d 01bd de39 b93d 5a33 da3e 5407 c33c
00000110: d7d0 0d3d 5485 803c 0ab9 46bd 8fcb 56bd
00000120: e00d 5d3d b9e1 05bd 68e2 28bc d489 74bd
00000130: 2291 413d ee36 d73c 90d6 38bd 2444 f8bc
00000140: 14df 0fbd 226b 2fbd eef3 403e bfa0 a2bd
00000150: 5f8b 2b3d eb93 b3bc 5677 043f 00e2 8339
00000160: 560e a4bd 2d77 503d 32a1 04bf 5dd6 b63d
00000170: 35a5 1dbd 7e69 a0bc a838 8e3d 5c25 f8bc
00000180: 8c19 58bd ed74 143d ba8c 7ebb 616f e23d
00000190: 7694 1a3d efec c03d bef9 17be 65e6 04bf
000001a0: 7036 463c d72f ab3d 2f85 3e3d 9979 4d3d
000001b0: ed2f 20bd 9b6c eb3e 4ff7 eebe 97f3 a23d
000001c0: f944 ccbc 4145 653e bb6e bf3b 3ef9 48bd
000001d0: 3c0b c83c bfd4 dd3d 6578 783e da5b 05bf
000001e0: 4ed9 7ebb 3d2c fdbe 0b02 29bd 9810 593e
000001f0: 6057 47be 5a65 073d 8476 0ebc c5f6 cdbb
00000200: b32c 0e3f 55af b43e b0aa f43c 01f1 19ba
00000210: 5c52 473e 6ed3 c5bc 96b9 48bb 42a9 5ebb
00000220: 8263 d2bc 2276 2f3d e1fb 8e3d beda 29bc
00000230: 1ae4 e23d 8f85 80be f396 91bc 2184 243d
00000240: 5e0f a8bd 543f 69bc 2557 573c 02e9 9f3b
00000250: d312 8c3e 2a30 79bd 899c 1c3d 2523 193d
00000260: 38ff b93c fcc0 23be 0b49 e63c a8f7 2b3c
00000270: 678e 8abc 45e0 8e3d 7e7a 70bb 1ae5 543d
00000280: d25f 31bd e9cc 4bbd 8a7a 453d e4fe 853e
00000290: 9fb9 b1bd 5037 6cbc 1833 fbbe e975 a83c
000002a0: 0c58 393d d947 46bf 81d7 f23c 558f 21bf
000002b0: d58d a93c 2a01 61bc 9781 bf3b cac9 45bd
000002c0: 003c 86bc cd96 353d bff9 d53e b28f 7d3d
000002d0: bf68 0abf a4c7 99bd 9a95 333d 070e 793d
000002e0: d23f 143e 1821 ad3c aecf 82bf 44c3 a83d
000002f0: 92ff cebc aa6f ecbc a383 43bd cddb 3cbd
00000300: b04c 9e3c 5852 763d 9f33 683d 11ae 63be
00000310: 8590 4abd 9a85 213d a4bd 523d 8de1 fd3b
00000320: e0f2 083c 243e 08bd 24aa b83c effc 083d
00000330: 8dab 013e c088 15bb 77df 5dbf e252 30bd
00000340: aa98 9f3e d43a cf3d 348f 10bf bb7c d2be
00000350: 9eac ffbe 90d6 cf3c edb3 0dbe 7049 71bc
00000360: e213 b93d ca9a e83d 801a 353d 85c6 803d
00000370: 96b8 a63c e2ac a5be dd78 32bd 8a7c 0cbd
00000380: 45b6 0fbe b112 073d c111 1b3d 03b0 573e
00000390: 625b 663d 84f0 913e 1af9 c83c 9f43 8bbe
000003a0: 5c4c 85bc 60bd 89bb 3d7f 873e be91 3e3f
000003b0: 3b61 763d 9b07 8bbe cf63 a13f 1cee cabe
000003c0: fb7e 873b 0d2a 713d c296 1abe 963b 803c
000003d0: 951c c93e 7a42 8dbe cf7d 11be b497 203e
000003e0: e234 873d 5af8 e33d 6657 293e 7ba6 fa3c
000003f0: fefb 23bd e84d c23e 50c3 683e 21d3 0d3d
-0.035948407 0.08128115 -0.0049677547 -0.35595495 0.03125553 -0.0037923828 0.07775147 -0.039761405
0.052591026 -0.022729404 0.053433176 0.076786526 0.7332322 0.016092656 0.023350064 -0.27940047
0.045072034 0.20207529 0.0025176036 0.05925415 0.02011405 -0.057388127 0.16493294 0.049957316
0.036917895 0.12070785 0.009265178 0.028625472 0.016172867 -0.0025136236 0.015182428 0.33222964
-0.01382295 -0.12844741 0.009786444 -0.16224623 -0.0032487924 0.036337636 -0.043277323 -0.0003479343
0.10551465 -0.03677714 0.026251499 -0.9848526 0.042042807 0.021892892 0.105705224 0.017179422
0.077079885 -0.45436865 0.14525552 0.12853329 0.013064495 0.04271887 0.06316632 0.046832655
-0.040242683 -0.052667297 0.014900915 0.24615662 -0.054272857 -0.025546463 0.28422368 0.018959831
-0.031583488 0.090442404 0.42617303 0.023807205 0.034622993 0.015688576 -0.04851631 -0.052440222
0.05396831 -0.03268597 -0.010307886 -0.059701756 0.04725755 0.02627131 -0.045126498 -0.03030593
-0.035124853 -0.04282678 0.18843052 -0.07940816 0.04188096 -0.021921119 0.5174459 0.0002515465
-0.08010547 0.050894905 -0.51808465 0.08927605 -0.03848763 -0.019581553 0.069444 -0.030291252
-0.05275874 0.03624432 -0.0038841204 0.110564 0.03773924 0.094201915 -0.14841363 -0.51914054
0.01209794 0.08358734 0.046513733 0.050164793 -0.039108206 0.45981297 -0.46673056 0.07956617
-0.024935232 0.223897 0.0058420575 -0.04906582 0.02441942 0.10831594 0.24264677 -0.5209328
-0.0038886848 -0.49447814 -0.041261714 0.21197736 -0.19466925 0.03305564 -0.0086952485 -0.0062855207
0.55536956 0.35290018 0.029866546 -0.0005872399 0.19465011 -0.02414867 -0.0030628196 -0.0033975397
-0.025682215 0.04283727 0.06981636 -0.010367094 0.11078663 -0.25101897 -0.017772174 0.04016507
-0.08206056 -0.01423629 0.0131433355 0.0048800716 0.27358112 -0.06083695 0.03823522 0.037387032
0.022704706 -0.15991586 0.028111001 0.010496058 -0.016913606 0.0697637 -0.0036694105 0.0519763
-0.043304272 -0.049755964 0.048212565 0.2617103 -0.086779825 -0.014417484 -0.4906242 0.020564036
0.045249984 -0.7745338 0.029643776 -0.6310933 0.020697514 -0.013733188 0.0058443057 -0.048288144
-0.016386032 0.044333268 0.41792104 0.061904617 -0.5406608 -0.075087816 0.043843843 0.060804393
0.1447747 0.021133944 -1.0219629 0.08240369 -0.02526835 -0.02886184 -0.04773296 -0.046108056
0.019323677 0.060137123 0.056689855 -0.2223437 -0.04945423 0.039434053 0.051450387 0.007747835
0.008358687 -0.033262387 0.022542067 0.03344434 0.12663098 -0.0022817105 -0.86669105 -0.043047793
0.3117116 0.101186424 -0.5646851 -0.41110787 -0.49936384 0.025370866 -0.13838167 -0.0147269815
0.090369955 0.11357649 0.044214725 0.062878646 0.02035169 -0.32358462 -0.043572295 -0.034298457
-0.14034374 0.03297681 0.03785873 0.21063237 0.056239493 0.2850381 0.024532843 -0.27200028
-0.016271763 -0.0042034835 0.26464263 0.74441135 0.06015132 -0.2715424 1.2608584 -0.39634788
0.0041350103 0.058877993 -0.15096572 0.015653413 0.3927962 -0.2758978 -0.14208148 0.1568287
0.066018835 0.11131354 0.16537246 0.030596962 -0.04003524 0.37950063 0.22730756 0.034625176

fc2.bias f4 [256]
00000000: fe8b eb3e 3517 8cbc cf0b 1fbd 8ca3 8c3e
00000010: bee5 bd3f c708 f73d 4692 593f b54d 5d3e
00000020: 8eb6 173d 89df c43f cca8 e6be eacb 7ebd
00000030: 85fb 3e3e 689c 1d3f f0d4 09bd 3dbc 963f
00000040: d139 63be 70b7 ffbb 9cd3 ce3e 7811 a03d
00000050: af4d 473e a3c7 553e f2af 07bf 636a a83c
00000060: 01ab 5140 b625 fd3e 55b8 04bf 5d6e b83f
00000070: f6e1 81bd 61e1 ae3e 4074 713d db4b 443f
00000080: 576f f23e efe2 6f3e f9bb e83e 9ca2 253f
00000090: 3a83 b0be 336b 623f eaed ed3f a83a 373c
000000a0: 8b14 4bbe 78e4 17bd 607b 393e 326b 83bd
000000b0: b328 a83e 0bc7 8f3f a8f7 173c a5ca 403f
000000c0: 74e4 73bd e82b 1d3f e234 d9bb 8595 a83f
000000d0: 4aab 463f c846 213c bd1b de3d b064 953f
000000e0: 9d35 0a40 80cd 07bb d4b9 e73c eda5 0f3f
000000f0: 783c 23bd e8fb 2d3d 003a efbd 0652 2c3f
00000100: be20 bc3f d9fe 5cbe cfe5 513e f3cd 4e3d
00000110: 5b62 14bd 6aac 4f3f 6818 5d3d f046 ab3b
00000120: 8023 583e 1066 853b c791 823f f696 243f
00000130: 24a8 313e 7189 56bd 1d6b 57be 51e3 c63f
00000140: 31f0 e0b9 cc6f 9fbe abc1 1e3f f182 113f
00000150: a19c 4140 c2c5 6a3d 51c2 22bc b66e 1240
00000160: 9f16 a03e 202f e0bb dfb0 9bbe ae8f 9e3f
00000170: bf62 183f a0cd 71bd ce54 ea3e 6db4 383f
00000180: 86eb 56bd 9812 7cbd 35fe 48bd bee2 1a40
00000190: 68f6 f43c a253 8a3e 6b80 133d 1d38 373f
000001a0: 2e3b 293f dc70 f33f 81a1 623d b335 4b3d
000001b0: 3c37 2b3f 89be d53e 61d6 febe 2e4b ad3e
000001c0: 91c6 38be 7990 0e40 7d0a 26bd 7010 4ebd
000001d0: 7d59 0bbd 18a8 593e 85fd 86be 8aeb 36bd
000001e0: 3ff1 ce3f 9769 d63c 0afa e03d d626 a33f
000001f0: cf14 68bd af37 ac3e 7349 ac3f 71fd 803b
00000200: 601e 5240 5c62 883f be0a c53f 35b4 913b
00000210: 8bf5 6f3f 919f e13e 36b1 563f eae4 24be
00000220: 843f 183f 0369 0b3f c528 163e 1a32 5a3f
00000230: 0b78 993f 7636 20bd 38a5 06bd 5d61 dc3f
00000240: 8ccf 5e3d 341a b43e 0e11 b43e 6b0d c43d
00000250: bdba ea3e 987d 6ebd 6832 203f 4bb3 a6be
00000260: 1cb5 6b3d f471 483f 9294 993b e171 7a3e
00000270: 3cd8 1e3f 395d 8a3f 46a0 853e f0af d4be
00000280: 0285 893e 9361 093f ffd7 b83e 0808 1bbf
00000290: 5a17 16bd e270 16bd e947 533f 280b d63e
000002a0: 7dd3 d03e 17ec 553c 7db3 c63f fec3 893f
000002b0: ce80 503d 1156 373f c608 f33f 3c45 153d
000002c0: cf65 403e 922c 4d3d d55f 863f a047 24bc
000002d0: cb40 8dbd 8488 4b40 bdb9 033f 7a41 793f
000002e0: 449e 543f b0d9 1d3c c674 0140 3829 ae3e
000002f0: f83f ca3e 9a03 e8bb 049f 16bf 98e7 6f3f
00000300: dbc1 cc3b d207 69bd 557a 3f3f 52b8 343f
00000310: a9b4 b53f 34b6 cd3e 0a9c 8f3e 4323 70bd
00000320: eec1 23be 38b2 203d 50d8 b43f 04a1 823f
00000330: 60bc 0dbd 08de 2c3f cd9a 503f 47c2 40be
00000340: 2cc2 eebe e268 71bd ea05 073f 2715 92be
00000350: c7bd b23f 3c94 723f 9664 7f3d c2ea 5b3f
00000360: 239b f93f 8b84 48be e0cd 413c e31d 303c
00000370: 5e03 b8bb d447 053f 597d f1be 2046 bd3f
00000380: 14e5 253f b734 743f 646f b33c 1ea5 ec3f
00000390: c440 f1bc 723f 863f 58e1 193d cdcd 08bd
000003a0: eb3d 183f 612e 1040 b339 0a3f 3af5 bd3f
000003b0: 24d4 2ebd 2e54 e0bd 73ba 0a3f 3a3f 86bd
000003c0: e695 3540 d225 bbbe 8736 293d 6ad6 88bd
000003d0: 7eca e93c 74dc 773e 8412 cd3c 39c3 af3f
000003e0: 5a7a 0140 8464 91bc 41a9 c2be 4a19 5cbe
000003f0: cc9a 3940 93f0 3c3f 3e0d 78bd 0727 4f3f
0.46005243 -0.01710091 -0.03882962 0.27468526 1.4835737 0.12062221 0.8498882 0.21611674
0.037039332 1.5380718 -0.45050657 -0.062206186 0.18650635 0.6156678 -0.03365034 1.1776196
-0.22190024 -0.00780385 0.4039582 0.07815832 0.19463228 0.20876937 -0.53002846 0.020558542
3.2760623 0.49442834 -0.5184377 1.440868 -0.06341927 0.34156325 0.058948755 0.76678246
0.4735057 0.23426412 0.45455912 0.6470125 -0.34475118 0.88444823 1.8588231 0.011183418
-0.19832055 -0.03708312 0.1811347 -0.0641693 0.3284355 1.1232618 0.009275354 0.7530921
-0.05954404 0.6139512 -0.0066286186 1.317063 0.77605116 0.009843536 0.108451344 1.1671352
2.1595223 -0.0020721853 0.028286852 0.5611256 -0.03985259 0.042476565 -0.116809845 0.6731266
1.4697492 -0.21581592 0.20497821 0.050489377 -0.03622661 0.8112246 0.053978354 0.0052269623
0.21107292 0.0040710047 1.0200738 0.6429285 0.17349297 -0.052377168 -0.21036954 1.5538121
-0.00042903566 -0.31139982 0.62014264 0.56840426 3.0251849 0.057317503 -0.009934024 2.2880073
0.3126726 -0.0068415552 -0.3040838 1.2387598 0.59525675 -0.05903399 0.45767826 0.7215031
-0.052470706 -0.06154117 -0.049070556 2.4200892 0.029902652 0.27016932 0.03601114 0.7157
0.66105926 1.9018817 0.055329803 0.04961176 0.66881156 0.4174693 -0.49772933 0.3384642
-0.18044497 2.227568 -0.040537346 -0.050308645 -0.03402089 0.21255529 -0.26365295 -0.04465822
1.6167372 0.026173396 0.10985191 1.2746227 -0.05666047 0.33636233 1.3459915 0.0039364626
3.283104 1.0655017 1.5393903 0.004446531 0.93734044 0.44067052 0.8386415 -0.16102949
0.5947192 0.5445711 0.1466399 0.852327 1.1989759 -0.039114438 -0.03287241 1.7217213
0.05439715 0.3517624 0.35169262 0.09572872 0.45845595 -0.058225244 0.62576914 -0.32558665
0.057545766 0.7829888 0.0046869004 0.24457504 0.620487 1.0809699 0.2609884 -0.4154048
0.2685929 0.5366451 0.36102292 -0.6055913 -0.036643364 -0.036728747 0.825316 0.41805387
0.40786353 0.0130567765 1.5523525 1.0762937 0.050904088 0.716157 1.8987052 0.03644298
0.18788837 0.050091334 1.0497996 -0.010026842 -0.06897124 3.1802073 0.5145529 0.97365534
0.83053994 0.00963442 2.0227523 0.34015822 0.3950193 -0.0070805075 -0.5883639 0.9371276
0.0062486953 -0.056892224 0.7479604 0.7059375 1.4195758 0.40178072 0.28048736 -0.05862738
-0.15991947 0.039232463 1.4128513 1.0205388 -0.034603477 0.6752629 0.8148621 -0.18824111
-0.46632516 -0.058937915 0.527434 -0.28531763 1.3964165 0.9475744 0.062351786 0.85905087
1.9500469 -0.19581811 0.01182887 0.010749313 -0.005615636 0.52062726 -0.47165945 1.4787025
0.6480267 0.95392936 0.021903701 1.848789 -0.029449828 1.0488112 0.03756842 -0.033399392
0.5946948 2.2528307 0.5399429 1.4840462 -0.04268278 -0.10953556 0.5419075 -0.06555028
2.837274 -0.36552292 0.041311767 -0.06681521 0.028538939 0.2420519 0.025033243 1.3731452
2.0230927 -0.017748125 -0.38019755 -0.21494022 2.900073 0.7380459 -0.060559504 0.80918926

fc3.weight f4 [81, 256]
00000000: d2aa 033e 1e0e 333c 80e9 8d3b 058f bbbd
00000010: dcf2 c63d e76a cdbd e3f6 533b 1e2c afbc
00000020: 90c5 b9bc 0e49 423d 0f2c 32be ca26 4b3d
00000030: 1458 c43d 6a28 85bd 79be 3bbe 4a3c 8b3c
00000040: 9ae2 7fbe 8822 b7bc 6c00 9dbb 46e2 ddbc
00000050: c1e9 d1bd 845c a53d 09c7 0abe a628 673d
00000060: 6cc7 023d df27 063e 7c54 38be 1218 2f3c
00000070: 7089 553d 77f1 aebd 8137 ea3c 155a bfbd
00000080: 0faf 3cbd 4ca0 bdbd 21be 883d e883 c4bd
00000090: ef64 1bbe 3322 64bd d7fe a33b 103f 233d
000000a0: 7a61 acbd a800 c53c 0778 6dbd 6226 aa3c
000000b0: 768c e73c 9754 65ba 4db9 36bd f430 7fbd
000000c0: afe2 713d 6496 f7bd 36a9 56bd c138 4fbd
000000d0: 91df b9bd c682 2cbd d4f1 80bd 6a72 aa3c
000000e0: b703 df3c f4e7 fb3c a000 2d3d 44c2 993c
000000f0: 10d5 7cbc 8c93 bf3c f227 3cbd c9e7 453c
00000100: ab93 d6bd 0a34 8fbe 3cd3 1e3c 3050 213c
00000110: dafd 4b3c 45e8 6fbd 14d6 81bc 6cb9 c0bc
00000120: 5ca2 9abd 089e 9d3c 8bfd 7dbd 75b7 54bc
00000130: 45d7 06be fab8 97bd 65b1 90bd 983f e8bc
00000140: 6ce9 89bd 0c8b 9dbd 49c2 91bd c69a 5ebc
00000150: 9ea1 58ba ec35 febc 782d 6ebd 655c 60bd
00000160: 762a ac3d 7ae2 50bd 4848 6ebe 7279 863b
00000170: 43d3 ebbc e1cb 21bd f02b e13b 3bf5 82bd
00000180: 88e8 6e3d 409f 48bc a867 083c 5579 e93c
00000190: f25f 2a3d e675 01bd 4020 163d fed5 adbd
000001a0: bbe4 6fbd e626 08bd e4e8 423c d5cc 30be
000001b0: 675e 84bd a254 1abd 1f1a e1bd 46f9 9abd
000001c0: 2a77 26be 97ec cd3d e4db cdbd acfa d7bc
000001d0: 12ab 1c3d 952d e23c eb69 a1bd 1094 813b
000001e0: 66c0 a2bc 2869 633d de3f 4ebd 950e 22bc
000001f0: 8246 1b3d 4b93 b63c 6d58 3abd 9c3a 4abd
00000200: 202e ebbb 87ca a3bd 05a9 c53c 00ce 653b
00000210: d8bc b93e 3dbe 11bb efce 6cbd d0b0 81be
00000220: 809e a83c f4e2 953c ef83 01bd 9106 3b3c
00000230: 876e d4bc 00b8 d73b 7ec7 42bd 8404 3abc
00000240: 7e4f 663d 75d2 91bb 08df b3bc 49d1 3bbd
00000250: 8242 5bbd c16e 71bc 2cbd 0d3e 0d09 39be
00000260: ae32 513d eab4 00be 64af 403d 9491 82bd
00000270: 2ffb fc3e d310 0abd 557b a9bd 5c01 1bbe
00000280: eb13 82bc 9752 d23b c6ba c0bb 63f7 03bf
00000290: fe0e 043d 5dd5 123d 7a53 733d b135 e3bc
000002a0: b193 873d 5ebe 56bd 025e dabc 126f 2b3b
000002b0: b09b 143c fc34 a4bd 9ba3 fe3c 382f 933c
000002c0: f66a 06be 971f 273d cf1d f8bc c07b 1e3c
000002d0: a16c 3ebe 7682 92bb a451 553c 4b28 773c
000002e0: 1afe 1ebe c6cb 31bd 0617 fa3d e162 9dbb
000002f0: b8ac 023b fecd 0fbe b2f2 11be de6e a23c
00000300: d8f6 a23c b416 723d f06f 72bd b059 dcbc
00000310: 2402 88bd 309a a8bc 24a8 2cbd d4dd 0bbd
00000320: 370b dabe 8819 79bd fc8c adbd b8bc cb3c
00000330: 98b1 353b cdab 84bd 51be 4e3d 619c ddbe
00000340: 1aaa f4be a068 133d b8b1 31bd 8494 c23b
00000350: 3203 e93c 19b5 f1bc ac72 08bd ecc9 a3bd
00000360: 5851 29bb 32b1 14be 48f0 2abd 74a4 c93c
00000370: bc91 2abd 6bec 39bd 0516 0cbf c1e4 093c
00000380: 2276 7dbd 550f 63bd fcda afbc 1a01 073d
00000390: c8a6 2ebd 6d5b 753c 0a56 393d b9a6 48bd
000003a0: 55e9 e63b afad 4c3d ac7b f5bb 836b 99bc
000003b0: 9436 343d c820 7abe 9b02 883c 0a1c c13c
000003c0: 7d97 583d c6b8 54bd abc4 e33c 60c8 0fbe
000003d0: 7df3 0dbd b4fc f7bd 8807 20bc 8ffe e53b
000003e0: 4267 8c3c f13f 363c 34f5 3ebd e680 27bb
000003f0: 2788 cc3d 31c7 b0bd c00e f3ba 9cd8 72bc
0.12858132 0.010928659 0.004330814 -0.09158138 0.097142905 -0.10030156 0.00323432 -0.021383341
-0.022677213 0.04743295 -0.1739962 0.04959754 0.09587112 -0.06501849 -0.18334378 0.016996522
-0.24988785 -0.022355333 -0.00479131 -0.027085435 -0.10249663 0.080742866 -0.13552488 0.05643525
0.031928465 0.13101147 -0.18000978 0.010686891 0.052133024 -0.085421495 0.02859092 -0.09343354
-0.046065386 -0.0925909 0.06676889 -0.095954716 -0.15175222 -0.055696677 0.0050047445 0.039855063
-0.0841703 0.024048164 -0.057975795 0.020770255 0.02826522 -0.00087482616 -0.04461031 -0.062302545
0.059054073 -0.120892316 -0.052407466 -0.050591234 -0.09075845 -0.042116903 -0.06296125 0.02080651
0.027223451 0.030750252 0.042236924 0.01876939 -0.015431657 0.023385786 -0.045936532 0.012079188
-0.10477384 -0.2796939 0.009693917 0.009845778 0.01245066 -0.05857112 -0.01584915 -0.023525916
-0.07550499 0.019240394 -0.062009376 -0.012983193 -0.13168056 -0.07408328 -0.07065085 -0.028350636
-0.06733975 -0.07692537 -0.07117135 -0.013586706 -0.0008263829 -0.031031571 -0.05814883 -0.054775614
0.08406536 -0.050997235 -0.2326976 0.004103833 -0.02878726 -0.039501075 0.006871693 -0.0639443
0.058327228 -0.012244999 0.008325495 0.028500238 0.041595407 -0.031606577 0.03665185 -0.084880814
-0.058567744 -0.03324022 0.011896346 -0.17265637 -0.06463318 -0.03767837 -0.1099131 -0.075670764
-0.16256395 0.100548916 -0.100517064 -0.026364647 0.038249083 0.027609626 -0.078815304 0.003954418
-0.019867133 0.055520207 -0.050353877 -0.009891172 0.03790904 0.022287032 -0.045494486 -0.0493723
-0.0071771294 -0.079976134 0.024128446 0.0035065413 0.3627689 -0.0022238635 -0.057814535 -0.2533021
0.020583391 0.018296696 -0.031619962 0.01141514 -0.02593161 0.006583214 -0.04755353 -0.011353616
0.056228153 -0.0044501373 -0.021956936 -0.045853887 -0.053530224 -0.014735878 0.13841695 -0.18069859
0.051073723 -0.12569013 0.047042266 -0.06375423 0.49410388 -0.03370745 -0.08275477 -0.15137237
-0.015878638 0.006418537 -0.00588164 -0.5154936 0.03224086 0.03584801 0.05940578 -0.027735563
0.06619967 -0.052427642 -0.026656155 0.0026158732 0.009070322 -0.080179185 0.031083873 0.017966852
-0.1312674 0.04080161 -0.030287651 0.009673059 -0.18596126 -0.0044711186 0.013019953 0.01508529
-0.1552662 -0.043407224 0.122114226 -0.004803047 0.0019939374 -0.14043424 -0.14252737 0.019828256
0.019893095 0.059103683 -0.059188783 -0.026898235 -0.06641033 -0.020581335 -0.04215254 -0.0341471
-0.4258668 -0.060815364 -0.08474156 0.024870262 0.0027724262 -0.06478081 0.05047447 -0.4328337
-0.47786027 0.03598845 -0.043382376 0.0059381146 0.028443906 -0.0295053 -0.033312485 -0.07997498
-0.0025835838 -0.1452072 -0.041733056 0.02461455 -0.04164289 -0.04539148 -0.547211 0.008416356
-0.06188024 -0.055434544 -0.021466725 0.032960035 -0.042639524 0.014975411 0.04524807 -0.048987124
0.0070468583 0.049970325 -0.0074915495 -0.018728023 0.043997362 -0.24426568 0.016602805 0.02357294
0.052878845 -0.051934026 0.02780374 -0.14041281 -0.034656037 -0.12108746 -0.009767421 0.007018871
0.01713908 0.011123643 -0.046620563 -0.0025559007 0.099869065 -0.08631743 -0.0018543825 -0.0148221515

fc3.bias f4 [81]
00000000: eb29 ed3c 2be7 183e 0955 193d cb12 cbba
00000010: 1a18 1f3e e85d 883e fb1d 1e3e 4c9c de3e
00000020: 4352 26bd ae7f 2e3f ea46 8f3e c2e8 19be
00000030: 4f38 273f a192 9a3e a236 093f c293 213f
00000040: 0c2e b13e 1698 713e 53d1 bf3e b1ef cd3e
00000050: 88fa 253f 217a 5a3f 5ae1 393f 6714 f23d
00000060: 038a 3a3d f0c5 cc3e 5741 803b 9647 ee3e
00000070: a025 ee3d 1952 b03e 0ac8 f93e 74da 093f
00000080: f805 613e 656a 473f 8f92 063f bbde d23d
00000090: 596a 5e3f 4b09 7f3d c9f1 333f 0831 443f
000000a0: 05c7 be3e 52ed f03e dd11 163f 0f20 093f
000000b0: caa2 db3e cd3b 983e ab77 0f3f d9d5 053f
000000c0: 9d52 313f 1640 cc3e 7ae5 153f c424 c03e
000000d0: 3b6e 5f3f 8541 0b3f cf10 4c3f 1956 353f
000000e0: cd70 5a3d c8a9 683e a80a b43e c1e8 3f3e
000000f0: 41ab eb3d e930 013f 6948 863e 632b aa3e
00000100: 3628 943e 8e0f a23e 9e1c 283f 88b5 8a3e
00000110: 89ca ad3d 1bff 323f 2142 173f 142a 393d
00000120: 5ce0 af3c ec37 9e3e f256 ebba 9fa8 f63e
00000130: 0197 d33e 18f0 a93b f48e 4b3f de02 0a3f
00000140: 03a8 393f
0.028950652 0.14931934 0.03743461 -0.0015493272 0.15536538 0.26634145 0.15441124 0.4347862
-0.040605795 0.68163574 0.2798379 -0.15030196 0.65320295 0.30189994 0.5359899 0.63116086
0.34605443 0.23593172 0.3746439 0.40221933 0.64835405 0.85342604 0.72609484 0.11820298
0.045541774 0.39994764 0.003914039 0.4653899 0.1162827 0.34437636 0.4878543 0.5384896
0.21974933 0.7789672 0.5256738 0.10296389 0.86881024 0.06226472 0.7029081 0.76637316
0.37261215 0.4705606 0.5862101 0.5356454 0.42897636 0.29733124 0.56041974 0.5227943
0.6926668 0.39892644 0.5855328 0.3752805 0.87277573 0.5439685 0.7971315 0.708345
0.05333023 0.22721016 0.3516438 0.18741132 0.115072735 0.50465256 0.2622712 0.33236226
0.2893693 0.31652492 0.65668666 0.27091622 0.08485896 0.6992051 0.5908528 0.045206144
0.021469288 0.3090204 -0.0017954989 0.48175523 0.41326144 0.005186092 0.79515004 0.53910625
0.7252199
