code/outputs/seed/5/models/dqn_checkpoint.pth (torch, 354391 bytes, 6 tensors)

fc1.weight f4 [256, 5]
-0.11193362 0.47282392 -0.37928417 0.4648327 0.5330676 -0.13465612 0.21967922 1.9936831
0.7979506 1.0801554 -0.18446861 0.100196525 1.366823 0.25732648 0.64885575 0.23910668
0.55615616 2.5454283 0.8338817 -0.7157017 0.042753026 0.16151726 1.5232764 0.20303379
-0.12854095 0.018279176 0.29051915 2.0200856 0.35898775 -1.3682338 0.44390246 -0.0093709575
-0.8445941 0.2631008 0.49831194 -0.11959241 0.045715764 1.9675179 0.54606515 0.4328723
-0.33299237 0.27792975 2.545706 1.3942127 2.0251024 -0.11277598 0.043307416 1.882717
0.38840225 0.13778189 -0.12365179 0.104761034 1.9158714 0.28679684 0.12269354 -0.2770495
0.21598817 2.3068163 0.63883334 -0.19890167 -0.1980245 -0.3609147 -0.26471323 -0.0068133175
0.25555262 -0.23061694 0.1733847 0.44102272 1.3040026 2.4791403 -0.16155218 -0.39016715
0.14301768 0.25055137 0.06364421 -0.12198195 0.05334448 1.5686929 0.34369382 -0.07890208
-0.2715132 0.10226462 -0.7075813 0.67827016 1.543679 0.27509975 -0.25252187 -0.97825104
-0.9909917 -0.331651 -0.0803138 -0.2064673 -0.34698215 0.033296555 0.2748247 0.23054184
-0.050890468 1.2292978 0.29856035 0.22668967 -0.4204936 -0.36534074 0.33313894 0.28691155
-0.10748753 -0.10396766 0.046712406 1.8994294 0.39011717 1.2421901 0.21345238 0.33551088
1.5906316 0.15225452 1.3075738 -0.24867637 -0.3155419 -0.40045792 0.0853775 0.3847815
0.029813789 -0.08745517 1.5895069 0.09576253 0.900295 0.11590546 -0.20329426 0.5665949
0.49273518 0.44868657 -0.41396657 -0.18377733 -0.10661572 0.38311756 -0.38377517 -0.050945804
-0.00051003805 1.3397921 -0.3872367 0.14748129 -0.08271989 0.39870584 2.073476 1.2227921
-0.58946234 0.0546602 -0.12035674 -0.07506913 -0.252073 -0.020688951 -0.2587813 0.0820292
-0.8197237 0.5411173 1.2519234 0.2573173 0.28239483 2.0218208 0.32094002 1.0624301
0.28901622 -0.24679542 1.2736714 -0.07362946 0.18704146 -0.3536432 0.39583695 1.711988
0.34644 0.9913598 0.024917908 -0.813503 0.35721555 -0.043859966 2.019874 -0.33152312
-0.054709733 -0.27526402 -0.2801112 0.1530413 -0.192233 0.028757036 0.36285263 0.16187704
-0.44555628 -0.1164538 0.20137727 1.6880195 0.2195527 0.27921304 0.013361033 -0.026374666
1.6449579 0.13659371 -1.2299211 0.48551413 0.61217755 -0.24133527 0.6602201 0.5626053
-0.09496376 0.029613812 2.154102 0.21840124 0.5350315 -0.0013751686 -0.4112339 -0.20215921
-0.3251503 -0.051881343 -0.041571055 -0.4861143 -0.029888924 0.17662328 0.09016665 0.5332134
-0.069516696 -1.2852081 -0.6671592 -0.4367902 0.28335473 -0.13998882 -0.46929732 0.14996514
0.6994635 -0.09384698 0.694834 2.5229094 2.0767899 1.9971666 0.21100911 -0.042779177
1.9098296 0.93468666 0.07280862 -0.08012492 0.04488651 2.0300496 0.39638776 -0.33076108
-0.015485495 -0.43065435 0.14312333 -0.048989117 0.1954521 0.25254112 -0.2459136 1.5724719
-0.18977939 0.870704 -0.06272729 0.40184724 -0.15978141 0.090366274 1.023604 0.12145203
00000000: 743d e5bd fa15 f23e 8931 c2be 8dfe ed3e
00000010: 1e77 083f 4be3 09be 97f3 603e 0231 ff3f
00000020: 7e46 4c3f 8842 8a3f 57e5 3cbe d633 cd3d
00000030: 0ef4 ae3f 4cc0 833e 691b 263f 62d8 743e
00000040: 4060 0e3f 4ce8 2240 4579 553f 3a38 37bf
00000050: cc1d 2f3d c864 253e b9fa c23f 17e8 4f3e
00000060: 3da0 03be 36be 953c edbe 943e 1549 0140
00000070: 3ecd b73e 4922 afbf 2f47 e33e a588 19bc
00000080: 5237 58bf 26b5 863e be22 ff3e deec f4bd
00000090: 7440 3b3d a0d7 fb3f edca 0b3f 70a1 dd3e
000000a0: fa7d aabe cf4c 8e3e d9ec 2240 9075 b23f
000000b0: 479b 0140 18f7 e6bd 1e63 313d dffc f03f
000000c0: a9dc c63e b216 0d3e 263d fdbd f48c d63d
000000d0: 463b f53f 09d7 923e c046 fb3d 6fd9 8dbe
000000e0: 012c 5d3e e1a2 1340 958a 233f e1ac 4bbe
000000f0: efc6 4abe d0c9 b8be 7e88 87be 4042 dfbb
00000100: cbd7 823e d926 6cbe c28b 313e bbcd e13e
00000110: 8fe9 a63f 3caa 1e40 ef6d 25be fdc3 c7be
00000120: 3a73 123e 4548 803e e557 823d acd1 f9bd
00000130: be7f 5a3d eeca c83f a3f8 af3e 6a97 a1bd
00000140: c703 8bbe 1d70 d13d 0c24 35bf 1da3 2d3f
00000150: 4697 c53f e0d9 8c3e 8c4a 81be a96e 7abf
00000160: a2b1 7dbf 29ce a9be 907b a4bd 2a6c 53be
00000170: a5a7 b1be f861 083d d3b5 8c3e 2913 6c3e
00000180: 8672 50bd a159 9d3f e7dc 983e 5621 683e
00000190: f04a d7be f10d bbbe 3091 aa3e 12e6 923e
000001a0: 6c22 dcbd ffec d4bd 8255 3f3d 8120 f33f
000001b0: 70bd c73e 1600 9f3f 4393 5a3e 15c8 ab3e
000001c0: d199 cb3f 9ce8 1b3e 945e a73f 05a5 7ebe
000001d0: b58e a1be d208 cdbe 66da ae3d 1502 c53e
000001e0: 0c3c f43c b21b b3bd f674 cb3f 251f c43d
000001f0: bc79 663f d85f ed3d 5f2c 50be 5d0c 113f
00000200: c947 fc3e 3fba e53e 6df3 d3be 2030 3cbe
00000210: 5859 dabd fc27 c43e 2e7e c4be 8cac 50bd
00000220: 13b4 05ba 4f7e ab3f e443 c6be 5605 173e
00000230: 0c69 a9bd 2c23 cc3e d5b3 0440 7484 9c3f
00000240: 01e7 16bf 60e3 5f3d 987d f6bd d8bd 99bd
00000250: b60f 81be e07b a9bc fc7e 84be edfe a73d
00000260: 6ad9 51bf aa86 0a3f 073f a03f 18bf 833e
00000270: 0e96 903e 8365 0140 4052 a43e b6fd 873f
00000280: eff9 933e f0b7 7cbe aa07 a33f 0bcb 96bd
00000290: cc87 3f3e b910 b5be 24ab ca3e 6c22 db3f
000002a0: 9560 b13e c1c9 7d3f a420 cc3c bc41 50bf
000002b0: f5e4 b63e 82a6 33bd 9e45 0140 66bd a9be
000002c0: 5017 60bd 68ef 8cbe bc6a 8fbe dcb6 1c3e
000002d0: bad8 44be e093 eb3c d2c7 b93e 18c3 253e
000002e0: f41f e4be 547f eebd d835 4e3e 0611 d83f
000002f0: 6cd2 603e 03f5 8e3e 3ce8 5a3c af0f d8bc
00000300: fb8d d23f 39df 0b3e 0e6e 9dbf 4f95 f83e
00000310: abb7 1c3f 9820 77be 2f04 293f e706 103f
00000320: 5c7c c2bd aa98 f23c cfdc 0940 93a4 5f3e
00000330: d3f7 083f 003f b4ba 408d d2be d302 4fbe
00000340: 1a7a a6be 8881 54bd 6946 2abd f9e3 f8be
00000350: 9ed9 f4bc bcdc 343e 4ba9 b83d ac80 083f
00000360: c55e 8ebd b381 a4bf f2ca 2abf f7a2 dfbe
00000370: df13 913e 3b59 0fbe bd47 f0be 7690 193e
00000380: 0a10 333f d832 c0bd a4e0 313f 5977 2140
00000390: 20ea 0440 28a3 ff3f c612 583e 3839 2fbd
000003a0: 4c75 f43f a047 6f3f b01c 953d 8918 a4bd
000003b0: ebda 373d 55ec 0140 56f3 ca3e 8459 a9be
000003c0: e0b6 7dbc ba7e dcbe ec8e 123e d0a8 48bd
000003d0: 9824 483e 124d 813e c6d0 7bbe c246 c93f
000003e0: 8755 42be 75e6 5e3f 2a77 80bd ecbe cd3e
000003f0: bd9d 23be f411 b93d 7505 833f d8bb f83d

fc1.bias f4 [256]
-0.3380917 2.4557967 2.412263 0.8809727 2.1466444 0.29030898 -0.365969 1.8334728
2.8248334 1.7261782 1.6134276 1.3105617 -0.21747938 2.188216 -0.079157904 1.8497462
0.27441838 -0.78982925 -0.33892637 1.8646574 -0.23673871 2.1554158 2.6051211 -0.29255307
2.098976 0.9808559 -0.104956895 2.0012448 1.1019365 -0.07655904 0.049654085 2.2683845
0.97069657 2.7927043 1.8637367 -0.18878138 -0.3496565 1.9376959 1.2189475 0.15904948
1.6068306 -0.039719373 -0.11157971 -0.8200314 -0.5134849 3.275423 1.3525287 1.6933644
-0.24141043 1.5779133 -0.5592283 1.7237126 1.266477 2.3142755 1.399615 1.1842083
-0.022266775 2.4222405 2.8552554 -0.34927544 0.69370264 0.5442009 -0.35904154 -0.3815574
2.5940313 1.9819034 2.0588002 -0.3127794 0.44791996 0.89102066 -0.3037211 2.7346087
-0.43119407 0.45913705 1.8814073 -1.2631911 1.0713502 1.8655343 -0.25340486 -0.6132509
2.9410236 -0.4660155 1.6470851 0.3512497 -0.36559004 2.3832662 2.3933675 1.7757053
-0.5570641 -1.0562251 -1.0605769 1.9280095 0.18293817 3.1208658 3.0207992 -1.3212678
-0.436229 1.0743839 -0.38463014 1.1971701 -0.66789895 -0.12404889 -0.75164473 -0.8133045
-0.1543534 -0.62027895 -0.30258638 -0.6783465 -0.37421626 2.0981297 2.8179607 -0.59598833
1.9008493 1.8549198 2.854544 2.030505 0.3517052 2.7372515 -0.25590408 0.07675578
0.29976285 2.046459 -1.0517756 2.120532 -0.3321106 2.5734186 0.09347576 1.5943491
-0.52761996 0.072252765 0.9009637 0.06656967 -0.07871948 -0.8404454 -0.093051374 2.0647337
-0.22430626 2.4476652 2.3073056 -0.26771206 -0.15402076 -0.33631444 2.3317027 -0.47816676
1.3488543 0.113060854 -0.39781153 2.589303 -0.7704434 2.016769 2.703223 -0.343966
1.8248957 -0.9413676 3.4741101 1.0046227 1.8687289 -0.36236012 2.9147627 -1.2106314
-0.16980395 -0.4270608 2.793254 2.6151497 -0.039536655 2.4228022 0.47091115 -0.8689331
1.2547365 -0.7648031 1.8822412 1.8227736 2.488834 2.0484009 1.6866407 -0.40976578
2.389087 -0.60891515 -0.6138386 2.1625211 -0.63089114 -0.18062466 0.22509956 1.4766004
-0.95178306 -0.56810164 1.4017675 -0.068449706 2.4620993 2.99142 0.19474001 0.46766883
2.310402 2.597741 2.9542277 -0.16817474 -0.31362647 -0.375086 1.0678416 -0.37300098
-1.0259618 2.8001058 1.8424686 2.3164842 1.8969376 1.4619124 0.03668788 1.4766698
0.4344713 -1.2279674 2.2090821 1.8087854 -0.7110414 -0.8780005 -0.4704153 -0.24936971
-1.2164611 -0.2701609 1.747172 1.4648027 -0.21408083 -1.0943358 -0.31115034 2.4089334
1.4023395 2.135738 2.5962288 -0.9246921 -0.40193602 0.32408193 1.9974573 0.006052229
2.0487022 1.392931 -0.6100529 2.3215566 3.4862037 -0.4094792 -0.9421725 -0.43268463
-0.048678547 1.4816757 -0.015343398 1.3030775 1.6995335 1.6977892 2.4569457 -0.3860282
0.05012034 2.3250382 -0.3318514 1.1173935 2.012343 1.9658816 1.0156227 1.0678782
00000000: 5b1a adbe c62b 1d40 8462 1a40 6d87 613f
00000010: 9f62 0940 61a3 943e 4a60 bbbe 3daf ea3f
00000020: 12ca 3440 68f3 dc3f cc84 ce3f 7cc0 a73f
00000030: eab2 5ebe bb0b 0c40 8a1d a2bd 7cc4 ec3f
00000040: 9180 8c3e 4032 4abf c287 adbe 18ad ee3f
00000050: a26b 72be 55f2 0940 4eba 2640 84c9 95be
00000060: 9f55 0640 5f19 7b3f a4f3 d6bd 6514 0040
00000070: 410c 8d3f fcca 9cbd 1562 4b3d 362d 1140
00000080: 927f 783f abbb 3240 ed8e ee3f e84f 41be
00000090: 2d06 b3be 6b06 f83f 7906 9c3f dedd 223e
000000a0: a0ac cd3f c8b0 22bd e783 e4bd 94ed 51bf
000000b0: bf73 03bf 88a0 5140 a91f ad3f 2ac0 d83f
000000c0: 4c34 77be 10f9 c93f 9629 0fbf 9da2 dc3f
000000d0: eb1b a23f 171d 1440 9626 b33f 2394 973f
000000e0: d068 b6bc fd05 1b40 81bc 3640 3bd4 b2be
000000f0: 7f96 313f c050 0b3f 4bd4 b7be 7e5b c3be
00000100: 9c04 2640 03af fd3f 62c3 0340 9f24 a0be
00000110: c455 e53e ee19 643f 5581 9bbe d403 2f40
00000120: 78c5 dcbe 0314 eb3e f4d1 f03f 3fb0 a1bf
00000130: 0122 893f d4c9 ee3f 48be 81be 03fe 1cbf
00000140: bb39 3c40 9599 eebe afd3 d23f 00d7 b33e
00000150: 9e2e bbbe 6f87 1840 ef2c 1940 504a e33f
00000160: c19b 0ebf 6232 87bf fcc0 87bf 04c9 f63f
00000170: 2554 3b3e 44bc 4740 c654 4140 4e1f a9bf
00000180: 6859 dfbe 6985 893f 3eee c4be df3c 993f
00000190: 6dfb 2abf 580d febd ca6b 40bf b934 50bf
000001a0: d10e 1ebe 9aca 1ebf 9aec 9abe 1ea8 2dbf
000001b0: 4699 bfbe c247 0640 7859 3440 b192 18bf
000001c0: 084f f33f 036e ed3f d9b0 3640 cbf3 0140
000001d0: b412 b43e 212f 2f40 dc05 83be 2232 9d3d
000001e0: 847a 993e 2ff9 0240 95a0 86bf ccb6 0740
000001f0: 670a aabe e4b2 2440 3870 bf3d a213 cc3f
00000200: 1a12 07bf 42f9 933d 8fa5 663f ae55 883d
00000210: ae37 a1bd 6e27 57bf b891 bebd 9924 0440
00000220: 8ab0 65be 8ca6 1c40 e5aa 1340 8e11 89be
00000230: 9eb7 1dbe 6831 acbe 9e3a 1540 46d2 f4be
00000240: 42a7 ac3f 738c e73d f4ad cbbe 24b7 2540
00000250: c73b 45bf be12 0140 9b01 2d40 501c b0be
00000260: 2f96 e93f 78fd 70bf d257 5e40 7a97 803f
00000270: 8232 ef3f 4487 b9be 798b 3a40 f8f5 9abf
00000280: 16e1 2dbe b7a7 dabe acc4 3240 9d5e 2740
00000290: 30f1 21bd 310f 1b40 441b f13e 6672 5ebf
000002a0: 359b a03f 23ca 43bf 48ed f03f a550 e93f
000002b0: 0e49 1f40 0019 0340 d8e3 d73f d2cc d1be
000002c0: cde6 1840 dde1 1bbf 8724 1dbf bf66 0a40
000002d0: 1582 21bf acf5 38be 8080 663e 3e01 bd3f
000002e0: 0ea8 73bf 1c6f 11bf 1e6d b33f 5c2f 8cbd
000002f0: 0993 1d40 6d73 3f40 ed69 473e 4a72 ef3e
00000300: a0dd 1340 6341 2640 1112 3d40 0036 2cbe
00000310: a693 a0be 460b c0be 09af 883f fcf9 bebe
00000320: b752 83bf ef34 3340 03d6 eb3f 4741 1440
00000330: dace f23f f21f bb3f 0846 163d 8403 bd3f
00000340: 0673 de3e 092e 9dbf 9a61 0d40 4886 e73f
00000350: cf06 36bf a4c4 60bf 46da f0be c65a 7fbe
00000360: ffb4 9bbf 8852 8abe 55a3 df3f a87e bb3f
00000370: 0138 5bbe 3213 8cbf 194f 9fbe f72b 1a40
00000380: dc7f b33f eeaf 0840 9d28 2640 9fb8 6cbf
00000390: 8fca cdbe 11ee a53e aeac ff3f c751 c63b
000003a0: f01d 0340 904b b23f 6d2c 1cbf 6294 1440
000003b0: f61d 5f40 42a7 d1be 3832 71bf d788 ddbe
000003c0: 2863 47bd 8da7 bd3f e062 7bbc 3ecb a63f
000003d0: 508a d93f 2851 d93f 993e 1d40 7da5 c5be
000003e0: fc4a 4d3d 6dcd 1440 6de8 a9be c006 8f3f
000003f0: 3aca 0040 02a2 fb3f edff 813f 3cb0 883f

fc2.weight f4 [256, 256]
-0.1721184 0.26804405 -0.014984371 0.1759639 -0.07741611 0.2001875 -0.023037294 -0.012894597
-0.09112929 -0.12869547 -0.030428635 0.15874864 1.674699 -0.10784613 1.8521583 -0.07706579
0.13956513 -0.45772117 2.1185179 -0.07157881 -0.036088057 0.11514076 -0.057665195 1.7080743
-0.03743976 1.7972409 0.015101619 -0.059990812 0.14685577 -0.040603794 -0.28782284 -0.0054675094
-0.1573714 -0.06430465 2.1701384 1.8349324 -0.010091253 -0.11441708 1.5183452 0.10486761
-0.07767282 0.015651703 1.7835631 -0.28491423 -0.0713534 -0.094765 0.9697429 0.68194234
2.064461 0.100769885 -0.39517242 2.0359106 0.2705424 -0.027522847 1.9776034 -0.013522611
0.046766505 -0.06703939 0.16210604 -0.027598636 1.902401 0.1576329 2.2897935 1.8512481
0.17239226 0.8799574 -0.017413046 1.8653738 0.16356382 1.8992939 2.220871 -0.09768592
-0.017014474 -1.4102656 -0.04240461 -0.6034225 0.02527776 -0.08332044 2.0762844 -0.13023604
-0.061123807 -0.29955736 1.8952379 -0.72918034 2.332107 -0.007163994 -0.021473981 -0.027468352
-0.030482298 -0.20203418 -0.03897 0.13917613 0.48533705 0.19664457 0.049801223 -0.2443547
-0.0615655 -0.11491703 1.9189762 -0.17270014 -0.16054009 -0.032163978 -0.15338217 -0.05092195
1.6111938 -0.4444749 0.021520235 -0.17312111 0.03596726 -0.080807105 -0.019507786 -0.2703713
-0.06688166 -0.015250965 -0.028607031 -0.026645714 -0.0020166996 -0.0737125 0.009670101 1.1762053
-0.26706895 0.58280534 -0.089809485 -0.051988285 0.006085649 0.12754783 -0.0076561123 0.25484473
-0.001230128 -0.17155711 0.01732203 -0.5195101 -0.43643877 -0.10393691 -0.04123815 -0.08353728
1.5400754 -0.045804724 -0.0204616 -0.055060416 0.057748653 1.9629035 -0.054332204 0.0010334529
0.075994894 -0.34253028 1.889895 0.92097783 -0.04046155 -0.08787671 -0.019407392 0.053635262
-0.0944102 -0.11637761 0.03668587 0.17522822 -0.013334724 0.074892364 0.004589119 -0.24201286
0.026141554 1.9592427 -0.025442554 0.03139777 -0.010405883 -0.04374132 0.10832181 -0.17904705
-0.09897263 -0.21373539 -0.07408193 -0.11617609 0.013516868 -0.018097421 -0.1121751 0.052859694
0.14819607 -0.067991324 -0.07885653 -0.020006765 -0.18653128 -0.0075657517 -0.1612203 0.7863973
-0.5884432 -0.1156607 0.10756772 0.03627731 -0.0587408 0.011965285 -0.25728875 -0.25296885
-0.03326906 0.08818641 0.14110182 -0.028775923 0.05025688 0.018486701 0.1279194 1.8773494
-0.62861174 0.08466543 -0.070653826 0.00735581 -0.13305034 0.18660052 0.030521438 0.042490598
0.44204265 -0.31535667 -0.039740715 -0.018248416 -0.22126028 -0.3364888 -0.20409898 1.7806126
-0.049714133 1.911653 0.7517849 -0.036553025 0.0645358 -0.53741896 0.008381695 -0.10979992
0.0502278 -0.04936655 0.15992427 -0.53529215 -0.026130222 0.26451147 -0.08897542 -0.013561122
-0.033671897 0.7326481 -0.2780191 0.9164317 0.08300369 -0.01969529 -0.18359706 -0.02285768
0.04478672 0.80845857 0.018222712 1.1323646 -0.07934598 0.26163274 -0.016883438 0.04250124
-0.0851847 -0.07484209 0.03926362 1.7590375 2.264038 0.075730704 1.9191529 0.26310727
00000000: ce3f 30be 123d 893e 0281 75bc e12f 343e
00000010: 568c 9ebd f4fd 4c3e b5b8 bcbc dc43 53bc
00000020: fea1 babd bfc8 03be 7945 f9bc 018f 223e
00000030: 895c d63f 6fde dcbd 8613 ed3f abd4 9dbd
00000040: 29ea 0e3e 6e5a eabe cc95 0740 e997 92bd
00000050: 12d1 13bd ebce eb3d 5732 6cbd 2ea2 da3f
00000060: 6f5a 19bd fd0b e63f c86c 773c edb8 75bd
00000070: 5c61 163e 2a50 26bd 845d 93be cb28 b3bb
00000080: f825 21be 28b2 83bd 8ce3 0a40 11df ea3f
00000090: c855 25bc 8153 eabd 2359 c23f d4c4 d63d
000000a0: ed12 9fbd 0038 803c cc4b e43f 47e0 91be
000000b0: bb21 92bd 2714 c2bd 1241 783f c693 2e3f
000000c0: 2120 0440 7160 ce3d 0a54 cabe 5c4c 0240
000000d0: 8984 8a3e 9877 e1bc 1c22 fd3f f18d 5dbc
000000e0: 3c8e 3f3d f34b 89bd 20ff 253e 8916 e2bc
000000f0: e081 f33f 856a 213e fa8b 1240 b3f5 ec3f
00000100: 9987 303e e344 613f cea5 8ebc 92c4 ee3f
00000110: 467d 273e 101c f33f c022 0e40 8e0f c8bd
00000120: f061 8bbc 9583 b4bf 75b0 2dbd e679 1abf
00000130: 4e13 cf3c e8a3 aabd d8e1 0440 995c 05be
00000140: f55c 7abd 955f 99be 2897 f23f 90ab 3abf
00000150: 3e41 1540 f0bf eabb 34ea afbc 4f05 e1bc
00000160: 03b6 f9bc 0ce2 4ebe 029f 1fbd 3084 0e3e
00000170: 197e f83e 325d 493e 5efc 4b3d 1e38 7abe
00000180: 1b2c 7cbd 9f59 ebbd 03a1 f53f 4ed8 30be
00000190: 9f64 24be 60be 03bd 3710 1dbe 8993 50bd
000001a0: 993b ce3f 3792 e3be 344b b03c a946 31be
000001b0: 6852 133d 327e a5bd cbce 9fbc 1b6e 8abe
000001c0: 40f9 88bd 2fdf 79bc 4b59 eabc 1d48 dabc
000001d0: 9b2a 04bb 94f6 96bd 586f 1e3c e58d 963f
000001e0: 43bd 88be bb32 153f 09ee b7bd abf1 54bd
000001f0: 206a c73b e69b 023e 20e0 fabb 027b 823e
00000200: 3f3c a1ba abac 2fbe eee6 8d3c 9dfe 04bf
00000210: e774 dfbe e0dc d4bd 56e9 28bd 9815 abbd
00000220: 3121 c53f bc9d 3bbd 169f a7bc 0887 61bd
00000230: da89 6c3d 6c40 fb3f 728b 5ebd ed74 873a
00000240: 36a3 9b3d 2160 afbe 14e8 f13f 34c5 6b3f
00000250: 03bb 25bd b4f8 b3bd 40fc 9ebc a6b0 5b3d
00000260: 235a c1bd 6257 eebd ec43 163d 076f 333e
00000270: e379 5abc 2b61 993d 5260 963b 38d2 77be
00000280: d026 d63c 77c8 fa3f e76c d0bc f39a 003d
00000290: 707d 2abc 192a 33bd d3d7 dd3d 1c58 37be
000002a0: 2ab2 cabd 73dd 5abe 44b8 97bd bbed edbd
000002b0: db75 5d3c 0b41 94bc 0fbc e5bd 6883 583d
000002c0: b6c0 173e 093f 8bbd 887f a1bd 3ae5 a3bc
000002d0: 0e02 3fbe 20ea f7bb ef16 25be 5551 493f
000002e0: 37a4 16bf 84df ecbd 774c dc3d 8497 143d
000002f0: 319a 70bd 0b0a 443c 5abb 83be 2285 81be
00000300: 2345 08bd 149b b43d ff7c 103e 7cbb ebbc
00000310: 28da 4d3d 6c71 973c 4efd 023e fc4c f03f
00000320: b3ec 20bf 1265 ad3d f4b2 90bd 0209 f13b
00000330: 593e 08be 3514 3f3e 1808 fa3c 9f0a 2e3d
00000340: 6a53 e23e 6e76 a1be 29c7 22bd b47d 95bc
00000350: 0e92 62be 4348 acbe 53ff 50be 1deb e33f
00000360: 0ca1 4bbd 0cb1 f43f fa74 403f a0b8 15bd
00000370: 582b 843d 4a94 09bf 6053 093c c8de e0bd
00000380: aabb 4d3d 9434 4abd 30c3 233e e808 09bf
00000390: 0c0f d6bc 0c6e 873e bf38 b6bd 782f 5ebc
000003a0: 8beb 09bd d38e 3b3f 8558 8ebe 459b 6a3f
000003b0: d7fd a93d 0458 a1bc de00 3cbe 0840 bbbc
000003c0: 4872 373d 24f7 4e3f cc47 953c 53f1 903f
000003d0: 2580 a2bd baf4 853e 234f 8abc c815 2e3d
000003e0: 5175 aebd cf46 99bd e4d2 203d 2428 e13f
000003f0: 00e6 1040 b318 9b3d cda6 f53f ffb5 863e

fc2.bias f4 [256]
0.87347656 2.4009314 -0.16165811 0.04218667 -0.04539425 -0.0107352715 2.318092 0.7296926
-0.0001774656 1.3979207 -0.041865557 -0.052802 0.41182974 -0.08110105 1.0634125 -0.041669253
0.4709104 0.5298822 1.6740844 1.0053273 0.012805361 0.19586314 0.30609205 0.024706375
0.3806974 0.3940744 2.0184796 -0.018470265 -0.045274273 2.604161 -0.04422217 0.41467288
0.6724156 0.62251896 -0.052355252 0.044160698 2.2914348 0.81715065 0.020556115 0.72815895
1.2266331 0.056996956 0.72788787 0.5362569 0.39709103 1.1943069 -0.05858234 -0.0431567
0.51853865 0.049093034 0.029391559 0.21368851 0.42986038 0.28597212 -0.02727519 0.022947773
0.5255973 -0.05198804 0.03666097 1.7145118 -0.13408089 -0.42711312 -0.1229588 0.6479052
-0.014957126 0.010665152 0.014807832 0.052372146 0.97251534 1.7051787 0.5472027 -0.038344383
3.3053143 0.6360458 -3.340545e-05 1.0263671 -0.040671587 1.573815 0.01443639 0.013994854
-0.019205965 0.8207936 0.0010700971 2.6476066 1.493067 -0.008282167 0.051673923 0.62460536
0.31378895 1.9701123 0.40193325 0.027440827 0.20318519 -0.06948705 0.021244332 -0.01185437
0.17260724 0.5140007 1.4465909 -0.029106237 0.5033561 -0.1341227 0.704952 1.3524134
-0.06037505 -0.031089462 0.68738383 1.7361163 0.45027357 0.582978 0.8102801 0.47649866
-0.002824861 0.9028607 0.8118486 -0.35370815 -0.004266705 0.021935912 0.120551296 0.007359311
-0.0025324372 1.3051615 0.028070947 -0.011730949 -0.00424321 1.8823302 0.55641145 2.4139435
0.006769821 0.3470338 1.0254428 0.17954631 0.6605461 -0.04581266 -0.05243284 -0.056468632
0.25161627 -0.067260645 -0.24357457 1.047879 0.3591553 0.8334378 -0.32272652 -0.0073801847
0.56238097 0.0015817333 0.7713296 -0.037683595 1.1842092 -0.010194694 -0.05242385 -0.012177354
0.58903354 2.260831 -0.15288092 0.04161091 0.97774076 -0.02859252 -0.3233398 1.7285305
0.56775266 -0.021084458 -0.020500105 0.4601799 1.4421161 -0.039403908 0.3293066 -0.0015674159
0.038626064 -0.024326734 0.58179325 0.023695204 0.010746136 0.5267938 -0.116765134 0.058394093
0.030153187 0.030418914 0.47903314 1.1028925 0.45469606 0.6976663 0.416122 0.6089295
0.38560826 0.039454482 0.638982 2.1734805 1.723583 0.6214076 -0.043623388 2.5749002
0.7623957 -0.014314623 0.65162015 0.31368363 2.2429426 -0.008618317 1.1189591 -0.033134628
1.658528 0.0366777 -0.039669953 0.010505729 0.24388741 0.5292159 0.7345915 0.005511947
0.5099711 0.02490051 0.7687413 -0.06453605 1.2956246 0.57272494 0.21782812 0.35568804
0.8040887 -0.051283717 -0.029603034 -0.030491307 0.4437866 -0.21714382 2.101056 -0.05530719
0.6244717 0.3585253 1.8388673 2.7664113 0.36163834 0.9454012 2.605196 0.35347888
2.1403832 0.22240719 0.022281304 1.9961023 -0.2095676 -0.009268249 0.67222905 -0.061863504
-0.023720367 0.6930534 0.5198635 -0.043887313 0.5109069 0.98245555 -0.051980067 0.046644032
0.38179415 -0.028905496 0.41602176 0.7029399 0.52364415 0.6994724 0.44069698 0.6829934
00000000: 299c 5f3f dca8 1940 b489 25be eecb 2c3d
00000010: 52ef 39bd fee2 2fbc 9f5b 1440 22cd 3a3f
00000020: 0f16 3ab9 11ef b23f 387b 2bbd e946 58bd
00000030: 59db d23e 4f18 a6bd e71d 883f 61ad 2abd
00000040: 2b1b f13e 5ca6 073f 6648 d63f 91ae 803f
00000050: 94cd 513c 5990 483e 19b8 9c3e 0665 ca3c
00000060: c5ea c23e 1fc4 c93e c52e 0140 f44e 97bc
00000070: 8471 39bd 93aa 2640 4e22 35bd 0150 d43e
00000080: 6e23 2c3f 675d 1f3f 7672 56bd d9e1 343d
00000090: dea6 1240 c930 513f 4c65 a83c a068 3a3f
000000a0: 5002 9d3f a475 693d dc56 3a3f 2248 093f
000000b0: 844f cb3e 0cdf 983f 09f4 6fbd 14c5 30bd
000000c0: f3be 043f c715 493d 91c6 f03c 29d1 5a3e
000000d0: a916 dc3e f06a 923e 3870 dfbc f8fc bb3c
000000e0: 8b8d 063f 69f1 54bd d029 163d 1f75 db3f
000000f0: 804c 09be 92ae dabe d3d1 fbbd 1ddd 253f
00000100: bc0e 75bc e4bc 2e3c 8d9c 723c 2d84 563d
00000110: c4f6 783f 4c43 da3f 7a15 0c3f 000f 1dbd
00000120: 458a 5340 e6d3 223f d41c 0cb8 ff5f 833f
00000130: 4097 26bd c572 c93f 9c86 6c3c ac4a 653c
00000140: d455 9dbc 881f 523f 8042 8c3a 6372 2940
00000150: d21c bf3f edb1 07bc 09a8 533d 23e6 1f3f
00000160: f2a8 a03e a42c fc3f 32ca cd3e 96cb e03c
00000170: c70f 503e 3a4f 8ebd 9808 ae3c d538 42bc
00000180: f4bf 303e 8d95 033f e429 b93f 3470 eebc
00000190: f2db 003f 7657 09be bc77 343f e21b ad3f
000001a0: d44b 77bd 54af febc 63f8 2f3f 0f39 de3f
000001b0: 428a e63e 0c3e 153f 846e 4f3f a2f7 f33e
000001c0: 4e21 39bb e121 673f 4fd5 4f3f 3c19 b5be
000001d0: b7cf 8bbb f1b2 b33c 99e3 f63d 6026 f13b
000001e0: 3ff7 25bb 880f a73f 0bf5 e53c 2b33 40bc
000001f0: a00a 8bbb 32f0 f03f fb70 0e3f 0d7e 1a40
00000200: 60d5 dd3b 6aae b13e b641 833f fdda 373e
00000210: 8d19 293f 0ea6 3bbd d1c3 56bd a74b 67bd
00000220: d9d3 803e f3bf 89bd 9d6b 79be e620 863f
00000230: 34e3 b73e 2e5c 553f 693c a5be 7ad5 f1bb
00000240: 33f8 0f3f 2a52 cf3a db75 453f 1d5a 1abd
00000250: 2b94 973f a507 27bc 64ba 56bd 8683 47bc
00000260: e7ca 163f 75b1 1040 d18c 1cbe 3470 2a3d
00000270: 384d 7a3f dc3a eabc cb8c a5be 7d40 dd3f
00000280: 3d58 113f 50b9 acbc d6ef a7bc b39c eb3e
00000290: 4397 b83f fe65 21bd e09a a83e c071 cdba
000002a0: 5d36 1e3d dc48 c7bc 67f0 143f 721c c23c
000002b0: 9010 303c f5db 063f 8f22 efbd a52e 6f3d
000002c0: d103 f73c 1631 f93c d543 f53e 952b 8d3f
000002d0: eccd e83e 429a 323f f10d d53e cee2 1b3f
000002e0: 726e c53e 069b 213d 5394 233f 4e1a 0b40
000002f0: 5e9e dc3f 9214 1f3f 70ae 32bd 2acb 2440
00000300: 5d2c 433f e187 6abc 94d0 263f 249b a03e
00000310: 5f8c 0f40 d733 0dbc 0d3a 8f3f 2db8 07bd
00000320: a54a d43f 5b3b 163d f67c 22bd 3920 2c3c
00000330: 9fbd 793e b17a 073f 300e 3c3f 909d b43b
00000340: 778d 023f 28fc cb3c 3bcc 443f 7a2b 84bd
00000350: 07d7 a53f 1a9e 123f 560e 5f3e be1c b63e
00000360: c2d8 4d3f e00e 52bd 1082 f2bc e8c8 f9bc
00000370: ff37 e33e f35a 5ebe b477 0640 cb89 62bd
00000380: 61dd 1f3f a190 b73e 0160 eb3f e20c 3140
00000390: a928 b93e d005 723f 88bb 2640 2ffb b43e
000003a0: 0afc 0840 b6be 633e 4887 b63c 4880 ff3f
000003b0: e498 56be dbd9 17bc 3417 2c3f 9664 7dbd
000003c0: 3751 c2bc f36b 313f c615 053f 2fc3 33bd
000003d0: cbca 023f 3582 7b3f 0de9 54bd d00d 3f3d
000003e0: 867a c33e 38cb ecbc ce00 d53e dff3 333f
000003f0: 8b0d 063f a010 333f 09a3 e13e a8d8 2e3f

fc3.weight f4 [81, 256]
0.07359952 0.07327035 -0.04625266 0.043681033 0.042811863 -0.057022475 0.05626501 0.033722628
-0.014456729 -0.0112469 0.022403315 0.022066236 0.3409453 0.045265324 0.064526185 0.004669404
0.26288575 0.037679367 -0.01782531 -0.09397882 0.014646806 -0.29473466 0.043360136 0.037377305
-0.017225454 0.031053381 0.030771937 -0.03883083 0.011254832 -0.039150763 -0.00121589 0.51940405
0.0397159 0.091950275 -0.04630987 -0.0018363359 -0.021929128 0.018952673 -0.019701451 0.001297974
-0.097952865 -0.029986486 -0.025938546 0.040503677 0.020375999 -0.012408022 -0.014530331 -0.028696947
0.060649235 0.035638258 -0.012787357 0.103736036 0.005558298 0.42317176 -0.046994135 0.040161118
0.0507406 0.0015059635 -0.048312567 0.060710926 -0.057604812 -0.20412265 -0.0958625 0.015433753
-0.048887357 -0.03940638 -0.051922165 0.018986411 -0.06889455 -0.044611383 0.07678932 0.042342126
-0.08884684 0.08389437 0.039441343 0.045045014 -0.012140401 0.020254733 0.051612422 -0.009513706
-0.0016528592 0.010901476 0.058790475 -0.013405768 0.025242426 0.015023589 0.04168634 -0.010831821
0.051046547 0.081676036 0.08209201 -0.047824003 -0.006573432 -0.44562817 -0.018576927 0.027718924
-0.024605013 0.1681909 0.02827995 -0.010898791 0.0071467557 -0.0050674723 0.02972668 -0.04074315
0.0475696 0.049383305 0.08475444 0.004294052 0.00730605 -0.11411276 0.0707994 -0.03655409
-0.023998111 0.1209257 0.07137307 -0.1953565 0.056642838 0.039104342 0.3993568 0.029797815
-0.046717953 -0.015428786 0.048312806 0.03204499 0.04118231 -0.083568715 0.1035787 -0.0043560565
0.008407399 0.19990556 -0.028634578 -0.0006184132 -0.014344534 0.0001989156 0.009390749 -0.02053838
0.3515428 0.02182863 -0.19541842 0.13447025 0.6438801 0.071725085 -0.22765827 -0.006473109
-0.00109927 -0.036505423 -0.21000934 -0.049085014 0.017194051 0.03611009 0.035315037 -0.033375345
0.010829789 -0.017307838 -0.10800594 -0.03791607 0.039390497 0.008541778 -0.0681637 -0.09265028
0.0532688 -0.06118428 -0.010716401 -0.032596495 -0.030716844 -0.010145344 0.037778154 0.012013681
-0.054842718 -0.05703126 0.068079636 0.01713913 0.01561781 0.012755476 -0.12484223 -0.02004079
0.04003214 0.03944333 -0.04236953 -0.045098912 0.07849399 0.016652135 0.0631752 0.118525416
-0.0629756 0.053018816 0.022668336 -0.041648984 0.063145846 0.008697645 0.02828449 0.0007450882
-0.01838153 -0.20891179 0.01101538 -0.011721249 0.009719053 -0.0018850864 0.07530645 -0.015875451
-0.03313185 -0.046387263 0.05126618 -0.049174197 -0.030320646 0.07287487 0.0015690855 0.0263507
0.112537146 0.005543366 0.050482746 -0.058663167 -0.081870645 0.08389961 0.03236892 0.06518765
0.03211568 0.014155642 -0.061587516 -0.03309843 0.3589731 -0.17230074 0.017762925 0.056255247
0.07994471 -0.03389921 0.09652606 -0.00876844 0.6012719 0.033139672 0.063556895 0.04560049
-0.02982185 0.050739985 -0.047868937 0.094404854 -0.006602301 0.049860712 -0.043286234 -0.02085504
0.061129548 0.013753819 0.1043129 -0.053788476 0.063509 0.047627203 -0.05656004 0.009453528
0.045725152 0.037865035 0.03586698 0.05635147 0.08658971 -0.013080997 0.15645175 0.065765284
00000000: 58bb 963d c40e 963d 6e73 3dbd e2ea 323d
00000010: 7e5b 2f3d 6690 69bd 2476 663d bd20 0a3d
00000020: ebdb 6cbc eb44 38bc 2887 b73c 40c4 b43c
00000030: 6290 ae3e 2268 393d 4e26 843d cd01 993b
00000040: f698 863e ae55 1a3d 6206 92bc f877 c0bd
00000050: 28f9 6f3c 76e7 96be 669a 313d f218 193d
00000060: 651c 8dbc a963 fe3c 6e15 fc3c 140d 1fbd
00000070: 3066 383c 8d5c 20bd 805e 9fba aaf7 043f
00000080: 24ad 223d 6d50 bc3d 6baf 3dbd 35b1 f0ba
00000090: b7a4 b3bc a342 9b3c f064 a1bc c820 aa3a
000000a0: 839b c8bd 38a6 f5bc 137d d4bc 2fe7 253d
000000b0: 91eb a63c 044b 4bbc a010 6ebc dc15 ebbc
000000c0: 556b 783d 6cf9 113d 1082 51bc 8f73 d43d
000000d0: 6222 b63b f8a9 d83e ec7c 40bd fc7f 243d
000000e0: 60d5 4f3d c063 c53a 66e3 45bd 05ac 783d
000000f0: 06f3 6bbd 8705 51be 8f53 c4bd dadd 7c3c
00000100: 1c3e 48bd 9668 21bd 56ac 54bd 6489 9b3c
00000110: 9618 8dbd 6dba 36bd b843 9d3d f06e 2d3d
00000120: 55f5 b5bd d0d0 ab3d 3f8d 213d 1f81 383d
00000130: 88e8 46bc 41ed a53c 8c67 533d 60df 1bbc
00000140: c0a4 d8ba 1b9c 323c 48ce 703d dea3 5bbc
00000150: 34c9 ce3c 8025 763c 4cbf 2a3d f377 31bc
00000160: 2f16 513d c445 a73d db1f a83d 1ae3 43bd
00000170: f265 d7bb 6029 e4be a42e 98bc cc12 e33c
00000180: 7490 c9bc 3c3a 2c3e 5bab e73c d890 32bc
00000190: 552f ea3b 0a0d a6bb 5e85 f33c 4ae2 26bd
000001a0: 57d8 423d 2646 4a3d bc93 ad3d 1eb5 8c3b
000001b0: 9767 ef3b f3b3 e9bd 47ff 903d beb9 15bd
000001c0: b097 c4bc e5a7 f73d 0b2c 923d 890b 48be
000001d0: 5202 683d e02b 203d 7f78 cc3e 8c1a f43c
000001e0: 535b 3fbd 05c9 7cbc a6e3 453d 9c41 033d
000001f0: c8ae 283d 1326 abbd 1221 d43d 40bd 8ebb
00000200: 30bf 093c 0bb4 4c3e 1093 eabc 021d 22ba
00000210: 5605 6bbc 0094 5039 a8db 193c 1b40 a8bc
00000220: 6bfd b33e f4d1 b23c c41b 48be 92b2 093e
00000230: 54d5 243f 9ae4 923d 401f 69be 601c d4bb
00000240: 6115 90ba b686 15bd b00c 57be 5e0d 49bd
00000250: 8ada 8c3c 2ce8 133d 80a6 103d 96b4 08bd
00000260: 6d6f 313c 2bc9 8dbc 3832 ddbd e24d 1bbd
00000270: ee57 213d d0f2 0b3c 6999 8bbd 6ebf bdbd
00000280: 6330 5a3d 5e9c 7abd d893 2fbc e783 05bd
00000290: e4a1 fbbc a838 26bc 44bd 1a3d 08d5 443c
000002a0: c2a2 60bd 9c99 69bd 566d 8b3d 5c67 8c3c
000002b0: d8e1 7f3c 58fc 503c 48ad ffbd 952c a4bc
000002c0: bef8 233d 548f 213d ac8b 2dbd a3b9 38bd
000002d0: 75c1 a03d 0f6a 883c 0062 813d 74bd f23d
000002e0: 5af9 80bd 422a 593d f2b2 b93c 2098 2abd
000002f0: 9c52 813d 9180 0e3c e0b4 e73c 0652 433a
00000300: dd94 96bc f9ec 55be da79 343c 7b0a 40bc
00000310: aa3c 1f3c 0115 f7ba 453a 9a3d 3c0d 82bc
00000320: 43b5 07bd 9200 3ebd 7cfc 513d e26a 49bd
00000330: 0163 f8bc 6b3f 953d c6a9 cd3a 6cdd d73c
00000340: e079 e63d 20a5 b53b ffc6 4e3d ca48 70bd
00000350: ccab a7bd 8fd3 ab3d 4695 043d 1a81 853d
00000360: bb8b 033d 11ed 673c 3143 7cbd 3892 07bd
00000370: 52cb b73e 9b6f 30be 8e83 913c e76b 663d
00000380: 0dba a33d e6d9 0abd 74af c53d 81a9 0fbc
00000390: f5ec 193f 77bd 073d 1e2a 823d 94c7 3a3d
000003a0: f44c f4bc bbd4 4f3d 3812 44bd 5557 c13d
000003b0: 1d58 d8bb bf3a 4c3d e84c 31bd 30d8 aabc
000003c0: fa62 7a3d b357 613c 00a2 d53d 4e51 5cbd
000003d0: 0211 823d be14 433d 80ab 67bd f8e2 1a3c
000003e0: 4c4a 3b3d 5e18 1b3d 41e9 123d cdd0 663d
000003f0: f255 b13d ae51 56bc e334 203e f3af 863d

fc3.bias f4 [81]
0.5708026 0.40205804 0.40132606 0.2226322 0.20271057 0.60690224 0.014012468 -0.058871854
0.5115768 0.40457737 0.23205109 0.8697125 0.40367168 0.058596864 0.17240462 0.46728176
0.37818423 0.65257484 0.44325694 -0.42841548 0.48147485 0.3097583 0.54252297 0.47862783
0.06685417 0.46939382 0.3987208 0.20392276 0.8029594 0.26632574 0.77025014 0.27237728
0.26125106 0.31527522 0.15819706 0.24093138 0.84041274 0.431767 0.577372 0.39225787
0.7139282 -0.08771047 0.2698789 0.27500305 0.10613703 0.37135297 1.2064565 0.39086708
0.36064783 0.32388288 0.71920055 0.6342509 0.38477537 0.32311735 0.5650218 0.014556081
-0.2985672 0.5449275 0.22081031 0.48343796 0.2551309 0.20710565 0.40332478 0.5202438
0.72455245 -0.34523508 0.4330342 0.055084735 -0.1149855 0.69250846 0.24266025 0.21073814
0.29386094 0.5211494 0.45594358 0.17342608 0.4410149 0.76730716 0.35555795 0.17424953
0.21900775
00000000: 1f20 123f 8dda cd3e 9c7a cd3e b2f9 633e
00000010: 5c93 4f3e f25d 1b3f 8d94 653c 9d23 71bd
00000020: b2f6 023f c424 cf3e cd9e 6d3e 7aa5 5e3f
00000030: 0eae ce3e 4403 703d d68a 303e 8e3f ef3e
00000040: 5da1 c13e 250f 273f 93f2 e23e 4659 dbbe
00000050: df83 f63e a498 9e3e c9e2 0a3f b50e f53e
00000060: d7ea 883d 6354 f03e 2225 cc3e 21d1 503e
00000070: bf8e 4d3f d95b 883e 1d2f 453f 0975 8b3e
00000080: b3c2 853e c16b a13e 69fe 213e b7b6 763e
00000090: 4a25 573f 9010 dd3e a7ce 133f 06d6 c83e
000000a0: 00c4 363f 8ca1 b3bd 912d 8a3e 33cd 8c3e
000000b0: 5f5e d93d fa21 be3e 2b6d 9a3f bb1f c83e
000000c0: d5a6 b83e fad3 a53e 871d 383f 445e 223f
000000d0: 4701 c53e a36f a53e 45a5 103f a17c 6e3c
000000e0: cddd 98be 5e80 0b3f 191c 623e 2e85 f73e
000000f0: 84a0 823e 8113 543e 9680 ce3e b32e 053f
00000100: 457c 393f a7c2 b0be a9b6 dd3e 88a0 613d
00000110: 857d ebbd 3c48 313f ee7b 783e bdcb 573e
00000120: f174 963e 0c6a 053f 7071 e93e 9b96 313e
00000130: b4cc e13e 3e6e 443f b10b b63e 786e 323e
00000140: 9143 603e
