code/outputs/dr_comparison/mix_mode/models/dqn_checkpoint.pth (torch, 354981 bytes, 6 tensors)

fc1.weight f4 [256, 5]
0	0xbee30ea0	-0.44347095
1	0xbf528906	-0.8224033
2	0x3decc541	0.11561061
3	0xbe94da09	-0.29072598
4	0x3ed97439	0.42471483
5	0x3de8c4fb	0.11365696
6	0xbc3f67aa	-0.01168243
7	0x3fd82ead	1.6889244
8	0x3f4399d4	0.764066
9	0x3f29fc6b	0.66400784
10	0x3ec0f9ad	0.37690488
11	0x3e63a95b	0.22232573
12	0xbf14c94e	-0.58119667
13	0x3f0f1b78	0.5590129
14	0x3f8abdda	1.0839188
15	0xbe8d8f99	-0.2764862
16	0xbece9902	-0.4035111
17	0xbe0d0b33	-0.13773803
18	0xbeab4395	-0.33449998
19	0x3e87792d	0.26459637
20	0x3e233862	0.15939477
21	0x3eed0306	0.4629137
22	0x400baf82	2.1825871
23	0x3f906a14	1.1282372
24	0x40180656	2.3753867
25	0xbd2304cb	-0.039799493
26	0x3e50c2ee	0.2038686
27	0x3fa9a0b6	1.325217
28	0x3fb8e21d	1.4444004
29	0x3fe32b94	1.7747674
30	0x3e148b8d	0.1450636
31	0x3f411ea9	0.7543741
32	0x3f9b92c4	1.2154164
33	0x3fcd6bdc	1.6048541
34	0x40478389	3.1174033
35	0xbe5bf88e	-0.21481535
36	0x3e3ec07f	0.18628119
37	0x3fda58ef	1.705839
38	0x3f81f92f	1.015417
39	0x3f1e1617	0.61752456
40	0xbb7d9028	-0.003869066
41	0xbe15ef36	-0.14642033
42	0x3ed2fe43	0.4120961
43	0xbec0bab0	-0.3764243
44	0x3d7d52e4	0.06184663
45	0xbdafb185	-0.08578781
46	0x3f04737c	0.51738715
47	0x3f01c0db	0.506849
48	0x3f6aa693	0.9166042
49	0xbe413044	-0.18866068
50	0x3e638c64	0.22221524
51	0xbe2bd3a5	-0.16779955
52	0x3f67da1b	0.9056718
53	0x3f803116	1.001498
54	0x3f0cfc00	0.5507202
55	0xbe80f543	-0.2518712
56	0xbeccb256	-0.3997981
57	0xbe7ab5f4	-0.24483472
58	0xbda659ac	-0.08122572
59	0x3e17339c	0.14765781
60	0xbc384934	-0.011247922
61	0x3bfbe06b	0.007686665
62	0x3fcb792b	1.5896353
63	0x3ebbc739	0.36675432
64	0x3f11d6df	0.5696849
65	0x3ec832cc	0.39101255
66	0x3e9e87a7	0.3096287
67	0xbf58aeaa	-0.84641516
68	0xbf2bcaeb	-0.67106503
69	0x3f235a11	0.63809305
70	0x3e440529	0.19142593
71	0xbdeb35ae	-0.11484848
72	0x3f848f4a	1.0356228
73	0xbd662d7b	-0.056195717
74	0x3f37a977	0.7174296
75	0x3da31f95	0.07965008
76	0x3cf1c2f7	0.029511912
77	0x3f46d1f8	0.77664137
78	0x3f3ce0ff	0.73780817
79	0xbf9dcfdf	-1.2329062
80	0x3f01f596	0.5076536
81	0x3f1b01e1	0.6054974
82	0x3fdad7a2	1.7097056
83	0x3fb85537	1.4401006
84	0x4027ef4f	2.6239812
85	0x3e3c144e	0.1836712
86	0xbea15e44	-0.3151723
87	0x3f39f470	0.7263861
88	0xbe0aac70	-0.13542342
89	0x3e380f91	0.17974688
90	0xbe99fd76	-0.30076188
91	0x3e7fb081	0.24969675
92	0x3fa37ab5	1.2771822
93	0x3f266477	0.6499705
94	0xbfc2c479	-1.5216209
95	0x3f10cd7b	0.5656354
96	0xbe718e61	-0.2358947
97	0x3f39a804	0.72521996
98	0x3e9306b9	0.28716066
99	0xbe3b8682	-0.1831303
100	0x3ec9a28d	0.3938183
101	0xbd813b1d	-0.06310103
102	0xbf8b2b85	-1.0872656
103	0xbf9fd79d	-1.2487675
104	0xbe52c122	-0.20581487
105	0xbe59f91a	-0.21286431
106	0x3e5e702b	0.21722476
107	0x3f8f4004	1.1191411
108	0x3efc5380	0.49282455
109	0xbfb86cbd	-1.4408184
110	0x3d8c81c3	0.068606876
111	0xbcab5783	-0.020915752
112	0x3fc49cc7	1.5360345
113	0x3e2b6307	0.16736995
114	0x3eaf9d9b	0.3429993
115	0x3e2e6352	0.17030075
116	0xbe26dfe2	-0.16296342
117	0xbf19c6fd	-0.6006926
118	0xbf3f3532	-0.74690545
119	0x3ca24171	0.019806596
120	0xbe08e2ca	-0.13367763
121	0x3ee0c71a	0.43901902
122	0x40086cfa	2.1316514
123	0x3f7d68f3	0.98988265
124	0x400cce25	2.200082
125	0x3e8835e3	0.26603612
126	0x3ec47d5a	0.38376886
127	0xbec410ec	-0.3829416
128	0x3f034c65	0.51288444
129	0x3f215952	0.63026917
130	0xbc801cbe	-0.015638705
131	0xbecf7049	-0.40515354
132	0x3ed3d3e0	0.41372585
133	0x3e603181	0.21893884
134	0xbe850380	-0.25979233
135	0xbebea558	-0.37235522
136	0xbed24452	-0.4106775
137	0xbe90d70a	-0.28289062
138	0xbe1b0abb	-0.15140812
139	0x3d9d2f6c	0.07675061
140	0xbe6f0232	-0.23340681
141	0x3e58f8b1	0.21188618
142	0x3f9dfc4a	1.2342618
143	0x3e9330a7	0.28748056
144	0xbfbd19fd	-1.4773556
145	0xbd4fb85b	-0.050712924
146	0x3eb36d32	0.35044247
147	0x3e605eb5	0.21911128
148	0xbe972aad	-0.29524747
149	0xbf51cf92	-0.8195735
150	0x3f26a486	0.6509479
151	0xbe9d8e0d	-0.3077244
152	0x3f113f43	0.56737155
153	0x3f3485fe	0.70516956
154	0x3e69749e	0.22798392
155	0xbdda9b7f	-0.1067419
156	0x3c398ac2	0.011324586
157	0x3f902c0d	1.1263443
158	0x3f557f01	0.8339692
159	0x3e5189cd	0.20462723
160	0xbe1a74c4	-0.15083605
161	0xbe59877a	-0.21243086
162	0x3e3b4116	0.18286547
163	0xbec9cbeb	-0.3941339
164	0xbda2bd77	-0.07946294
165	0xbe327c8a	-0.1743032
166	0x3e35b6d7	0.17745529
167	0x3f98859c	1.1915774
168	0x3eea7773	0.45794258
169	0xbfa5f686	-1.2965858
170	0x3ef37a85	0.47554412
171	0x3ee85e0f	0.4538426
172	0xbf856e7b	-1.0424341
173	0xbf72929b	-0.9475495
174	0x3f037208	0.5134587
175	0x3e1dc142	0.15405753
176	0xbc9e3c96	-0.019315999
177	0x3f5ac819	0.85461575
178	0x3f55ed6f	0.8356542
179	0x3f5acc99	0.8546844
180	0x3e4904bb	0.19630711
181	0xbcc2f6f3	-0.023799395
182	0xbf8cb9f0	-1.0994244
183	0xbf875b14	-1.057467
184	0xbf15b172	-0.58473885
185	0xbd477198	-0.048692316
186	0xbee1bb4b	-0.44088206
187	0x3e783304	0.24238211
188	0xbe1ab828	-0.15109313
189	0xbe83afa0	-0.2571993
190	0xbcb93d52	-0.022612248
191	0xbd6174fb	-0.055043202
192	0x3ecd2423	0.40066633
193	0x3ef80af9	0.4844587
194	0x3da20879	0.07911772
195	0x3e568d43	0.20952325
196	0x3edce075	0.43139997
197	0xbd28e924	-0.041237965
198	0xbe91af59	-0.28454092
199	0x3f02a304	0.5102999
200	0x3e3f2421	0.18666126
201	0xbe480e0e	-0.19536611
202	0x3fcfeb2f	1.6243647
203	0x3f893df6	1.0722034
204	0x3dc1b014	0.09457412
205	0xbf086854	-0.5328419
206	0x3df1367e	0.11777972
207	0x3e4333d0	0.19062734
208	0x3f43cc93	0.7648403
209	0xbe41d139	-0.18927468
210	0xbe1a7682	-0.1508427
211	0x3d883a0d	0.06651697
212	0x3fb4282c	1.407476
213	0x3f4ff5e9	0.81234604
214	0xba94ed04	-0.001136214
215	0x3ca226cd	0.019793892
216	0xbc7dcc30	-0.015490577
217	0x3fc2df26	1.522435
218	0x3f027172	0.50954354
219	0xbfa8fb52	-1.3201697
220	0xbf008d98	-0.50216055
221	0xbea14a17	-0.3150184
222	0xbf1ab06f	-0.60425466
223	0xbf679b3f	-0.9047126
224	0x3fa1034c	1.2579131
225	0xbe310101	-0.17285539
226	0x3e2dc27f	0.16968726
227	0x3f991246	1.1958702
228	0x3ebb391b	0.36567006
229	0xbfa403d3	-1.2813667
230	0xbdbc59f8	-0.09196848
231	0x3dabeda0	0.08394933
232	0x3f80df9b	1.0068239
233	0x3ebd554e	0.36979145
234	0xc0014c59	-2.020285
235	0xbeeafe83	-0.45897302
236	0x3e2e67cf	0.17031787
237	0xbd880b80	-0.066428185
238	0x3ec1f336	0.37880868
239	0x3f818682	1.0119174
240	0xbe0efe9c	-0.13964313
241	0x3d804b5c	0.06264374
242	0x3f98976c	1.192121
243	0x3f6bdd0c	0.92134166
244	0x3f81168d	1.0085007
245	0x3dc86ed2	0.09786762
246	0xbfad5ea7	-1.3544511
247	0x3f058fbe	0.5217246
248	0xbf52828f	-0.82230467
249	0x402356bb	2.5521686
250	0x3e406b82	0.18791011
251	0xbfc176a0	-1.5114326
252	0x3f2d27a3	0.67638606
253	0xbedd6459	-0.43240622
254	0x4028207f	2.6269834
255	0x3e2ec0d1	0.17065741

fc1.bias f4 [256]
0	0x3f791132	0.9729186
1	0x40061dd9	2.0955718
2	0xbf4c4242	-0.797886
3	0xbe4dcec2	-0.20098403
4	0x405125ae	3.2679248
5	0x40560434	3.3440065
6	0x4088aaaa	4.270833
7	0x40074554	2.1136065
8	0xbe4c24f6	-0.19935974
9	0x3e0cf103	0.13763814
10	0x3fcbb8e9	1.5915805
11	0xbddd2905	-0.107988395
12	0x4015860b	2.3363063
13	0xbf522525	-0.8208793
14	0x3fab0624	1.3361249
15	0x3e6ff7a2	0.23434308
16	0x40676c59	3.615988
17	0x400f327b	2.237456
18	0x3e63db45	0.22251613
19	0x3f93645b	1.1515001
20	0xbf4398f5	-0.7640527
21	0x3e8ade5c	0.27122772
22	0x4016d9ac	2.3570356
23	0xbf8b1c57	-1.0868024
24	0x40607cc5	3.5076153
25	0xbf00ac09	-0.50262505
26	0xbd8b5a5e	-0.068043455
27	0xbdc25cc8	-0.09490353
28	0x3f19c232	0.60061944
29	0xbe5d81ac	-0.21631497
30	0xbe1c8f3b	-0.15289013
31	0x401e9137	2.4776132
32	0x3cb720b8	0.022354469
33	0x3ea3d8c2	0.3200131
34	0xbf7b12a9	-0.9807535
35	0x40114d94	2.27036
36	0xbf3cc7ae	-0.7374219
37	0xbdb6495e	-0.089007124
38	0x3f4ec8ec	0.8077533
39	0xbf0b277f	-0.5435714
40	0x3fcf4463	1.6192745
41	0x3e0dc4be	0.13844582
42	0x400b5d2d	2.177562
43	0x3e4d2037	0.2003182
44	0x3ffb504f	1.9633883
45	0x3ebd88b4	0.3701836
46	0x3ea1b0ae	0.31580108
47	0x3daa84f6	0.083261415
48	0x40248764	2.5707636
49	0x40552482	3.3303533
50	0x40538ff6	3.3056617
51	0xbdeb2521	-0.11481691
52	0x40218136	2.5235114
53	0x404b1f98	3.1738033
54	0x4013ef24	2.311471
55	0x40023496	2.0344596
56	0x40217d6f	2.5232809
57	0x40567ae6	3.3512511
58	0x3fdff417	1.7496365
59	0xbf99ef13	-1.2026085
60	0x3e815152	0.25257355
61	0x4021cb12	2.5280194
62	0xbe6f39e0	-0.23361921
63	0x406d8f33	3.7118652
64	0x3e1bf3a5	0.15229662
65	0xbf853f27	-1.0409898
66	0xbe9808c8	-0.296942
67	0xbf20e3d4	-0.6284764
68	0xbd7ef00e	-0.062240653
69	0x3f6b4447	0.9190106
70	0x3c86821b	0.016419461
71	0x401768c3	2.3657691
72	0xbe696f00	-0.2279625
73	0xbfa0a4ee	-1.2550333
74	0x3eb10723	0.34575757
75	0xbd8c1b2f	-0.06841122
76	0x3dd33ba4	0.1031411
77	0x404ef2c9	3.2335684
78	0x3f1114a2	0.5667211
79	0xbe0e3d1f	-0.13890503
80	0x405fc6cf	3.4965093
81	0xbec9abb9	-0.39388826
82	0xbe7c4c84	-0.24638563
83	0x4011078e	2.266086
84	0x4025967d	2.58731
85	0x3fc6de1b	1.5536531
86	0x4022c0b8	2.5430126
87	0x3fdf48a2	1.7444041
88	0x3ff58f7c	1.9184413
89	0xbecb80e2	-0.39746767
90	0xbfc25c84	-1.5184484
91	0x3f78f606	0.972504
92	0x401c4e6c	2.4422865
93	0xbf9dfa61	-1.2342035
94	0x4053038c	3.2970915
95	0x4049140c	3.1418486
96	0x3fe9f9b5	1.827933
97	0x3edd6ef9	0.43248728
98	0xbe3b6a06	-0.18302163
99	0xbf68a878	-0.9088206
100	0x3d0078c1	0.03136516
101	0x401549bc	2.3326254
102	0xbe57d744	-0.21078211
103	0x3ee1688f	0.44025084
104	0x3ffce062	1.9755976
105	0x402a613b	2.6621845
106	0x40017736	2.022901
107	0x3f4d9692	0.8030788
108	0x4016155b	2.3450534
109	0x3fbce612	1.4757712
110	0xbe34131f	-0.17585419
111	0x40839c19	4.112805
112	0x3ff894d4	1.9420419
113	0xbf05c858	-0.52258825
114	0xbed547b1	-0.4165626
115	0x3f754c8b	0.9581992
116	0x40039530	2.0559807
117	0x3eb4eecf	0.35338446
118	0xbea49ae9	-0.32149437
119	0xbebeaa52	-0.3723932
120	0xbf4ddf9d	-0.8041933
121	0xbba222ca	-0.004947995
122	0xbf36381a	-0.71179354
123	0x401efbf1	2.4841273
124	0x3f99f717	1.2028531
125	0xbf951ce9	-1.1649448
126	0x3f94bfde	1.1621053
127	0xbf428dea	-0.75997794
128	0x40112035	2.2675908
129	0x407464d9	3.8186553
130	0xbf791566	-0.97298276
131	0x3f9df70c	1.2341018
132	0x40321ee5	2.7831357
133	0xbe21b354	-0.15791065
134	0xbf66c06e	-0.90137374
135	0x406209ec	3.5318556
136	0x3db56fc9	0.08859212
137	0x3da95757	0.08268612
138	0x3f589a69	0.8461061
139	0x3fdacd63	1.7093929
140	0x402f485d	2.7387917
141	0xbebc2b6c	-0.36751878
142	0xbdbc96ce	-0.09208451
143	0x3fe6afa0	1.8022346
144	0x4023fe56	2.5623984
145	0xbf5358d7	-0.82557434
146	0xbf30fc0b	-0.6913459
147	0x3bcbe908	0.006222848
148	0x3ec50399	0.38479307
149	0xbf829653	-1.0202125
150	0x3e952d6e	0.29136223
151	0xbf1a418f	-0.60256284
152	0xbefac5cf	-0.4897904
153	0x3fa02652	1.2511694
154	0x3c91ce92	0.017798696
155	0x401f9ac1	2.4938204
156	0xbf2c2b17	-0.6725325
157	0xbe3ba4fc	-0.18324655
158	0xbe5713c4	-0.21003634
159	0x400cf034	2.2021608
160	0x4039270b	2.893008
161	0xbd852305	-0.0650082
162	0x401394c1	2.3059542
163	0xbf908a2b	-1.1292166
164	0xbf928a2f	-1.144842
165	0xbd8cb1f1	-0.06869877
166	0x401384ba	2.304976
167	0x405467a6	3.3188262
168	0x4079e3cf	3.9045293
169	0xbf5a1e0a	-0.85202086
170	0x402f6811	2.7407267
171	0xbd8d9c1c	-0.06914541
172	0x3f6524d2	0.8950931
173	0xbeb5068f	-0.35356566
174	0xbf9d0633	-1.2267517
175	0xbe58951c	-0.2115063
176	0x3fca0104	1.578156
177	0x3f4b7206	0.7947086
178	0xbd9abe45	-0.07555822
179	0x3eb12143	0.3459569
180	0xbf5f2a4f	-0.8717393
181	0xbe4a2915	-0.19742234
182	0xbe92e450	-0.28689814
183	0x404adaf2	3.1696134
184	0x3e52e609	0.20595564
185	0x40074a87	2.1139238
186	0xbeca773f	-0.39544103
187	0xbece8230	-0.403337
188	0xbf5d344e	-0.86407936
189	0xbf523e68	-0.82126474
190	0x3ec65f21	0.38744453
191	0xbdd8d374	-0.105872065
192	0x3f2bac16	0.6705946
193	0x3ec19ed0	0.37816477
194	0x3f91f061	1.1401483
195	0x403c5a35	2.9430058
196	0xbf34ad19	-0.70576626
197	0x3ef2db6c	0.4743303
198	0xbe4cf76d	-0.2001626
199	0x406a561a	3.6615052
200	0xbeb86de7	-0.3602135
201	0xbe74d3d0	-0.23908925
202	0x3f106072	0.56397164
203	0xbee1f473	-0.44131812
204	0x40280fa6	2.625955
205	0x3ea7f0d5	0.32800928
206	0xbdb30258	-0.087406814
207	0xbf6f3cfa	-0.9345242
208	0x4025c5b4	2.5901918
209	0xbd8e612a	-0.06952126
210	0xbe73fa05	-0.23825844
211	0xbe1a3636	-0.15059742
212	0x3ee10d9c	0.43955696
213	0xbc46b29c	-0.012127545
214	0xbde3a4f6	-0.11115448
215	0x3f001ccd	0.50043947
216	0xbdd7c55d	-0.10535691
217	0xbdcb8d70	-0.099390864
218	0xbe2777e1	-0.16354324
219	0xbeb3a997	-0.35090324
220	0x3ff69c89	1.9266521
221	0xbdd861d7	-0.105655365
222	0x3ec77126	0.38953513
223	0x40372934	2.8618898
224	0xbf478c3f	-0.77948374
225	0x3f17d7a1	0.593134
226	0x3c9e1406	0.019296657
227	0x3f29a436	0.6626619
228	0x3f230ec5	0.6369441
229	0xbe694626	-0.22780666
230	0x3e08b3ca	0.13349834
231	0xbe9b9fd7	-0.30395386
232	0xbeab113e	-0.33411592
233	0x3f75c03d	0.9599646
234	0xbe629ec5	-0.22130878
235	0xbc9c0852	-0.019046936
236	0x3d4fe4ec	0.050755426
237	0x400f28e9	2.236872
238	0xbea57545	-0.32316032
239	0xbe2ef418	-0.17085302
240	0xbedb9972	-0.42890507
241	0xbf3af7be	-0.73034275
242	0xbee1120b	-0.43959078
243	0x3f0d40ee	0.551772
244	0xbf954971	-1.1663038
245	0xbe2a9b3b	-0.16660778
246	0x4038dbce	2.8884158
247	0xbf25be0a	-0.647431
248	0x407c732c	3.9445295
249	0xbed9171f	-0.42400452
250	0x401c96c7	2.4467027
251	0x3feac73a	1.8342049
252	0xbdf3ca11	-0.119037755
253	0xbe6dc4e7	-0.23219644
254	0xbf5e6c17	-0.8688368
255	0x4032aed5	2.791921

fc2.weight f4 [256, 256]
0	0x40481ea9	3.1268713
1	0x3fe95271	1.8228284
2	0xbe91c165	-0.2846786
3	0x408dd9c8	4.4328346
4	0x3d74c098	0.059753984
5	0x3dc809e5	0.09767512
6	0x3ded8309	0.115972586
7	0x3f02141e	0.50811946
8	0x3c300dd0	0.010745481
9	0xbd97c160	-0.0740993
10	0x3effd76b	0.49969038
11	0x408b6962	4.356614
12	0x3e5d6249	0.21619524
13	0xbdbf1ac9	-0.09331281
14	0x3f144d81	0.5793076
15	0xbe3e36b6	-0.18575558
16	0x3e2c8db2	0.16850927
17	0x3fc9bd15	1.5760828
18	0xbc395c02	-0.01131344
19	0x3f7a7022	0.9782735
20	0x3eac6ca3	0.33676633
21	0x3e882163	0.26587972
22	0x3e823e91	0.2543836
23	0xbec174b1	-0.3778434
24	0x3ebdd6b1	0.3707786
25	0xbe47c795	-0.19509728
26	0x3b12d0e0	0.0022402331
27	0x408682b8	4.203457
28	0xbcddc686	-0.027072202
29	0xbe0e67dd	-0.13906808
30	0x3ed03cb7	0.40671322
31	0x3e985f6d	0.29760304
32	0x40853e24	4.1638355
33	0x3e8c82d0	0.27443552
34	0xbe9e8664	-0.30961907
35	0x3df7654c	0.12079868
36	0x3dacd41a	0.08438893
37	0x3d349366	0.044085883
38	0x4000db40	2.013382
39	0xbe071e0d	-0.13195057
40	0x40050528	2.0784397
41	0x3f903f6e	1.1269357
42	0x3f08bac6	0.53409994
43	0x3ea4274c	0.3206123
44	0x3fe1e5b0	1.764822
45	0x3ea96001	0.33081058
46	0x3dda571c	0.10661146
47	0x3e376ef3	0.17913418
48	0x3e5ea185	0.21741302
49	0x4077d290	3.8722267
50	0x40710dad	3.7664597
51	0x3c4d4610	0.012528911
52	0x3f65af12	0.8972026
53	0x3dac8149	0.08423097
54	0x3e8ee896	0.27911824
55	0x3f463927	0.7743096
56	0x3f84754f	1.03483
57	0x3e5887ea	0.21145597
58	0x4003a76a	2.0570931
59	0xbe535e00	-0.20641327
60	0xbb72e0d6	-0.0037060282
61	0x3f632873	0.88733596
62	0x3c2df930	0.010618493
63	0x405af671	3.4212916
64	0x3db3f6a0	0.08787274
65	0x3b37c15e	0.002803884
66	0xbdc39e3b	-0.095516644
67	0x3c94da41	0.018170478
68	0x409594fe	4.6744375
69	0x4018df26	2.38862
70	0xba1b4080	-0.0005922392
71	0x3e7c6685	0.24648483
72	0x3d27e5ca	0.04099063
73	0xbef77344	-0.48330128
74	0x3d6dfe58	0.05810389
75	0x4088bcd9	4.2730527
76	0x407888eb	3.8833568
77	0x3ee7c5c8	0.45268083
78	0xbd0b2fcd	-0.033981133
79	0x3d149340	0.03627324
80	0x3dc5b1c2	0.09653045
81	0xbdeae095	-0.11468617
82	0xbd060ef0	-0.03272909
83	0x3f1f539d	0.6223696
84	0x3f18c732	0.5967895
85	0x3e79e38c	0.24403208
86	0x3f031496	0.51203287
87	0x3ee08523	0.43851575
88	0x3e9f8c99	0.31161955
89	0xbb246e80	-0.0025090277
90	0xbe38df53	-0.18053941
91	0x3eb80286	0.35939425
92	0x3f91ca74	1.1389909
93	0xbe936e04	-0.28794873
94	0x3df1db66	0.11809425
95	0x3e8bab2c	0.2727903
96	0x4003dbb0	2.0602837
97	0x3d45a1ec	0.048250124
98	0x3e2aaa68	0.16666567
99	0x3d9e9bb7	0.07744544
100	0xbd28453d	-0.041081656
101	0x3f890d8e	1.0707262
102	0x3d25d07a	0.040482022
103	0x3ff8a902	1.9426577
104	0x3ffae96a	1.9602482
105	0x3f70b533	0.9402649
106	0x40004986	2.0044875
107	0x3ffe7f37	1.9882573
108	0x3e995548	0.29947877
109	0x3e9d4114	0.30713713
110	0x3fba27f7	1.4543446
111	0x3d74d7dd	0.059776176
112	0x3ea7a28c	0.327412
113	0xbe06f4e9	-0.13179363
114	0xbd37a054	-0.044830635
115	0x3ec91d13	0.39279994
116	0x3f50e0b1	0.8159285
117	0x3db9b8ce	0.09068452
118	0xbd21bad0	-0.0394848
119	0xbe35d935	-0.17758639
120	0x3e1a6b2b	0.15079944
121	0x3cd029f0	0.025410622
122	0xbdad0c71	-0.08449639
123	0x3f27b7da	0.6551491
124	0x402af276	2.6710486
125	0xbe9f24d6	-0.3108279
126	0xbd01664a	-0.03159169
127	0xbe0d440c	-0.13795489
128	0x3f5f744f	0.8728685
129	0x3dfa7355	0.12229029
130	0x3e07ee86	0.13274583
131	0x400fd47a	2.2473435
132	0x3f0c9892	0.54920304
133	0x4094bea2	4.6482706
134	0xbe78b831	-0.24289013
135	0x3ea37519	0.31925276
136	0x3e14f43d	0.14546295
137	0xbdc2835b	-0.0949771
138	0x406b9e9d	3.681556
139	0x402be8c9	2.686083
140	0x3e2af0c1	0.16693403
141	0xb9c09200	-0.00036729872
142	0xbc854baf	-0.01627144
143	0x3f9693e6	1.1763885
144	0x3e390b9a	0.18070832
145	0xbeac8a30	-0.3369918
146	0x3ee24816	0.44195622
147	0x3ca4ba66	0.020108413
148	0x3e162720	0.14663363
149	0xbef30c55	-0.47470346
150	0xbe02a9a8	-0.12760031
151	0xbdf97f4c	-0.12182483
152	0xbeb98b68	-0.3623917
153	0x400e8146	2.2266402
154	0xbcc35990	-0.023846418
155	0x3e4c2bc9	0.19938578
156	0xbdc10c46	-0.09426169
157	0x4095bc2b	4.6792197
158	0x3fa663b0	1.2999172
159	0x3dd8031e	0.105474696
160	0x3efffa9c	0.49995887
161	0x3ee457cf	0.44598243
162	0x3f382552	0.71931946
163	0xbe3cb6ae	-0.18429062
164	0xbe941ec5	-0.28929725
165	0x3d43fdbd	0.047849406
166	0x3e5e37a5	0.21700914
167	0x3ee1092b	0.43952307
168	0x3e8165e3	0.25273046
169	0xbea0cd4f	-0.31406638
170	0x3e8899a4	0.26679718
171	0x408f94b2	4.4869013
172	0x4007fdc0	2.1248627
173	0x3d1cbcb0	0.038265884
174	0x3be61c8f	0.0070224474
175	0xbcfaa270	-0.030595034
176	0x3cc4e9c2	0.024037246
177	0x3f7fb853	0.9989063
178	0x40151ae6	2.3297668
179	0x3d832d12	0.06405081
180	0xbf6c6be4	-0.9235213
181	0x40972fb5	4.7245736
182	0x3d16c5ac	0.03680961
183	0x3e269ed6	0.16271529
184	0x3d7ee20b	0.06222729
185	0x3c998e40	0.018744588
186	0x3d70003c	0.058593974
187	0xbd779ea2	-0.06045402
188	0xbeb12a01	-0.3460236
189	0xbe85f873	-0.26166114
190	0x3e40fca1	0.1884637
191	0xbc3bec90	-0.011469975
192	0xbda32914	-0.079668194
193	0x3fad309a	1.3530457
194	0x3fd591fb	1.6685175
195	0xbadb7ef6	-0.0016746211
196	0xbdda4be3	-0.106590055
197	0x3fb03130	1.3765011
198	0x4092ad77	4.583675
199	0x3e682067	0.2266861
200	0x3d61d006	0.055130027
201	0xbd09c9bc	-0.033639655
202	0x3e1f90f1	0.15582635
203	0x3d608f04	0.05482389
204	0x408ff2b5	4.4983773
205	0xbca127bb	-0.019672265
206	0x3ec4436a	0.38332683
207	0xbe8cbc2e	-0.2748732
208	0x3e9f71b9	0.3114145
209	0x3c0d9c48	0.008643217
210	0x3f3ddccf	0.7416505
211	0x4089141c	4.2837048
212	0x3e253e09	0.16136946
213	0x4087a5cc	4.238989
214	0x4096f406	4.717288
215	0x3e0e995e	0.13925692
216	0x3a76f380	0.00094204396
217	0x3d15680c	0.03647618
218	0x408b00a1	4.343827
219	0xbd2604da	-0.04053197
220	0x3f6c9f5a	0.9243065
221	0x3e461734	0.19344789
222	0xbdfa438a	-0.12219913
223	0x3f0a4a7e	0.54019916
224	0xbee05728	-0.43816495
225	0x3f19bdb9	0.6005512
226	0x3cb877dc	0.02251809
227	0x406b2c3f	3.6745756
228	0x3ed10cdd	0.40830126
229	0x3a76a980	0.0009409413
230	0x3dc9b0de	0.09848188
231	0xbd7d24be	-0.06180262
232	0x3c8618d4	0.01636926
233	0x40044005	2.0664074
234	0x3d695984	0.056970134
235	0x40936a18	4.606701
236	0x408a1d15	4.31605
237	0x3f134b1e	0.57536495
238	0x3c9cf3dc	0.01915925
239	0x4097baca	4.7415514
240	0x3c73c388	0.014878161
241	0xbe58a023	-0.21154837
242	0x3d266092	0.04061944
243	0x3e3bc4c7	0.18336783
244	0xbe3ac344	-0.1823855
245	0x3d0293d2	0.031879254
246	0x3e85b1c9	0.26112202
247	0x3ec68646	0.38774318
248	0x3e20bb70	0.15696502
249	0x3d239710	0.039938986
250	0x3f0e31ab	0.5554454
251	0x3f05f707	0.5233006
252	0x40988b4a	4.767003
253	0x40894aa9	4.290364
254	0xbcca2cb7	-0.024679525
255	0x3eeb1eee	0.45922035

fc2.bias f4 [256]
0	0x3fe547e0	1.791256
1	0x403159d2	2.7711072
2	0x3ebe7f83	0.3720666
3	0xbc8dc9d8	-0.01730816
4	0x3d017691	0.031607214
5	0x3e989325	0.29799762
6	0x3d0abd81	0.03387213
7	0x3ceaf89c	0.028683
8	0x3f90d99f	1.1316413
9	0xbc073d44	-0.008254353
10	0x3ea3324a	0.31874305
11	0x3f19cafd	0.6007536
12	0x3d4ddc58	0.050258964
13	0x3fb04f37	1.3774174
14	0x3f17bec9	0.5927549
15	0x3ebe1cd2	0.37131363
16	0x3e526a3f	0.20548342
17	0x3f5434d7	0.8289313
18	0xbc6db26e	-0.014507873
19	0xbc0a8a23	-0.008455786
20	0x3e9a8f8d	0.30187646
21	0x3cceb733	0.02523384
22	0x3e8a29f6	0.2698514
23	0xbd221f92	-0.03958089
24	0xbd6d36ae	-0.057913475
25	0x3acdd440	0.0015703514
26	0xbd559432	-0.052143283
27	0x3f45e2bd	0.772991
28	0x3f8f2ab8	1.1184912
29	0x3f8947a8	1.0724993
30	0x3de94f9f	0.1139214
31	0xbe3d2a8e	-0.18473265
32	0xbe97d61a	-0.29655534
33	0x3f0fda47	0.5619244
34	0x3d19846e	0.03747981
35	0x3eaa7802	0.33294684
36	0x3f86515e	1.0493581
37	0x3f44174e	0.7659806
38	0xbd7862cb	-0.06064109
39	0x3fb54bff	1.4163817
40	0x3ee95752	0.45574433
41	0xbeb4b583	-0.35294732
42	0xbcd597fd	-0.02607345
43	0x4081089f	4.0323024
44	0x3f1ac48f	0.60456175
45	0x3dbca8b4	0.09211865
46	0x3de1b0bb	0.11020037
47	0x3e8b9816	0.2726447
48	0xbc9816c7	-0.018565549
49	0x3e7089aa	0.23490015
50	0x3dfa826f	0.122319095
51	0x3df9dea5	0.12200669
52	0xbd58c046	-0.05291774
53	0x3c94145f	0.01807612
54	0x3f4d8874	0.80286336
55	0x3d6702f3	0.056399297
56	0x3bbff550	0.005858101
57	0x3e2355d2	0.15950707
58	0x3e63ac54	0.22233707
59	0x3ec6015a	0.38672906
60	0x3e2cb81c	0.16867107
61	0x3f80e757	1.0070599
62	0x3bcc4cde	0.006234749
63	0x3ccf0bc2	0.025274161
64	0xbec6130c	-0.38686407
65	0xbdd27677	-0.102765016
66	0xbda9c414	-0.08289352
67	0xbeec6162	-0.46168047
68	0xbea68f46	-0.32531184
69	0x3d3e9a9c	0.046534166
70	0x3efb3e72	0.4907108
71	0xbad59ddc	-0.0016297656
72	0x3eda7c13	0.42672786
73	0x3f0e55ce	0.5559968
74	0x3efe0ba3	0.49618253
75	0x3d542e5a	0.051802017
76	0x3cd8882c	0.02643212
77	0x3d251320	0.040301442
78	0xbda2709a	-0.07931633
79	0x3e2aefcd	0.16693039
80	0x3f1fbe1f	0.62399477
81	0x3d3b27ba	0.045692183
82	0x3ce8005b	0.028320482
83	0x3f65bb3b	0.89738816
84	0x3f9d17ab	1.2272848
85	0x3ee6cf05	0.45079818
86	0x3efe7215	0.49696413
87	0x3ed4aff2	0.41540486
88	0x3fa1ed98	1.2650633
89	0x3f3b05f4	0.7305596
90	0x406892c5	3.633958
91	0x3f3f7bad	0.7479809
92	0xbd61f506	-0.055165313
93	0x3e73b815	0.2380069
94	0x3b300348	0.0026857425
95	0x3f01fa4e	0.5077256
96	0x400b9f85	2.1816113
97	0x3fe9f897	1.8278989
98	0x3fbc1514	1.4693933
99	0x3e96a407	0.29422018
100	0x401b37bd	2.425277
101	0x3eb4b9ba	0.35297948
102	0x3ed90d7d	0.42393103
103	0xbbf04344	-0.0073322374
104	0x3d059de6	0.032621287
105	0x3ed65e72	0.4186893
106	0x3f68c9b1	0.90932757
107	0x3f8b8fb3	1.0903229
108	0x3f8b83fc	1.0899653
109	0xbec45301	-0.38344577
110	0x3f782381	0.96929175
111	0xbe93291b	-0.28742298
112	0xbd1d1e8c	-0.03835921
113	0x3eb279c1	0.34858516
114	0xbe8ea13b	-0.27857384
115	0xbd5c1e7c	-0.05374001
116	0xbd82daad	-0.06389365
117	0xbcd5e5b2	-0.026110504
118	0x3fac7168	1.3472109
119	0xbcaa2192	-0.02076796
120	0xbd011ca2	-0.031521447
121	0x3efad220	0.48988438
122	0xbca2d325	-0.019876072
123	0xbb76cf2f	-0.0037660112
124	0x3ef85647	0.48503324
125	0x3f0c5f06	0.54832494
126	0x3f0639bf	0.52431864
127	0x3d2f9e07	0.042875316
128	0x3d127805	0.03575899
129	0x3fa271f5	1.2691027
130	0x3f774e10	0.9660349
131	0x3f1775c9	0.591641
132	0x3f22f32c	0.636523
133	0x3fe181ee	1.7617776
134	0x3b52707d	0.0032110505
135	0x3f4f3d53	0.8095295
136	0x3f22d4cd	0.6360596
137	0x3ea04bc0	0.31307793
138	0x3d1c94a8	0.038227707
139	0xbcebe70d	-0.028796697
140	0x3e15ac30	0.14616466
141	0x3eefd50b	0.46842226
142	0xbd789fae	-0.060699157
143	0xbe917be0	-0.28414822
144	0x3eb27c02	0.34860235
145	0x3c5015b8	0.012700491
146	0xbd5fb83c	-0.05461906
147	0x3d2cb739	0.042166922
148	0x3e061ee4	0.13097721
149	0x3f8e35b7	1.1110142
150	0x3ee5ff07	0.44921133
151	0x3d5d72aa	0.05406443
152	0x3d03ba2e	0.032159977
153	0xbd74b39c	-0.0597416
154	0x3dec5cc3	0.115411304
155	0xbf08d1b6	-0.53444993
156	0xbef85d12	-0.48508507
157	0xbc894858	-0.016758129
158	0xbccc4fbc	-0.024940364
159	0x3ef81274	0.4845158
160	0x3f88409c	1.0644717
161	0x3d006878	0.03134963
162	0x3c49c6f0	0.012315497
163	0x3f0fa955	0.56117755
164	0x3f84e1c6	1.03814
165	0xbcfbf34c	-0.030755661
166	0x3f2853f3	0.65753096
167	0xbf194152	-0.59865296
168	0x3d070d6e	0.032971792
169	0x3ec85d02	0.3913346
170	0x3f310959	0.6915489
171	0x3f94d5d0	1.162775
172	0xbd46ef99	-0.048568342
173	0x3e8cd1b5	0.27503744
174	0xbd683931	-0.056695167
175	0x3b87af08	0.0041407384
176	0xbd61f37a	-0.055163838
177	0x3c81e3ec	0.015855752
178	0xbc795a38	-0.015219264
179	0x3cfee105	0.031113157
180	0x3f16ccd0	0.5890627
181	0xbe86e93e	-0.26349825
182	0x3d3f1977	0.046655145
183	0x3f06c3bf	0.52642435
184	0x3e96d68a	0.29460555
185	0x3d8ddfd7	0.0692746
186	0x3ee7f7ec	0.45306337
187	0x3f99a3e8	1.2003145
188	0xbcc1a105	-0.02363635
189	0x3eae2cfd	0.34018698
190	0xbe302129	-0.1720015
191	0x3d078ea0	0.033095002
192	0x3eef41c0	0.4672985
193	0xbca0666e	-0.019580092
194	0xbbfa595a	-0.007640046
195	0x3e95534e	0.2916512
196	0x3dd6ce29	0.10488541
197	0x3eefd58e	0.46842617
198	0x3ece074f	0.4023995
199	0x3ef3814b	0.4755958
200	0x3b9d4c30	0.004800342
201	0x3eaeb679	0.3412359
202	0x3f38d11f	0.72194093
203	0x3f100390	0.56255436
204	0xbd5e550d	-0.05428033
205	0x3f8632ff	1.0484313
206	0xbd1f5834	-0.038902476
207	0x3e395f25	0.18102701
208	0xbe7db8fc	-0.24777597
209	0xbd4d218b	-0.050080817
210	0x3c1b22dc	0.00946876
211	0xbcc7a2d0	-0.024369627
212	0x3c0abe00	0.008468151
213	0x3f006b62	0.50163853
214	0x3f9777b0	1.1833401
215	0xbd65e307	-0.056124713
216	0xbd7379aa	-0.0594422
217	0x3dc876b3	0.09788265
218	0x3f0ae510	0.5425577
219	0x3eb8c847	0.360903
220	0xbef038d3	-0.46918353
221	0x401585c2	2.336289
222	0x3ee38a34	0.44441378
223	0x3f990301	1.1954042
224	0xbf0e2888	-0.55530596
225	0x3d7f0b81	0.06226683
226	0x3ce30260	0.027711093
227	0x3f86c0ab	1.0527548
228	0x3f843817	1.0329617
229	0x3f0a276c	0.53966403
230	0x3f112912	0.56703293
231	0x3eabee3f	0.33580205
232	0x3f00c42c	0.50299335
233	0x3cf9db80	0.030500174
234	0x3d45c848	0.048286706
235	0xbf10d494	-0.5657437
236	0x3c6feaf0	0.014643416
237	0x3eb4ce18	0.35313487
238	0x3fccc5ad	1.5997826
239	0x3d2236a9	0.03960291
240	0xbd6931e8	-0.05693236
241	0x3f518231	0.8183928
242	0x3ea935f7	0.33048984
243	0x3f1321a8	0.5747323
244	0x3f00693d	0.5016058
245	0x3f1135a5	0.5672248
246	0xbd3e6102	-0.046479233
247	0x3fcc55cc	1.5963683
248	0xbd2a17b2	-0.041526504
249	0xbd124dd0	-0.03571874
250	0x3ef8eb5e	0.4861707
251	0x3c7d82e9	0.015473106
252	0x3f9c1987	1.219529
253	0xbd2b231c	-0.04178153
254	0x3fb2e87a	1.3977196
255	0x3f8715ea	1.0553563

fc3.weight f4 [81, 256]
0	0xbbf49f4b	-0.0074652783
1	0x3db8d467	0.090248875
2	0x3c2e2050	0.010627821
3	0x3c4412b8	0.0119673535
4	0xbb170446	-0.0023043319
5	0xbdf82382	-0.121161476
6	0xbc723948	-0.014784165
7	0x3c912c74	0.017721392
8	0xbdcc50b3	-0.0997633
9	0xbc649260	-0.013950914
10	0xbe04a8d1	-0.12955023
11	0xbdfd0689	-0.12354762
12	0x3d30c0a4	0.043152466
13	0xbd3fc151	-0.04681522
14	0xbdc8fa67	-0.098133855
15	0xbcd9c69f	-0.026583968
16	0xbd1766d9	-0.036963318
17	0xbd719261	-0.05897749
18	0x3b8bb010	0.0042629316
19	0xbd58530c	-0.052813575
20	0x3d9f2e21	0.0777247
21	0x3d14e0a0	0.03634703
22	0x3ecb5b64	0.39718163
23	0x3b4c5720	0.003117986
24	0x3cbf52b8	0.023354873
25	0x3d48672a	0.04892651
26	0x3c646d70	0.013942108
27	0xbe22188d	-0.15829678
28	0xbd8f3493	-0.069924496
29	0xbdbbcc80	-0.09169865
30	0xbe3e98fd	-0.18613048
31	0xbe429dd2	-0.19005516
32	0xbdafca69	-0.085835285
33	0xbd86f709	-0.06590087
34	0x3c1b9040	0.009494841
35	0xb8c7ae34	-9.521507e-05
36	0xbd9e927d	-0.07742784
37	0xbd282316	-0.041049086
38	0x3971ae00	0.00023048371
39	0xbdc6d37a	-0.09708305
40	0xbcd3239d	-0.025773818
41	0xbe41dc65	-0.1893173
42	0x3d0906e8	0.033453852
43	0x3d1632e6	0.036669634
44	0xbdabf1e6	-0.08395748
45	0x3a5e54f2	0.0008481286
46	0xbcf3eeea	-0.029777009
47	0xbe3ec88d	-0.18631192
48	0xbc358d66	-0.011081075
49	0xbdd30ba0	-0.10304952
50	0xbd78c957	-0.060738888
51	0xbd0a6ca1	-0.033795003
52	0xbd7ffe26	-0.062498234
53	0xbced1dec	-0.028944932
54	0xbdd34eb5	-0.103177465
55	0xbca5cb1c	-0.020238452
56	0x3d652dc0	0.055951834
57	0xbdede2f8	-0.116155565
58	0xbdd6c444	-0.104866534
59	0xbcb770d7	-0.022392673
60	0xbcc9469a	-0.024569798
61	0xbd5bb49c	-0.05363904
62	0xbd750842	-0.05982233
63	0x3d57c747	0.05268028
64	0xbe1f5f8d	-0.15563793
65	0xbe8a5c68	-0.27023625
66	0xbea2555e	-0.31705755
67	0xbe002823	-0.12515311
68	0xbc601106	-0.013675934
69	0x3d6fb486	0.05852177
70	0xbdcd491d	-0.10023711
71	0x3b4b1240	0.003098622
72	0xbdff5e58	-0.124691665
73	0xbd9399f3	-0.07207098
74	0x3d07cf90	0.03315693
75	0xbca4f9a8	-0.020138577
76	0x39bbfa00	0.00035853684
77	0x3cb6da58	0.022320911
78	0xbcf00573	-0.029299473
79	0xbe268cb0	-0.16264606
80	0xbdcb9001	-0.09939576
81	0xbd1c4530	-0.03815192
82	0xbd9fe609	-0.078075476
83	0x3ef6e6dd	0.4822301
84	0xbe1d8b2f	-0.15385126
85	0x3cb4c7f6	0.022068005
86	0xbda88f8d	-0.08230505
87	0xbcd309a5	-0.025761435
88	0xbdd11a23	-0.10210063
89	0xbe02df0c	-0.12780398
90	0x3dacce8b	0.084378324
91	0xbe1e7bce	-0.15476915
92	0x3c10f078	0.008846395
93	0xbcc7790d	-0.024349714
94	0x3d2cde72	0.042204328
95	0xbdd86d16	-0.105676815
96	0x3e15fc9f	0.14647149
97	0x3cd8dd89	0.026472824
98	0x3d473e6c	0.048643515
99	0xbcdb99d2	-0.026806746
100	0x3d94e009	0.07269294
101	0x3d92b344	0.071630985
102	0xbdd36bff	-0.10323333
103	0x3d2781f6	0.040895425
104	0x3c8e5771	0.01737568
105	0x3bf879d7	0.007582884
106	0xbdfc96e0	-0.123334646
107	0x3cf6b892	0.030117307
108	0xbdfdbcf3	-0.12389555
109	0xbe8f9a69	-0.28047493
110	0xbdf3d419	-0.11905689
111	0xbebb1dd7	-0.36546203
112	0xbe0f9f74	-0.1402567
113	0xbce2767d	-0.02764439
114	0xbdedec60	-0.116173506
115	0xbc7fed00	-0.01562047
116	0x3d611b82	0.054957874
117	0xbd708bc6	-0.05872705
118	0xbd0a577a	-0.03377483
119	0xbcd69134	-0.026192285
120	0x3cf9c374	0.030488707
121	0xbdbdf168	-0.0927456
122	0x3d774024	0.060363904
123	0xbd1da08e	-0.038483195
124	0xbe0c22c5	-0.13685139
125	0xbca63b52	-0.020291958
126	0xbdd871e0	-0.10568595
127	0xbd3bd2dc	-0.045855388
128	0xbd67871a	-0.056525327
129	0xbd0bef07	-0.0341635
130	0x3ebb4ddd	0.36582842
131	0xbe268f73	-0.16265659
132	0xbe437ff6	-0.19091782
133	0x3a8cabff	0.0010732411
134	0x3cf45830	0.029827207
135	0xbd3dbc2f	-0.046322044
136	0xbd3541b4	-0.044252113
137	0xbd8c1dc3	-0.06841614
138	0x3d1bdbdc	0.03805147
139	0x3c895800	0.016765594
140	0xbe1fff1d	-0.15624662
141	0xbdaa4dd9	-0.083156295
142	0xbbd2e920	-0.006436482
143	0xbd8a3880	-0.06749058
144	0x3c66ef25	0.014095102
145	0xbd460f49	-0.04835442
146	0xbb151ce0	-0.0022752807
147	0xbcd36e54	-0.025809444
148	0x3dbfceb2	0.09365596
149	0xbd743c36	-0.059627734
150	0xbde1724f	-0.11008131
151	0x3c5f1168	0.01361499
152	0xbd7a253c	-0.061070666
153	0xbe30e001	-0.1727295
154	0xbd9a5eaa	-0.07537587
155	0xbe1ef4d9	-0.1552309
156	0xbec20827	-0.37896845
157	0x3d0e76da	0.034781314
158	0x3d75c7fa	0.060005166
159	0x3dbdf05d	0.09274361
160	0xbd87d5f3	-0.066326044
161	0xbbe34070	-0.006935172
162	0x3c4da0b8	0.012550525
163	0xbdd5fb2c	-0.10448298
164	0xbe099971	-0.1343744
165	0x3cb97d4c	0.022642754
166	0xbe051524	-0.12996346
167	0xbe6779e4	-0.22605091
168	0xbb3d8560	-0.002891861
169	0xbd9a14ea	-0.0752352
170	0xbe2fea31	-0.1717918
171	0xbbb4b433	-0.0055146455
172	0x3d5ed079	0.054398034
173	0x3d643ebe	0.055723898
174	0x3d791a3a	0.060816027
175	0x3d59cac6	0.053171895
176	0xbd788016	-0.060669027
177	0xbcdd1790	-0.026988775
178	0x3cbe15e8	0.023203805
179	0xbd2dbe36	-0.042417727
180	0xbe0c7dd6	-0.13719878
181	0xbe3d98a4	-0.18515259
182	0xbd1bee9c	-0.038069353
183	0xbd98db81	-0.07463742
184	0xbd82708f	-0.06369125
185	0x3b11c04b	0.002223986
186	0xbdc7b6fd	-0.09751699
187	0xbd1b356d	-0.037892748
188	0x3d41a968	0.0472807
189	0xbe1ac504	-0.15114218
190	0xbbea5304	-0.0071510095
191	0xbc94754c	-0.018122338
192	0xbd63622c	-0.055513546
193	0xbd0612da	-0.032732822
194	0xbc8f169e	-0.01746684
195	0x3dcb5d47	0.099299006
196	0xbde31cb7	-0.11089461
197	0xbdd076f4	-0.101789385
198	0xbdcfd6a0	-0.10148358
199	0xbd96b9d6	-0.07359664
200	0x3c57fdc0	0.013183057
201	0xbd76c82d	-0.060249496
202	0xbdd323a2	-0.10309531
203	0xbdb2be49	-0.087277
204	0x3d8530c6	0.065034434
205	0xbdd4bf85	-0.10388092
206	0xbcf398b0	-0.029735893
207	0x3d5504da	0.05200658
208	0xbe0596ee	-0.13045856
209	0xbd3449ae	-0.04401558
210	0x3d25a204	0.040437713
211	0x3cfde720	0.030993998
212	0x3ac1e5c0	0.0014793202
213	0xbdd448dd	-0.1036546
214	0xbda62f74	-0.0811452
215	0x3ca9c540	0.020723939
216	0xbd489ce2	-0.04897774
217	0x3e1341dc	0.14380592
218	0xbcad6bec	-0.021169625
219	0xbb3c3861	-0.0028720128
220	0xbeaff839	-0.34369066
221	0x3cc79286	0.02436186
222	0xbd8f4a31	-0.06996573
223	0x3ea6360b	0.32463107
224	0xbd4a288e	-0.049355082
225	0x3dbe304c	0.09286556
226	0x3d5668e4	0.052346125
227	0x3a9949f1	0.001169501
228	0xbd224d91	-0.039624754
229	0xbd36e5be	-0.044652693
230	0xbd22719b	-0.039659124
231	0xbdb03e00	-0.086055756
232	0xbe099940	-0.13437366
233	0x3d077b80	0.033076763
234	0x3bfafe30	0.007659696
235	0xbdd0b7d3	-0.10191312
236	0x3d68bd5e	0.05682122
237	0xbd8fee53	-0.070278786
238	0xbd8615d9	-0.06547136
239	0x3d198848	0.037483484
240	0x3d24793c	0.04015468
241	0x3f03ae4b	0.51437825
242	0x3da20a8e	0.079121694
243	0xbe481a57	-0.19541298
244	0xbe0be874	-0.13662893
245	0xbcfb6d96	-0.030691903
246	0xbc525f40	-0.012840092
247	0xbdd8ce14	-0.10586181
248	0x3bad4a60	0.005288407
249	0x3d56a704	0.052405372
250	0xbe72be30	-0.23705363
251	0xbbed7030	-0.00724604
252	0xbd6a58a4	-0.05721344
253	0xbd387bc6	-0.045039915
254	0xbd397504	-0.04527761
255	0xbdb61e5f	-0.088925116

fc3.bias f4 [81]
0	0x3f0bcbb0	0.5460768
1	0x3f2cd69d	0.67514974
2	0x3f21fd2f	0.6327695
3	0x3ed782e6	0.42092055
4	0x3ec1abb3	0.3782631
5	0x3eecc063	0.4624053
6	0x3ef72db0	0.48277044
7	0x3f1edf4c	0.62059474
8	0x3eae921d	0.3409585
9	0x3f294dd1	0.66134363
10	0x3ef7d9f3	0.4840847
11	0x3f7e5a86	0.9935688
12	0x3f611b5e	0.87932384
13	0x3f5d687e	0.8648757
14	0x3f0d005c	0.55078673
15	0x3edbc577	0.4292409
16	0x3eda6860	0.42657757
17	0xbd960bd7	-0.07326477
18	0x3f5af7d6	0.8553442
19	0x3f4de984	0.8043444
20	0x3f073efb	0.52830476
21	0x3f82651e	1.0187109
22	0x3f10ad04	0.56514
23	0x3f560301	0.83598334
24	0x3f0d0c08	0.55096483
25	0x3f28a130	0.6587095
26	0x3e9b762d	0.30363598
27	0x3f261ed6	0.648908
28	0x3da37263	0.07980802
29	0x3eb818eb	0.3595651
30	0x3f7472f1	0.95487887
31	0x3f1f8c3d	0.6232336
32	0x3f3769d0	0.7164583
33	0x3e2c5811	0.1683047
34	0x3ec1c401	0.37844852
35	0x3fa125ff	1.258972
36	0x3f0bb70d	0.5457619
37	0x3f368d2e	0.71309173
38	0x3f6c7384	0.9236376
39	0x3f5527bc	0.83263755
40	0x3ea8d1d8	0.32972598
41	0x3ed2d944	0.41181386
42	0x3e76c72b	0.24099414
43	0x3ebe9d71	0.37229493
44	0x3ebf8dff	0.37413022
45	0x3f631328	0.88701105
46	0x3fa18162	1.261761
47	0x3f0839da	0.53213274
48	0x3f3d3002	0.7390138
49	0x3ef18dbb	0.47178444
50	0x3f3ec2bc	0.7451589
51	0x3f2f08c0	0.68372726
52	0x3f8ae228	1.0850267
53	0x3dceb31d	0.10092757
54	0x3ede5dc4	0.43430912
55	0x3f4a3e9b	0.7900178
56	0x3e095d5a	0.13414517
57	0x3e7d6b4a	0.24747959
58	0x3e91300e	0.28356975
59	0x3f2ded20	0.6793995
60	0x3eb97f99	0.36230162
61	0x3e37bd15	0.17943223
62	0x3e24337b	0.16035263
63	0x3ee65c42	0.44992262
64	0x3f42781d	0.7596453
65	0x3f3a2f42	0.7272836
66	0x3f0aba79	0.54190785
67	0x3f28d722	0.65953267
68	0xbe1bc0b1	-0.15210225
69	0x3ea51c2e	0.32248062
70	0x3ee44978	0.44587302
71	0x3f28ef5c	0.65990233
72	0x3ee106a4	0.4395038
73	0x3f12c58b	0.57332677
74	0x3eb05b8b	0.34444842
75	0x3ead60b4	0.3386284
76	0x3f053560	0.5203457
77	0x3eb354ee	0.35025734
78	0x3f64271a	0.89122164
79	0x3f09fb3c	0.5389898
80	0x3ef69951	0.48163846
