code/outputs/Policy_Gradient/seed7/models/pg_checkpoint.pt (torch, 30227 bytes, 4 tensors)

fc1.weight f4 [81, 5]
0.33620447 0.4298631 0.40157884 -0.39108843 0.30798498 0.01841648 0.28445303 -0.19273174
0.0030605083 0.34433335 -0.4037039 -0.2838178 -0.4441043 -0.3324513 0.39476365 0.06761728
-0.16314842 -0.39383286 0.11814774 0.11270613 -0.39113247 0.15773873 -0.1311162 -0.058328483
-0.27058348 0.29117692 -0.075290345 -0.46597016 0.2544224 -0.29729372 0.45838585 0.09493132
-0.25732613 -0.3072904 -0.057730388 -0.12047932 0.39675388 0.31465694 0.45132804 -0.29025838
0.35065746 0.16244157 0.022609333 -0.2634487 0.24839562 -0.32024282 -0.20034228 0.038705643
-0.39993864 0.12980182 0.004232228 -0.40721625 0.39533824 -0.082142085 -0.18986906 0.42752737
0.41714507 -0.26246276 0.053702693 -0.27432296 0.177316 -0.08571172 -0.003876119 -0.4054584
0.4123657 0.2549965 -0.05597594 0.40231884 0.31736782 -0.19209859 -0.36369547 0.2770939
0.22652565 -0.029854659 0.25357816 -0.2071152 -0.14369085 0.19568723 -0.29157278 0.355253
0.10859652 0.2815506 -0.13012715 0.3449863 -0.33230922 -0.2275046 -0.33195472 0.14564896
-0.17626823 -0.20675296 0.10291463 0.32511872 -0.24052039 -0.032858267 0.007999353 0.14338037
-0.35569948 0.1394009 -0.14885685 0.10878663 0.16737027 0.19109249 -0.3732746 0.13413908
0.13688014 0.33358657 0.10321564 -0.08832172 0.20830217 0.037732117 -0.20502207 -0.14130434
0.32337955 -0.0494076 -0.40003735 -0.1344012 0.11650065 -0.20062286 -0.17843369 0.012731845
0.10980401 0.27409944 -0.2879204 -0.0945612 0.016990239 -0.23219259 0.12977749 0.41651934
0.31721354 0.37326956 0.110442966 0.14670092 0.31540453 0.10204871 0.32501304 0.32119343
0.02585765 -0.12994012 -0.37855536 -0.30365673 0.19258896 -0.09348575 -0.0859476 0.14591818
-0.048553005 -0.09858766 0.034151647 0.122009635 0.35766268 -0.08762107 -0.3724752 0.058601793
0.10935259 -0.3232934 -0.30672684 -0.1653883 -0.054334614 0.16831486 -0.10581347 0.32713255
0.38191286 -0.06398089 0.08656131 0.2157198 0.06958542 0.019527962 -0.17482245 0.37454286
0.11002523 -0.019634584 0.3880604 0.3207713 0.009803967 0.14376031 0.24901399 -0.09587121
-0.2139901 -0.3101759 -0.37134302 0.25164333 -0.3740315 0.32216695 -0.36765984 -0.06213755
-0.14918052 0.283273 0.08753611 0.4351781 -0.38155726 0.14368442 -0.22530247 0.2484803
-0.27559048 -0.13143785 -0.03791402 0.29820755 -0.0040972526 -0.34667715 -0.27467933 0.15866779
0.34755197 0.04740987 0.28266463 -0.028180204 0.20116644 -0.44518283 -0.3931046 -0.114261135
0.4381005 -0.3135285 -0.3246661 -0.3483462 0.16830213 0.15407294 -0.44358122 -0.2738757
-0.16531895 0.19202444 -0.0062093036 0.046225443 0.31426162 0.2950666 0.028628314 -0.0123661375
0.4340131 -0.055905376 -0.31761128 0.121214144 0.31263968 -0.113691345 0.10742808 -0.2951591
-0.23872364 -0.41906106 -0.3481162 0.067903735 0.3136327 -0.27325478 -0.06142043 0.14977722
0.20843083 -0.045923755 -0.09396464 0.107343905 0.3874482 -0.28584647 -0.23401116 0.32934043
0.46056297 -0.0010789462 0.011815428 0.11125307 -0.13614208 -0.42121184 0.12512694 0.41127753
00000000: fe22 ac3e 0417 dc3e be9b cd3e be3c c8be
00000010: 35b0 9d3e 28de 963c d4a3 913e 785b 45be
00000020: cf92 483b 764c b03e 47b2 cebe 9150 91be
00000030: a461 e3be 0f37 aabe 761e ca3e ee7a 8a3d
00000040: 6110 27be 76a4 c9be 71f7 f13d 79d2 e63d
00000050: 8442 c8be 4386 213e 5343 06be d9e9 6ebd
00000060: eb89 8abe 2415 953e d331 9abd a493 eebe
00000070: a743 823e e236 98be 8db1 ea3e 5a6b c23d
00000080: 40c0 83be 2b55 9dbe b376 6cbd ddbd f6bd
00000090: 5323 cb3e b71a a13e 7814 e73e bf9c 94be
000000a0: 6089 b33e 1557 263e 3537 b93c bfe2 86be
000000b0: 6c5b 7e3e def6 a3be 8726 4dbe cf89 1e3d
000000c0: c2c4 ccbe c5ea 043e 80ae 8a3b a67e d0be
000000d0: c669 ca3e 1c3a a8bd 096d 42be dee4 da3e
000000e0: 0a94 d53e 8561 86be 5bf7 5b3d 0f74 8cbe
000000f0: 5392 353e a089 afbd 7c06 7ebb 3e98 cfbe
00000100: 9921 d33e e78e 823e 0747 65bd bcfc cd3e
00000110: 097e a23e 7eb5 44be 4b36 babe 40df 8d3e
00000120: 57f6 673e c291 f4bc ffd4 813e 0216 54be
00000130: b223 13be 3c62 483e 0749 95be b9e3 b53e
00000140: da67 de3d 6627 903e 0d40 05be 0ba2 b03e
00000150: 6f24 aabe f7f6 68be f8f5 a9be 0025 153e
00000160: a97f 34be 0cb7 53be e8c4 d23d f675 a63e
00000170: fa4a 76be 6496 06bd b80f 033c 4ed2 123e
00000180: 3e1e b6be 1cbf 0e3e ee6d 18be 86cb de3d
00000190: 1d63 2b3e c0ad 433e d91d bfbe c15b 093e
000001a0: 4f2a 0c3e dccb aa3e b962 d33d 05e2 b4bd
000001b0: 2a4d 553e fe8c 1a3d 4ef1 51be 16b2 10be
000001c0: 0192 a53e a05f 4abd b2d1 ccbe 78a0 09be
000001d0: e597 ee3d 1470 4dbe 52b7 36be 3a99 503c
000001e0: ede0 e03d c356 8c3e 4d6a 93be 4da9 c1bd
000001f0: 1d2f 8b3c e5c3 6dbe 64e4 043e 0642 d53e
00000200: d069 a23e 301d bf3e ec2f e23d c438 163e
00000210: b47c a13e eafe d03d 1c68 a63e 7773 a43e
00000220: 6cd3 d33c 060f 05be 02d2 c1be e578 9bbe
00000230: 0a36 453e 7575 bfbd 4c05 b0bd 936b 153e
00000240: 84df 46bd 54e8 c9bd 99e2 0b3d 30e0 f93d
00000250: 901f b73e ad72 b3bd 12b5 bebe 6f08 703d
00000260: 40f4 df3d b686 a5be 4d0b 9dbe 8d5b 29be
00000270: f98d 5ebd bb5a 2c3e bcb4 d8bd eb7d a73e
00000280: 158a c33e 6a08 83bd 0e47 b13d a7e5 5c3e
00000290: cd82 8e3d 1bf9 9f3c a804 33be 15c4 bf3e
000002a0: e854 e13d b5d8 a0bc daaf c63e 233c a43e
000002b0: d1a0 203c e735 133e 86fd 7e3e 2058 c4bd
000002c0: 3920 5bbe 60cf 9ebe ac20 bebe 65d7 803e
000002d0: 0f81 bfbe 11f3 a43e e93d bcbe f283 7ebd
000002e0: c7c2 18be 2909 913e 2246 b33d aacf de3e
000002f0: 795b c3be 0222 133e b1b5 66be 9f71 7e3e
00000300: 321a 8dbe a597 06be bb4b 1bbd a9ae 983e
00000310: 3f42 86bb ab7f b1be c5a2 8cbe cf79 223e
00000320: 55f2 b13e da30 423d 6bb9 903e 2cda e6bc
00000330: 93fe 4d3e 01ef e3be 0245 c9be be01 eabd
00000340: b54e e03e cf86 a0be a33a a6be 6f5a b2be
00000350: 6557 2c3e 4cc5 1d3e 141d e3be 7039 8cbe
00000360: 5f49 29be 0ea2 443e 6a77 cbbb e456 3d3d
00000370: e6e6 a03e f812 973e ed85 ea3c 579b 4abc
00000380: f736 de3e 09fd 64bd f29d a2be 1f3f f83d
00000390: 4f12 a03e 02d7 e8bd 4103 dc3d 181f 97be
000003a0: f873 74be 2c8f d6be 493c b2be 1d11 8b3d
000003b0: 7794 a03e 0de8 8bbe fd93 7bbd 335f 193e
000003c0: e46e 553e 8c1a 3cbd 8870 c0bd 1fd7 db3d
000003d0: 9c5f c63e 785a 92be 9fa0 6fbe 4f9f a83e
000003e0: e9ce eb3e 6d6b 8dba 7f95 413c a6d8 e33d
000003f0: d468 0bbe 14a9 d7be 4721 003e f892 d23e

fc1.bias f4 [81]
-0.10546384 -0.12080443 -0.42019063 -0.43609932 0.14785056 0.18509637 0.22409558 -0.19484255
-0.1017279 0.22967935 0.17489523 0.15806653 -0.37968573 0.048027784 -0.3592303 -0.19687639
-0.34394744 0.21615338 -0.05992635 0.3150816 0.011295408 -0.20194769 -0.021952769 -0.3466981
0.027154818 -0.27379507 0.36889082 -0.24156827 0.17351711 -0.083987385 -0.2843648 0.25974843
0.22616665 0.39326608 -0.36366525 -0.42217007 -0.33386087 0.2943607 0.3110397 -0.4346317
-0.3133614 0.33826342 -0.023497377 0.26514065 -0.41843024 0.37556663 0.2524728 -0.39042962
0.3235481 0.39649755 0.33862546 -0.266921 -0.017539546 0.285656 0.13183227 0.07333876
-0.057726517 -0.004326981 -0.2515494 -0.16335693 0.073798895 -0.04506319 -0.057636738 -0.3500468
0.08023825 -0.38304463 -0.19352303 0.041698687 0.23611143 0.35975188 0.3359363 -0.2329116
0.120768175 -0.22243269 -0.23597236 -0.21402332 -0.2237744 -0.37739003 -0.0018641702 0.2314021
-0.31670156
00000000: 6dfd d7bd 5068 f7bd 3a23 d7be 6948 dfbe
00000010: 2366 173e e789 3d3e 5079 653e ce84 47be
00000020: b856 d0bd 1031 6b3e bc17 333e 31dc 213e
00000030: 2b66 c2be c8b8 443d 09ed b7be f799 49be
00000040: e119 b0be 5057 5d3e 5575 75bd 6052 a13e
00000050: 6010 393c 60cb 4ebe 4bd6 b3bc 6a82 b1be
00000060: c873 de3c de2e 8cbe 42df bc3e ac5d 77be
00000070: 78ae 313e 9401 acbd 4398 91be bffd 843e
00000080: 3b98 673e 2c5a c93e 5532 babe ad26 d8be
00000090: d0ef aabe 72b6 963e 9840 9f3e 0c88 debe
000000a0: e870 a0be dd30 ad3e 927d c0bc 84c0 873e
000000b0: 7d3c d6be 454a c03e 1d44 813e 64e6 c7be
000000c0: 19a8 a53e ba01 cb3e 5160 ad3e dfa9 88be
000000d0: 18af 8fbc 8141 923e 0aff 063e a232 963d
000000e0: a472 6cbd 59c9 8dbb 15cb 80be 0a47 27be
000000f0: e023 973d 2e94 38bd 8014 6cbd 5639 b3be
00000100: f453 a43d 6d1e c4be e72a 46be 3ecc 2a3d
00000110: 32c7 713e 6631 b83e d8ff ab3e 6180 6ebe
00000120: 4e55 f73d 65c5 63be bda2 71be ee28 5bbe
00000130: 1e25 65be 4439 c1be 2c57 f4ba acf4 6c3e
00000140: b526 a2be

fc2.weight f4 [81, 81]
-0.10157121 0.025931062 -0.06603012 -0.020022048 0.031454355 0.023166245 0.060897082 -0.010835421
-0.06391694 -0.069743626 0.025602208 -0.035439834 -0.07019113 -0.016838003 -0.027736364 0.1305354
-0.102810994 -0.050689824 -0.12476972 0.05132443 0.04570729 -0.00074019516 0.11058594 -0.1102898
-0.11063771 -0.043707553 -0.074779436 0.034262937 0.056960367 -0.07030287 0.07445206 -0.0022486935
0.070591524 0.08998204 0.01752679 0.06423354 -0.070630744 -0.0883839 -0.05680823 -0.038025767
-0.03166771 -0.04332586 0.0039596693 -0.009778955 0.038761675 -0.067525 0.077089965 0.03514532
-0.0077720704 -0.022995386 0.030914197 -0.06906642 0.057780463 -0.0012944203 -0.08451097 -0.12031904
0.12025342 -0.09972456 -0.10764454 -0.048370924 0.0578419 -0.08491246 -0.061790813 -0.013624364
-0.06892667 -0.097099 0.085940614 -0.10139305 -0.06589049 -0.05838894 0.058659013 0.10060129
0.0024473686 -0.14459834 -0.093759336 0.078536525 -0.06708418 -0.05127268 0.101509586 0.06329289
0.056399316 0.097806334 0.06338254 0.056918766 0.09138004 0.08346316 -0.006193063 -0.06638866
0.07308143 -0.038231064 0.08647419 -0.07134994 0.09690879 0.16096154 0.060813878 -0.09771999
0.0035834736 0.005570111 0.0070469137 -0.08839564 -0.046155345 0.09621646 -0.027661815 -0.07978613
-0.03364443 0.04588269 0.14391401 0.034805324 -0.0764862 0.05274278 -0.008338868 0.092183165
0.07420474 -0.088571936 -0.0719815 -0.02445525 0.013493485 -0.0012238174 -0.015719254 0.10996857
-0.13372847 -0.018143497 -0.018058026 0.10993343 0.1318191 -0.018917752 0.08832349 0.0018245156
0.027420046 0.0758884 0.1023227 0.08819153 -0.101132646 -0.02479128 0.15986665 0.04630062
-0.021976719 0.13854374 0.041129287 -0.01569822 -0.12302715 -0.0947069 -0.031356797 0.074618846
-0.07195194 0.072387956 0.09869141 0.04605431 -0.022916105 -0.03522785 -0.0692283 0.056101676
0.0808139 -0.01788571 -0.07120248 -0.041563272 0.0727834 -0.050483864 0.09510132 0.04335365
0.040418398 0.054267365 -0.045458596 0.059448425 -0.023645047 0.096439905 -0.10045386 0.07149947
-0.0056796516 0.0557321 0.012946389 -0.042326357 0.10261659 -0.12689012 0.053711005 0.005419822
-0.07037203 0.0041222894 0.0870434 0.10753581 0.030717386 0.080759 -0.069882944 0.05783879
-0.026571738 -0.03732237 0.022034379 0.073038176 -0.03598698 0.016210452 -0.01811533 -0.077379845
0.10406065 0.06283504 -0.035338767 -0.0072977925 0.08264831 0.07713652 -0.107826896 -0.08799647
-0.12568173 -0.003904571 0.06658707 0.10418218 -0.071415916 0.042051274 -0.057643265 0.021648232
-2.4829118e-05 -0.12910713 0.09938789 0.04906418 -0.06558149 0.053646423 -0.10547415 -0.08542203
-0.0019754234 0.017568653 -0.09583819 0.01068488 -0.07060698 0.02187646 -0.101249136 -0.015384589
0.08787177 0.0707843 0.09574707 -0.02362095 0.059710253 -0.046644967 -0.0063177072 0.07621114
-0.119117476 0.06495419 -0.10909658 -0.0936462 -0.034810755 0.10949809 0.027360942 -0.10531369
0.079970196 0.092654355 -0.07018413 0.056476414 -0.02652467 0.0026156944 -0.083695464 -0.05187845
0.047831252 0.06798536 0.038473982 -0.015989814 0.08514357 0.058341462 -0.07947262 0.022408208
00000000: 9104 d0bd 616d d43c cd3a 87bd 4705 a4bc
00000010: 48d6 003d 23c7 bd3c 386f 793d 0d87 31bc
00000020: e2e6 82bd bfd5 8ebd b9bb d13c 5c29 11bd
00000030: 5ec0 8fbd daef 89bc 5f37 e3bc 12ab 053e
00000040: 928e d2bd 22a0 4fbd 4487 ffbd 9139 523d
00000050: 9137 3b3d a809 42ba e27a e23d 9edf e1bd
00000060: 0696 e2bd b106 33bd f625 99bd 4b57 0c3d
00000070: 464f 693d f3fa 8fbd 527a 983d d15e 13bb
00000080: 4a92 903d 8148 b83d 5894 8f3c e08c 833d
00000090: daa6 90bd 9e02 b5bd bfaf 68bd e8c0 1bbd
000000a0: 00b6 01bd 7576 31bd 1dc0 813b e937 20bc
000000b0: 90c4 1e3d 8c4a 8abd 58e1 9d3d 8af4 0f3d
000000c0: daac febb d260 bcbc c53f fd3c b272 8dbd
000000d0: 35ab 6c3d 8aa9 a9ba 1614 adbd d469 f6bd
000000e0: 6d47 f63d 643c ccbd be74 dcbd 9720 46bd
000000f0: a1eb 6c3d 95e6 adbd 5d18 7dbd b938 5fbc
00000100: 6d29 8dbd d7db c6bd a201 b03d 29a7 cfbd
00000110: 98f1 86bd 3e29 6fbd 6f44 703d 0d08 ce3d
00000120: 0864 203b 9611 14be e504 c0bd c2d7 a03d
00000130: 6e63 89bd 4d03 52bd 42e4 cf3d b49f 813d
00000140: f802 673d b04e c83d b5ce 813d a723 693d
00000150: 7525 bb3d bcee aa3d 2eef cabb c7f6 87bd
00000160: b7ab 953d 2d98 1cbd 6119 b13d eb1f 92bd
00000170: 1e78 c63d 1ad3 243e f917 793d 6b21 c8bd
00000180: b6d8 6a3b 7a85 b63b cce9 e63b c608 b5bd
00000190: 630d 3dbd 230d c53d 089b e2bc e966 a3bd
000001a0: bece 09bd 7def 3b3d 325e 133e 0790 0e3d
000001b0: cca4 9cbd d008 583d bf9f 08bc 87ca bc3d
000001c0: a8f8 973d 3465 b5bd 096b 93bd 6056 c8bc
000001d0: c713 5d3c 7f68 a0ba aac5 80bc 3437 e13d
000001e0: 1ef0 08be aca1 94bc 6dee 93bc c724 e13d
000001f0: 96fb 063e 67f9 9abc f2e2 b43d 9624 ef3a
00000200: 01a0 e03c 616b 9b3d 908e d13d c39d b43d
00000210: a21e cfbd 1517 cbbc 15b4 233e b8a5 3d3d
00000220: 8508 b4bc 69de 0d3e 2f77 283d 8e99 80bc
00000230: a9f5 fbbd b1f5 c1bd fc6f 00bd c4d1 983d
00000240: 8a5b 93bd 2340 943d b91e ca3d 72a3 3c3d
00000250: 8eba bbbc 144b 10bd 91c7 8dbd dfca 653d
00000260: c281 a53d 0d85 92bc 9bd2 91bd 403e 2abd
00000270: 770f 953d 2bc8 4ebd 7bc4 c23d 9993 313d
00000280: c38d 253d 7547 5e3d cb32 3abd 3180 733d
00000290: 42b3 c1bc 4982 c53d c1ba cdbd 506e 923d
000002a0: 5f1c babb 5847 643d 171d 543c 675e 2dbd
000002b0: a628 d23d 7cef 01be 1200 5c3d c398 b13b
000002c0: 361f 90bd 4514 873b cf43 b23d bc3b dc3d
000002d0: 07a3 fb3c f964 a53d ca1e 8fbd 5ee8 6c3d
000002e0: f9ac d9bc 57df 18bd 7181 b43c 0a95 953d
000002f0: 1567 13bd c8cb 843c 9a66 94bc 5379 9ebd
00000300: c01d d53d a8af 803d 62bf 10bd 5222 efbb
00000310: 8443 a93d c0f9 9d3d 59d4 dcbd 7e37 b4bd
00000320: b6b2 00be d5e3 7fbb cd5e 883d 775d d53d
00000330: 8242 92bd f53d 2c3d 581b 6cbd a257 b13c
00000340: 2048 d0b7 a934 04be e18b cb3d 86f7 483d
00000350: 974f 86bd 5abc 5b3d d502 d8bd bff1 aebd
00000360: 1b76 01bb 23ec 8f3c d046 c4bd a30f 2f3c
00000370: 649a 90bd 4336 b33c b55b cfbd a50f 7cbc
00000380: 1df6 b33d 5cf7 903d 0a17 c43d b980 c1bc
00000390: bd92 743d cb0e 3fbd c504 cfbb 9614 9c3d
000003a0: ddf3 f3bd b406 853d 076e dfbd 94c9 bfbd
000003b0: b995 0ebd 8940 e03d 0e24 e03c b4ae d7bd
000003c0: 6ac7 a33d 91c1 bd3d b2bc 8fbd d053 673d
000003d0: 444a d9bc 126c 2b3b 8768 abbd 7f7e 54bd
000003e0: b4ea 433d e93b 8b3d e596 1d3d 12fd 82bc
000003f0: c15f ae3d 75f7 6e3d 8ac2 a2bd 6b91 b73c

fc2.bias f4 [81]
-0.07858379 -0.03356807 -0.07552652 0.008930371 0.037923977 0.07828511 0.026311306 -0.014068509
0.06598838 0.0009565677 -0.0406724 0.13818419 0.14308354 -0.0077616517 -0.10077462 -0.06589645
-0.004665188 0.033253778 0.054573886 -0.08935758 -0.021177394 -0.09611902 0.034872945 -0.1329632
0.08697319 0.057667304 0.05701866 -0.053397123 -0.014414309 0.05935014 -0.07067476 0.046528965
-0.0804613 0.07375708 -0.015815325 -0.011281375 0.023718765 -0.10276729 -0.0037351681 0.08825178
0.10957648 0.064763546 -0.065127395 0.123501465 -0.08607882 0.047033638 -0.060898103 -0.053532552
-0.09767494 0.02485201 -0.14024065 0.034383856 0.05345747 0.02232606 -0.08466682 0.09978871
-0.1299175 0.038040847 0.06970564 0.016164731 0.005456241 0.057264138 -0.10206909 0.10244402
0.057066217 -0.02000672 0.06510432 0.09648186 -0.044177078 0.06004754 -0.039429408 0.08836275
0.078677565 0.005777332 0.02059882 -0.051371757 -0.088960424 0.019840382 0.016997745 -0.08969324
-0.08139411
00000000: 8af0 a0bd ac7e 09bd a6ad 9abd b150 123c
00000010: 2c56 1b3d f253 a03d cf8a d73c 9b7f 66bc
00000020: ea24 873d 2cc2 7a3a 1a98 26bd 2880 0d3e
00000030: 7e84 123e 7455 febb ed62 cebd b8f4 86bd
00000040: 6fde 98bb 1d35 083d de88 5f3d 1b01 b7bd
00000050: 377c adbc 0cda c4bd efd6 0e3d 8127 08be
00000060: 001f b23d 8d34 6c3d 668c 693d f1b6 5abd
00000070: fe29 6cbc 2219 733d eebd 90bd 2895 3e3d
00000080: e5c8 a4bd f40d 973d 248f 81bc 84d5 38bc
00000090: db4d c23c a877 d2bd b9c9 74bb 59bd b43d
000000a0: a269 e03d c0a2 843d 8361 85bd 56ee fc3d
000000b0: 184a b0bd 58a6 403d 4a70 79bd f344 5bbd
000000c0: cd09 c8bd 7196 cb3c 3f9b 0fbe 16d6 0c3d
000000d0: 38f6 5a3d 24e5 b63c cc65 adbd 065e cc3d
000000e0: 1809 05be b8d0 1b3d d5c1 8e3d e66b 843c
000000f0: 44ca b23b cd8d 6a3d 9909 d1bd 2cce d13d
00000100: 44be 693d 22e5 a3bc 6a55 853d 4898 c53d
00000110: 06f3 34bd 69f4 753d bb80 21bd 88f7 b43d
00000120: b421 a13d c64f bd3b dbbe a83c 316b 52bd
00000130: e230 b6bd 4c88 a23c db3e 8b3c 17b1 b7bd
00000140: f5b1 a6bd
