code/outputs/EV_Charging_Pricing/num of EV/models/dqn_checkpoint.pth (torch, 354981 bytes, 6 tensors)

fc1.weight f4 [256, 5]
00000000: db58 753e ed29 a8bd 1c9b 8b3e afd0 bd3e
00000010: 93dd 3b3c e6be bcbe 97cf 993e 30b2 203e
00000020: f78b bbbe 1608 2c3e 40b6 bc3e 076a cd3d
00000030: b2e1 4b3e d8c8 9b3e 1eb3 d73e ff1f e43e
00000040: d761 113d 522e 683d 7387 383e e2d9 e83d
00000050: c2cd 363e 7c25 2a3e ef37 a33e 78cc 1dbd
00000060: f549 363d 7c95 843e 2a01 c5be 9c4b 933e
00000070: e41a 86be 72cc d2be 1b76 3fbd b8e0 b03e
00000080: 8674 35bc ccc6 e3be abac 9abe 036c 1e3c
00000090: 1fa3 283e 0575 bc3e 187a 1b3e 8da0 bf3e
000000a0: afb2 ce3e a1b8 cebe 790b 823d 1f24 5abd
000000b0: 2aed 75bd e76c 903e 4f97 a73e 8794 363e
000000c0: 9f03 df3d 3fc6 a23d 752c fd3d 517e 4b3e
000000d0: 6d83 a93e 716e bbbb fc25 d1be e2bb a7bc
000000e0: 3842 d73c 021b 333e bc32 67be d3ab fb3b
000000f0: dd62 22be e376 4ebd 291a 083e 80c3 0fbe
00000100: 1e37 7c3e 6096 b7bd c298 8dbd 2e68 4a3d
00000110: 540c c73d 3c56 813e 8476 f63d 0d88 21be
00000120: 9561 ac3d 5a2f 9bbe 9433 e33e 23e1 bcbe
00000130: 438a 39be 09b4 8b3d 4e3e c3be 0b3f fdbd
00000140: 4c0e c0bd 1a82 313e 14b7 f43d 3044 22be
00000150: cb2f 5cbe 6dab e63b 85de 97be 77cf 383e
00000160: 58d8 333e e879 ae3d 1919 bdbe afe9 20bd
00000170: 4261 b8be 17ab 8e3e 0a31 023d 7cb5 b8be
00000180: e093 20be 81f1 4cbe 6a2d 863e db51 57be
00000190: 1a6c 483e 2860 69bc d540 3fbe 98ff ccbd
000001a0: b3e0 adbe 1e74 ccbd 9eb8 3f3e 2d2e 31be
000001b0: 5620 2d3e 88fc da3e 4923 3e3d cbef c8bd
000001c0: 61bc 2b3e da35 9c3e 187f d23e e343 0dbe
000001d0: 2559 96be 497f 943e fa99 99be 5427 8b3e
000001e0: ccc8 8f3e 2359 9dbe 0636 c4bc a9f1 d43d
000001f0: 4e22 c83e c8e2 a13d a993 883d fdf3 8dbe
00000200: 8c86 a4bd ac04 7f3e c270 c9bd 317c b7be
00000210: 84c2 49be f7a5 bcbe d51c 213d 87dc 54bc
00000220: b0d8 803b 2ec1 eb3d 0172 85be c334 b5be
00000230: 605d d13d e9eb d83d e693 8bbe 2f63 893e
00000240: 2348 8e3e ff1c c53e 291d 6a3e a964 a6be
00000250: 3671 5cbc 423d 2b3e f311 2bbe bd2f 18be
00000260: ccf2 413e 6560 e13e 0293 18be 43e6 e03e
00000270: f2a7 b43e e581 1d3e f2c1 87bd ae0f 373d
00000280: ffff b53e d9b9 c0be 6f7d c2bd a01a 93bd
00000290: b2e9 2f3e a5bc 93be 16cf 08be 4c93 0f3e
000002a0: afe2 993e 2656 973e 3e7f 2d3e 0a0a 14be
000002b0: 39fb 1abe 45b4 fcbd 5a1b 133e 8ecf 413d
000002c0: 153f 263d 64b8 9f3e 924c dcbd 7616 a53e
000002d0: 280d aebe fe47 24be bb89 b23e cac1 1bbd
000002e0: f9bc 6c3e 023c 2fbe 7b67 853e b44c ac3e
000002f0: b2a3 bcbe 099e 993e d20a e43e a4be b9be
00000300: 7f44 033e cc65 09bd e09d de3e 068b 9bbe
00000310: edc4 ddbe 1011 afbd 394a 4d3e 918f abbe
00000320: 9f7e d13e b706 2c3e ee51 49be a8a9 52bd
00000330: 5b64 9fbe 410c d93e 099f 3dbe 987f be3e
00000340: 5788 f1bd 80d1 d63e 272d 653e f938 b03e
00000350: c60e b93e 6d00 cb3e 66cf 8b3c 7787 66be
00000360: 532c 5abe 5a27 6b3e 31bd f03d 38f3 d93e
00000370: 7408 64be b4e9 b73e 86ae 023e bea2 fb3d
00000380: ef31 18be e6e1 6c3e 57e5 b93b 7f4b 8abd
00000390: c61d 2b3e 00c7 d5be c247 2dbe 801f 203e
000003a0: 1786 253e 62fd cebe a4ce cbbe 50e4 ad3e
000003b0: 317d c63d 5d4e c43e b80d 353e f320 97be
000003c0: 44ed babe 670f 9e3e 844b 0cbe 69e3 ad3e
000003d0: b35b da3e 122c 853d d192 323e d20a 8cbe
000003e0: fe83 d33e 3be8 5ebd 3455 bdbe 66c4 31be
000003f0: 9108 273e e162 b23e c380 1c3e b60e a1be
0.23959677 -0.08211122 0.27266777 0.37073275 0.011466402 -0.36864394 0.3004119 0.15692973
-0.36630222 0.1679996 0.36857796 0.10029989 0.19910315 0.3042667 0.42128843 0.4455566
0.035493698 0.0566848 0.1802042 0.11369683 0.17851928 0.16615862 0.3187861 -0.038525075
0.044504125 0.25895298 -0.3847745 0.28768623 -0.2619239 -0.41171604 -0.046743494 0.34546447
-0.011075145 -0.44487607 -0.3020986 0.009669307 0.16468476 0.3680803 0.15183294 0.37427178
0.403707 -0.40375236 0.063498445 -0.053257104 -0.06004063 0.28208086 0.32732627 0.17830096
0.108893625 0.07947969 0.12361995 0.19872405 0.33108082 -0.0057199528 -0.40849292 -0.020475332
0.026276693 0.17490771 -0.22577947 0.007680395 -0.15858026 -0.050406348 0.1329123 -0.14039421
0.246304 -0.08964229 -0.06913902 0.04941576 0.09719148 0.25261104 0.12034324 -0.15774556
0.0841705 -0.30309564 0.44375288 -0.36890516 -0.18119149 0.06821448 -0.38133472 -0.1236554
-0.09377727 0.17334786 0.11948982 -0.15846324 -0.21502607 0.0070394785 -0.29661956 0.18047892
0.17562997 0.085193455 -0.3693321 -0.039285358 -0.36011702 0.27864906 0.03178505 -0.36075962
-0.1568141 -0.20014001 0.26206523 -0.21027319 0.19572487 -0.014244117 -0.18677075 -0.10009688
-0.33960494 -0.09983085 0.1872277 -0.17302771 0.16906866 0.4277079 0.04642037 -0.09811362
0.1677108 0.30509835 0.4111259 -0.13795428 -0.29364887 0.2900336 -0.30000287 0.27178442
0.28082883 -0.30732068 -0.023951542 0.103976555 0.39088672 0.07904583 0.06668789 -0.2772521
-0.08033475 0.24904126 -0.0983596 -0.35836938 -0.19703108 -0.3684537 0.039334137 -0.012992031
0.003932081 0.115114555 -0.2606354 -0.35391816 0.10222888 0.10591871 -0.27261275 0.26833484
0.2778941 0.38498685 0.22862686 -0.32498673 -0.013454726 0.16722587 -0.16706066 -0.1486196
0.18940276 0.44018856 -0.14899829 0.43925676 0.35284382 0.15381582 -0.06628789 0.044692688
0.35546872 -0.3764179 -0.09496581 -0.07182813 0.17178991 -0.28854862 -0.13360247 0.14021033
0.30055758 0.29557914 0.1694307 -0.14456955 -0.15134896 -0.12339071 0.14365903 0.04731708
0.040587503 0.31195366 -0.10756792 0.322437 -0.33994412 -0.16043088 0.34870705 -0.03802661
0.23118962 -0.17112735 0.26055512 0.3365227 -0.3684364 0.30003384 0.44539505 -0.3627826
0.12819098 -0.033544347 0.43479824 -0.30379504 -0.43314305 -0.08548176 0.20047845 -0.3350797
0.40916917 0.16799437 -0.1966016 -0.051431328 -0.31131253 0.4239216 -0.18517698 0.3720672
-0.11793583 0.4195671 0.22380506 0.34418467 0.36144084 0.39648762 0.017066669 -0.22512613
-0.21305971 0.2296423 0.117548354 0.42568374 -0.2226885 0.3592049 0.12761888 0.122869
-0.14862798 0.23133048 0.0056730914 -0.06752681 0.16710576 -0.41753387 -0.16921905 0.15637016
0.16164432 -0.4042769 -0.39806092 0.3396325 0.09691847 0.38341036 0.17681015 -0.29517326
-0.36509144 0.30871126 -0.13700682 0.33962563 0.42648086 0.06502546 0.17438819 -0.27352005
0.4131164 -0.05442069 -0.36979067 -0.17360076 0.16311862 0.34841064 0.15283494 -0.31456536

fc1.bias f4 [256]
00000000: c0e6 21bd 2c22 fdbd 852c c4bc 08a6 b9be
00000010: 5847 903d 97fe a73e 29f2 523c 45d1 bb3e
00000020: a2c9 97be cecf c23e 9ca3 de3e f49c 3d3e
00000030: f8bf 58bd 024e 9fbe 1297 9e3e cb05 613e
00000040: f60b 6c3e c9bc 4abe 83ea 6ebe 9c8f 46be
00000050: 9939 7e3d 488d 9b3e 525d 433e c56a 903e
00000060: ddda f93d 60a4 0fbe a5a0 18be f371 61be
00000070: 5a47 813e 2d31 9abe b936 a5be f4d1 2f3e
00000080: 2ff0 9abe ec5d da3c c274 71be 223b cc3e
00000090: 824a 413e 8701 c43e 141b 6abe 5b2c d1be
000000a0: d7de 31bc 1a9a 0ebe 4462 223e 88ff ae3e
000000b0: 17ed a33e fb86 773d 95f9 bfbe 2630 6fbd
000000c0: 5de0 a8bd 4939 46be 6c04 52be bf2b 67be
000000d0: 7750 f23d df90 8fbe eb4c 9c3e 65c1 dc3e
000000e0: 1ee2 43bd bea2 56be 1e81 103d 908d e13d
000000f0: cece bdbe e860 37bc fa0f 213c 9023 debe
00000100: ec65 5c3e 135d 9cbe 9615 6a3e ccf7 08be
00000110: 2593 743e 0a67 bf3e 9899 c0be 07ab cfbe
00000120: a18e d4bd 15a3 efbc 7960 3f3c 0630 843e
00000130: 68c5 973e 29ea 66be 38e4 123e 080d 0d3e
00000140: c257 8abe 3389 40bc c9fe 3fbd 4769 e1be
00000150: 8e1c dfbd 4372 bf3e a18c 8e3e c88c e43e
00000160: 31d8 bbbe fa28 9cbe f736 cfbd c559 b33e
00000170: 1bcb 99be 8e4b b13e ec25 b7be 5a32 e0be
00000180: b5b5 bbbe bf15 a83d 1856 853e f9da e03e
00000190: 2a3e 8e3e a34f 773e 9ca7 4f3e 642a 133c
000001a0: a80f b93e cba5 8ebe ebea 413e bb25 9fbe
000001b0: 3516 e23e 0878 17be e044 b33e c535 4abe
000001c0: da5b abbc cc70 30bd a553 edbd c380 a43b
000001d0: d70e 453e 60f0 9b3e 094e bc3e 8b4c a0be
000001e0: 7590 3b3e 82c1 0c3d a489 3ebe 83c4 923d
000001f0: ffa0 c73d e268 c8be 022b 953e c5b2 003e
00000200: 6fb1 87be f756 08be 1999 3dbe d27f 573e
00000210: 9f3a 4c3d d54e 7a3e 81f9 30be e6e3 663e
00000220: e03e 95be f944 22be 1a02 a8be eb95 cd3e
00000230: 6633 983d c756 aebe 0012 74be e203 553e
00000240: 7aea c4bc 731a da3e b288 c7be 6090 b43e
00000250: 0436 cfbd 091e debd 4252 64be d56e 693e
00000260: 2523 8f3d 96f6 aabd 46f4 27be ee64 3e3e
00000270: 8c6f 1e3e 4dce d43e 18b2 e03d f34d 63be
00000280: ca92 7e3e eb26 aebd 3f2a 73be 4d07 813e
00000290: 3748 2bbe 52aa 8b3e ec30 3c3e b69c 8c3e
000002a0: 9448 c83e f826 e7bc b955 64bd 5431 823e
000002b0: 98f1 7dbe df52 733e e8f6 22be 375c e83c
000002c0: 518a 863e 5330 843e dbbd d1be 020d 013d
000002d0: 64f6 afbe f042 c43e ccce d0bd 0daf 95be
000002e0: 6cf9 9abe 267c 61be 3633 ab3d 1991 d43e
000002f0: 16c3 033c d0ca 763e 902a 5abe 06fb 00be
00000300: e016 1e3d 7edc 99be 73d5 413e 3c28 cdbd
00000310: 7a9e 433d 0dd6 933e e878 423e 3cba 3d3e
00000320: dd35 413e c5e1 8fbd 66f5 23be e441 b93e
00000330: bf99 b83e 6f43 dbbe 2465 463e 8335 cbbe
00000340: 8447 8f3e 7285 e23e 0ca4 8fbe bf75 0bbe
00000350: 25d3 573e 3712 3a3e 6f16 773e 8dbd d7be
00000360: 3506 e7bb 90d7 693d 0e1d 923d fabf fabd
00000370: c6ca 22be 0c1d d9bc 3388 a13e efa2 8d3d
00000380: f735 b2bd 4d93 47be 9e3a cdbe 2371 c3bc
00000390: 360c 83be c031 be3e 05e8 f4bd b455 9bbd
000003a0: 09ea e7bd f3c2 233e 7aa5 9d3d fa26 edbd
000003b0: 5ee7 ff3d f69b a5bc 1d79 c4be fece 47be
000003c0: eee5 1d3e 2e49 0c3e 62c6 0b3e 4e34 9abe
000003d0: abc9 503e 9607 01be dde4 ac3e 8746 cbbe
000003e0: d99b c6be 7f8e db3e 9ef5 afbe 7ab3 c23e
000003f0: 9f1e 5e3e 83cf 8f3e 9c63 a83e efc3 7c3e
-0.0395267 -0.123600334 -0.02394701 -0.36259484 0.07044858 0.32811424 0.012875118 0.36683097
-0.2964602 0.38049167 0.434842 0.18516904 -0.05291745 -0.31114203 0.30974633 0.21974866
0.23051438 -0.19798578 -0.23331647 -0.1939072 0.06206665 0.30381227 0.19078568 0.2820646
0.12199948 -0.14027548 -0.14905031 -0.22016124 0.2524975 -0.30115643 -0.32268313 0.17169935
-0.3026137 0.026656114 -0.23579696 0.39888865 0.18876079 0.38282415 -0.22861892 -0.40854153
-0.010856352 -0.13925973 0.15857798 0.3417933 0.32016823 0.06043146 -0.37495103 -0.058395527
-0.08245919 -0.1935779 -0.205095 -0.22575282 0.11831754 -0.28040215 0.30527434 0.43116298
-0.047823064 -0.20960519 0.035279386 0.11013329 -0.37071842 -0.011192538 0.009830469 -0.43386507
0.21523255 -0.3053976 0.22859797 -0.13375777 0.23884256 0.373833 -0.37617183 -0.4056017
-0.10378767 -0.029252568 0.011680716 0.2581789 0.29642797 -0.22550263 0.14344871 0.13774502
-0.2702008 -0.011751461 -0.04687384 -0.44025633 -0.10894118 0.37391862 0.27841666 0.44638658
-0.36688378 -0.30500013 -0.101179056 0.35029426 -0.3003777 0.34627956 -0.3577112 -0.43788415
-0.3666207 0.08207273 0.26042247 0.43917063 0.27781802 0.24151473 0.20278782 0.008982275
0.36144757 -0.27860865 0.1893727 -0.31083474 0.44157568 -0.14791882 0.35013485 -0.19747074
-0.020917822 -0.04307632 -0.115882196 0.0050202324 0.19243942 0.3045683 0.36778286 -0.31308398
0.18316825 0.03436423 -0.18607193 0.07166388 0.097475044 -0.3914252 0.29134375 0.12568195
-0.2650256 -0.13314424 -0.18515433 0.21044853 0.049860593 0.24444135 -0.17282678 0.22547874
-0.29149532 -0.15846623 -0.32814103 0.4015344 0.074316785 -0.3405058 -0.23834991 0.20802262
-0.024037588 0.42598304 -0.38971478 0.352664 -0.101177245 -0.108455725 -0.22297004 0.22796185
0.06989125 -0.08347814 -0.16401777 0.18593189 0.1547224 0.41563645 0.10971469 -0.22197704
0.24860683 -0.08503517 -0.23746584 0.25200883 -0.16726767 0.27278382 0.18378037 0.2746331
0.39117873 -0.028216824 -0.055745814 0.2542826 -0.24799192 0.23762082 -0.159145 0.028364284
0.26277402 0.25818118 -0.4096516 0.031506546 -0.3436767 0.3833232 -0.101956934 -0.29235116
-0.3026842 -0.22020015 0.08359377 0.4151695 0.008042118 0.24100804 -0.21305299 -0.12595758
0.038596034 -0.30051035 0.1892908 -0.1001744 0.047758557 0.28874245 0.18991435 0.18528074
0.18868203 -0.07025484 -0.16011581 0.36183083 0.360548 -0.42824885 0.1937452 -0.39689264
0.2798425 0.44242436 -0.28054845 -0.13619135 0.21076639 0.18171011 0.24129651 -0.42136803
-0.0070503005 0.057090342 0.07134448 -0.12243648 -0.15897664 -0.026503108 0.31549224 0.06915843
-0.08701699 -0.19489785 -0.40083784 -0.023857659 -0.25595254 0.3714733 -0.11958317 -0.07584706
-0.113239355 0.15992336 0.07697578 -0.115797 0.12495302 -0.02021597 -0.38373652 -0.19512555
0.15419742 0.13699791 0.13649896 -0.3011803 0.2038943 -0.1260055 0.3376836 -0.39702246
-0.38790777 0.42882153 -0.3436708 0.38027555 0.21691369 0.28088006 0.32888496 0.24684118

fc2.weight f4 [256, 256]
00000000: f8e7 313d fcca 9ebc c094 b03c 1e01 343d
00000010: e062 5c3b d417 0fbd 2021 6dbd 848e 523d
00000020: 802f 033c 586e 703c d4a7 00bd e0b3 ffbc
00000030: b225 4abd 0298 063d 5074 4c3c 5c5d f93c
00000040: 083e 713d ec58 02bd bc4c 553d caa5 003d
00000050: f0b4 f3bc a8e7 763c daa1 533d 90d5 503d
00000060: 8ac0 413d e0c4 0a3b 4249 4fbd d625 53bd
00000070: 6059 623d 287d c7bc ba02 3cbd 2485 e83c
00000080: 607a 89bc f455 f2bc 80f9 283a 56b6 7bbd
00000090: 7cf4 ecbc a0be 383b e413 1f3d 406b 7bbd
000000a0: a8a4 f73c 3cff dbbc 82d1 67bd 000c 30b9
000000b0: c02a 3b3c 3c05 963c 7e65 1d3d 70de de3b
000000c0: 6240 71bd 8a71 15bd 9852 4dbd 9844 7b3c
000000d0: dad9 56bd a4e7 1b3d d6d1 21bd 4cd8 d03c
000000e0: 78aa 99bc fcd5 023d 9810 34bd e443 e4bc
000000f0: 7223 253d 2ccb 0abd 344d abbc 085a 543c
00000100: 64d2 e2bc 8cc8 5dbd 0048 9bbb e83f 693d
00000110: 5031 be3b 1021 98bb f875 673d e07e f4bc
00000120: 5c40 6b3d 92ab 4cbd 7aaa 0fbd 00c8 45bd
00000130: 863d 63bd 46b2 7e3d 486e ad3c 4808 323c
00000140: 70e3 823b 7887 273d 1a39 513d 445b 64bd
00000150: 0000 5d3a a837 063d 98b0 0fbd 00ba abb9
00000160: 804e 5bbb a602 033d 9859 d2bc 00d6 6139
00000170: 92a1 0c3d 1828 063c b071 813c 20db fabc
00000180: 5af0 1cbd c675 6ebd a86e 853c 00bc 5a3c
00000190: b2cb 67bd 00b8 9d3b b8e9 6cbc 9c47 c8bc
000001a0: 7c1a d23c 0ade 603d ba0a 58bd 4094 6abc
000001b0: 6059 febb c801 5fbd e0e1 5b3b b21a 7b3d
000001c0: 4ca3 6a3d 5a59 0abd 4426 3fbd 8037 453a
000001d0: 2c51 6fbd 20ea 75bd e487 9bbc 70af dfbb
000001e0: b8a7 24bc 848f 0fbd c2d3 733d 24da c83c
000001f0: 78ea 61bc 18b4 1bbc f2b8 323d ecde 61bd
00000200: 9caf 263d b076 e8bb 0679 6dbd c05c cfbb
00000210: 6c38 7ebd 2031 3fbc 1405 40bd 1e78 633d
00000220: 70f0 0dbc 260c 1bbd f013 073c 5a7f 4c3d
00000230: 46a3 23bd 7a9f 35bd ecdc 2a3d a03e 2bbd
00000240: b6a6 48bd a029 88bb b0bf 643d b667 1d3d
00000250: c4ec c8bc 3494 9b3c 94bd a3bc 581b 67bc
00000260: 6099 463c 56d0 503d 408b 5abc 1233 5ebd
00000270: fa3a 0a3d 2ce1 0f3d 6052 0a3d a44c 843c
00000280: 643a e53c d853 7dbd 5675 63bd c83d 09bd
00000290: 7034 6abc 501f 32bc f474 c0bc 92b3 28bd
000002a0: 78c5 0c3c 082b afbc f08f 7dbd 74f6 573d
000002b0: f0f4 663c 5cdb 303d 80cd 8bbb 7082 f4bc
000002c0: e0a4 56bb aca3 eabc 7c23 c0bc 2cd2 433d
000002d0: 4078 653b 90ad 213d 20b0 3ebc 2808 fb3c
000002e0: e2d6 1f3d 1c25 cfbc 90c3 9ebc a0c9 1abc
000002f0: 48c5 183c b857 5e3c e07f 0cbc 3ced f3bc
00000300: 4079 43bd 0644 073d ee7a 2a3d 7cb7 f5bc
00000310: 58c8 95bc 6acc 11bd 3012 d3bc 103f 25bd
00000320: eeb4 20bd ac65 a33c cc37 50bd 8c0a d93c
00000330: 7eab 54bd 30fd 1b3d 2ede 54bd e4fa 3bbd
00000340: 109e 3fbc c65d 333d d0c1 383d 1835 b6bc
00000350: 7c28 d9bc bcdb 62bd c477 493d 00b8 3cb9
00000360: ceff 643d 0035 d03b d8c1 7dbd 466d 65bd
00000370: e859 043c 343f ba3c 448c 643d 6ef1 7ebd
00000380: 5894 7c3d 5e26 713d c424 573d e8ea 363c
00000390: 24f9 5f3d c88b 753c 80e3 96bb 222c 583d
000003a0: ac0f 2cbd c070 60bc 8048 823c a492 663d
000003b0: b089 e53b b0bc 2fbd 1842 c0bc 60df 523d
000003c0: 5e0b 38bd 86d4 743d 80e8 e0bc 4840 d8bc
000003d0: 8889 33bd 98a2 283d 2452 433d a824 94bc
000003e0: 0cbb 123d f088 4dbd f446 51bd 3c23 b63c
000003f0: 5e58 19bd e2bf 033d 06f6 61bd 484f 4a3d
0.043434113 -0.0193839 0.021555305 0.043946378 0.003362827 -0.034934834 -0.05789292 0.051405445
0.00800693 0.0146747455 -0.031410053 -0.0312137 -0.049352355 0.03285981 0.012478903 0.030440025
0.05889705 -0.031823084 0.052075133 0.03140811 -0.029749364 0.01506988 0.051668026 0.05098492
0.04730276 0.0021174476 -0.050606973 -0.051549755 0.055261016 -0.024351671 -0.045901038 0.028383799
-0.016781986 -0.029582001 0.000644587 -0.061453186 -0.028925173 0.0028189793 0.03883733 -0.06138158
0.030229881 -0.026855104 -0.056596287 -0.00016789138 0.011423767 0.018313043 0.03842687 0.006801419
-0.05889929 -0.036485232 -0.050127596 0.015336178 -0.052453853 0.038062707 -0.039506756 0.025493763
-0.018758044 0.031942353 -0.043961138 -0.027864404 0.040317006 -0.033885166 -0.020910837 0.012960918
-0.027688213 -0.054146335 -0.0047388077 0.05694571 0.0058042184 -0.004642613 0.05650899 -0.029845655
0.057434425 -0.04996831 -0.03507469 -0.048286438 -0.055478595 0.062181734 0.02117075 0.010866232
0.003994398 0.040900677 0.051079847 -0.0557511 0.0008430481 0.03276792 -0.035080522 -0.00032754242
-0.0033463538 0.031984948 -0.025677487 0.00021537393 0.034333773 0.00818827 0.01580128 -0.030622065
-0.038315155 -0.058217786 0.016288117 0.013350487 -0.056590743 0.0048131943 -0.01446002 -0.024448209
0.025647394 0.054899253 -0.052744605 -0.014317572 -0.007762119 -0.054445058 0.003355138 0.061304756
0.05728464 -0.03377662 -0.046667352 0.0007523224 -0.05842702 -0.060037732 -0.018985696 -0.0068263337
-0.010049753 -0.035048977 0.05952812 0.02451808 -0.013788812 -0.009503387 0.04363341 -0.055144235
0.040694818 -0.007094227 -0.057976745 -0.0063281953 -0.062065527 -0.011669427 -0.046879843 0.055534475
-0.008663282 -0.037853383 0.0082445 0.04992614 -0.03995063 -0.04434154 0.041714594 -0.04180777
-0.048987113 -0.0041553527 0.05584687 0.038428985 -0.024526961 0.018991567 -0.019987859 -0.01410564
0.012121528 0.050979935 -0.013338864 -0.054247923 0.03374765 0.03512685 0.033769965 0.016149826
0.027981944 -0.061847538 -0.055531822 -0.033506185 -0.014294729 -0.010871723 -0.023493268 -0.041186877
0.008592002 -0.021382824 -0.061904848 0.05272527 0.014096484 0.043177947 -0.004266441 -0.029847354
-0.0032752082 -0.028642498 -0.02345442 0.047807857 0.0035014302 0.039472163 -0.011638671 0.030643538
0.039023288 -0.02528625 -0.01938036 -0.009447485 0.009324379 0.0135707185 -0.00857541 -0.029776208
-0.047723055 0.033023857 0.04162114 -0.029994719 -0.018284008 -0.035595335 -0.025765508 -0.040343344
-0.039235048 0.019945942 -0.050834462 0.026494287 -0.05192136 0.038083255 -0.0519697 -0.045893565
-0.0116954 0.0437906 0.04510671 -0.022242114 -0.026508562 -0.055385336 0.049186483 -0.00017997622
0.055908017 0.0063539743 -0.061952442 -0.056012414 0.008078076 0.022735216 0.05579783 -0.062241964
0.06166491 0.05887448 0.052525297 0.011164404 0.05468096 0.01498694 -0.004604757 0.052776463
-0.042007133 -0.013698757 0.015903711 0.05629219 0.007004939 -0.042904556 -0.023469016 0.05148256
-0.044932716 0.05977299 -0.027454615 -0.02639784 -0.043832332 0.041170686 0.047685757 -0.018083885
0.035822913 -0.050179422 -0.051093057 0.022233598 -0.03743779 0.032165416 -0.055166267 0.049392015

fc2.bias f4 [256]
00000000: 004b 6cbc 4010 d83c 42fe 063d bcae 30bd
00000010: 00dc 42bc 60b0 143b a453 dbbc b826 48bd
00000020: 908b 0bbc 601d 65bc 884d 66bc 18eb b13c
00000030: 52d4 3fbd b019 a93c 826c 77bd 94ff e73c
00000040: b283 103d 0020 2cbb fe64 163d 542a a23c
00000050: a8c9 9dbc 3a9b 2bbd a415 eb3c 8ee7 103d
00000060: c0c9 523b 40ab cf3c 86c8 2c3d 40c1 edbb
00000070: 7077 49bc 90d1 a0bc b2dc 233d 6259 4a3d
00000080: 7898 af3c 883c 82bc 008d cbba 4033 8fbb
00000090: f2ea 14bd 5adf 673d ca7f 64bd 00f4 573a
000000a0: 9ca6 eabc f469 b83c ace1 243d cc48 37bd
000000b0: 407f 4ebb b6ef 41bd dc1e 77bd dc6f 403d
000000c0: 589c 07bd c031 15bd 40f6 e23b c0b8 7e3b
000000d0: a04b 56bb 4ed8 1cbd 70e1 763d da3c 553d
000000e0: 2839 a3bc 8851 613c 0298 0d3d 221b 5b3d
000000f0: 80c6 f0bc 6073 733d 020d 5a3d 240d 14bd
00000100: 9c59 cb3c 744f 35bd 7cf9 a83c c22f 12bd
00000110: a2bf 643d 900e 513c 3e48 53bd aa05 07bd
00000120: 68e4 50bc d065 c93b 18f1 44bd c015 213c
00000130: 10f9 13bc 289b 5f3d b8dc 05bc c071 22bc
00000140: e0f5 743d e853 543d 4a9e 6b3d 8295 06bd
00000150: 3897 113c 222d 093d a82e cfbc c205 47bd
00000160: 5e6d 413d d05b edbb 584d f63c a859 a13c
00000170: 366b 593d d043 4fbd c0ad d1bc 60a4 2fbd
00000180: 969c 1b3d 20cb 1a3d d4d5 1ebd 5a13 14bd
00000190: 60f0 ebbc dcab 883c 26a9 653d 3067 64bc
000001a0: 8407 37bd 2cf0 a9bc 167f 403d beea 353d
000001b0: b8f9 2d3d 1aad 2a3d fca4 f13c fea0 223d
000001c0: 3c86 773d 504e 0b3d 0c4e 353d fc33 08bd
000001d0: 8c7a 473d 9c38 693d f836 56bc 2865 57bc
000001e0: d049 183c 0c87 5a3d 166b 693d 60c9 883b
000001f0: a04c b7bb 5c51 0c3d e487 93bc bcdc 5fbd
00000200: a465 cd3c fa93 09bd dc07 cfbc 6c45 793d
00000210: 44da 133d 1e78 60bd b80a e23c 0016 e6b9
00000220: 026a 37bd a67b 4e3d b4f1 663d 98dc 42bc
00000230: cacc 1e3d 4019 163d 34cf 93bc dc63 38bd
00000240: 3244 6bbd 809a 743b d4f5 77bd 5877 d33c
00000250: c8de dcbc 04e1 89bc 7091 02bd c261 673d
00000260: 1ca3 74bd 0008 ad38 ce47 1ebd 40ea 163b
00000270: 16f2 263d 8aef 393d 3e70 27bd fc83 0dbd
00000280: ec26 babc dc3c 7a3d ccef 203d 223b 093d
00000290: 7cd5 8cbc 62b5 413d 48d6 813c 1ce7 023d
000002a0: 94ee cebc 6277 693d 1877 9ebc 109a 783c
000002b0: 0226 2c3d 901c b33b 92b2 1a3d 8c54 ae3c
000002c0: 98cc 563d acf2 c53c e441 63bd 6c60 50bd
000002d0: 907c cd3b a6fc 35bd e050 cd3c c81b 693d
000002e0: aae5 64bd 8024 c0ba 9c7b 17bd 3a50 493d
000002f0: b452 debc b82f f63c 4a4b 6bbd 7a24 5fbd
00000300: acf4 72bd aa88 5d3d e01e 2bbb 40a0 273c
00000310: b4a7 8bbc 8c4d 8fbc 2852 283c acab 3bbd
00000320: a044 443d dc7e c9bc e2f0 7bbd 923e 11bd
00000330: 8ea9 1dbd a499 833c 8217 11bd c2ee 1c3d
00000340: 38f4 e93c 607d 9fbb f499 3a3d 48a5 29bd
00000350: 54f8 0c3d f099 8a3c c88c 3a3c 48e6 65bd
00000360: cadb 693d e8e5 5bbd 104e 613d dc8d 323d
00000370: c0ab 1e3d 78fe 343c 2852 c5bc e0f1 46bb
00000380: 2e9c 463d 90f4 1c3c 903f e4bc dc4f 6bbd
00000390: 462f 2e3d 482c 233d 8855 c73c b270 013d
000003a0: 0c14 473d a6c7 43bd 8437 e93c 74cd 99bc
000003b0: fc5f 863c b0d9 11bd 9891 093d 1c7a a03c
000003c0: 1239 623d 509c c33c 001b a939 0cca 54bd
000003d0: bc8d a9bc 3c9f 14bd 9893 593c c480 fb3c
000003e0: 700d e8bc 701c 9d3c 60da 293b 8c72 ccbc
000003f0: 10bd 493c 30ba 1c3c 5866 60bc e841 1b3c
-0.014422178 0.026374936 0.032957323 -0.04313539 -0.011893272 0.0022688136 -0.026773281 -0.04886505
-0.008517161 -0.013984054 -0.014056571 0.021718547 -0.046833344 0.020642132 -0.060406215 0.028320111
0.035281844 -0.002626419 0.036717407 0.019795574 -0.019261196 -0.041896082 0.028696842 0.035377078
0.003216371 0.025350213 0.04218342 -0.007255703 -0.0122965425 -0.019631177 0.040005393 0.04940165
0.021435007 -0.015898004 -0.0015529692 -0.004370123 -0.036356874 0.05660949 -0.05578593 0.0008237958
-0.028643899 0.02251146 0.04025428 -0.04474716 -0.0031508952 -0.047347747 -0.060332164 0.046981677
-0.033108085 -0.0364244 0.006926328 0.0038867444 -0.0032698885 -0.03829222 0.060273588 0.052059986
-0.019924715 0.013752349 0.034568794 0.053492673 -0.029391527 0.059436202 0.05323506 -0.036145344
0.024823003 -0.044265226 0.020626776 -0.035690077 0.055846818 0.01275982 -0.051582567 -0.032964386
-0.012749769 0.00614617 -0.048081487 0.009831846 -0.009031549 0.054591328 -0.008170299 -0.009914815
0.059804797 0.05183783 0.057524003 -0.032857426 0.008886151 0.033490308 -0.025290802 -0.048589475
0.04722344 -0.007243611 0.030066177 0.019696072 0.05308076 -0.05060178 -0.025595546 -0.04288137
0.03799113 0.03779137 -0.03877814 -0.036151268 -0.028801143 0.016683511 0.056069516 -0.013940617
-0.0446849 -0.020744406 0.0469962 0.04441332 0.04247448 0.04166899 0.029497616 0.039704315
0.06043075 0.03401023 0.044263884 -0.0332527 0.048700854 0.056938753 -0.013074629 -0.013146676
0.009294942 0.053351447 0.05698689 0.0041743964 -0.005593851 0.034257278 -0.018009134 -0.054653868
0.02507288 -0.033588387 -0.025272302 0.06085722 0.036096826 -0.054802053 0.027593002 -0.0004388541
-0.04477883 0.05041089 0.05638285 -0.011893414 0.03876952 0.036645174 -0.018043138 -0.04501711
-0.057438083 0.0037323534 -0.060537174 0.025813743 -0.0269617 -0.016830929 -0.03187698 0.056489713
-0.059725866 8.250773e-05 -0.038642697 0.0023027807 0.040758215 0.045394458 -0.040878527 -0.0345497
-0.022723638 0.061093196 0.039291188 0.03350366 -0.017191641 0.04729212 0.015849248 0.031958684
-0.025260247 0.056998618 -0.019343898 0.01517345 0.042028435 0.0054660514 0.037767954 0.02128055
0.05244121 0.024163567 -0.05548276 -0.050873205 0.0062709525 -0.044430397 0.025062978 0.05691126
-0.055883087 -0.0014659315 -0.036983117 0.049148776 -0.027139045 0.030052051 -0.057444848 -0.054478146
-0.05931537 0.05408541 -0.0026110932 0.010231078 -0.01704774 -0.017493032 0.010273494 -0.045818016
0.04791701 -0.024596624 -0.06150902 -0.035460062 -0.038491778 0.016064472 -0.03542281 0.038313635
0.028558835 -0.004867241 0.045556977 -0.04141739 0.03441651 0.016919106 0.011386104 -0.056127816
0.057094373 -0.053686053 0.055006087 0.04359232 0.038738012 0.011046998 -0.024087027 -0.003035657
0.04848879 0.009579793 -0.02786234 -0.057449207 0.042525552 0.03983715 0.024332777 0.031601615
0.048603103 -0.04779782 0.028468855 -0.018774725 0.01640319 -0.035607994 0.033586115 0.019589476
0.055230208 0.023878247 0.00032254308 -0.0519505 -0.020697467 -0.03628467 0.013279818 0.030701049
-0.02832672 0.0191786 0.0025917515 -0.024956964 0.012313142 0.009565875 -0.013696276 0.0094761625

fc3.weight f4 [81, 256]
00000000: 68a8 e93c 3814 debc 5016 d83c 2ca3 673d
00000010: 4aa1 4c3d 4a79 693d aa3a 59bd aa63 0f3d
00000020: 42fc 513d 580e ef3c 2049 d0bb 8c9f b13c
00000030: 0465 c8bc 584f 063d a678 51bd e070 bb3b
00000040: ece7 e0bc aa91 26bd 202b 6a3d 84af c13c
00000050: d8bf 183c 0a94 5cbd 98a5 793d 808b 1d3c
00000060: 8437 75bd e82d 753c 941e ed3c 9049 a43b
00000070: e80f f23c 2e6e 463d 18bc 713c f2a4 613d
00000080: f687 663d 1e1a 033d 6c8f 363d 585d d73c
00000090: 2062 f33c 50de b83c 4ca7 fbbc 64af 54bd
000000a0: a69f 0fbd 2029 c93b cc1f 9f3c a031 4c3d
000000b0: 2209 3ebd 0018 1f39 18c2 ba3c 8ab6 723d
000000c0: b8bb 25bc b231 553d 30a6 81bc f8c5 e1bc
000000d0: 040c 08bd d023 333c ac24 4fbd 56d1 00bd
000000e0: c486 413d 2a0b 723d 9a3f 103d 24b4 aabc
000000f0: 9a0e 023d a84a 413d 0647 533d 600b 84bc
00000100: a068 4ebb e06e df3b f0a8 4abc 0e9f 3dbd
00000110: dc92 71bd 8065 cfbb 2433 27bd 2012 3d3d
00000120: 60e9 59bc 8057 793d 4eaf 4ebd b421 2f3d
00000130: cee8 233d 1c69 8bbc 5cfe 52bd c05f 27bd
00000140: 72a1 723d d492 e9bc 309a 74bc 042a 55bd
00000150: 72fe 543d 50fe 773d 7072 993c be00 45bd
00000160: ee5d 2c3d 10a5 493d ac27 9ebc 6e6f 6b3d
00000170: f473 613d 1047 953b 74c1 f6bc 4cd4 833c
00000180: 4c01 ecbc c052 87bb f6ce 053d 0069 d3bb
00000190: d633 2bbd 1265 74bd 10e7 04bd bcc4 b83c
000001a0: a4fa 14bd 20ef 273d 3454 593d 0468 073d
000001b0: 909f 2f3d 749a 33bd c0f9 30bb e29a 13bd
000001c0: 1476 003d 8ccd 4e3d 68f8 2c3c a004 023c
000001d0: 5444 d53c 78a3 863c 2020 663c 7af1 48bd
000001e0: 4063 8a3b 24df 8dbc 10c8 bfbc a0cd 6bbd
000001f0: d6e5 25bd 00c5 7fba 808c 193d 9c7a 3e3d
00000200: 1016 f9bc 8871 77bc 20b3 db3c faeb 0ebd
00000210: 804a debc 40e0 02bb 00c6 a7ba 5058 a43b
00000220: c0db 03bc f899 4ebc 7033 e3bc 68ec 76bd
00000230: 5ef6 1f3d 2867 9cbc 4057 23bd a0d4 ec3c
00000240: a0eb 993b 781f a8bc 8c7d 1abd 5094 33bd
00000250: c02e 37bb b84b ec3c ce92 47bd 5a1f 463d
00000260: c656 2dbd f0f1 70bc c030 d03b a8c6 693d
00000270: 1467 5a3d 700d 933b bcc9 e33c c003 cbbc
00000280: cca3 4ebd 9ad1 063d 805c e83c e086 79bc
00000290: e81c 68bd c4af c63c 4ac5 483d 8061 5ebc
000002a0: a8fe 1fbd ecd2 7d3d 2eea 593d a0ad 0a3c
000002b0: 0a3d 633d 00ff 6c3b 8464 cb3c 4800 453c
000002c0: 6c67 903c a803 12bc 5c4d d2bc 5842 7f3c
000002d0: c84f f6bc 3839 e0bc d82c 703d c471 2ebd
000002e0: 201e 45bd 8083 3fbc 006e 023c 609c 0f3d
000002f0: 6cc4 afbc 8866 54bc ec4e 523d 6c28 5d3d
00000300: 2c9c 48bd f092 f8bc 04bc c8bc 4ac9 333d
00000310: 481e 393c 5457 60bd 34a5 183d d871 d13c
00000320: 3032 b5bc 6afe 073d 34db c93c 5030 8cbc
00000330: 2e91 633d 6caf 4dbd 0045 633d dce9 c53c
00000340: 5669 09bd 8e0e 25bd d0dc 59bd 4094 b93c
00000350: 6866 783c 4afa 71bd ecca 393d a817 58bd
00000360: 203b f33c ccb3 ef3c caed 06bd 8034 d5bc
00000370: 1498 afbc 4624 7a3d f007 e23c 00b7 b939
00000380: ace4 babc 4c61 d03c 702e 4dbc f896 a7bc
00000390: f6bc 5fbd f4c7 033d 38ec 1cbd ec1c 463d
000003a0: e074 26bb b042 a1bb 5449 5a3d 108f 533d
000003b0: 28a4 19bc 788c 11bc 7cc2 65bd f655 3c3d
000003c0: 4a48 453d aa1d 26bd 4c13 493d a643 3d3d
000003d0: 8e7c 18bd b4c3 76bd 92d0 71bd fab9 22bd
000003e0: 2e35 57bd 48b6 17bc 929a 15bd 00a6 5ebb
000003f0: 6816 febc 1202 513d d67e 313d f83f 443d
0.028522685 -0.02710925 0.026377827 0.056552097 0.049958505 0.057000436 -0.053034462 0.035007156
0.051265962 0.029181644 -0.0063563734 0.021682523 -0.02446223 0.03279051 -0.05114045 0.005720243
-0.027454339 -0.04066626 0.057170033 0.023643263 0.009323083 -0.05385212 0.060948938 0.009615779
-0.059867397 0.014964558 0.028945245 0.005013652 0.0295486 0.04844492 0.014754318 0.055088945
0.056282006 0.03200733 0.04457037 0.026289627 0.029709876 0.022566944 -0.030719422 -0.051925078
-0.035064362 0.0061389357 0.019424342 0.049852014 -0.04639543 0.00015172362 0.02279763 0.059256114
-0.010115556 0.052049346 -0.015826315 -0.02756022 -0.033214584 0.010933831 -0.050572082 -0.03144964
0.047247663 0.059092678 0.035216905 -0.02083785 0.031752206 0.04719034 0.051581405 -0.016118705
-0.0031495467 0.0068186373 -0.012369379 -0.046294264 -0.058977947 -0.0063292384 -0.040820256 0.046159863
-0.01330027 0.060874462 -0.050460152 0.04275675 0.04001694 -0.017017893 -0.051512107 -0.0408628
0.059235997 -0.028512396 -0.014929339 -0.052042022 0.05200047 0.060545266 0.018731326 -0.04809641
0.042081766 0.04922968 -0.019306026 0.057479315 0.055042222 0.0045555905 -0.030121543 0.016092442
-0.028809212 -0.0041297376 0.032668076 -0.006451726 -0.04179748 -0.0596667 -0.03244692 0.022554748
-0.036371842 0.04099953 0.053058818 0.03305818 0.04287678 -0.04384847 -0.0027004331 -0.03603638
0.031362608 0.050488994 0.010557272 0.007935673 0.026033558 0.01643537 0.014045745 -0.049058415
0.0042232573 -0.017318316 -0.023410827 -0.057569146 -0.04050239 -0.00097568333 0.037487507 0.04650365
-0.030406028 -0.015102752 0.026818812 -0.034893014 -0.027135134 -0.001997009 -0.0012800097 0.0050154105
-0.008047998 -0.012609951 -0.027734488 -0.06028405 0.039053313 -0.019092157 -0.03987813 0.028909981
0.004697278 -0.020522818 -0.037717387 -0.043842614 -0.002795145 0.0288447 -0.04872399 0.048369743
-0.04231908 -0.01470612 0.0063534677 0.05707422 0.05332096 0.004487686 0.027806155 -0.024782062
-0.050449178 0.032914735 0.02836442 -0.015229911 -0.056668192 0.024253733 0.049016275 -0.0135730505
-0.03906122 0.06196873 0.053201847 0.008464247 0.055478133 0.0036162734 0.024828203 0.012023993
0.01762744 -0.0089120045 -0.025671653 0.015579782 -0.03006734 -0.027371034 0.058636516 -0.042588964
-0.048124433 -0.011689067 0.007960796 0.03506124 -0.021455966 -0.0129638985 0.051344797 0.053993627
-0.048977062 -0.030343503 -0.024503715 0.043893136 0.0112987235 -0.054770783 0.037266925 0.02556698
-0.022118658 0.033201613 0.024640657 -0.017112881 0.055558376 -0.050216123 0.055485725 0.024159364
-0.03354772 -0.040297084 -0.0531891 0.022653699 0.015161134 -0.059076585 0.045359537 -0.052756935
0.029691279 0.029260539 -0.032941617 -0.02602601 -0.021434821 0.06106975 0.027591676 0.00035422295
-0.022814117 0.02543702 -0.012523279 -0.02045773 -0.054623567 0.032173112 -0.038311213 0.048367426
-0.0025399253 -0.00492128 0.053292587 0.051650107 -0.009377517 -0.008883588 -0.056093678 0.045980416
0.048164643 -0.040555634 0.04909067 0.046207093 -0.03722816 -0.06024523 -0.0590368 -0.039728142
-0.05254095 -0.009259768 -0.036524363 -0.0033973455 -0.031016544 0.051027365 0.04333385 0.047912568

fc3.bias f4 [81]
00000000: 325c 673d 3047 dd3c a834 7f3c 1084 7b3c
00000010: f86e 51bd c49c 1fbd 8089 5d3c e829 643d
00000020: 60b3 d7bc 36a9 7e3d c0e8 d9bb 86aa 36bd
00000030: 0efa 28bd eaaa 343d 68fd 3bbd 76f4 333d
00000040: 4ed0 6a3d 1898 2dbd 74ec 3ebd c05d 2b3b
00000050: 22ea 0e3d d263 153d 0416 aabc ee36 4ebd
00000060: 7ad6 53bd 7cac adbc 42ad 46bd 5684 3dbd
00000070: 9886 83bc a892 c4bc 104d f03c 1046 393d
00000080: a042 e1bc d6f4 563d 50a7 1b3d 349c 163d
00000090: 46d4 6dbd bcba 453d f8bf 31bd 00f8 3e3c
000000a0: 2824 6b3d 766a 75bd 0881 5fbc 30b6 ad3c
000000b0: 10a1 3f3d 9056 e43b f8ee 0d3d 50cb 5c3d
000000c0: ce74 243d d059 643c 801a 933b 68c3 92bc
000000d0: 78e7 a33c e2ce 753d 1e6f 6c3d eca7 abbc
000000e0: deda 233d 20f1 0a3c c43c af3c 80c5 59bc
000000f0: 2c99 c4bc 0c65 dfbc 18bc 583d 2013 953c
00000100: 6685 3ebd 448a f73c b825 bf3c b827 c0bc
00000110: 0e31 16bd e02a c53b 40e0 7a3c 247b 3ebd
00000120: 5825 6d3c 1e16 033d d226 5c3d 5099 e93c
00000130: f27f 403d 5e55 17bd 22b9 7abd 70cc c7bb
00000140: 7898 7e3c
0.05648441 0.027011484 0.015576519 0.01535131 -0.05113122 -0.038967863 0.013521552 0.055704027
-0.02633065 0.06217309 -0.0066500604 -0.044596218 -0.041254096 0.04410831 -0.045895964 0.043934308
0.05732756 -0.042381376 -0.046612218 0.0026148409 0.034891255 0.03647215 -0.020762451 -0.050345354
-0.051718213 -0.021200411 -0.048505075 -0.046268784 -0.01605539 -0.023995712 0.029333621 0.045232832
-0.02749759 0.052479587 0.03800136 0.03677006 -0.058063768 0.048273787 -0.043395966 0.0116558075
0.05740753 -0.059915982 -0.013641603 0.021205038 0.04678446 0.006968327 0.034651726 0.05390483
0.040150456 0.013937429 0.004489243 -0.017915443 0.020007834 0.060011752 0.057723157 -0.020954095
0.04000365 0.00848034 0.02139128 -0.013291717 -0.02399882 -0.027269863 0.052913755 0.018197596
-0.046513937 0.030217297 0.023333415 -0.02345644 -0.036667876 0.006017074 0.015312254 -0.046504155
0.0144742355 0.032003514 0.05374796 0.028515488 0.04699702 -0.036946647 -0.061211713 -0.006097369
0.015539281
