code/outputs/seed/12/models/dqn_checkpoint.pth (torch, 354981 bytes, 6 tensors)

fc1.weight f4 [256, 5]
000000 d9 35 fb 3c 4d 71 8e 3d 23 1d bc 3f 4e 58 3e 3f
       0.030665325 0.06955204 1.4696392 0.7435349
000010 23 23 cb bf ee 13 c3 be 0a e7 16 bf ae 6f 2d be
       -1.5870098 -0.38101143 -0.5894629 -0.16937134
000020 f4 2f 5d be 8c 6a 1a 3d d7 52 67 3d 4f 26 af bd
       -0.21600324 0.037699267 0.056475487 -0.08552229
000030 2c 9f 81 3e 5a 24 e2 be c5 30 fa 3d dc e5 d2 bc
       0.2531675 -0.4416836 0.12216333 -0.025744371
000040 83 d8 c8 be a5 61 af bd 85 43 cd be 9d eb b8 3e
       -0.39227685 -0.08563546 -0.40090576 0.3611726
000050 eb 52 cc 3d d0 48 22 be 60 73 89 3f 3c c1 bd 3e
       0.09976753 -0.15848088 1.0738335 0.3706149
000060 74 bc a9 3f b7 bb c2 3d 50 e8 19 3e 70 c5 ff 3f
       1.3260636 0.0950846 0.15030026 1.9982128
000070 eb bd c4 3f a2 fe e3 be 35 0a a3 bd 96 8f 30 3e
       1.5370458 -0.44530207 -0.07960931 0.17242274
000080 59 01 9f 3f c3 3b d7 3e bb 8a bc bf b5 9a b8 bd
       1.2422286 0.42037782 -1.4729837 -0.09013883
000090 92 07 56 3e b3 9c 61 3f 69 43 82 3f c3 8f 68 3f
       0.20901325 0.8812973 1.0176822 0.9084436
0000a0 95 4b 3c be 1c 21 b1 3e 73 a0 33 3f 52 8e 6a 3e
       -0.18388207 0.34595573 0.701667 0.22905853
0000b0 db d2 e5 bf 49 a3 25 3e d6 91 2d 3e d7 e9 27 3f
       -1.7954973 0.1617557 0.16950163 0.65591186
0000c0 35 14 40 3e fd de bc bf 93 ce f8 3e a3 a4 6d 3e
       0.18757708 -1.4755551 0.48595104 0.23207335
0000d0 f2 1b c9 be 87 f1 b4 bd 09 4c 12 be 2d f6 3a 3f
       -0.39279133 -0.0883513 -0.14286818 0.73031884
0000e0 82 1e a8 3e 34 69 50 bf 11 13 4f bf 18 d4 ea be
       0.32835776 -0.8141053 -0.8088847 -0.4586494
0000f0 05 d4 fa 3e 82 6f 68 3e b4 4e e8 bf 46 63 cc bf
       0.48989883 0.22698787 -1.8149018 -1.5967796
000100 e6 5b a3 3e 27 1f 9d be d8 9e 87 3e d3 9f 52 be
       0.3190605 -0.3068783 0.26488376 -0.2056878
000110 d6 27 fc be 36 99 5d bf 24 32 b6 3d f4 74 91 be
       -0.49249142 -0.86561906 0.08896282 -0.2840954
000120 e9 e1 46 3e 79 10 c1 be b8 28 ac be b1 3b 6e be
       0.19422115 -0.3770788 -0.33624816 -0.23264958
000130 8f ee c6 bd 94 c5 de be e7 00 71 be b6 59 a9 3e
       -0.0971347 -0.43510115 -0.235355 0.33076257
000140 8e 19 17 3e 0f b5 37 be 2c 3b 0f 3f cf ac de 3e
       0.14755842 -0.17940162 0.55949664 0.43491217
000150 1e c3 4d 3f 5d 00 c4 be f9 14 ab 3e 5b ca 0b 40
       0.8037585 -0.38281527 0.33414438 2.1842258
000160 8d 65 d9 3f 4f de 8c be 5b 76 0b be 4d c0 67 3d
       1.6984116 -0.27513358 -0.13619368 0.056579877
000170 22 6a b0 3f 26 c7 cf 3e 63 8b 46 3f f0 26 99 bd
       1.3782389 0.40581626 0.7755644 -0.0747813
000180 d0 a2 7c be fe 8b b0 bd 0d f9 00 be fc 09 ab bd
       -0.24671483 -0.086204514 -0.12595005 -0.08351514
000190 23 65 d2 3e e5 d2 12 bf 12 2b 6c be 4b 28 90 be
       0.41092786 -0.5735305 -0.23063305 -0.2815574
0001a0 b7 3d 79 3f 95 7a b6 be 78 90 14 be f7 5e df 3b
       0.97359794 -0.35640398 -0.14508235 0.0068167406
0001b0 1c e6 9e 3e 89 e0 59 bd 79 0c 66 3e ad dd 79 3e
       0.31034935 -0.05319265 0.22465695 0.24400969
0001c0 14 f6 9b be 66 94 31 be 56 17 9c 3f d6 62 96 be
       -0.3046118 -0.17341766 1.2194622 -0.2937228
0001d0 a2 ec c3 3e 11 51 17 40 51 61 d2 3f eb c2 c1 bd
       0.38266474 2.364323 1.6435949 -0.09461006
0001e0 72 1e c0 3e 61 e1 23 be 8d ec c2 3f 7e 28 8c 3e
       0.37523228 -0.16003944 1.522844 0.27374643
0001f0 53 4d 98 bf 28 92 0a bd a6 3d 82 3c da fa 85 3f
       -1.1898597 -0.03383079 0.015898537 1.0467179
000200 a4 c6 24 3f 1a 0a bd bf dd 5f 9f be d6 46 ca 3d
       0.643656 -1.4768708 -0.31127825 0.09876792
000210 a4 19 cd bb e9 f2 5d 3f 90 4b 3f 3f b8 b2 aa be
       -0.00625916 0.86698776 0.74724674 -0.33339477
000220 cb 60 37 3e 9b 4b 84 be 5a 5f c7 3e 33 52 90 3f
       0.17908017 -0.25838932 0.38939935 1.1275085
000230 ce a4 cc 3d e4 a8 12 bf f0 49 f0 3d ea 28 a5 3e
       0.099923715 -0.57288957 0.117328525 0.32257777
000240 a1 42 39 3f 18 f5 22 3e 7a 80 0d 3f 59 a1 d4 3f
       0.7236729 0.15913808 0.55274165 1.6611739
000250 dc 35 be 3f 75 7d 38 be 96 81 5d 3d a7 ab e1 be
       1.4860187 -0.18016608 0.05407866 -0.44076273
000260 f8 7c c6 be da fd c9 bd eb 9d 99 be 12 f6 e5 be
       -0.3876722 -0.098628715 -0.30003294 -0.449143
000270 00 9b be be 16 84 b5 be 92 9f c2 bc c1 0d 73 3e
       -0.3722763 -0.35452336 -0.02375773 0.23735715
000280 36 c1 a0 3d 64 6a c1 be bb 84 b2 3d 80 cf d9 be
       0.07849352 -0.37776482 0.087167226 -0.42541122
000290 d5 56 6e be 1d 36 86 be 11 c7 58 3e ff c5 9a 3f
       -0.23275311 -0.2621316 0.21169688 1.2091674
0002a0 2c 2b b0 3e 17 33 92 3f eb 6a dc bd 63 67 22 3b
       0.34407938 1.1421841 -0.107625805 0.0024780862
0002b0 ed b9 12 bf ad d0 91 3f 8c 78 e5 3e 88 ae c2 bd
       -0.5731495 1.1391808 0.44818532 -0.095059454
0002c0 15 ea d8 be bc d3 29 3e 85 b6 89 3e 02 bb 86 3e
       -0.4236609 0.16584677 0.26897064 0.2631455
0002d0 5c a1 ab be 42 ea 9d be 01 7d d2 3e 91 42 91 be
       -0.33521545 -0.30842787 0.41110995 -0.283711
0002e0 75 b7 83 bd 56 6d f0 bc 35 d6 88 3c cb 02 c7 3f
       -0.06431476 -0.02934901 0.016703704 1.5547727
0002f0 a0 01 a3 3f 91 c8 f4 be d3 49 c1 be 29 26 94 3e
       1.2734871 -0.4780927 -0.37751636 0.28935364
000300 b4 61 bf 3f 9d 93 02 3e bc 53 0b 3f 89 cb ce 3e
       1.4951692 0.12751622 0.54424644 0.4038966
000310 e5 61 02 3f fe 98 b4 3f 53 5d b5 3f 71 44 da bd
       0.50930625 1.410919 1.4169105 -0.106575854
000320 1b c6 8c 3d 6f 89 a1 3e c8 56 81 3f 4c 5f a2 be
       0.06873723 0.31550166 1.0104609 -0.3171333
000330 62 e4 d4 bf 1f 1c ac 3e d6 79 73 3e fe 8b b7 3f
       -1.6632197 0.33615205 0.23776945 1.4339597
000340 62 6b 01 40 e5 e1 d0 be 64 46 9b be df 21 5b be
       2.0221791 -0.40797344 -0.3032714 -0.2139964
000350 16 c8 af 3c 08 8c 7a be 75 ab ba 3d b9 11 f6 bd
       0.021457713 -0.2446748 0.09114734 -0.12015099
000360 25 01 ca be 93 5c a9 3c 46 56 aa be b4 8f 9a be
       -0.39453998 0.020674026 -0.33268946 -0.30187762
000370 6b 8f 92 be 3a 9e 17 3e 30 10 a9 be ab 7b 8a 3e
       -0.28625044 0.14806452 -0.33020163 0.27047476
000380 ec 85 9b 3f f3 8a ce be e5 8d 0d 3e ce 3e d0 be
       1.2150245 -0.40340385 0.1382366 -0.40672916
000390 5b 03 68 be ca 7b be 3f 81 2e 4c be a9 33 23 3e
       -0.2265753 1.4881527 -0.19939615 0.15937676
0003a0 13 43 6e 3f 44 9d 42 be 38 f3 3e 3f c2 03 57 3d
       0.930711 -0.19005305 0.7458987 0.052493818
0003b0 f3 a3 1c bf 99 1d e3 bd ad 72 eb be ca 17 83 3f
       -0.61187667 -0.1108963 -0.45985928 1.0241635
0003c0 cf 58 0a 3e 0a ec d5 3e 66 91 b4 3f ef 74 5c 3f
       0.1351044 0.41781646 1.4106872 0.86115927
0003d0 c5 57 cd 3f ec a1 c1 be 99 be ba 3e 11 0a be 3f
       1.604241 -0.3781885 0.3647354 1.4846822
0003e0 46 95 14 3f b5 44 cf bf 40 51 0c be 56 dc 8e 3d
       0.58040273 -1.6192843 -0.1370287 0.069756195
0003f0 fc a3 6a 3f b6 5a 33 3d e8 8e 50 3f aa 0d cd be
       0.9165647 0.04378768 0.8146806 -0.40049487

fc1.bias f4 [256]
000000 3d e1 04 3e e3 a9 41 bd cb ef 87 be 12 b9 e3 be
       0.12976547 -0.047281157 -0.26550135 -0.44477135
000010 67 42 16 40 63 d1 0b 3f dc 02 26 3e cc 6d 1a 40
       2.3478029 0.54616374 0.16212028 2.4129515
000020 95 41 19 be 16 1f 2f be d7 01 4f bf 99 11 7b bf
       -0.14966424 -0.17101702 -0.8086218 -0.98073727
000030 f2 dd 80 3d 08 b3 80 be 77 b2 08 bd 4c 5a da be
       0.06292333 -0.2513659 -0.033373322 -0.42647016
000040 ec 2f 16 40 a5 a4 e0 3e ac c3 e7 3f b1 ba 33 be
       2.346675 0.43875614 1.8106589 -0.17551686
000050 7a df b7 3f 97 c9 3b be 62 82 a4 bd 86 7f 8c 3f
       1.4365075 -0.18338619 -0.08032681 1.0976417
000060 aa 08 5e bc b0 55 75 3f 63 3f 0f bd 0a ec 72 3d
       -0.01355187 0.95833874 -0.03497256 0.059307136
000070 2e 75 67 3f aa 33 61 3e 3e 34 b7 3e a4 bc 95 be
       0.90413177 0.21992365 0.35782045 -0.29245484
000080 48 a4 de be 64 eb 07 40 f6 a6 ba be 38 48 a6 be
       -0.43484712 2.123742 -0.36455506 -0.32476974
000090 fa 6a 4c bd 09 a5 32 3f 58 ee 04 40 0c 55 04 3e
       -0.04990671 0.69783074 2.0770473 0.12923068
0000a0 94 05 83 be 2b 08 00 3f 42 b6 e4 be f8 6b b8 3e
       -0.25590193 0.50012463 -0.44670302 0.36019874
0000b0 a2 2a 9a 3d 50 df c1 3e 0c 48 0b 40 a2 c2 b9 3f
       0.07527663 0.37865686 2.1762724 1.4512522
0000c0 39 35 2e 40 5f 17 a6 3e 96 37 0c 40 3a f1 1e be
       2.7219985 0.32439706 2.1908927 -0.15521708
0000d0 9f 27 e7 3e 54 82 f6 3f ba 07 14 bf 8d b2 0c 40
       0.45147416 1.9258523 -0.5782429 2.1983979
0000e0 e5 c4 3c bd 63 b3 8c be d9 ad 25 3d 29 cf 50 bd
       -0.04608621 -0.2748061 0.040448997 -0.050978813
0000f0 ac 69 22 3e 1e d3 98 be ee 84 19 bf 0e 28 e3 be
       0.15860623 -0.2984857 -0.5996846 -0.44366497
000100 be b8 99 be 33 d0 06 40 c5 ef 77 bd 79 b8 b3 3f
       -0.3002376 2.1064575 -0.060531396 1.4040672
000110 3b d6 05 3f 06 14 ef 3f a0 b1 b4 3e b3 1d 19 3f
       0.52280015 1.8677986 0.35291767 0.5981094
000120 20 28 80 3f c8 a0 0a 40 f4 76 fe 3d 73 b3 aa 3c
       1.0012245 2.1660633 0.12425032 0.020837521
000130 59 e8 99 be 53 72 f2 3f 02 bd e6 be 6e 94 db be
       -0.3006008 1.8941139 -0.45066077 -0.4288668
000140 7c 72 08 40 eb 49 81 3c 29 9d 2d bf 90 89 75 3e
       2.1319876 0.015782317 -0.6781793 0.23978257
000150 6a d8 13 3f 2f ae 5e 3f 70 62 0d 40 ec 63 f5 3f
       0.57752097 0.86984533 2.2091331 1.9171119
000160 b5 21 46 3f 7a 93 15 be 00 fe 91 3d 14 6f 07 3f
       0.7739518 -0.14607039 0.07128525 0.52903867
000170 ac 9b 11 40 74 eb 3f 3f 81 fc 77 bf 05 20 ac bc
       2.2751265 0.7496865 -0.96869665 -0.021011362
000180 71 dc 15 3f a6 d0 c3 3f 1b da 60 be c2 ee fd bd
       0.5853949 1.529805 -0.219582 -0.12399055
000190 8b ef a6 be 0b 54 00 40 51 f6 b3 3f bf 06 c8 3e
       -0.32604632 2.0051296 1.4059545 0.39067647
0001a0 c0 68 00 40 6f 11 03 3f d7 08 cd 3e 84 a4 8b be
       2.0063934 0.51198477 0.40045807 -0.27273953
0001b0 8d ad 69 be fd 5b 80 3f fe 65 7e bd 7f 90 8b be
       -0.2282011 1.0028073 -0.062108986 -0.2725868
0001c0 39 2a 37 3f 0f 1f 6c 3f 2c 49 bb be c7 45 8a bd
       0.715488 0.9223489 -0.36579263 -0.0675159
0001d0 f5 df 71 bd 7d 21 8d be 03 03 d2 3e dd 0e a2 be
       -0.059051473 -0.27564612 0.41017923 -0.31651965
0001e0 0f a4 cf 3e 1b 09 8f bf 1b c8 01 40 51 7e d5 3e
       0.40554854 -1.1174654 2.0278385 0.41697934
0001f0 6f 67 20 b8 d4 5f 4b 3f 5f e7 23 3f ab cb 5f bf
       -3.8243303e-05 0.794431 0.6402492 -0.8742015
000200 17 d4 0e 40 a1 4f 87 be c2 00 0a 40 42 7b 83 3f
       2.231695 -0.2642794 2.1562963 1.027199
000210 c9 96 a0 be 2b b4 22 3e f9 27 a9 3f 0e fb 5c 3d
       -0.3136504 0.15889041 1.3215324 0.053950362
000220 38 09 7a be 4c 9f 8b 3e 16 76 f4 3f ed d5 7d bd
       -0.24417579 0.2726997 1.9098537 -0.061971594
000230 20 95 42 3f 68 70 c3 3f fa d4 fb 3f 2f 70 6e 3b
       0.76008797 1.5268679 1.967437 0.0036382785
000240 7c 52 10 40 7f b6 fe 3f ef 48 a2 bf 3b c7 3d 3d
       2.2550344 1.9899443 -1.2678508 0.04633258
000250 b9 47 7b bf 9e 9e 03 40 0a e1 bb 3e 33 37 a3 bf
       -0.98156315 2.0565562 0.3669513 -1.275122
000260 84 fc 71 3f c5 d3 01 40 df ea 14 40 c0 af 7c bf
       0.94525933 2.0285504 2.3268354 -0.98705673
000270 10 a3 9f 3f 55 20 20 bf 00 26 18 40 bd ff 0d 40
       1.2471638 -0.62549335 2.3773193 2.218734
000280 b4 d5 3b 3d 86 49 01 40 45 94 10 40 f2 07 cb 3f
       0.0458581 2.0201125 2.2590497 1.58618
000290 7d 19 87 be 76 fc 6a 3f 6d 2f 83 be 40 db 3a bf
       -0.26386634 0.91791475 -0.2562212 -0.729908
0002a0 f3 93 97 be 3b e0 c6 3d 10 19 33 40 a9 fd 9b bf
       -0.29605064 0.09710737 2.7984047 -1.2186786
0002b0 fe 3d 11 3f 4e c6 84 be 4f 69 7d be 6e 94 bf 3e
       0.5673522 -0.25932544 -0.24747203 0.3741793
0002c0 bd 6e d0 3e 07 a0 db be 4b 15 8a bd aa b3 2b 3f
       0.40709487 -0.4289553 -0.067423426 0.6707102
0002d0 84 4c a7 3d 23 b4 8a be 0e a0 54 bf 5d 9e 94 bd
       0.08168891 -0.27090558 -0.83056724 -0.07256768
0002e0 e0 12 b6 3e 98 fe 09 40 af 71 2e 3f 45 82 1b be
       0.35561275 2.1561642 0.6814222 -0.15186413
0002f0 0b 9e f7 be df 1a f5 be 48 9d 61 bf b9 5a 2b 3f
       -0.48362765 -0.47872064 -0.8813062 0.66935307
000300 3b 46 cd 3e 7e 6b 89 be 48 be 0b 3c 75 b2 a6 be
       0.40092644 -0.26839823 0.008529253 -0.32558027
000310 5d c2 16 bf c3 ef e5 bd 39 8e eb bd 1b 04 64 3c
       -0.58890325 -0.112273715 -0.11501736 0.013916994
000320 37 c0 11 40 06 e8 d0 3f ac 8a bb bd 04 fa 77 3f
       2.2773569 1.6320808 -0.09157309 0.9686587
000330 83 0d 16 3f 3f 1b 4e 3f b5 65 37 3f 96 51 05 be
       0.5861437 0.80510324 0.7163957 -0.13019404
000340 e2 eb 01 3f ef b6 f1 3c 7e 5f 38 3e 1a a1 00 40
       0.50750554 0.029506175 0.18005177 2.0098329
000350 e6 2a e9 3e 52 ba 15 40 23 0b 63 3f 0d 75 27 3f
       0.4554054 2.339497 0.8868887 0.6541298
000360 a3 08 5e 3f 1b 34 07 be 9f 35 1e 3f a6 18 8e 3e
       0.8673193 -0.1320347 0.6180057 0.2775318
000370 7a 28 30 40 e4 08 78 3f 0b 16 62 bf 68 ef 15 40
       2.7524705 0.96888566 -0.88314885 2.3427372
000380 e5 7e c1 be de 26 09 40 21 80 47 3d c0 d8 2a be
       -0.37792125 2.1429973 0.048706178 -0.16684246
000390 cf 49 70 be a6 95 cf 3e 33 60 0a 3f 7f cc 2f bf
       -0.23465656 0.4054386 0.5405304 -0.6867141
0003a0 f0 3e 14 3d 8f 85 40 bf 9a ea 58 be d7 58 87 bf
       0.036192834 -0.75203794 -0.21183243 -1.0573987
0003b0 c3 6f 15 3f 02 ce 1b 3f 30 fd 39 3f 47 00 8d 3d
       0.5837366 0.6086122 0.7265196 0.068848185
0003c0 16 9f db bd 0a f0 40 3c 9c 21 dc be 04 59 e5 3e
       -0.107237026 0.01177598 -0.42994392 0.44794476
0003d0 70 3c 8e be 33 f6 7d 3e 15 4a 00 40 6d a2 0e 40
       -0.27780485 0.24800949 2.0045216 2.2286637
0003e0 b7 17 20 bf ff 40 1c 3f ee 84 0e 40 65 cd 81 3e
       -0.62536186 0.61036676 2.2268634 0.25352016
0003f0 84 b2 c7 bd 96 ef de 3f 93 83 15 3e 08 c5 c6 3e
       -0.09750846 1.7416866 0.14600973 0.38822198

fc2.weight f4 [256, 256]
000000 c4 16 6f bd bc 4e 5e bd 66 3e 11 3d 14 17 76 bd
       -0.05837132 -0.054274306 0.0354599 -0.060080603
000010 5c 9e 77 bd af 67 b3 bc 1a 1f 93 3c 65 51 1b bd
       -0.060453758 -0.021900026 0.017959166 -0.03791942
000020 a4 39 97 bc 48 5a f1 bc d4 ae 38 3d 6a 11 4a bd
       -0.018460102 -0.029461995 0.045088604 -0.049333014
000030 2c 3e 2f bb 00 29 f1 b9 9c 32 bc bc 60 64 03 bd
       -0.0026739938 -0.0004599765 -0.022973351 -0.032078147
000040 b4 49 00 3d 3b 94 1a bc 97 6d 4d bd b8 d8 66 3c
       0.03132029 -0.009434755 -0.05015334 0.014089756
000050 6c 62 48 bd d2 08 59 bd 0e c0 60 3c 44 eb 86 3c
       -0.048921987 -0.052986927 0.013717664 0.016469605
000060 92 ff 91 bb c6 f0 c6 3c 2e 4d 02 bc fa a1 65 bb
       -0.004455515 0.024284732 -0.007952971 -0.0035039173
000070 59 05 64 bd 26 47 35 3d 64 d0 27 3c 52 0a 21 bd
       -0.055669162 0.044257306 0.010242555 -0.039316483
000080 88 9f 60 3d 27 78 38 3d 58 36 5b 3d f2 d8 34 3d
       0.05483964 0.04503646 0.053518623 0.044152208
000090 a2 f4 3a 3d 46 86 70 bc f1 cc 82 bd 28 37 ee 3c
       0.045643456 -0.014680451 -0.06386746 0.029079035
0000a0 b7 ad c0 39 93 a6 06 3d a6 76 17 3d 2c 10 1b bd
       0.0003675052 0.0328737 0.036978386 -0.03785722
0000b0 b9 48 00 bc 41 0f 9d bc b6 39 e2 3b 5d 79 32 3d
       -0.007829838 -0.019172313 0.0069038523 0.043572772
0000c0 8b 7c 5a bd 04 20 84 bd 97 9f ea 3b 7c 4e fd bc
       -0.05334143 -0.06451419 0.007160138 -0.030921213
0000d0 c9 07 62 bd b4 3b 0f bd 42 f3 52 bc 05 61 47 bd
       -0.055183206 -0.034969047 -0.01287538 -0.04867651
0000e0 1a f0 05 bd c2 f1 34 bd 68 63 9c 3c d0 7d 27 bd
       -0.03269968 -0.04417587 0.01909037 -0.04089147
0000f0 2a 5f f8 bc 16 80 79 bd b4 5a d3 3c a4 df 9e bc
       -0.030318815 -0.060913168 0.025800087 -0.01939375
000100 94 2f 82 3c 5d c2 2e bc d4 92 27 b8 51 95 38 3c
       0.015891828 -0.010666457 -3.9952647e-05 0.011266069
000110 6e fc 34 bd 88 2f 0a bd 57 8e 25 bc ed f9 72 bc
       -0.04418605 -0.033736736 -0.010104737 -0.014830095
000120 5a 8f 40 3c a1 d0 14 3d 2c c8 53 bb aa 48 1e bd
       0.011752928 0.036331777 -0.0032315357 -0.038643517
000130 1a de 0d bd 73 b8 02 3d 24 79 2f bd 08 3e 50 bd
       -0.03463564 0.031914186 -0.042840138 -0.050840408
000140 14 e9 10 3d 67 21 1b 3d 00 b5 c2 3c 24 d3 dc bc
       0.03537853 0.03787365 0.023767948 -0.026956148
000150 5b a9 9c 3c bf 18 f5 bb 5d e1 2a bd 60 1d 10 3d
       0.019123724 -0.0074797566 -0.04171883 0.035184264
000160 a0 80 5a 3d d4 32 3e bd a6 87 02 3c ad f0 9f 3c
       0.053345323 -0.046435192 0.007966911 0.019523943
000170 df 9d ad bb 69 f7 1d bc 8d 3e ae 3a 7d db 11 3d
       -0.0052983607 -0.009641507 0.0013293788 0.03560971
000180 1c 0c 61 3d da 88 18 3d 80 66 ea 3a 58 b8 50 bd
       0.05494319 0.037239887 0.0017883331 -0.050957054
000190 fc 2f c8 3c d5 2e 1c bd de 3f df ba b6 b6 c6 bc
       0.024436943 -0.0381306 -0.0017032584 -0.024257045
0001a0 8d fa 44 bd 4d 96 75 3d bc 52 27 3d e8 77 5d bc
       -0.048090506 0.05995779 0.040850386 -0.013517357
0001b0 be 86 c1 bb ee 9e 02 bd 6c 7a 7f bd 69 6e 35 bd
       -0.005905955 -0.03188985 -0.06237261 -0.04429475
0001c0 24 67 34 3d ee 92 6d bd 34 db 31 bd de eb 3d bd
       0.044043675 -0.05800145 -0.04342194 -0.04636752
0001d0 62 a2 26 3d 47 31 20 bd 33 d7 53 3d 57 5d b6 3a
       0.040682204 -0.039109495 0.0517189 0.0013913315
0001e0 a5 3a 18 3d 3c 12 43 bd 86 02 2c 38 92 d6 4c bc
       0.037165303 -0.04762481 4.1010346e-05 -0.012502329
0001f0 22 cd fb bc da e0 92 bd b4 12 90 bd 04 ec 74 3a
       -0.030737463 -0.07171793 -0.07034817 0.00093430304
000200 fa 2d fc 3c b4 5a cf 3a 2e 3c 21 3d 9d a7 99 3c
       0.030783642 0.0015819878 0.039364032 0.018756682
000210 50 a7 66 bd 1b 15 69 3d 31 db 67 3c 57 e9 e6 bc
       -0.056311905 0.056904893 0.01415138 -0.028187437
000220 f2 77 64 3d cf 66 59 bd 32 3b 2f 3d ea 06 bc 39
       0.05577845 -0.05307656 0.042781062 0.00035863306
000230 d7 fb 55 bd d6 58 75 bc 0d 0b 7b bd e8 62 99 bc
       -0.052242126 -0.014974793 -0.061289836 -0.01872392
000240 4a 0e 40 3d 4e 93 64 bb e0 2d 99 3c 56 45 4f 3d
       0.046888627 -0.003487784 0.018698633 0.050603233
000250 f0 98 36 3c af 7b 3b 3d f4 9b 8a bd ae dc 4f bd
       0.011144862 0.04577225 -0.06768027 -0.050747566
000260 52 01 6a bd 12 f7 f9 bc 4f 1a 1b bd 30 ac e3 3b
       -0.057130165 -0.03051332 -0.037866887 0.0069480166
000270 75 7b fe bc 80 d6 47 bd 35 c3 6b bc 88 af 03 bd
       -0.031064728 -0.048788548 -0.014389803 -0.03214982
000280 22 da 7a bd ed 01 4f 3d 4e cc 40 bd 33 ea b5 bc
       -0.061243184 0.050538946 -0.04706984 -0.022206401
000290 a3 b2 aa 3c 75 ac 69 3c d6 ff 5a bd a6 93 4a 3d
       0.020837134 0.014262308 -0.05346664 0.049457215
0002a0 e0 92 99 3b 5c 2d 05 3d 10 43 31 3d 38 cb 29 3d
       0.0046866983 0.03251396 0.043276846 0.04145357
0002b0 64 a8 48 bd be 18 37 bd 7d c1 79 3d 7a db 37 3d
       -0.048988715 -0.04470133 0.06097554 0.044887044
0002c0 28 49 06 3d c0 dc 0e 3b 17 55 af 3c 46 e5 27 3d
       0.03278461 0.0021799058 0.021402879 0.040990137
0002d0 50 c9 62 3d d8 f3 69 bd 98 ab 7a 3d ed 9d 8a bc
       0.055367768 -0.057117313 0.0611988 -0.016921008
0002e0 07 c7 3d bd eb 47 4b bd 35 7f 70 bd 40 4d 98 3a
       -0.046332385 -0.049629133 -0.058715064 0.0011619702
0002f0 cd d8 34 bd 2e f3 7c 3d 48 f1 ba 3c 26 e7 fe bc
       -0.04415207 0.06175535 0.02282013 -0.03111608
000300 b1 bf 18 3d 27 f7 c9 bc 2f bb 35 bd 92 ac 8c bc
       0.037292186 -0.024653984 -0.044367965 -0.017172132
000310 66 ac 5e 3d 9e 00 78 bd e4 38 c2 3c 00 ed d1 bc
       0.05436363 -0.060547464 0.023708768 -0.025625706
000320 be 26 3a bd 7a 8f 04 3d f6 6c 54 3d 22 9b 0b 3d
       -0.045447104 0.032363392 0.051861726 0.034083493
000330 4d f8 a0 3c 6f 74 f2 bc fa 6f 18 bd 2b 21 17 bd
       0.019649649 -0.029596535 -0.037216164 -0.036896866
000340 1e 4c 1c bd d0 48 90 bc 94 60 4c bc a8 9c 30 3d
       -0.03815853 -0.017612845 -0.012474198 0.04311815
000350 3a 09 0a bd ad d8 f9 3a 40 62 64 bb 42 6a 3d bd
       -0.033700205 0.0019061767 -0.00348486 -0.046243913
000360 c0 02 0f bd a3 4c 5e bd 8d 00 7e bb f3 d9 de 3c
       -0.034914732 -0.054272305 -0.0038757653 0.027203536
000370 09 b2 39 3d c6 b0 4c 3c 6c 84 1e bd 83 fe 13 3d
       0.045335803 0.012493318 -0.038700506 0.036131393
000380 24 90 ed bc a9 cd 65 3c 18 5b 7a 3d e8 83 40 bd
       -0.028999396 0.014026084 0.06112203 -0.047000796
000390 98 84 60 3c df 87 bd 3c 36 eb f0 3b 62 6e 26 3c
       0.013703488 0.023136077 0.007352258 0.010158153
0003a0 e0 45 0f 3b 30 fa 19 bc aa 86 a1 bc e8 4f 51 bd
       0.0021861717 -0.009398028 -0.019717533 -0.051101595
0003b0 e2 b2 8a bc 9a 27 5f 3b 08 aa 47 3c 35 9e 87 bd
       -0.016931001 0.0034050704 0.012186535 -0.066219725
0003c0 24 91 0f 3d 5d b6 ce 3a 14 05 78 bd d7 b9 7a bd
       0.035050526 0.0015770901 -0.060551718 -0.061212387
0003d0 63 80 71 3d af 23 99 3a 04 1f 5a bd 7a cb 8c bc
       0.05896033 0.0011683608 -0.053252235 -0.017186869
0003e0 13 1f ed bb 48 e5 16 bd 5f 31 3b 3c 69 7c 29 3d
       -0.0072363704 -0.036839753 0.011425345 0.041378412
0003f0 3a e2 88 bc 56 e7 4f 3d 6c ab d3 3c 8e 71 82 bc
       -0.016709436 0.05075773 0.025838576 -0.015923288

fc2.bias f4 [256]
000000 66 47 0c 3d ba 0f 0e bd a7 b3 9d 3e 43 73 07 3f
       0.03424778 -0.034682967 0.30801126 0.5291025
000010 78 ff ba bc c6 c0 8e 3f 3c 39 1d 3f fb f6 91 3f
       -0.022826895 1.115258 0.6141546 1.1403497
000020 71 28 1b 3f ab 3d 57 3f 4e 51 24 3f ee 78 23 3d
       0.60608584 0.8407847 0.6418656 0.03991025
000030 f3 58 dd bd 2c e9 63 bd 1a ed 9f be ef 69 eb be
       -0.10807981 -0.055642292 -0.31235582 -0.45979258
000040 62 74 9a bb d2 b3 4d bd 09 79 e1 3d 70 ee 33 3f
       -0.004713581 -0.05022032 0.11009414 0.702857
000050 29 9b 98 3f 52 dc 89 3f 09 70 2c bf 12 15 97 3f
       1.1922351 1.0770361 -0.6735845 1.1803305
000060 78 46 07 40 b0 f9 fd 3f 66 54 49 bd 7b 18 81 3f
       2.113676 1.9841824 -0.049152754 1.0085596
000070 60 8c bc bb ee 0b 5c 3f 1a b6 b9 3e 07 56 d7 3f
       -0.0057540387 0.85955703 0.36271745 1.6823128
000080 6a 50 14 3f 3e 54 27 bd 30 90 af 3f 2a 3f 24 3f
       0.579352 -0.040851824 1.3715878 0.6415888
000090 d2 6c 25 3b 78 28 67 3c b7 98 42 3f 57 5d c0 3f
       0.0025241864 0.01410877 0.76014274 1.5028485
0000a0 84 59 c3 3f 5f 45 fa 3e a6 0c 17 3f 7e 30 68 3f
       1.5261693 0.4888105 0.59003675 0.90698993
0000b0 0e 3c 22 bc cf a5 f7 3e 3d b3 d3 3f 5e 7e 3c 3f
       -0.0099020135 0.4836869 1.6539074 0.7363032
0000c0 f4 4a b2 bc 1d 08 4b 3f 4f 69 19 3f ff 4f 55 bd
       -0.021764256 0.79309255 0.59926313 -0.052078243
0000d0 98 37 f2 3f 3c 7c 31 3f 14 a9 44 bd 2e 3d a1 3f
       1.8923216 0.6933019 -0.048012808 1.2596796
0000e0 06 12 62 3f b0 46 b4 3b 2b e1 37 3f d0 9c 81 bb
       0.8830875 0.0055015907 0.71827954 -0.003955461
0000f0 6d 26 60 bd 6e c0 bc 3f 0b 94 25 3c 15 e8 3d 3f
       -0.054724146 1.4746225 0.010106097 0.74182254
000100 7e 16 8d 3f b8 4f b1 3f 6e 28 df 3e ac 04 dd 3f
       1.1022489 1.3852453 0.43585533 1.7267051
000110 58 9a 31 3d 95 00 05 3f 66 4d d9 3f 66 d0 2c bf
       0.043360084 0.51954013 1.6976745 -0.6750549
000120 e1 2b 09 bd 58 b3 61 bd a9 0e 11 3f 60 8a e3 bb
       -0.03348911 -0.055102676 0.56662995 -0.006943986
000130 9a bd b8 3e f4 04 eb 3e 8a 64 f2 3e 63 56 35 bd
       0.36082155 0.45902216 0.4734233 -0.044271838
000140 e5 66 0b 3f 22 ae 0e 3f cf 4f 8c 3f 59 14 a6 3c
       0.5445388 0.55734456 1.0961856 0.020273374
000150 2a a4 23 3f 96 01 68 bd f2 00 b1 3f 68 35 c0 bc
       0.6392237 -0.056642137 1.3828413 -0.023462966
000160 f4 81 1b 3d a8 7e 80 3c 1d c5 fa 3e e2 14 f2 3f
       0.03796573 0.015685394 0.4897851 1.8912623
000170 02 99 a6 3f 5d 95 bd bc 27 0c c7 3f 0b 4a 62 3f
       1.3015444 -0.023142511 1.5550584 0.8839423
000180 90 53 cc 3f 29 6a 16 3f 38 b4 10 bc 72 bf 39 bd
       1.5963001 0.5875574 -0.00883203 -0.045348592
000190 0e 1b 3e 3f ac dd 9c 3f 82 b4 d0 3e 5c 46 da 3f
       0.7426003 1.2255149 0.40762717 1.7052722
0001a0 01 84 8b 3e 49 f9 94 3f d0 85 e1 bb cf 9f dc 3e
       0.27249148 1.1638576 -0.006882407 0.43090674
0001b0 e5 37 bc be f7 e5 0c 3f 8b 47 6b 3e 92 6b 88 3c
       -0.36761394 0.550384 0.2297651 0.016652856
0001c0 bb a2 0d 3f ef 21 1d bf 30 05 c6 bc 11 94 2a bd
       0.5532643 -0.61379904 -0.024172395 -0.041645113
0001d0 e2 ba 09 bf 32 00 27 bd b9 8c ca 3e a0 f9 1d 3d
       -0.53800786 -0.04077167 0.39560488 0.03856814
0001e0 31 bb 17 3d 26 6b fd be 0a f9 dc 3f 84 ff b8 3f
       0.037043754 -0.4949581 1.7263501 1.4452977
0001f0 ce 1a f4 3c ba 62 51 bd f7 65 57 3c 95 8b b7 3f
       0.029797938 -0.051119544 0.013146869 1.4339472
000200 8e 97 2e 3f f4 31 a1 3f 0d 3f 01 bd f6 31 92 3f
       0.68200004 1.259337 -0.03155427 1.1421497
000210 48 47 b9 3e 8d 91 ee 3c 12 9b 43 3f 07 90 3d 3f
       0.36187196 0.029122138 0.76408494 0.74047893
000220 a1 80 2f 3c 3c b9 ea be d0 0b e0 bc 1c 8e d6 3f
       0.01071182 -0.45844448 -0.027349383 1.6762118
000230 22 7a 80 3f e5 10 2e bd 35 27 90 be 08 6b 97 3f
       1.0037272 -0.04249658 -0.28154913 1.1829538
000240 84 32 8c 3f 3c fa 81 3f cd 59 37 3e 84 6c 84 bd
       1.0952916 1.015449 0.1790535 -0.0646601
000250 f4 bc 1c 3f ee cb 22 bd c4 d2 24 40 0d ba 56 3d
       0.6122582 -0.039745264 2.575364 0.052423526
000260 23 a9 cd be 8a 5c eb 3e 7b c8 3d 3d ca d8 8d 3f
       -0.40168104 0.4596904 0.04633377 1.1081784
000270 bd 8e 30 bd ae 05 19 40 27 fb bd ba 2f cb 27 3f
       -0.043104876 2.3909717 -0.0014494405 0.6554441
000280 2c 05 23 3c 76 43 ca bc 7c 32 6d bd 64 dd 16 3b
       0.009949964 -0.024690371 -0.057909474 0.0023020143
000290 f4 11 72 bd f1 be 7b 3f 1f 50 dc 3f 6c ce fc 3f
       -0.059099153 0.9833823 1.7211951 1.9750495
0002a0 70 13 95 3e 66 ff 9d 3f 69 d2 b5 3e fa 73 28 3d
       0.29116392 1.2343566 0.35512093 0.04112623
0002b0 62 53 3c 3d 52 72 bb 3e 07 25 bf 3d 0c eb f7 3e
       0.045977958 0.36610657 0.09333234 0.48421514
0002c0 59 c2 27 3d 3f a8 ee 3c 30 b8 2d 3f 06 fe 36 3d
       0.04095683 0.02913296 0.6785917 0.04467585
0002d0 29 17 3c 3f 7c 7f 59 3f 6d f2 22 3f 30 34 0b 3f
       0.7347284 0.8496015 0.6365116 0.54376507
0002e0 1c a5 59 3d 1a 50 e8 3e 5e 09 b8 3f 26 ee 1d 3f
       0.053135976 0.45373613 1.4377859 0.6169151
0002f0 8a 9b 46 3f ff 7f 73 3f a5 fb ee 3f 91 03 b6 3e
       0.77581084 0.9511718 1.8670546 0.35549596
000300 d9 ac e6 3e 55 ec 13 3f bd e2 5d 3d a8 67 33 be
       0.45053747 0.5778249 0.054171313 -0.1752001
000310 92 3b 0d 3f bd 0a f2 3f d1 b9 b9 3f 61 5c 8a 3f
       0.5516902 1.8909527 1.4509832 1.0809442
000320 b4 9c e7 3e e0 f9 59 3e 28 96 78 3e 70 d9 69 bd
       0.45236742 0.21286726 0.2427603 -0.05709213
000330 fa 53 2a 3f 4a 03 1d bd 30 4b 48 3c e9 63 21 39
       0.6653439 -0.038333215 0.012224957 0.00015391376
000340 33 f7 16 bd 60 08 99 bb 98 30 0c 40 c4 39 0b 3d
       -0.03685684 -0.004670188 2.190466 0.033990636
000350 8f 3d 89 3f 8a 8d d1 be 88 a6 b2 3f 1e ca 1c 3f
       1.0721911 -0.40928298 1.3957071 0.61245906
000360 37 6e 8d 3f 21 3f 08 3f fc d4 3a 3f 9e 63 60 3f
       1.104926 0.5322133 0.7298124 0.87652004
000370 98 a8 75 3f 2d 53 42 be 45 5e 96 3c 44 e2 2f bd
       0.9596038 -0.18977042 0.018355498 -0.042940393
000380 d8 e8 55 3f 29 8d c3 3f 80 1e 75 3a b0 5e 03 3c
       0.83558416 1.5277454 0.0009350553 0.008018181
000390 ab 4b f8 3e 70 ad 0b bc f2 61 38 3d 05 38 70 bd
       0.4849523 -0.008525237 0.045015283 -0.058647174
0003a0 78 09 ac 3c e3 7d 25 3f 88 dc ec 3c 53 c3 75 bd
       0.021000609 0.6464521 0.028913751 -0.06000073
0003b0 4e 9f 10 bd c0 5f ad 3f 1b 7a ad 3f 3c d3 d2 3f
       -0.035308175 1.3544846 1.3552889 1.6470714
0003c0 d0 5e 51 3c c5 0e 01 3f 40 1b 0f bd b1 b2 44 3f
       0.012778953 0.5041316 -0.034938097 0.7683516
0003d0 e9 6a 57 3d e8 82 8c bd f0 d3 ca bd f5 70 ce bc
       0.05259219 -0.06860906 -0.09903705 -0.025200346
0003e0 bd 68 a1 3f 53 94 60 3f 47 d1 01 bf 6d 93 66 3f
       1.2610089 0.87726325 -0.50709957 0.90068704
0003f0 65 88 ba 3e b4 c5 78 3f d7 19 78 3f d9 1a 40 3f
       0.36432186 0.9717667 0.9691443 0.75040966

fc3.weight f4 [81, 256]
000000 bd 7b 27 bd 10 bf 79 bc cc d2 9d bd 80 b8 9e 3d
       -0.04088949 -0.015243307 -0.07706222 0.07750034
000010 3c c1 dd 3c 7a de c4 bc 6c f0 da bc 8f 0f 3d 3c
       0.02706968 -0.024031866 -0.02672597 0.011539354
000020 e4 c0 93 3d 4e 3f 09 bd 38 ff 11 3d 54 da 76 3d
       0.07214525 -0.033507638 0.035643786 0.060266808
000030 ff 27 3c be 60 bd 5c bd 88 72 4f be 16 30 f8 bd
       -0.18374632 -0.05389154 -0.20258534 -0.12118547
000040 79 3f 72 bd 00 00 a7 3c 08 87 a3 bd 2a 81 c0 bd
       -0.059142563 0.020385742 -0.079847395 -0.09399636
000050 85 db 35 3c 98 0c fd bc 85 67 39 be 19 d4 8c 3b
       0.011099701 -0.030889794 -0.18105896 0.004297745
000060 1c fb 80 3c 4e b6 b9 3c 84 f9 6d 3d 1e ef 07 3d
       0.015744738 0.022669937 0.058099285 0.033187024
000070 9c 1b 66 bd 1c 3e 01 3e 1e e0 a7 3c fc 40 dc 3c
       -0.056178674 0.12621349 0.02049261 0.026886456
000080 31 b6 e9 bc e0 c3 39 bb a7 18 7b bd d4 bf 8b bb
       -0.028529258 -0.002834551 -0.061302807 -0.004264811
000090 66 a0 3a bd 40 a1 97 3a 3f 5f d8 bd 39 a6 11 3e
       -0.045563124 0.0011568442 -0.10565042 0.14223565
0000a0 89 4a 14 3e 52 df 80 bc 67 46 56 3e 6a 2f 64 bd
       0.14481558 -0.015731487 0.20925294 -0.05570928
0000b0 80 f6 33 ba 61 39 a8 bc ac 04 0f 3d 27 b7 cc bd
       -0.00068650395 -0.020535173 0.034916565 -0.09995871
0000c0 74 01 36 bd 15 95 91 bc 11 f7 33 bc fa 19 5c bd
       -0.04443498 -0.017771283 -0.010984198 -0.05373571
0000d0 8b e2 84 3d 6d 5e 98 bd 18 c6 3c 3c 16 ab b4 bd
       0.06488522 -0.07439885 0.011521839 -0.088216946
0000e0 a5 70 c4 3c a8 0d 15 bd 3b 05 e8 39 52 f4 fd bb
       0.023979494 -0.036389977 0.00044254385 -0.0077500725
0000f0 46 41 10 bd f4 c8 00 3e 10 e6 a3 bb 65 73 36 bd
       -0.0352185 0.12576658 -0.005001791 -0.044543643
000100 b7 c3 83 3c d2 1b 82 bd 4b 15 a8 bd eb 23 b1 bd
       0.016084535 -0.063529626 -0.08207186 -0.08649429
000110 d8 a2 0d bc 09 a5 b3 3c aa 7f 05 3d 26 df 94 bd
       -0.008644782 0.02192928 0.032592453 -0.07269125
000120 28 a9 2b 3d 7e 5d 7e bd bd 6d a5 3c c4 eb 7b bd
       0.041909367 -0.06210088 0.020193929 -0.06150414
000130 54 5a d7 3b 4f a6 a8 3c 75 e3 e2 bc 62 07 0b 3d
       0.0065720472 0.020587115 -0.02769635 0.033942588
000140 90 9d 41 3d 77 de 67 bd 5d 86 d9 3d dc 6d 1e bd
       0.047269404 -0.056608643 0.10621331 -0.03867899
000150 d8 ba 60 bd 74 be 19 bd 8e 40 aa 3c 1c 9d 55 3d
       -0.054865688 -0.037535146 0.020782735 0.052151784
000160 53 96 f3 3c 80 03 3d bb 58 55 82 3e a0 8e b8 3d
       0.029734766 -0.0028841197 0.25455737 0.090115786
000170 4f 54 c2 bd 53 1b 26 3d 86 f8 2a bd 24 be 75 bc
       -0.09488737 0.040553402 -0.041740917 -0.014998946
000180 27 61 43 3c 65 a6 07 3a 5c 21 3b 3d 06 72 2f 3d
       0.011925018 0.0005174636 0.04568611 0.04283335
000190 50 fe 72 bd ed 97 d6 bc e6 d7 4d bd 15 ac cf 3a
       -0.059324563 -0.02619549 -0.050254725 0.0015844131
0001a0 17 c0 bc 3c 08 5e 3f bd b4 57 70 bd 98 8d 50 bc
       0.023040814 -0.046720535 -0.05867739 -0.012729071
0001b0 aa ab be bd 47 53 2a bc 48 07 c0 bc 60 08 58 3b
       -0.09310086 -0.010395831 -0.023440972 0.0032963976
0001c0 e1 13 e3 3c e1 af 1f be ed 15 5b bd 4a a9 3c bc
       0.02771944 -0.15594436 -0.053487707 -0.011514971
0001d0 a2 6a af bd b4 9e 4a 3d 14 65 58 3d a3 0a d1 bc
       -0.085652605 0.049467757 0.05283077 -0.025517767
0001e0 14 e8 03 bd 3f 8e 1f be 99 76 c1 bc d6 80 1f bd
       -0.03220375 -0.15581606 -0.023616122 -0.038941227
0001f0 a5 da 2f bd 1e 19 7d bd 12 eb 58 3d 29 9f 0a 3d
       -0.042933125 -0.06179153 0.052958556 0.033843193
000200 1b b8 ef 3d dc a1 89 bd 82 5a 5e 3d 01 69 39 bd
       0.11705037 -0.06720325 0.054285534 -0.045266155
000210 29 6c 57 3d 3c 7d b0 3c 04 a8 b7 3c 49 4c 4e bd
       0.052593384 0.021544091 0.022418983 -0.05036572
000220 81 1c ff bc 17 97 3c bc d0 03 82 3b 09 4f 56 bd
       -0.031141521 -0.011510632 0.0039677396 -0.052321468
000230 ab 2e cf bd 20 bc 60 3d 9f f9 fd bd 86 65 a7 bd
       -0.10116323 0.05486691 -0.12401127 -0.08173661
000240 80 14 fa bc c0 ef 03 3e 4b 8a 24 bd 36 74 4f 3d
       -0.030527353 0.12884426 -0.04017095 0.050647937
000250 20 a8 df 3d 24 3e 30 3d 38 3d d7 3d b4 b2 04 bd
       0.10920739 0.043028012 0.105097234 -0.032396987
000260 0e d6 1c be e7 06 4a 3e ab 63 6e bd 47 d7 a5 3d
       -0.1531603 0.19729196 -0.05820052 0.080977015
000270 78 c2 4c 3c 55 90 d5 3d 3a 7d 15 bd a0 59 1e 3c
       0.012497537 0.1042792 -0.03649638 0.009664923
000280 f0 fc 8f 3c 0e 1b 3e 3d 88 ec 41 3d 77 41 47 3d
       0.017576665 0.04641252 0.047344714 0.048646417
000290 68 c1 7f bd 5b be e8 bd 50 a5 56 3c 93 e9 80 bd
       -0.062440306 -0.113644324 0.013100937 -0.06294551
0002a0 b9 9c 87 bd c4 40 69 bd 09 46 96 bd 03 8b 26 3d
       -0.06621689 -0.05694653 -0.07337577 0.040659916
0002b0 48 c6 19 3c a1 82 17 bd 64 4e 2f 3d 07 f4 bc bd
       0.009385653 -0.03698981 0.04279937 -0.09226232
0002c0 fc c9 c4 bc 46 b6 17 bd 98 ac 92 bd 38 03 c0 3c
       -0.024022095 -0.037039064 -0.07161826 0.023439035
0002d0 c8 2f d4 bd c8 3f b6 bd 82 2b 97 bc 12 c1 61 3e
       -0.10360676 -0.08898884 -0.018453363 0.22046307
0002e0 be 5f 32 3d 06 c4 56 bc 49 b7 e0 3c 02 5b cc 3c
       0.043548338 -0.013108259 0.027431147 0.02494574
0002f0 bc 6b a5 bd 2e 98 56 bd 5f 0b 10 bd 9a 63 ab 3c
       -0.08077189 -0.052391224 -0.035167094 0.020921517
000300 83 10 2e bc 69 b5 86 bc e0 9b 2f bc 7f fc ee bd
       -0.010624054 -0.016443925 -0.010718316 -0.116692536
000310 96 59 65 3e 50 69 4f bd c0 15 70 bd fa 48 ac bc
       0.22397456 -0.050637543 -0.058614492 -0.021030892
000320 10 df 07 bc 6f 51 2f 3f f3 82 2d 3d 74 d5 c8 3c
       -0.008292928 0.6848363 0.04236121 0.024515845
000330 3e de ea 3d cc 9c 69 3d 8c fd c7 3c a6 60 e3 bc
       0.114681706 0.0570343 0.024412893 -0.027756047
000340 1c 65 9b bc 7c 4d 09 3d 00 d2 b2 3c 9b 70 5d 3d
       -0.018969111 0.03352116 0.021828651 0.054062467
000350 91 b2 cb 3d c9 c1 e0 bd 56 21 88 3c 37 30 5a bd
       0.09946168 -0.109744616 0.016617458 -0.053268638
000360 22 34 01 3d 5d 01 43 3f a4 9a e4 bb 8c 3d 17 bc
       0.03154386 0.76173955 -0.0069764424 -0.0092309825
000370 89 91 fb 3d 25 fb ca bd b0 97 6b bd 8d 0f d0 b9
       0.12283618 -0.09911183 -0.057517707 -0.00039684438
000380 bc d7 12 3e 35 b0 92 3c 98 14 d7 bc 46 ec 01 3d
       0.14340109 0.017906288 -0.026254937 0.03171947
000390 f0 d3 83 3d a8 b3 39 3c 91 29 64 bd bc 3e 68 3d
       0.06436908 0.011334337 -0.055703703 0.056700453
0003a0 00 c9 1f ba 4f 0d 48 3f c8 98 14 bc 7e eb 55 3d
       -0.000609532 0.7814531 -0.009069629 0.052226536
0003b0 61 08 37 3d 10 9a f3 3a 4c 6f 11 bc 13 de 0c 3e
       0.044685725 0.0018585343 -0.008876633 0.1375659
0003c0 b0 17 ab bc 13 c8 84 bd 48 02 5a bc ea 78 ad 3c
       -0.020885319 -0.06483474 -0.013306208 0.02117582
0003d0 a8 94 19 3c f4 c9 ec bb 88 23 9b bd 50 f2 15 bd
       0.009373821 -0.007226223 -0.075751364 -0.03660804
0003e0 28 9a ad bc d4 8e 4b bd 27 4a 2d be 42 29 33 bc
       -0.021191671 -0.04969676 -0.16922818 -0.01093513
0003f0 c1 c9 a9 bc 3a 60 a9 bc 61 97 18 3d 1b 21 d4 bd
       -0.020726087 -0.020675767 0.03725374 -0.10357877

fc3.bias f4 [81]
000000 35 54 96 3e c5 58 e1 3e 9e 35 ff bd 7a 77 76 3e
       0.2936112 0.44013038 -0.124613985 0.24069014
000010 29 07 33 3e 26 88 64 3e b8 44 87 3e 43 9b ba 3e
       0.174832 0.22317562 0.26419616 0.3644658
000020 31 64 52 3e 8a 53 37 3e 69 49 21 3d b9 7a 98 be
       0.20546032 0.17902961 0.03937665 -0.2978113
000030 bb 6f cb 3e fa 3e c1 3e 70 41 bc 3e f8 73 24 3f
       0.3973368 0.3774336 0.36768675 0.64239454
000040 e4 0f 03 3f e6 ff 9c 3e fa 70 d4 3e 89 0c 20 3f
       0.5119612 0.30663985 0.41492444 0.6251913
000050 4f 84 13 3f a5 86 d5 3e 9a d7 2b 3f 76 07 0e 3f
       0.5762376 0.41704288 0.67125857 0.55480134
000060 4c b7 b6 3e bd 39 bb 3e 1f 60 ad 3e ee d2 d1 3e
       0.3568672 0.36567488 0.33862397 0.4098124
000070 cc dd 24 3f 11 0f fd 3e ef 3e e2 3e ab 61 5d 3e
       0.64400935 0.49425557 0.4418864 0.21619289
000080 cc fb 17 3f 7d 52 b5 3e ea 50 31 3e f4 5e a3 be
       0.59368587 0.35414496 0.17316023 -0.3190838
000090 85 99 de 3e ad 39 0d 3f e7 41 46 3f 38 c9 3d 3d
       0.434765 0.5516613 0.7744431 0.046334475
0000a0 ef 19 e3 3e 35 52 47 3e 16 d4 07 3f 85 74 31 3f
       0.44355723 0.19464953 0.5305799 0.6931842
0000b0 e1 f8 ec 3e 6d ed 2e 3f 39 02 62 3f ee 34 2a 3e
       0.4628363 0.68331033 0.8828464 0.16621754
0000c0 eb 16 97 3e 9d a0 2b 3f a7 3a 8d 3e 96 b5 e2 3e
       0.29509673 0.6704195 0.2758381 0.44279164
0000d0 0d ac 80 3e 4b c8 9c 3e 93 11 d8 3e 72 7b c4 3e
       0.25131264 0.3062156 0.42200908 0.3837543
0000e0 7b 72 97 be fb 5e a1 3e b5 15 7c 3c 06 3d 3b 3e
       -0.2957953 0.31517777 0.015386035 0.18284997
0000f0 3d 85 f0 3e 0a 4c fc 3e 88 a2 b1 3e cb 92 39 3f
       0.46976653 0.49276763 0.34694314 0.72489613
000100 cd be 69 3f 5e ee f1 3e 5e e9 b7 3e e4 11 fc 3e
       0.91306764 0.47252172 0.35920233 0.492324
000110 94 55 17 3e b5 a7 9d 3e 19 ed 68 3e 94 39 9b 3e
       0.14778739 0.30792013 0.22746696 0.30317366
000120 a2 00 57 3e 93 fc 28 3f 62 68 08 3f 1c 72 db 3e
       0.20996335 0.660104 0.53284276 0.42860496
000130 a0 31 01 3f 68 8a 15 3f f8 86 26 3f c7 9c 34 3f
       0.50466347 0.58414316 0.65049696 0.70551723
000140 99 01 c5 3e
       0.3847778
