code/outputs/Policy_Gradient/seed4/models/pg_checkpoint.pt (torch, 30227 bytes, 4 tensors)

fc1.weight f4 [81, 5]
0	0xbed7fd98	-0.42185664
1	0x3e650d04	0.22368246
2	0xbe23f3f3	-0.16011028
3	0xbe7689c2	-0.24075988
4	0xbeee1cf2	-0.4650646
5	0x3e88964c	0.26677167
6	0xbeac59f6	-0.33662385
7	0xbd9a352a	-0.075296715
8	0x3d98a452	0.074532166
9	0x3d28e915	0.04123791
10	0x3ebdc593	0.370648
11	0x3e99d914	0.3004843
12	0x3da7e710	0.081983685
13	0xbea738df	-0.32660577
14	0xbef1e1d5	-0.4724261
15	0xbe2927c3	-0.16519074
16	0xbdd7d12c	-0.10537943
17	0xbb6d4b20	-0.0036208108
18	0xbef01c82	-0.4689675
19	0x3f08b8ae	0.534068
20	0xbec2ad4d	-0.38022843
21	0x3e7c830c	0.24659365
22	0x3f33db4b	0.7025649
23	0x3dabe564	0.08393362
24	0xbe8e5e48	-0.27806306
25	0x3e1cdd48	0.15318787
26	0x3f06f964	0.5272429
27	0xbe8d64a2	-0.2761584
28	0xbedf5dc7	-0.43626234
29	0xbee0ecdd	-0.43930712
30	0x3f1a875c	0.6036279
31	0x3df0782c	0.11741671
32	0x3e08f673	0.13375263
33	0xbe0357dc	-0.12826484
34	0x3eb36683	0.35039148
35	0xbd7a0396	-0.061038576
36	0xbe99d578	-0.30045676
37	0x3ba8b5a7	0.005148608
38	0xbe12466c	-0.14284676
39	0x3d6db4d0	0.058033764
40	0x3efa63b7	0.489042
41	0x3e95f62e	0.29289383
42	0xbdb87714	-0.09007087
43	0x3c9e8b69	0.019353585
44	0x3e8ddccd	0.2770752
45	0x3d4990be	0.049210303
46	0xbd879893	-0.06620898
47	0xbf0177dc	-0.50573516
48	0x3e766d4a	0.24065128
49	0xbe8cffe8	-0.2753899
50	0xbe64ec53	-0.22355776
51	0x3efbcca9	0.4917958
52	0x3f030528	0.5117974
53	0x3d6763ad	0.056491543
54	0x3e4c5748	0.1995517
55	0x3e729fab	0.23693721
56	0xbe1207b6	-0.14260754
57	0xbd95a16b	-0.07306179
58	0xbe9f2fb0	-0.3109107
59	0x3e78c4ec	0.2429387
60	0xbd390997	-0.04517516
61	0xbe4b6afd	-0.19865032
62	0xbea5272b	-0.32256445
63	0xbe8fcf98	-0.2808807
64	0x3e0c72fb	0.13715737
65	0x3cc29ec5	0.023757348
66	0x3f24cc17	0.64373916
67	0x3ed5a500	0.41727448
68	0xbce3d31f	-0.027810631
69	0xbe8f005c	-0.27929962
70	0x3eafbf6e	0.34325737
71	0x3e18b780	0.1491375
72	0x3ec7ac31	0.3899856
73	0x3d5e5de2	0.054288752
74	0x3e10b909	0.14133085
75	0xbeab208c	-0.3342327
76	0xbd78632d	-0.060641456
77	0x3eb12704	0.3460008
78	0xbd0014a3	-0.03126968
79	0xbd00fd6a	-0.031491674
80	0xbe901734	-0.28142703
81	0xbed48c63	-0.41513357
82	0x3dac3d31	0.08410109
83	0x3da19ccb	0.07891234
84	0xbe7b5a06	-0.2454606
85	0xbe93cb4e	-0.28866047
86	0xbebadf06	-0.36498278
87	0xbdd27326	-0.10275869
88	0xbe5a2f6a	-0.2130715
89	0x3edd6d91	0.43247655
90	0x3dc8e6a0	0.09809613
91	0xbe9de4e0	-0.3083868
92	0x3eb1b063	0.34704885
93	0x3e8f2084	0.27954495
94	0xbd43dd96	-0.047818743
95	0xbe85cacc	-0.26131284
96	0xbdca7c14	-0.09886947
97	0xbe3fb2a2	-0.18720487
98	0xbed8c1b0	-0.42335272
99	0xbea6f59a	-0.32609254
100	0x3cd51d60	0.026014984
101	0xbeb86ccd	-0.36020508
102	0xbe47ca6c	-0.19510812
103	0xbdd81a87	-0.10551935
104	0xbe79d228	-0.24396574
105	0x3e21ac31	0.15788342
106	0xbe80c891	-0.2515302
107	0xbd5e5a5a	-0.054285385
108	0xbe2f57f9	-0.17123403
109	0xbe15604c	-0.14587516
110	0x3f005be2	0.501402
111	0x3edef0f4	0.43543208
112	0x3e785362	0.24250558
113	0x3ef3c54b	0.4761146
114	0xbe9128eb	-0.2835153
115	0x3cfa5bc8	0.030561343
116	0xbc469f64	-0.012122963
117	0x3da0689b	0.07832452
118	0x3e927c0b	0.28610262
119	0x3f065a55	0.52481586
120	0x3c0fae6c	0.008769613
121	0xbe3a2ad7	-0.18180405
122	0xbda5d807	-0.080978446
123	0xbe32bd66	-0.17455062
124	0xbeb58b0b	-0.35457644
125	0xbecfdeeb	-0.4059976
126	0xbecc247b	-0.39871582
127	0xbddaa805	-0.106765784
128	0xbecf1312	-0.40444237
129	0xbc289016	-0.010288259
130	0x3e7360b4	0.23767358
131	0xbeecfd2e	-0.4628691
132	0xbeed6f24	-0.46373856
133	0x3e803aea	0.25044948
134	0x3df7fd46	0.12108855
135	0x3bfe9c90	0.0077701285
136	0xbd0c35da	-0.034231044
137	0xbe42ebcc	-0.19035262
138	0xbe800b22	-0.25008494
139	0xbe9807fe	-0.29693598
140	0x3e4cf2c5	0.20014484
141	0xbe956121	-0.29175666
142	0xbee51f18	-0.44750285
143	0xbe396acf	-0.1810715
144	0x3ec7d0d4	0.3902651
145	0x3edbe0fa	0.4294508
146	0x3dc008fc	0.09376714
147	0xbec4eb14	-0.384606
148	0xbef929c5	-0.4866468
149	0xbe40c419	-0.18824805
150	0xbde55fc2	-0.11199905
151	0xbeb0675d	-0.3445386
152	0x3e8fbbdc	0.28073013
153	0xbe8e1c85	-0.27756134
154	0x3f1db3d3	0.61602515
155	0x3d8de19a	0.06927796
156	0x3e98ff3d	0.2988223
157	0x3edda22b	0.43287787
158	0x3e20fde5	0.15721853
159	0x3dd81a1d	0.10551856
160	0xbee02a81	-0.43782428
161	0xbe1f036e	-0.15528652
162	0xbda6dca7	-0.08147555
163	0xbe29ae5d	-0.1657042
164	0x3f299f8a	0.6625906
165	0xbca202d0	-0.019776732
166	0xbec55f80	-0.38549423
167	0x3ca22421	0.019792618
168	0xbe7b926b	-0.24567573
169	0x3f0f26f7	0.5591883
170	0x3ecae4d3	0.39627704
171	0x3e6b319e	0.22968146
172	0x3d4c56d6	0.0498875
173	0xbe9bb31d	-0.3041009
174	0x3ea9bad0	0.3315034
175	0x3f23cf0c	0.63987803
176	0x3f205c1a	0.62640536
177	0x3efbf7c3	0.49212465
178	0xbd102b5f	-0.035197612
179	0x3eeb0c5c	0.45907867
180	0x3ec29706	0.38005847
181	0x3ef4a833	0.47784576
182	0xbd94e967	-0.072710805
183	0x3eb83591	0.35978368
184	0xbeb20821	-0.34771827
185	0x3e8d4312	0.27590233
186	0x3e9868ee	0.29767555
187	0xbcb81a1e	-0.022473391
188	0x3dff5867	0.12468033
189	0x3e9e80f6	0.30957764
190	0xbcc68c45	-0.024236808
191	0x3eb20ca4	0.3477527
192	0xbec6b163	-0.3880721
193	0x3da39cad	0.07988868
194	0x3d6eb496	0.05827769
195	0x3e33fac2	0.17576125
196	0xbe93393f	-0.28754613
197	0x3d3c70b2	0.046005912
198	0x3e01e3ad	0.12684508
199	0xbf24dd4b	-0.64400166
200	0xbe11fea2	-0.14257291
201	0xbed5f31c	-0.4178704
202	0xbe4d40f1	-0.20044304
203	0xbe915701	-0.2838669
204	0x3deccb37	0.11562198
205	0xbea411a5	-0.32044712
206	0xbe420e5f	-0.18950795
207	0xbec47669	-0.3837159
208	0xbeb5a24e	-0.3547539
209	0xbda1dc4c	-0.079033464
210	0xbe5d1ddd	-0.21593423
211	0x3d1ed7a4	0.03877987
212	0x3ea49e74	0.3215214
213	0xbf00a781	-0.5025559
214	0x3e206dc4	0.15666872
215	0xbd88869d	-0.066663004
216	0x3ec22dba	0.37925512
217	0x3c91fba8	0.017820194
218	0x3f2ca2db	0.67436
219	0x3f14d941	0.58144003
220	0x3e69d1a4	0.22833878
221	0xbe979268	-0.29603887
222	0xbee3d886	-0.44501132
223	0x3d9aa382	0.07550718
224	0xbec77583	-0.38956842
225	0xbd3b2d2a	-0.04569737
226	0xbd4bc03a	-0.04974387
227	0x3c851b04	0.016248234
228	0xbd3db8c9	-0.046318803
229	0xbca0c970	-0.019627303
230	0xbe8c989a	-0.27460176
231	0xbedc3cf5	-0.43015257
232	0xbe336899	-0.1752037
233	0x3dec3e6d	0.11535344
234	0xbe86054c	-0.26175916
235	0x3f1c9850	0.6116991
236	0x3f1bb028	0.6081567
237	0xbea9b502	-0.3314591
238	0xbc9202a5	-0.017823527
239	0xbee20461	-0.44143966
240	0xbbca781b	-0.0061788685
241	0x3e16cc3c	0.14726347
242	0xbdb0b382	-0.086279884
243	0xbd7f6adb	-0.062357765
244	0xbe8d5805	-0.27606216
245	0xbe51a092	-0.20471409
246	0x3e5299e5	0.20566519
247	0xbcab6d7e	-0.020926233
248	0xbddd9c47	-0.10820823
249	0xbe7922fb	-0.2432975
250	0xbe7d0db1	-0.24712254
251	0x3e3ceb23	0.18449073
252	0xbe2d166d	-0.16903086
253	0xbdb0fb6e	-0.086417064
254	0x3d6b0ad3	0.05738337
255	0x3e9432ad	0.28944913

fc1.bias f4 [81]
0	0xbdca45ba	-0.098765805
1	0xbdf748bc	-0.1207442
2	0x3ddfb387	0.10922914
3	0x3ce66fb7	0.028129442
4	0x3ea07085	0.31335846
5	0xbdac0bdb	-0.08400699
6	0x3e20397f	0.15646933
7	0xbe5a3808	-0.21310437
8	0x3e57c7e0	0.2107234
9	0x3d222612	0.039587088
10	0x3f1d0d01	0.6134797
11	0xbe5ebcbc	-0.21751684
12	0xbe96d241	-0.29457286
13	0x3e252ca9	0.16130318
14	0xbe867296	-0.26259297
15	0xbe6506ce	-0.22365877
16	0x3d8ee52c	0.06977305
17	0x3e88770b	0.26653323
18	0xbdb8d952	-0.090258256
19	0xbede4567	-0.43412325
20	0xbd7377b6	-0.059440337
21	0xbe71c2b3	-0.23609428
22	0xbe5c34fc	-0.21504587
23	0x3df4a39e	0.1194527
24	0x3db3d432	0.087807074
25	0xbedc9c32	-0.43087918
26	0x3f0f773a	0.560413
27	0xbdcc5227	-0.09976607
28	0x3f2113b6	0.629207
29	0xbe8cb367	-0.27480623
30	0x3f103b60	0.563406
31	0xbe8c74ab	-0.2743276
32	0x3df8cf22	0.121488824
33	0x3f5acdc0	0.854702
34	0x3eca7cb8	0.39548278
35	0xbea0b74b	-0.3138984
36	0xbe839f81	-0.2570763
37	0xbe6a0241	-0.22852422
38	0xbeeffdec	-0.46873415
39	0x3e3fc91d	0.18729062
40	0xbe87e6dd	-0.26543322
41	0xbd2a9575	-0.04164644
42	0xbe8ce059	-0.27514914
43	0x3e99089f	0.2988939
44	0x3cf34b6f	0.029699055
45	0xbeee262f	-0.46513507
46	0xbd0ca870	-0.034340322
47	0x3e999a44	0.30000508
48	0x3e33469c	0.17507404
49	0xbd143c7f	-0.036190506
50	0xbe282c0d	-0.16423054
51	0xbe510829	-0.20413269
52	0xbc9120b7	-0.017715795
53	0x3f133b71	0.57512575
54	0xbe1603b1	-0.14649846
55	0x3d4277c8	0.047477514
56	0xbe8c6c5d	-0.27426425
57	0xbea8e648	-0.3298819
58	0xbe170e04	-0.1475144
59	0xbc72c31c	-0.0148170255
60	0xbdde907d	-0.10867403
61	0xbea07d98	-0.3134582
62	0xbee88117	-0.45410988
63	0xbe61fc7b	-0.2206897
64	0x3f0cb4d7	0.5496344
65	0xbdbb3c0a	-0.09142311
66	0x3e250204	0.1611405
67	0x3c2f7c2a	0.010710755
68	0xbe19ee2f	-0.15032266
69	0xbedbd6cd	-0.42937317
70	0xbe9bcb9e	-0.30428785
71	0x3ebafaa6	0.36519355
72	0xbeccd12e	-0.4000334
73	0xbefd66d3	-0.4949251
74	0xbeebed8b	-0.46079668
75	0x3f3f6da3	0.7477667
76	0xbd206faf	-0.03916901
77	0x3d57315c	0.052537307
78	0x3f441083	0.76587695
79	0xbb6a8900	-0.0035787225
80	0xbd8218c3	-0.06352379

fc2.weight f4 [81, 81]
0	0x3e32da15	0.17466004
1	0xbd0001a4	-0.031251565
2	0x3e153bb0	0.1457355
3	0xbdb18a62	-0.086689726
4	0xbe40d927	-0.18832837
5	0x3e01159a	0.12605897
6	0x3d922f43	0.07137921
7	0x3e14cf68	0.14532244
8	0x3e3bafe1	0.18328811
9	0x3d007d1e	0.03136932
10	0xbcd42071	-0.025894376
11	0x3e563b16	0.20920977
12	0xbc886832	-0.016651247
13	0x3db0a6ee	0.08625589
14	0x3d8931ec	0.06698975
15	0xbdad2fe5	-0.08456401
16	0xbe5914ce	-0.21199343
17	0xbe312ad4	-0.17301494
18	0x3dcd1e3b	0.10015532
19	0x3d8ac329	0.06775505
20	0x3cd7235d	0.02626198
21	0xbd800749	-0.062513895
22	0x3e834f27	0.25646326
23	0xbd25e225	-0.04049887
24	0x3d894d5d	0.06704209
25	0xbd19d3f5	-0.037555654
26	0xbe27c87c	-0.16385072
27	0x3e0be597	0.136618
28	0xbc69f774	-0.014280189
29	0x3e6b3f8b	0.22973458
30	0xbe497c41	-0.19676305
31	0x3e6e641f	0.2328038
32	0xbe51749f	-0.20454644
33	0xbe673a0a	-0.22580734
34	0x3c8af917	0.016964478
35	0x3e3b738b	0.18305795
36	0x3e4a58e0	0.19760466
37	0x3e100330	0.14063716
38	0x3df04725	0.1173232
39	0x3d79e3ac	0.06100814
40	0xbd1ad7b2	-0.03780336
41	0xbd0639a0	-0.0327698
42	0x3d2180e4	0.03942956
43	0x3e3de8b3	0.18545799
44	0x3da00f3e	0.07815407
45	0x3d81c408	0.06336218
46	0xbe17edca	-0.14836803
47	0x3e01ba88	0.12668812
48	0x3e1b32c6	0.15156087
49	0xbcd74b60	-0.026281059
50	0x3e57a9aa	0.21060815
51	0x3e76ce3c	0.2410211
52	0xbd905b3b	-0.07048651
53	0xbe18296b	-0.1485955
54	0x3e0bd347	0.13654815
55	0x3d5bc90d	0.053658534
56	0xbd05437d	-0.032535065
57	0x3c99431d	0.01870876
58	0xbddf76b7	-0.10911315
59	0x3e1a6fda	0.1508173
60	0x3e07e82b	0.13272159
61	0x3e46d9fd	0.19419093
62	0x3e11c6e6	0.1423603
63	0x3e6118e7	0.21982156
64	0xbe6b4490	-0.22975373
65	0x3df6a66c	0.12043461
66	0xbd123870	-0.035698354
67	0x3e854d52	0.26035553
68	0x3e673a5b	0.22580855
69	0xbe1b3a4c	-0.15158957
70	0x3c43e310	0.011955991
71	0x3e088dc2	0.13335326
72	0x3d25c635	0.040472228
73	0x3e4bb8a7	0.19894658
74	0x3d9561a1	0.07294012
75	0xbe804737	-0.25054333
76	0xbd92c7b4	-0.071669966
77	0xbcd94acc	-0.026524924
78	0xbe407a7a	-0.18796721
79	0xbd107f90	-0.035277903
80	0x3e628bad	0.22123595
81	0x3e348dd5	0.1763223
82	0x3c8a8932	0.016911123
83	0x3e02dbed	0.12779208
84	0x3e54c5db	0.20778601
85	0xbddfacdc	-0.10921642
86	0x3d58a46f	0.05289119
87	0xbd55029a	-0.052004434
88	0x3e11ddf0	0.14244819
89	0x3d52d1c2	0.051469572
90	0x3e23fef0	0.1601522
91	0xbd4b95af	-0.049703296
92	0xbd6c650e	-0.05771356
93	0x3d87bbd0	0.06627619
94	0x3ba8f7cc	0.005156493
95	0x3c616d90	0.013759032
96	0xbd9f7885	-0.07786659
97	0xbc9445d3	-0.018099701
98	0xbdab603a	-0.08367963
99	0x3de1e3f5	0.110298075
100	0xbdab07ee	-0.08351122
101	0x3d21bfd2	0.039489575
102	0x3d807792	0.06272806
103	0xbc7ab974	-0.0153030045
104	0xbcfcdeb0	-0.030867904
105	0xbdad596d	-0.08464322
106	0xbdbdabe0	-0.09261298
107	0xbd9f5358	-0.077795684
108	0x3dd8fef2	0.10595502
109	0xbe022e27	-0.12712918
110	0x3d8bae5a	0.06820364
111	0xbdb5b70f	-0.08872806
112	0x3cb45348	0.022012368
113	0x3cf07d48	0.029356614
114	0xbd74b2c4	-0.059740797
115	0x3c7bfc5d	0.015379992
116	0x3cd090ba	0.025459636
117	0xbcf74b55	-0.030187288
118	0xbb78fecf	-0.0037993675
119	0x3dca6680	0.098828316
120	0x3dc6b391	0.09702218
121	0x3d654b44	0.055979982
122	0x3bd602c7	0.006531093
123	0xbb7702c0	-0.0037690848
124	0xbd86a740	-0.06574869
125	0xbdb40bdc	-0.087913245
126	0x3e4bb760	0.19894171
127	0x3e2a7998	0.16647947
128	0xbbe38bd2	-0.006944158
129	0x3d7d4e1b	0.061842065
130	0xbda1f003	-0.07907107
131	0x3d87c6f6	0.06629746
132	0x3dcc7e80	0.099850655
133	0xbcfd23d5	-0.030900875
134	0xbccd074c	-0.025027893
135	0x3d166a2e	0.036722355
136	0x3d5d3bd2	0.054012127
137	0x3dba3d5e	0.09093736
138	0xbd4e2e5d	-0.050337184
139	0xbd04ae12	-0.03239257
140	0x3e0e9e22	0.1392751
141	0x3e4b1913	0.19833784
142	0x3e035bd3	0.12827997
143	0x3e2ba67d	0.16762729
144	0x3d5862bd	0.05282854
145	0x3cc16010	0.023605376
146	0xbc2833cf	-0.010266258
147	0xbe4920be	-0.19641396
148	0x3df5dc17	0.120048694
149	0x3bb042d3	0.00537906
150	0xbe20136b	-0.15632407
151	0x3e3ad50a	0.1824533
152	0x3df59b42	0.11992504
153	0xbd615924	-0.05501665
154	0xbda9f791	-0.08299173
155	0xbc333c31	-0.010939644
156	0xbd294c8e	-0.041332774
157	0x3e171973	0.14755802
158	0x3c4c3c30	0.012465522
159	0xbdcf5fe8	-0.101257145
160	0x3e0fdf58	0.14050043
161	0xbcc85b7c	-0.024457686
162	0xbde67cd5	-0.112542786
163	0x3d35a60b	0.044347804
164	0xbe00046d	-0.12501688
165	0xbe195a54	-0.14975864
166	0xbe2e70d1	-0.17035224
167	0xbe555dea	-0.20836607
168	0xbdc32249	-0.09528024
169	0xbd2dfd4d	-0.042477895
170	0xbe65ada4	-0.2242952
171	0xbdeada1c	-0.11467382
172	0xbe80d93a	-0.2516573
173	0xbe272469	-0.16322483
174	0xbdaeb352	-0.085302964
175	0xbc467d59	-0.012114846
176	0xbd3f07e8	-0.0466384
177	0xbb013e39	-0.0019720925
178	0xbe44cb9c	-0.19218296
179	0xbe35bc5f	-0.17747639
180	0xbdb4c592	-0.08826746
181	0x3dd3a51b	0.10334226
182	0x3c0643d5	0.008194883
183	0x3bf05855	0.0073347487
184	0xbe352ed6	-0.17693648
185	0xbd149b59	-0.036280964
186	0xbddec1f4	-0.108768374
187	0xbda979f9	-0.082752176
188	0xbe35d99f	-0.17758797
189	0xbe564a78	-0.20926845
190	0xbe1ee4c8	-0.1551696
191	0xbd69914a	-0.057023324
192	0xbd919b13	-0.07109656
193	0xbe2fb31f	-0.17158173
194	0xbd8fe5a5	-0.07026223
195	0xbe759619	-0.23983039
196	0xbe6a3941	-0.22873403
197	0x3c12b914	0.008955259
198	0xbd02c0f3	-0.031922292
199	0xbd95a3b9	-0.07306618
200	0xbe57fd44	-0.21092707
201	0xbe4d5d76	-0.20055184
202	0x3db66880	0.089066505
203	0x3ddc3c2e	0.10753666
204	0xbd930095	-0.071778454
205	0xbdef6699	-0.11689491
206	0xbe8b8470	-0.2724948
207	0x39e67900	0.0004395917
208	0xbe0ad6a2	-0.13558438
209	0xbe3d7538	-0.18501747
210	0xbe5ceed1	-0.21575476
211	0xbd0c9c8a	-0.034328975
212	0xbd23eb49	-0.040019307
213	0xbd4e6d13	-0.05039699
214	0x3c2f5be4	0.010703061
215	0xbe2b83f9	-0.16749562
216	0xbda69a6b	-0.08134922
217	0xbdca8b26	-0.09889822
218	0xbd475615	-0.04866608
219	0xbd56ea6e	-0.052469663
220	0xbd9e9104	-0.07742503
221	0xbd123fcb	-0.03570537
222	0xbd0a9623	-0.033834588
223	0xbe41cb0b	-0.18925111
224	0xbde4f336	-0.11179201
225	0xbe2d8708	-0.16946042
226	0xbd9d985b	-0.07695075
227	0xbe1d325d	-0.15351243
228	0xbe692ae9	-0.22770275
229	0xbda5614b	-0.08075198
230	0xbe3b5fdf	-0.1829829
231	0xbe035433	-0.12825088
232	0xbdef32ac	-0.11679587
233	0xbe36f64b	-0.17867391
234	0xbd51f68b	-0.051260512
235	0xbe3743c8	-0.1789695
236	0xbdc2ac7c	-0.09505555
237	0xbe3a79a2	-0.18210462
238	0xbdc58863	-0.09645154
239	0xbe4a60f8	-0.19763553
240	0xbe65afdc	-0.22430366
241	0xbe13c3fe	-0.14430234
242	0xbe0471dd	-0.1293406
243	0xbe0513cf	-0.12995838
244	0xbd4cda2b	-0.05001275
245	0xbc8fae66	-0.017539214
246	0xbdafa706	-0.08576779
247	0xbdf0dd52	-0.117609635
248	0xbdca0e7f	-0.09866046
249	0xbe4fa538	-0.2027787
250	0x3e318b9f	0.17338417
251	0xbe070cbd	-0.13188453
252	0xbe5658ed	-0.2093236
253	0xbd6ed43b	-0.058307867
254	0xbe49b503	-0.19697957
255	0xbcea05c0	-0.028567195

fc2.bias f4 [81]
0	0xba82539e	-0.0009943133
1	0xbdfa3722	-0.12217547
2	0xbd682b1a	-0.05668173
3	0xbe233494	-0.15938026
4	0xbd519fe8	-0.05117789
5	0x3dcc5fc2	0.09979202
6	0xbdcf6450	-0.10126555
7	0x3d9ef73b	0.07761999
8	0xbda7346c	-0.081642956
9	0xbe971103	-0.29505166
10	0x3ed9d4df	0.4254522
11	0xbe8b442e	-0.27200454
12	0xbdad1c6a	-0.08452685
13	0x3e4d00d0	0.20019841
14	0xbe489db7	-0.19591413
15	0x3efa551a	0.48893052
16	0x3f048087	0.5175862
17	0xbe65043f	-0.22364901
18	0x3e3a6cc1	0.18205549
19	0x3d805484	0.0626612
20	0xbcffbfce	-0.03121939
21	0x3d1a71da	0.037706234
22	0x3e6549c1	0.22391416
23	0xb95ecd40	-0.00021248031
24	0x3d334757	0.043769207
25	0xbe3c05f9	-0.18361653
26	0xbdce628c	-0.1007739
27	0xbded13dc	-0.115760535
28	0x3d97a7cc	0.074050516
29	0x3ce2e948	0.027699128
30	0x3d9f4921	0.0777762
31	0xbdb56e7b	-0.08858963
32	0x3ce8b1da	0.028405119
33	0xbe231381	-0.15925409
34	0x3d90b792	0.07066263
35	0x3e8a5d45	0.27024284
36	0xbe7e25cd	-0.24819107
37	0x3e229aa3	0.15879302
38	0x3ecfc028	0.4057629
39	0x3e39ff6f	0.18163846
40	0xbdf20f3a	-0.118193105
41	0x3ecfe461	0.40603927
42	0x3d5ed01a	0.05439768
43	0x3e117b41	0.14207174
44	0x3c24938f	0.010044946
45	0xbea9d229	-0.33168152
46	0x3cd76fcb	0.026298424
47	0xbc31b01d	-0.010845211
48	0xbea2f58b	-0.3182796
49	0xbe7e2f61	-0.24822761
50	0xbe078593	-0.13234548
51	0xbba7352a	-0.005102773
52	0x3de2a62a	0.110668495
53	0xbdc34564	-0.095347196
54	0x3dcc545d	0.099770285
55	0xbe205352	-0.15656784
56	0x3db04127	0.08606177
57	0x3ca64e89	0.02030112
58	0xbd99ae64	-0.075039655
59	0xbce707ae	-0.028201904
60	0xbe186110	-0.14880776
61	0x3c04bae6	0.008101201
62	0x3e33cba8	0.17558157
63	0xbe1a3c62	-0.15062097
64	0x3d8a17f2	0.067428485
65	0xbe21aed6	-0.15789351
66	0xbdba52b9	-0.09097809
67	0x3e0fe958	0.14053857
68	0xbe424e98	-0.18975294
69	0x3d9b617e	0.075869545
70	0xbe313f2c	-0.17309254
71	0x3d6d5be6	0.05794897
72	0xbd0c82ec	-0.034304544
73	0x3e6cea92	0.23136356
74	0x3d8f977b	0.070113145
75	0x3ada1f20	0.0016641356
76	0x3cbd70d8	0.023125097
77	0xbe1828e2	-0.14859346
78	0xbe286196	-0.16443476
79	0xbe40ef6f	-0.18841337
80	0xbe9b5f8b	-0.3034633
