code/outputs/EV_Charging_Pricing/example/models/dqn_checkpoint.pth (torch, 354391 bytes, 6 tensors)

fc1.weight f4 [256, 5]
0	0x3d3c353a	0.0459492
1	0xbd9144ae	-0.07093178
2	0x3fc7a84f	1.5598239
3	0x3f008bd3	0.50213355
4	0xbe0e0414	-0.13868743
5	0xbeb4f6d7	-0.35344574
6	0x3ea8b3ff	0.32949826
7	0x3f9d3b50	1.2283726
8	0x3f9a5c3a	1.2059395
9	0x3f817556	1.0113933
10	0xbe7895c8	-0.24275887
11	0xbeb1adf2	-0.34703022
12	0xbe472db0	-0.19451022
13	0x3e0b63d4	0.136123
14	0x3e6aeb66	0.2294136
15	0x3d9b87c5	0.07594255
16	0x3ea9737c	0.3309592
17	0xbf201a1e	-0.6253985
18	0x3e2e8d1b	0.17046015
19	0x3f29f296	0.6638578
20	0xbe8c6b68	-0.27425694
21	0x3e8428f1	0.25812486
22	0x3f1d4e8f	0.61447996
23	0x3fc4cecd	1.537561
24	0x3f772cdf	0.9655284
25	0x3ef289ac	0.4737066
26	0xbe61217e	-0.21985433
27	0xbe2ac31e	-0.16675994
28	0xbeb27ba2	-0.3485995
29	0xbdc68075	-0.0969247
30	0xbdbb6fac	-0.09152159
31	0xbe82cd26	-0.2554714
32	0xbea3382e	-0.318788
33	0x3dd4b5a0	0.10386205
34	0xbdf152c0	-0.117833614
35	0x3eb0dee9	0.34545067
36	0x3dff2f0b	0.124601446
37	0xbfa285dd	-1.2697102
38	0xbf398b72	-0.724784
39	0xbe086fb9	-0.13323869
40	0x3f117732	0.568225
41	0xbe07742e	-0.13227913
42	0xbfbfdb53	-1.4988807
43	0xbf2815a2	-0.6565801
44	0xbd91b836	-0.071152136
45	0xbe942e32	-0.28941494
46	0x3e77c5e7	0.24196588
47	0x3fb2f73d	1.3981701
48	0x3f2f4167	0.6845917
49	0xbf38ea99	-0.7223297
50	0x3e53f5f2	0.2069929
51	0x3e887f0a	0.26659423
52	0x3fa5367f	1.2907256
53	0x3dc9f04e	0.098602876
54	0x3f06823d	0.5254248
55	0xbeadcd22	-0.33945566
56	0xbe814d11	-0.2525411
57	0xbe5bb16e	-0.21454403
58	0x3ebc04fc	0.36722553
59	0x3e270e6b	0.16314094
60	0xbe9bc047	-0.30420133
61	0x3e634188	0.22192967
62	0x3fb585a0	1.4181404
63	0x3f093bf3	0.536071
64	0x3e9caf7c	0.30602634
65	0xbec5e132	-0.38648373
66	0xbea31c20	-0.31857395
67	0xbebcf956	-0.36908978
68	0xbeaa67b9	-0.3328226
69	0x3d9ef7ab	0.07762083
70	0xbe7df8f6	-0.24802002
71	0xbe88b692	-0.2670179
72	0xbee03871	-0.4379306
73	0x3ed7f2ea	0.42177516
74	0x3fc8a42f	1.5675105
75	0x3eaa9d27	0.33323023
76	0x3e91ef9e	0.28503126
77	0xbc72f1bb	-0.014828141
78	0xbf138036	-0.5761751
79	0x3f065e15	0.5248731
80	0xbd9a7285	-0.07541374
81	0x3d4efbba	0.050533034
82	0x3fb4eef0	1.4135418
83	0x3f072b15	0.5280011
84	0x3f2645ee	0.64950454
85	0xbc7252d1	-0.014790253
86	0xbccca092	-0.02497891
87	0x3fad6221	1.3545572
88	0x3df8b246	0.12143378
89	0xbe25a9b4	-0.16178018
90	0x3e080b02	0.13285449
91	0xbc76d1cf	-0.015064671
92	0x3fd6f406	1.679322
93	0x3e0dbb56	0.13840994
94	0xbf8d141a	-1.102176
95	0x3f110948	0.5665479
96	0xbe595701	-0.21224596
97	0xbf9a219f	-1.204151
98	0xbf75238b	-0.9575736
99	0xbf19b6dc	-0.60044646
100	0xbe450aa9	-0.19242348
101	0x3e4abad8	0.19797838
102	0x3fa4220b	1.2822889
103	0x3eb9a2cf	0.36257026
104	0xbfad3430	-1.3531551
105	0x3ec16c07	0.3777773
106	0x3d8f3296	0.069920704
107	0xbf42b565	-0.76058036
108	0xbed0bfb3	-0.40771255
109	0x3e8b2907	0.2717974
110	0xbe708b21	-0.23490573
111	0xbe8d2d76	-0.27573746
112	0x3ee1bce1	0.44089416
113	0xbeb60f8a	-0.3555873
114	0x3ed491bc	0.41517437
115	0x3e51bb50	0.2048161
116	0xbee16221	-0.4402018
117	0x3eddb864	0.4330474
118	0x3e645648	0.22298539
119	0x3d83623c	0.06415221
120	0x3ea1192f	0.31464526
121	0x3e5bb8fa	0.21457282
122	0x3f8c2a91	1.095049
123	0x3fbfc77c	1.4982753
124	0xbe4a2231	-0.19739605
125	0x3b3c1225	0.0028697338
126	0xbe0eae21	-0.13933612
127	0xbe38c1c1	-0.18042661
128	0x3d5063ed	0.050876547
129	0x3e0f796f	0.14011167
130	0xbf3c7115	-0.7361005
131	0xbf78032b	-0.96879834
132	0xbeba8344	-0.36428273
133	0xbe90ca82	-0.282795
134	0x3fdaa823	1.7082561
135	0xbd3e52b0	-0.046465576
136	0xbee119ec	-0.4396509
137	0x3be7f740	0.007079035
138	0x3dfcdbe0	0.12346625
139	0x3e223c06	0.1584321
140	0x3f02bca1	0.51069075
141	0xbe0fee36	-0.14055714
142	0xbf862349	-1.0479518
143	0xbf53bed9	-0.82713085
144	0xbef0fbeb	-0.47067198
145	0xbec46b0e	-0.38362926
146	0xbeaf5804	-0.34246838
147	0x3cc912c0	0.024545074
148	0xbe2bf448	-0.16792405
149	0xbe888262	-0.26661974
150	0x3e1eb2f7	0.15497957
151	0xbeb470f2	-0.3524242
152	0xbed22c8d	-0.41049615
153	0x3eae17ea	0.3400262
154	0x3f5e0fcf	0.8674287
155	0xbe71f1da	-0.23627415
156	0x3eb85a26	0.36006278
157	0x3ff7b2a8	1.9351397
158	0x3f8f70cf	1.1206301
159	0x3fa99dd5	1.3251292
160	0xbe0f6074	-0.14001638
161	0xbe24b97c	-0.16086382
162	0xbee230fe	-0.44178003
163	0x3dc36849	0.09541375
164	0x3e2bc006	0.1677247
165	0xbe5fe9f7	-0.21866594
166	0xbeda3f81	-0.42626575
167	0xbe802e0a	-0.25035125
168	0xbe81b917	-0.25336525
169	0x3dfd6280	0.12372303
170	0xbed3feb7	-0.4140527
171	0x3e91edda	0.2850178
172	0x3fd563e9	1.6671115
173	0x3fea7dab	1.8319601
174	0xbf2ca594	-0.6744015
175	0x3e8cc721	0.27495673
176	0x3cf239a9	0.02956851
177	0x3f5cd194	0.8625729
178	0xbcb5011e	-0.02209526
179	0x3db7d4e0	0.089761496
180	0x3e23f1c6	0.16010198
181	0x3e506ecc	0.20354766
182	0x3faecc7c	1.3656154
183	0x3e3cd13e	0.18439195
184	0xbfd7ae6b	-1.6850103
185	0x3d82a596	0.06379239
186	0x3e900ed9	0.28136328
187	0x3f62d211	0.88601786
188	0x3fba8bcb	1.4573911
189	0xbef584d9	-0.47952917
190	0x3e39966b	0.18123786
191	0xbd332bc7	-0.04374292
192	0xbf2483d6	-0.64263666
193	0xbf91de03	-1.1395878
194	0xbe811586	-0.25211734
195	0xbb885603	-0.004160644
196	0xbd3b8a10	-0.045785964
197	0x3f4682d1	0.7754336
198	0x3f403c26	0.7509178
199	0x3e76a719	0.2408718
200	0x3e7bb978	0.2458247
201	0x3e15a6a3	0.14614348
202	0x3fc644b3	1.5489715
203	0xbd6ee9bf	-0.058328386
204	0xbfb944df	-1.4474143
205	0xbf076090	-0.5288172
206	0x3ec154a3	0.37759885
207	0x3f965d8a	1.1747296
208	0x3feb0175	1.835982
209	0xbf144d66	-0.579306
210	0x3e6d6e9f	0.2318673
211	0x3e89c476	0.269077
212	0xbec840d7	-0.3911197
213	0xbda43eba	-0.08019777
214	0x3f36c031	0.7138701
215	0xbdec9373	-0.11551561
216	0xbe2f0ab4	-0.17093927
217	0xbedd764f	-0.43254325
218	0x3e29fd9e	0.16600654
219	0x3d259f35	0.040435035
220	0xbe56044f	-0.20900081
221	0x3e4d4907	0.20047389
222	0x3fce8fc3	1.6137623
223	0x3f53d50a	0.82746947
224	0x3fa14634	1.2599549
225	0x3e800dfe	0.25010675
226	0xbed283ee	-0.4111628
227	0xbe31795a	-0.17331448
228	0xbe4abc90	-0.19798493
229	0xbead89f0	-0.338943
230	0x3e236bdc	0.15959114
231	0xbea34106	-0.31885546
232	0x3e5d2994	0.21597892
233	0x3eb6daec	0.357139
234	0xbe85bce4	-0.26120675
235	0x3eb8fb5e	0.36129278
236	0xbe2ff26b	-0.17182319
237	0xbf9fbff1	-1.2480451
238	0xbf600612	-0.8750926
239	0xbe6f7681	-0.2338505
240	0xbd2cac36	-0.04215642
241	0x3e6a8bfd	0.22904964
242	0x3f832546	1.024575
243	0x3ff256e2	1.8932765
244	0xbf5994cc	-0.8499267
245	0xbe9064b1	-0.2820182
246	0xbe98ff3d	-0.2988223
247	0xbdc64e18	-0.09682864
248	0xbe114cfe	-0.14189526
249	0x3e20d66e	0.15706798
250	0x3dd21a68	0.10258943
251	0xbed169d4	-0.40901053
252	0xbec968b7	-0.39337704
253	0x3daa1b78	0.083060205
254	0x3d6833b8	0.056689948
255	0xbe00fee7	-0.12597238

fc1.bias f4 [256]
0	0x3fd02f15	1.6264368
1	0x402717c8	2.6108265
2	0xbe90f950	-0.2831521
3	0xbf4bb141	-0.79567343
4	0x3fa41632	1.2819273
5	0xbf1c0d8c	-0.6095817
6	0xbec88637	-0.39164898
7	0xbf88ceb7	-1.0688084
8	0xbf86ce80	-1.0531769
9	0x3fae9319	1.3638641
10	0x3fbe057a	1.4845421
11	0x3f274c3a	0.6535069
12	0x3fff6bf8	1.9954824
13	0xbdc54850	-0.09632933
14	0x40103fc0	2.253891
15	0x3e86a927	0.26300928
16	0x3ffb08c2	1.9612048
17	0x3fdd8f1d	1.73093
18	0x3cb27958	0.021786377
19	0xbf6784b4	-0.90436864
20	0x3e4d0e6f	0.20025037
21	0xbf85a396	-1.0440547
22	0x3f64b647	0.89340633
23	0xbda44be7	-0.0802229
24	0x3f9e0ba0	1.2347298
25	0xbe30ea24	-0.17276818
26	0x40080393	2.1252182
27	0xbe48c6b8	-0.19607055
28	0x3f135738	0.5755496
29	0xbe88d99a	-0.26728517
30	0x3fda0ed5	1.7035776
31	0x4016a951	2.3540843
32	0xbe53b8b5	-0.20675929
33	0xbe6602f0	-0.22462058
34	0x3f942867	1.157483
35	0x3fce24c8	1.6104975
36	0xbe85dc67	-0.26144716
37	0x3f8d2954	1.1028237
38	0xbf48737d	-0.7830122
39	0x3fe93b0d	1.8221146
40	0xbe9625a7	-0.293256
41	0x3fa39461	1.2779657
42	0xbf606a5b	-0.87662286
43	0xbd4fc7ad	-0.050727535
44	0x4011b8ce	2.2769046
45	0xbda444b8	-0.080209196
46	0x3c113f20	0.008865148
47	0xbf0d3404	-0.55157495
48	0x3f85a9d6	1.0442455
49	0xbe4642f5	-0.1936148
50	0xbd90bb30	-0.07066953
51	0x3fff22d7	1.9932507
52	0x3fdc37f9	1.7204581
53	0x3fe3e2fa	1.7803643
54	0x3e90ff80	0.2831993
55	0x40084c8a	2.1296716
56	0x3f7c853f	0.9864082
57	0xbec0058b	-0.3750423
58	0xbe839200	-0.25697327
59	0xbeee7248	-0.46571565
60	0x3fbee44d	1.4913422
61	0x3f3f8b0a	0.7482153
62	0xbf524fc6	-0.82152975
63	0x3f9ce792	1.225817
64	0x3fd56a4d	1.6673065
65	0xbecc3c54	-0.39889777
66	0x3ff8ab38	1.9427252
67	0xbf85a850	-1.044199
68	0x3f9861b9	1.1904823
69	0xbf2b2e91	-0.6686793
70	0xbf588dd8	-0.84591436
71	0x40026345	2.037309
72	0xbd8fbbae	-0.07018219
73	0x3e070ff8	0.13189685
74	0xbe9d5840	-0.30731392
75	0xbe4ae2ff	-0.19813155
76	0x401ce9f5	2.4517796
77	0x3eacd157	0.33753464
78	0x3c7798c0	0.015112102
79	0xbde34b8c	-0.11098394
80	0xbf68aa87	-0.90885204
81	0xbe4c9791	-0.19979693
82	0xbf90123f	-1.1255568
83	0x3f0d527a	0.55203974
84	0x3e9ec8b6	0.31012505
85	0x3fc790f9	1.5591117
86	0x3e5842d8	0.21119249
87	0xbaf6445c	-0.0018788683
88	0x3afb7d49	0.0019187118
89	0x40003883	2.0034492
90	0x3f928051	1.1445409
91	0x3e461616	0.19344363
92	0x4016225b	2.345847
93	0x3f73886e	0.9513005
94	0xbe41ad0b	-0.18913667
95	0xbda9f15e	-0.0829799
96	0x3cdde598	0.027087018
97	0x3cbff9b0	0.02343449
98	0x3f268f53	0.65062445
99	0xbf0557a9	-0.52086884
100	0xbd026e71	-0.031843606
101	0x401ab3bc	2.41722
102	0x401bbdaa	2.4334512
103	0xbe99d833	-0.3004776
104	0xbeb94275	-0.36183515
105	0xbe85c04b	-0.2612327
106	0x3fe4427b	1.7832788
107	0xbea02e57	-0.31285354
108	0x3e480249	0.19532122
109	0x3f6b1d29	0.9184137
110	0xbd9cfbc7	-0.0766521
111	0xbea23b4b	-0.31685862
112	0x3fe7fda3	1.8124279
113	0x3f17b4b3	0.592601
114	0x3ca1734a	0.019708294
115	0xbdaf0537	-0.085459165
116	0x3ca193b0	0.019723743
117	0xbb0a378e	-0.0021090242
118	0x3de817dc	0.11332676
119	0x3fd9f221	1.7027017
120	0xbc0cc235	-0.008591224
121	0xbf0f2bf0	-0.5592642
122	0xbed72bfb	-0.42025742
123	0x400fcf79	2.2470381
124	0x3ffb0240	1.9610062
125	0xbe4dcea0	-0.20098352
126	0x3f066599	0.52498776
127	0x3fcf9288	1.6216593
128	0xbe6129c4	-0.21988589
129	0xbeadfac5	-0.33980384
130	0x3e9609e5	0.29304424
131	0xbe92a6f2	-0.28642994
132	0xbf8d192c	-1.1023307
133	0xbecfa046	-0.40551966
134	0xbe3cfff4	-0.18457013
135	0x3d4f351e	0.050587766
136	0xbe7a27ef	-0.24429296
137	0x3ff01cb9	1.8758765
138	0x3fabec82	1.3431551
139	0x3d518d95	0.051160414
140	0x4009810e	2.1485019
141	0xbe10cd92	-0.14140919
142	0x3d14fdd0	0.036374867
143	0x3fccaa44	1.5989461
144	0xbea29e3a	-0.31761342
145	0xbd137c33	-0.036007117
146	0x3f6d63de	0.9273051
147	0xbebe2f2e	-0.3714537
148	0x40034c07	2.0515153
149	0xbf458a19	-0.77163845
150	0xbe320878	-0.17386043
151	0x3d854567	0.06507378
152	0x3ff4c00c	1.9121108
153	0xbeceaaea	-0.40364772
154	0x3fbd6918	1.4797697
155	0xbec860e4	-0.39136422
156	0xbe7e04f1	-0.24806572
157	0xbedf3ac0	-0.4359951
158	0xbe4d6747	-0.20058928
159	0xbf45e171	-0.7729712
160	0x3fe9be68	1.8261232
161	0xbf8171dd	-1.0112873
162	0x3f6fb99d	0.936426
163	0x3fbad0cc	1.459497
164	0x400243c0	2.0353851
165	0xbed9b1c1	-0.42518428
166	0xbe9dab0c	-0.3079456
167	0xbea00a8a	-0.3125804
168	0x3d174448	0.036930352
169	0x3f26a57a	0.6509625
170	0x3f8ec811	1.1154805
171	0x3fd41890	1.6569996
172	0xbe722982	-0.23648646
173	0xbe582352	-0.21107224
174	0x3fe36066	1.7763793
175	0xbe3bb842	-0.18332008
176	0x4015dfa7	2.3417757
177	0xbe9bc142	-0.30420882
178	0x3fdc37cb	1.7204527
179	0xbdcdced5	-0.10049216
180	0x3def77d5	0.11692778
181	0xbf900e93	-1.1254448
182	0xbf8d1202	-1.102112
183	0x401217af	2.2826955
184	0x3ffa29c0	1.9543991
185	0x3fd52782	1.6652682
186	0xbe33410d	-0.17505284
187	0x3e3e5c8a	0.18589988
188	0x40400a62	3.0006337
189	0xbe8ccca1	-0.2749987
190	0xbe85c74f	-0.26128623
191	0x3db2101d	0.086944796
192	0xbe826c2c	-0.25473154
193	0x3fb3ac30	1.4036922
194	0x3ec3ee7f	0.38267896
195	0xbde345b0	-0.11097276
196	0x3ea2c969	0.3179429
197	0x40109c2b	2.2595317
198	0xbbe98247	-0.007126126
199	0x3e07f75b	0.13277952
200	0xbe257e5d	-0.16161485
201	0x3bdab586	0.0066744713
202	0xbd43f708	-0.04784301
203	0x3f65a858	0.8971
204	0xbdbb8690	-0.09156525
205	0x3e6b60aa	0.22986093
206	0x3fe57f67	1.7929505
207	0xbe7b7a13	-0.24558286
208	0x3f113bd1	0.567319
209	0x3fc47e25	1.5350996
210	0x3fd1ddd7	1.6395825
211	0x3ecab73e	0.39592928
212	0xbeb3935f	-0.35073373
213	0x3dada718	0.08479136
214	0xbf95ed0b	-1.1712965
215	0x3d955971	0.0729245
216	0x40229e57	2.5409143
217	0x3e672c4c	0.22575492
218	0xbdd52c8c	-0.10408887
219	0x4011dde3	2.279168
220	0xbdedd9a4	-0.11613777
221	0xbe2fa676	-0.17153344
222	0x3f1737b9	0.590694
223	0xbead17b2	-0.3380714
224	0xbd24805e	-0.040161483
225	0x3f235651	0.63803583
226	0x3f8cff37	1.1015385
227	0x3ffefe03	1.9921268
228	0xbc30f1f5	-0.010799875
229	0x3f792148	0.9731641
230	0x3fc6ad86	1.5521705
231	0xbf854795	-1.041247
232	0x3e3a15b0	0.18172336
233	0x3dde3acd	0.10851059
234	0x3f819cea	1.0126011
235	0x3f8db9bc	1.1072307
236	0x3fa5a88a	1.2942059
237	0x4008053e	2.12532
238	0xbf61a8ee	-0.8814839
239	0xbde72ef0	-0.112882495
240	0x3f30a05b	0.68994683
241	0x3f882d40	1.0638809
242	0x4017900f	2.3681676
243	0x3e244576	0.16042122
244	0x3e204877	0.15652643
245	0xbe668420	-0.22511339
246	0x3fad1bd8	1.3524122
247	0xbebd4968	-0.36970067
248	0xbdc9f403	-0.09860995
249	0xbe2084c8	-0.15675652
250	0x3f601dbe	0.8754538
251	0xbddfb598	-0.10923308
252	0x3e7e177c	0.24813646
253	0xbde49414	-0.11161056
254	0x3fbe72ef	1.4878825
255	0x3f65076a	0.8946444

fc2.weight f4 [256, 256]
0	0x3d390584	0.045171276
1	0x3c69f9f8	0.014280789
2	0xbd35a2a4	-0.04434456
3	0x3ccebe18	0.025237128
4	0xbc026290	-0.007958069
5	0xbd030e98	-0.03199634
6	0xbcdd83a0	-0.027040303
7	0xbd25dd74	-0.040494397
8	0x3be61770	0.007021837
9	0x3ca5a7e0	0.02022165
10	0xbd10d1e6	-0.035356425
11	0x3c2ec0b8	0.010666065
12	0xbd0892bc	-0.03334306
13	0x3d668c72	0.056286283
14	0xbc6d5f80	-0.014488101
15	0xbb6b31a0	-0.0035887733
16	0x3cf5d380	0.030008078
17	0x3cf306e4	0.029666372
18	0x3c8291d8	0.015938684
19	0x3cdbcacc	0.0268301
20	0x3d03d818	0.032188505
21	0xbc0e8dc0	-0.008700788
22	0xbc7c4b80	-0.01539886
23	0xbd10ee96	-0.035383783
24	0x3cbd4bf4	0.023107506
25	0xbcb6bf50	-0.022308022
26	0xbd7a91dc	-0.06117426
27	0xbcf8932c	-0.030343615
28	0xbd422ffc	-0.047409043
29	0x3d1eedd4	0.03880103
30	0x3c1aecd0	0.009455875
31	0xbd087320	-0.033312917
32	0xbcd0f024	-0.025505133
33	0xbc6ac208	-0.014328487
34	0x3c9ebb60	0.019376457
35	0x3c844248	0.016144887
36	0x3cc170d8	0.023613378
37	0x3aa06080	0.001223579
38	0x3bffe900	0.007809758
39	0x3bb9e9c0	0.005673617
40	0xbc0e4e90	-0.008685723
41	0xbc87e1a0	-0.016587079
42	0xbc59e4f8	-0.013299219
43	0xbc77f950	-0.015135124
44	0x3d1f3030	0.038864315
45	0xbad92900	-0.0016568005
46	0x3cb3a2d4	0.021928228
47	0xbd106df0	-0.035261095
48	0x3cbb85cc	0.022890948
49	0x3d4a685a	0.049415924
50	0x3c43a9c8	0.0119423345
51	0xbb146fc0	-0.0022649616
52	0xbd23eb94	-0.040019587
53	0x3d2c7562	0.042104132
54	0x3c4c2958	0.012461029
55	0xbd6df2ee	-0.058093004
56	0x3d16dea8	0.036833435
57	0xbd5f9610	-0.05458647
58	0xbd6c0724	-0.057623997
59	0xbc03d758	-0.008046947
60	0x3c0ffe90	0.00878872
61	0xbd27f5ac	-0.041005775
62	0x3d51b2b2	0.051195808
63	0x3be83930	0.0070868954
64	0xbd63ae76	-0.0555863
65	0x3cc13f9c	0.023589902
66	0xbd7763fa	-0.06039808
67	0x3d5223d2	0.051303692
68	0xbd2e781e	-0.04259502
69	0x3c0cec00	0.008601189
70	0x3c894df8	0.016760811
71	0x3c885f9c	0.016647153
72	0x3ca7fbfc	0.020505898
73	0xbb0f2400	-0.0021841526
74	0xbc023eb0	-0.007949516
75	0xbd3b365a	-0.04570613
76	0x3d1d588a	0.038414516
77	0x3bbe65f0	0.0058104917
78	0x3d13ffdc	0.03613268
79	0xbd2db4be	-0.042408697
80	0xbcb593a4	-0.022165127
81	0xbd2c24b2	-0.042027183
82	0xbc0a1ff8	-0.0084304735
83	0x3bc731b0	0.0060789213
84	0xbcdf7c40	-0.027280927
85	0xbcf50b60	-0.02991265
86	0xbd728090	-0.059204638
87	0x3c57f538	0.013181023
88	0x3d4e3054	0.050339058
89	0xbc8f98ec	-0.017528974
90	0x3d7dbfb0	0.061950386
91	0xbd77145a	-0.060322143
92	0x3c2ba0c8	0.010475345
93	0xbc19ec68	-0.009394743
94	0xbd746df6	-0.05967518
95	0x3c203498	0.009778164
96	0xbcbf926c	-0.02338525
97	0xbd0e9786	-0.034812473
98	0xbd21d9d2	-0.03951437
99	0x3d251272	0.040300794
100	0x3c8d7b98	0.017270848
101	0x3c9fe750	0.019519478
102	0xbd6f69f0	-0.05845064
103	0x3af07e80	0.0018348247
104	0xbd7097b4	-0.058738425
105	0xbd1a4208	-0.03766063
106	0xbcc899dc	-0.024487428
107	0x3d6aa394	0.057284907
108	0x3d2a46b6	0.04157134
109	0xbd7a38c4	-0.061089292
110	0xbd4f920a	-0.050676383
111	0x3cb50e94	0.022101678
112	0x3d304896	0.043037973
113	0x3d05c628	0.03265968
114	0xbce98e44	-0.02851022
115	0xbb162da0	-0.0022915378
116	0x3cd903c4	0.026491053
117	0x3ca39efc	0.01997327
118	0x3d2a6442	0.04159952
119	0x3cf4f954	0.029904045
120	0x38e78c00	0.000110410154
121	0xbcaeb1e8	-0.021325067
122	0x3c9ae700	0.018908978
123	0xba853880	-0.0010163933
124	0xbd07668c	-0.03305678
125	0xbd221396	-0.03956946
126	0xbd51f712	-0.051261015
127	0xbc8d4a00	-0.0172472
128	0x3d45829c	0.048220262
129	0xbd0ec402	-0.034854896
130	0x3d4bad6a	0.049725927
131	0x3d7051a6	0.058671616
132	0xbcab1fb8	-0.020889148
133	0x3c4a9da0	0.012366682
134	0x3cf13fd0	0.029449373
135	0xbca3f7d0	-0.020015627
136	0x3c25a2c8	0.010109611
137	0x3d23b0b2	0.03996343
138	0xbd22de0a	-0.039762534
139	0x3d12a2cc	0.035799786
140	0x3d2e0374	0.042483762
141	0xbb1709c0	-0.0023046583
142	0xbcd4949c	-0.025949769
143	0x3aa05580	0.0012232512
144	0x3d484386	0.04889252
145	0x3c462280	0.012093186
146	0x3d2c35bc	0.042043433
147	0x39b54900	0.000345774
148	0xbcd62a94	-0.02614335
149	0xbcb87770	-0.02251789
150	0x3d72e968	0.059304625
151	0xbb930430	-0.004486583
152	0xbd126624	-0.03574194
153	0x3d04815e	0.032349937
154	0xbd548bda	-0.051891185
155	0xbd58a35a	-0.05289016
156	0x3c690048	0.014221258
157	0x3c8e812c	0.017395578
158	0xbc82adb8	-0.015951976
159	0x3d2d1b8e	0.042262606
160	0xbac17240	-0.0014758781
161	0x3c9ef838	0.01940547
162	0xbcb961fc	-0.02262973
163	0xbbbb8b10	-0.0057233647
164	0xbce37e28	-0.027770117
165	0x3be8e0b0	0.007106863
166	0x3d267318	0.040637106
167	0xbc9ee710	-0.019397289
168	0xbc084498	-0.008317135
169	0xbc7c42e8	-0.015396811
170	0x3c329ed8	0.010902129
171	0x3d1fdf5e	0.03903138
172	0x3d18ceac	0.037306473
173	0xbb8efbc0	-0.004363507
174	0x3cc0eab0	0.023549408
175	0x3c121f08	0.008918531
176	0xbd697112	-0.056992598
177	0xbd71a3a6	-0.058993958
178	0xbc785f80	-0.015159488
179	0xbd168034	-0.036743358
180	0x3c21a7a8	0.0098666325
181	0x3d37603e	0.044769518
182	0xbd2d8de0	-0.04237163
183	0x3c5e1f20	0.0135572255
184	0x3d046e44	0.03233172
185	0xbcff59a8	-0.031170681
186	0x3d236d00	0.039898872
187	0x3cfbc580	0.030733824
188	0x3d193652	0.03740532
189	0xbd678132	-0.056519695
190	0x3c9dddfc	0.01927089
191	0xbd392926	-0.045205258
192	0xbd34ea94	-0.044169024
193	0xbcd17d00	-0.0255723
194	0xbd2cbdf8	-0.042173356
195	0x3d5ee272	0.054415174
196	0xbd02f17c	-0.03196858
197	0xbcde02d8	-0.027100965
198	0xbd724966	-0.05915203
199	0xbc2e7520	-0.010648042
200	0xbc840f0c	-0.016120456
201	0x3c052eb8	0.008128814
202	0xbca151d4	-0.019692339
203	0xbd28053a	-0.04102061
204	0xbd35a692	-0.044348307
205	0xbd2bd356	-0.041949593
206	0xbd187262	-0.03721846
207	0x3c2bd040	0.010486662
208	0xbbb2e4c0	-0.005459398
209	0x3cde0bc4	0.02710522
210	0xbc678068	-0.0141297355
211	0x3ce25608	0.027628914
212	0x3cdf1f5c	0.027236633
213	0xbc18d0b8	-0.009327106
214	0xbccdef30	-0.025138468
215	0x3d003d62	0.03130854
216	0xbd74c790	-0.05976063
217	0x3d65ce16	0.056104742
218	0x3d6a3cd8	0.05718693
219	0xbc8c3794	-0.017116345
220	0xbcf5a224	-0.029984541
221	0x3b8a3870	0.0042181537
222	0xbc8b417c	-0.016998999
223	0xbd1117e2	-0.035423167
224	0x3ce40180	0.027832747
225	0xbd31faba	-0.043452002
226	0xbaf265c0	-0.0018493459
227	0xbc1f3bd0	-0.00971885
228	0xbd12e7f2	-0.03586573
229	0xbd4b516e	-0.049638204
230	0x3d005fa2	0.031341203
231	0xbd7477ae	-0.059684448
232	0xbcaad200	-0.020852089
233	0xbcd21ea8	-0.025649384
234	0x3ce9fc90	0.028562814
235	0xbb939680	-0.004504025
236	0xbd19062e	-0.03735941
237	0xbcfa1c74	-0.030531146
238	0xbd0bb008	-0.034103423
239	0xbd780a26	-0.060556553
240	0x3c0a8ed8	0.008456908
241	0xbcfc2938	-0.030781373
242	0x3c904780	0.017612219
243	0xbd707fae	-0.058715515
244	0x3d4873e4	0.048938647
245	0x3d4d1198	0.050065607
246	0x3d3d4e04	0.04621698
247	0x3d7dd5f6	0.061971627
248	0xbbdd1cc0	-0.006747812
249	0xbd4a49a8	-0.04938665
250	0xbb807e40	-0.0039213
251	0xbc3a3358	-0.01136478
252	0x3d7585a4	0.059941903
253	0x3d75de44	0.060026422
254	0x3d71b816	0.05901345
255	0x3d2b0770	0.04175514

fc2.bias f4 [256]
0	0xbd4ee524	-0.050511494
1	0xbd698944	-0.057015672
2	0x3ee959cc	0.45576322
3	0xbea8bea6	-0.32957953
4	0xbe0b8785	-0.13625915
5	0xbd58615a	-0.052827217
6	0x3efbe665	0.49199215
7	0x3f725afb	0.94670075
8	0x3f66f9c4	0.9022486
9	0x3ef86165	0.48511806
10	0x3f2904fc	0.6602323
11	0xbd0168c1	-0.03159404
12	0xbc9d3a54	-0.019192852
13	0x3fbeafcd	1.48974
14	0x3f274398	0.65337515
15	0x3fac0f3c	1.3442149
16	0xbcaaf464	-0.020868488
17	0xbbe8f950	-0.0071097985
18	0xbd6c5738	-0.057700366
19	0x3d07994e	0.033105187
20	0x3e375166	0.17902145
21	0x3fae371d	1.3610569
22	0x3fa306f5	1.2736498
23	0x3c54940a	0.012974748
24	0x3f50083b	0.8126256
25	0x3d462d7f	0.048383232
26	0x3c406df8	0.011744969
27	0x3f3ebcdc	0.74506927
28	0xbd709062	-0.058731444
29	0x3f1e2b9a	0.6178528
30	0x3fadf463	1.3590206
31	0x3f06afb2	0.5261184
32	0xbce60b68	-0.02808161
33	0x3ec3a4aa	0.38211566
34	0x3e2aa4a2	0.16664365
35	0x3edfa188	0.43677926
36	0x3d582a9c	0.05277501
37	0x3d5ebceb	0.054379385
38	0x3f0767f3	0.5289299
39	0x3d21e734	0.039527133
40	0x3f87eeb2	1.0619719
41	0x3c8d6a98	0.017262742
42	0xbd2d678b	-0.042335074
43	0xbe3b7b73	-0.18308811
44	0x3d4f423e	0.050600283
45	0x3f9e18a2	1.2351267
46	0x3ce873e2	0.02837557
47	0x3caeb13c	0.021324746
48	0x3f55b157	0.83473724
49	0x3f894143	1.0723041
50	0x3fa217c6	1.2663505
51	0x3f8d908f	1.1059741
52	0xbcae80bd	-0.021301622
53	0x3d4eeefa	0.050520875
54	0x3fa2f6ce	1.2731569
55	0x3ec6fb68	0.38863683
56	0x3fa578eb	1.2927526
57	0xbcaaed00	-0.020864964
58	0x3cfc46d9	0.030795502
59	0x3d5c0e2a	0.053724445
60	0x3ef351ab	0.47523245
61	0x3eb6589e	0.35614485
62	0x3e96dcc7	0.29465315
63	0xbd7b61e2	-0.061372645
64	0x3f130001	0.5742188
65	0x3f2f4b56	0.6847433
66	0x3fa9080e	1.3205583
67	0xbccebe4b	-0.025237223
68	0xbd6af894	-0.05736597
69	0x3c2151f4	0.009846199
70	0x3f1a673c	0.60313773
71	0x3ef988c7	0.48737165
72	0x3ed6a6e4	0.41924202
73	0x3fb865ce	1.4406068
74	0x3eb76c4d	0.35824814
75	0x3f7626a7	0.9615273
76	0x3f6ab022	0.9167501
77	0x3faec15e	1.3652761
78	0x3ecd515b	0.40101132
79	0x3e510a7a	0.20414153
80	0x3e601e2e	0.21886513
81	0x3d0e993b	0.0348141
82	0x3ef00ce6	0.4688484
83	0x3f4186e8	0.75596476
84	0x3f07eb6b	0.53093594
85	0x3f5afd4e	0.8554276
86	0x3f9af271	1.2105237
87	0x3f41b8a7	0.7567238
88	0x3f8066c7	1.0031365
89	0x3f45fc1b	0.7733781
90	0x3f14941d	0.580385
91	0xba2e89e6	-0.0006658122
92	0x3ecea491	0.4035993
93	0x3fa6e5d6	1.303889
94	0x3f519069	0.8186098
95	0x3d248ddd	0.040174354
96	0x3f4740c5	0.77833205
97	0xbd59fceb	-0.053219717
98	0x3ead9c8f	0.33908507
99	0x3eb95dfb	0.36204514
100	0x3ed762ec	0.4206766
101	0x3f77721b	0.96658486
102	0x3ed7cde2	0.42149264
103	0xbc82c06a	-0.01596089
104	0x3c055048	0.008136816
105	0x3d183782	0.03716231
106	0xbd2900a7	-0.041260388
107	0x3f934763	1.150616
108	0x3f803463	1.0015987
109	0x3ed8a22a	0.4231122
110	0x3f21da65	0.6322387
111	0x3cd00dd0	0.025397211
112	0x3e18f007	0.14935313
113	0x3ea9a42d	0.3313307
114	0x3f98ea5c	1.1946521
115	0x3eac9990	0.3371091
116	0xbcd833ef	-0.026391951
117	0x3f762573	0.9615089
118	0x3f78570b	0.9700782
119	0x3f00a07b	0.50244874
120	0x3cc4bb01	0.024014952
121	0x3f4348b3	0.76282805
122	0x3d7da582	0.06192542
123	0x3f26420c	0.6494453
124	0x3c478c85	0.012179499
125	0x3f0a4958	0.54018164
126	0xbd4cabb4	-0.049968436
127	0x3f857ad8	1.0428114
128	0xbd5f5a2e	-0.05452936
129	0x3d650319	0.055911157
130	0x3f673c60	0.903265
131	0x3eadd6a8	0.33952832
132	0x3f5f2bdd	0.87176305
133	0x3ebc5950	0.3678689
134	0x3fb1931a	1.3873017
135	0xbe66424f	-0.22486232
136	0x3f42947a	0.7600781
137	0x3ede6f76	0.43444413
138	0x3f18792e	0.59559906
139	0x3e8fa7e0	0.28057766
140	0x3f5c8048	0.8613324
141	0x3c0c9779	0.008581036
142	0x3fa73371	1.3062574
143	0xbe390cde	-0.18071315
144	0x3f23ab31	0.6393309
145	0x3f5c2523	0.85994166
146	0x3f0fbcac	0.56147265
147	0x3d4265e9	0.04746047
148	0x3f42b1ec	0.7605274
149	0x3fda914d	1.7075592
150	0x3f216908	0.6305089
151	0x3ef0875e	0.46978277
152	0x3fab2415	1.3370386
153	0x3b6f22ab	0.003648917
154	0x3f967811	1.1755391
155	0x3df9a928	0.12190467
156	0x3f9851ce	1.1899965
157	0x3eea0d4f	0.4571328
158	0x3fc1f0fb	1.5151666
159	0x3ee3ff36	0.44530648
160	0x3c4f7028	0.0126610175
161	0x3d004cd2	0.03132326
162	0x3f76dfdd	0.9643534
163	0x3fc7cf53	1.5610145
164	0x3dd5ffef	0.10449206
165	0x3f9fe470	1.2491589
166	0xbd3d155a	-0.04616294
167	0x3f0c5aa2	0.54825795
168	0x3b976f09	0.0046213907
169	0x3f6f06c8	0.9336972
170	0xbb9d8ad7	-0.0048078108
171	0xbc5a59b6	-0.013327053
172	0xbd7e3fa9	-0.06207243
173	0x3c9f7f3a	0.019469846
174	0x3fa7ab13	1.3099083
175	0x3f93ad66	1.1537292
176	0x3d0ed8a6	0.03487458
177	0xbd1f484e	-0.038887314
178	0x3e887d3a	0.2665804
179	0x3d553bb8	0.052058905
180	0xbd2c553c	-0.042073473
181	0x3fb61cba	1.4227517
182	0x3d00d441	0.03145242
183	0x3ea7aa54	0.32747138
184	0x3e262475	0.16224845
185	0xbdfc1fa5	-0.12310723
186	0x3fbfc039	1.4980537
187	0x3efe1647	0.4962637
188	0x3f22e81a	0.6363541
189	0xbe865858	-0.26239276
190	0x3d463ac8	0.048395902
191	0x3f0debac	0.5543773
192	0x3edc1026	0.4298107
193	0x3f2589cf	0.64663404
194	0x3fb692c0	1.4263535
195	0xbe87546b	-0.26431593
196	0x3f0bdab1	0.5463057
197	0xbd37a24e	-0.04483252
198	0x3f4daf3b	0.80345505
199	0x3fb49a23	1.4109539
200	0x3cc4712b	0.023979744
201	0x3c74662f	0.014916941
202	0x3fd901be	1.6953657
203	0x3c0f3a49	0.008741924
204	0x3edb6167	0.4284775
205	0x3ef7ad8f	0.48374602
206	0x40266d60	2.6004257
207	0x3f484840	0.78235245
208	0x3e93a96b	0.28840193
209	0x3f7d7d45	0.9901927
210	0xbd47855f	-0.048711177
211	0x3c477621	0.01217416
212	0x3fd44cfc	1.6585994
213	0x3f019c24	0.50628877
214	0x3fa7ac61	1.3099481
215	0xbd43c121	-0.047791604
216	0x3ebe01c5	0.37110725
217	0xbc47d008	-0.012195595
218	0x3ef2449c	0.4731797
219	0x3d30f9e6	0.04320707
220	0x3ebaf299	0.36513212
221	0x3f3737db	0.71569604
222	0x3ecba28c	0.3977245
223	0x3fa41327	1.2818345
224	0x3f69562d	0.9114712
225	0x3fabe512	1.3429282
226	0x3f3850e5	0.71998435
227	0xbc868f4b	-0.01642575
228	0x3d291105	0.041275997
229	0x3eb19c76	0.34689683
230	0x3c447ecb	0.01199312
231	0x3f902eb7	1.1264256
232	0x3f812484	1.0089269
233	0x3e7f827b	0.24952118
234	0x3f59c1df	0.8506145
235	0x3f753b56	0.95793664
236	0x3b0a1274	0.0021068128
237	0x3f4959a4	0.78652406
238	0x3f756e73	0.9587166
239	0xbd227964	-0.03966655
240	0x3edd8239	0.43263415
241	0x3f053a66	0.52042234
242	0x3f16e78d	0.5894707
243	0x3d3f432d	0.046694923
244	0xbcfe311d	-0.031029278
245	0x3efb65d3	0.49101123
246	0x3d34adf0	0.044111192
247	0x3b6c1fa0	0.0036029592
248	0x3fcff03a	1.6245186
249	0x3f2b9a14	0.6703198
250	0x3e804624	0.25053513
251	0x3fc8b0ec	1.5678992
252	0xbca36d7a	-0.019949663
253	0x3e883a97	0.266072
254	0x3fb6c754	1.427958
255	0x3ce29b47	0.027661933

fc3.weight f4 [81, 256]
0	0x3d62f59a	0.055410005
1	0xbc50c1b0	-0.012741491
2	0x3c42c917	0.011888764
3	0x3e0bceed	0.13653155
4	0xbd755b0c	-0.059901282
5	0xbd2f1d3a	-0.042752482
6	0x3da4d8f2	0.080491915
7	0xbb3edc2b	-0.002912293
8	0xbdb4aa13	-0.088215016
9	0x3d8cc096	0.0687267
10	0x3dbcd969	0.09221155
11	0x3d71504c	0.058914468
12	0xbd600288	-0.054689914
13	0x3c9c4419	0.01907544
14	0xbd3ae0f7	-0.0456247
15	0x3d114077	0.03546187
16	0xbc698730	-0.014253423
17	0x3d3152b2	0.043291755
18	0xbd6d18a2	-0.05788482
19	0xbc308128	-0.010772981
20	0xbc357182	-0.011074426
21	0xbd2e1b60	-0.042506576
22	0x3da9de99	0.0829441
23	0xbc883ff4	-0.016632058
24	0x3d66858b	0.0562797
25	0xbd29529a	-0.04133854
26	0xbc1d3e68	-0.009597398
27	0xbdab2a4d	-0.083576776
28	0xbd54f7d6	-0.051994167
29	0x3d37bcf0	0.04485792
30	0x3d09aa3c	0.033609614
31	0xbd9a0354	-0.07520166
32	0x3d1791ca	0.03700427
33	0x3dd73130	0.10507429
34	0x3e0be9c6	0.13663396
35	0xbc74e81d	-0.014947918
36	0xbbf72190	-0.0075418428
37	0xbd669b6a	-0.05630056
38	0x3d2eb670	0.042654455
39	0x3cf9b958	0.030483887
40	0xbd6c1d67	-0.057645228
41	0x3d644f52	0.05573971
42	0x3cf7c3ec	0.03024479
43	0xbd0b3558	-0.03398642
44	0xbd1137f6	-0.03545376
45	0x3d416f8d	0.047225524
46	0x3c3bd642	0.011464657
47	0x3cbd8d0c	0.023138545
48	0xbd29fbb8	-0.041499823
49	0xbdcbd886	-0.09953408
50	0x3de9ddd1	0.11419261
51	0xbc8660af	-0.016403524
52	0xbce6d360	-0.028176963
53	0x3bb46213	0.0055048554
54	0xbd42a74b	-0.047522824
55	0x3ce28bb9	0.027654516
56	0xbc648695	-0.0139481025
57	0xbc294518	-0.010331415
58	0x3d4e8edf	0.05042922
59	0x3d2a6d32	0.041608043
60	0xbd4cd568	-0.050008208
61	0xbe0c2ddd	-0.1368937
62	0xbc422159	-0.011848771
63	0xbd362960	-0.044473052
64	0x3ce9e917	0.028553529
65	0xbdb88a3b	-0.0901074
66	0xbd16b4e6	-0.036793612
67	0xbbe8928a	-0.007097547
68	0xbd5566b8	-0.052099913
69	0xbd437b62	-0.04772509
70	0x3d1dac3d	0.038494337
71	0xbd493527	-0.049122956
72	0x38a4b84e	7.854459e-05
73	0x3d2cd293	0.042193007
74	0x3d7a479d	0.061103452
75	0x3d0702ae	0.03296154
76	0x3c907376	0.017633181
77	0xbd21c7d6	-0.03949722
78	0xbe03459b	-0.12819521
79	0xbd423988	-0.047418147
80	0xbbf8c2b0	-0.007591568
81	0xbc81c124	-0.015839167
82	0xbc028540	-0.00796634
83	0xbdfd803f	-0.123779766
84	0x3d16f86c	0.036858007
85	0xbd0f56e1	-0.034994964
86	0xbd95cdf3	-0.07314672
87	0xbce2c13c	-0.027680032
88	0xbd35264f	-0.044225987
89	0xbd4eb1c8	-0.050462514
90	0x3d8682eb	0.06567939
91	0x3cf4ea75	0.029896954
92	0xbd8ff869	-0.07029802
93	0x3da6a621	0.08137155
94	0xbd5f125f	-0.05446088
95	0xbc98d07c	-0.0186541
96	0xbdf1331c	-0.117773265
97	0x3d0c8688	0.034307986
98	0x3e0c4b3a	0.13700572
99	0x3d1e5067	0.038650896
100	0x3cbc9559	0.023020433
101	0x3ce6334c	0.028100632
102	0x3a50396a	0.00079431257
103	0x3ce7907f	0.028267143
104	0x3b9d80d0	0.0048066154
105	0x3ba17700	0.004927516
106	0x3d41f466	0.047352217
107	0xbc7e5445	-0.015523021
108	0x3c036a67	0.008020974
109	0xbd827b9b	-0.06371232
110	0xbd3e78e1	-0.046501998
111	0x3d60fbae	0.05492752
112	0x3ce2316f	0.027611462
113	0xbdbbf328	-0.09177238
114	0x3b1c83d7	0.0023882294
115	0x3c2a8c36	0.010409405
116	0x3b14d39e	0.0022709141
117	0xbd86a79b	-0.06574937
118	0xbdc319bf	-0.09526395
119	0xbc1df810	-0.009641662
120	0xbcfdd608	-0.030985847
121	0x3dc18228	0.094486535
122	0xbd62cd49	-0.055371556
123	0x3db7b3d2	0.08969845
124	0xbd67c748	-0.056586534
125	0xbd287609	-0.041128192
126	0x3cd1a204	0.02558995
127	0x3cb45225	0.022011826
128	0xbd681228	-0.05665794
129	0xbd52b9e6	-0.051446818
130	0xbd148c75	-0.036266763
131	0xbbece551	-0.007229485
132	0x3a418a4c	0.00073829736
133	0xbddb7557	-0.1071574
134	0x3c8bb0ed	0.017052138
135	0xbd55e3c9	-0.052219186
136	0xbdb731a6	-0.089450166
137	0x3d4e372d	0.05034559
138	0xbdc689e9	-0.09694273
139	0xbce36cab	-0.027761778
140	0xbd945947	-0.07243591
141	0xbcd9419c	-0.026520543
142	0xbd8184db	-0.06324168
143	0x3dba897b	0.091082536
144	0xbd39f4a0	-0.04539931
145	0xbc991449	-0.01868643
146	0x3e01cb01	0.12675096
147	0x3ca33913	0.019924676
148	0xbd47b947	-0.04876068
149	0x3e20e5b2	0.15712622
150	0xbd7c84d5	-0.061650116
151	0x3ced32d0	0.028954893
152	0x3b443089	0.0029936156
153	0x39241e00	0.00015651435
154	0xbda10e13	-0.078640126
155	0xbddb736b	-0.107153736
156	0xbd5772ef	-0.052599844
157	0xbd3fda4f	-0.046839055
158	0x3d06eee5	0.03294267
159	0xbccc7c39	-0.024961578
160	0x3d7fe6be	0.062475912
161	0x3c20c688	0.009812959
162	0x3d1677c1	0.0367353
163	0x3da412b9	0.080113836
164	0x3de05a84	0.109547645
165	0x3b98d2f7	0.004663821
166	0x3cf8aefc	0.030356877
167	0xbab4d948	-0.0013797665
168	0xbca38638	-0.019961461
169	0xbc6349d8	-0.013872586
170	0x3c255158	0.010090195
171	0xbd36aa58	-0.044596046
172	0x3d74bd58	0.059750885
173	0x3c91f6b8	0.01781784
174	0xbdcb4732	-0.09925689
175	0xbd483c2f	-0.04888552
176	0xbc285960	-0.010275215
177	0x3d331a46	0.04372623
178	0x3ba45ccd	0.0050159455
179	0xbd7bb808	-0.061454803
180	0x3d6b3774	0.05742593
181	0x3dd30d56	0.10305278
182	0xbcf584a8	-0.029970482
183	0x3cad8cfa	0.021185387
184	0xbb9d1294	-0.0047934745
185	0xbd82b88f	-0.06382858
186	0x3d3cec2d	0.046123672
187	0xbc6601ad	-0.0140384855
188	0x3d06ea5a	0.03293834
189	0xbceeda89	-0.02915694
190	0x3c99b2f5	0.018762091
191	0x3defc912	0.11708273
192	0x3c87a44f	0.01655784
193	0x3b9c82e4	0.0047763456
194	0x3d5c1b83	0.053737175
195	0x3d406f2f	0.046981033
196	0x3cfe196c	0.031017981
197	0x3b9df470	0.004820399
198	0xbd0ae803	-0.03391267
199	0xbcb60664	-0.022219844
200	0x3cd2762c	0.025691114
201	0xbd120e0a	-0.03565792
202	0x3e1eef06	0.15520868
203	0x3d7d036e	0.06177085
204	0xbdaea237	-0.08527034
205	0xbd767b17	-0.06017598
206	0x3e31b881	0.17355539
207	0xbd907467	-0.07053452
208	0x3e15303b	0.1456918
209	0xbcc43501	-0.023951055
210	0xbd3ff836	-0.04686757
211	0xbd7b2410	-0.06131369
212	0x3d01505f	0.03157079
213	0xbdba3a2c	-0.09093127
214	0xbccfe4f0	-0.02537772
215	0x3d216714	0.039404944
216	0x3d85b2e3	0.065282606
217	0xbd589c1e	-0.05288326
218	0x3d66b394	0.056323603
219	0x3d57fa6b	0.05272905
220	0x3c7d4e5a	0.015460575
221	0xbc8e2564	-0.017351814
222	0xbdfdddad	-0.12395797
223	0x3d3e5365	0.04646625
224	0x3ca7d2e1	0.020486297
225	0x3d210646	0.039312623
226	0x3bf13fa0	0.007362321
227	0x3ccdbcf8	0.025114521
228	0x3ba085a0	0.004898742
229	0xbcb02bb9	-0.021505224
230	0x3ceb3fb0	0.028716892
231	0x3ca5fd56	0.020262402
232	0xba836d35	-0.0010027053
233	0xbe28cc4b	-0.16484182
234	0x3d0b4515	0.03400143
235	0xbcb3c739	-0.021945583
236	0x3d0074d4	0.031361416
237	0xbdbb6440	-0.091499805
238	0x3cc1daa9	0.023663836
239	0xbc9e37cc	-0.019313715
240	0xbcd7c03f	-0.026336787
241	0x3c3f41f4	0.011673439
242	0xbcc05cf4	-0.023481824
243	0x3d7de5ae	0.061986618
244	0xbd54f572	-0.051991887
245	0x3d906ca8	0.070519745
246	0x3d1eacb2	0.038738914
247	0x3c875b98	0.016523167
248	0x3d6127e0	0.05496967
249	0xbdade346	-0.084906146
250	0x3c2b58dd	0.010458198
251	0x3e3e07b9	0.18557633
252	0x3d67c5fc	0.056585297
253	0xbc3fae6e	-0.011699302
254	0x3e2980dc	0.16553062
255	0x3bd3404a	0.006446873

fc3.bias f4 [81]
0	0x3ecb2168	0.39673924
1	0x3ed01392	0.4063993
2	0x3e969f4b	0.29418406
3	0x3e34243d	0.17591949
4	0x3e2d4867	0.1692215
5	0x3e9cf5df	0.30656335
6	0x3ee2e45d	0.44314852
7	0x3e9137d2	0.283629
8	0x3e72bc7f	0.23704718
9	0x3e4159da	0.18881932
10	0x3e83256e	0.25614494
11	0x3e366fab	0.17816035
12	0x3ebfdbce	0.37472385
13	0x3e9b8c88	0.30380654
14	0x3ecbd7f3	0.39813194
15	0x3ed4681b	0.41485676
16	0x3eb9aee6	0.3626625
17	0x3f0d6a53	0.5524036
18	0x3f0d7d8b	0.5526969
19	0x3e8a6464	0.27029717
20	0x3edb0435	0.42776647
21	0x3f012bd1	0.50457484
22	0x3ea1318f	0.31483123
23	0x3e9f4e69	0.3111451
24	0x3ef826cf	0.4846711
25	0x3e88e5a8	0.26737714
26	0xbc8caf05	-0.0171733
27	0x3ede3935	0.4340302
28	0x3e8ce884	0.27521145
29	0x3e76ae89	0.24090017
30	0x3e2fc09d	0.1716332
31	0x3e87a3c7	0.2649214
32	0x3e92357d	0.28556433
33	0x3e78d7e0	0.243011
34	0x3e6edc7d	0.23326297
35	0x3dfd9ed1	0.123838075
36	0x3ed00203	0.40626535
37	0x3e927396	0.2860381
38	0x3e6787cd	0.22610398
39	0x3e7bbb39	0.24583139
40	0x3e83e42b	0.25760016
41	0x3eb2a122	0.3488856
42	0x3e725270	0.2366426
43	0x3ea2313a	0.31678182
44	0x3e66ca18	0.2253803
45	0x3ee03bfa	0.43795758
46	0x3ee9d458	0.45669818
47	0x3eae9bcb	0.34103236
48	0x3e2b9d90	0.16759324
49	0x3e2e25d4	0.17006618
50	0x3ed9191d	0.42401972
51	0x3ec861e9	0.391372
52	0x3ea371e7	0.31922838
53	0x3eb24432	0.34817654
54	0x3f00f4a8	0.50373316
55	0x3e9dacd9	0.30795935
56	0x3e67b94b	0.22629277
57	0x3e5d1ac6	0.21592245
58	0x3d94c967	0.07264977
59	0x3e8b9072	0.2725864
60	0x3e636345	0.22205837
61	0x3e8c8365	0.27443996
62	0x3d13c421	0.036075715
63	0x3ef45c8a	0.47726852
64	0x3ece4b7c	0.40291965
65	0x3eff1026	0.49817008
66	0x3ec8162e	0.39079422
67	0x3eee1d78	0.46506858
68	0x3ec402ac	0.38283288
69	0x3f011327	0.5041985
70	0x3e9234ca	0.285559
71	0x3ef8a4d5	0.48563257
72	0x3ed02b16	0.40657872
73	0x3f073565	0.5281585
74	0x3f08cf0a	0.53440917
75	0x3dfac971	0.12245453
76	0x3f02f8ba	0.51160777
77	0x3edb8b79	0.42879847
78	0x3efbb4a1	0.49161246
79	0x3f206ca4	0.6266577
80	0x3ea3ae02	0.31968695
