code/outputs/price_comparison/individual_station/theta1/models/dqn_checkpoint.pth (torch, 288165 bytes, 6 tensors)

fc1.weight f4 [256, 3]
00000000: 1d89 7cbe 9512 003f 8904 09be 38ed e3be
00000010: 85a5 803e 17d0 723e 1692 ab3e 3f2e 543d
00000020: a854 d6bf ab69 a33d c319 303f 86e8 99be
00000030: a7c1 343e a593 8bbc 8f2c 003f 9c1a ecbe
00000040: b254 8f3e f6d0 9abe 1ec2 01bf 39d6 fabe
00000050: cfab 6f3e 0d3d ef3e 2f51 eb3e 2ce6 973e
00000060: dac3 0b3f 6f42 bcbe 0338 4fbe d070 e8be
00000070: 98e0 8fbe ba20 c63d 94b9 f83e 5742 92be
00000080: c5a7 39bd 66cf 37be 1347 06bd 3f45 d9be
00000090: 6521 f53e 26eb 243e ee72 e6bf c4b1 e43e
000000a0: 7fbe b03d 5d4e 453e 87cd 0dbf a28b f7bc
000000b0: 680b d1be 44a2 273e 8b12 c83d ca51 c63d
000000c0: b2bd df3c 3ce7 373f c03c 893e 409b f03e
000000d0: 34c3 803d 2ddf 2e3f 1543 64bd 4096 2bbe
000000e0: e3b9 1b3f ad05 c53e 9580 17bd d51c f1bf
000000f0: 0cd8 cd3d a9b4 153f 65c8 093f 3394 b53e
00000100: b492 743f 8392 ec3f b878 20bd ecd1 213f
00000110: bc8c 343f 7ef8 343e 72e9 dfbd 4493 c23f
00000120: a7b8 853e 0d20 ae3e faa3 75be d2b7 84be
00000130: 9c23 813e c422 8b3f 68e4 8bbe 6229 0e3f
00000140: e5d5 2dbe f059 9abe e807 d43e 9dd6 c7bf
00000150: 3f41 8b3d 9895 e1be d5b6 253f f554 88bb
00000160: 69fd 533f cfd2 a5bd 3abd 7c3e 01f5 c93d
00000170: 3a68 173f 2f9c c6bd 1904 08be e56a 5e3e
00000180: 911d 5ebd 3928 b0be 881f 59bc b689 003f
00000190: 58dd 273f 6864 13bf 1cb7 b7be a6e2 333f
000001a0: fe33 3cbf b524 0a3f ffab 92bc 5b89 23be
000001b0: 3725 b4bd 0ad6 4f3f d3f1 0cbe b159 ca3e
000001c0: 6a26 9bbe f5dd c3be 1ce4 d5be 75b3 913e
000001d0: edb6 44bf d1bd 0a3f 4dd0 ca3e a12d be3f
000001e0: 7208 81bd a342 bcbd 96e2 a83d 8529 26be
000001f0: 024b b1bd 5f43 b73e 837c aa3e f43a 92be
00000200: a8d7 ff3e 7994 bfbe b6c5 af3e d449 fa3e
00000210: abad 0d3f f159 dcbe ee82 403f 39e9 253e
00000220: 8fc1 b3be aa2a c13d 3913 72be f8cd b13c
00000230: 3272 933f 6e80 c7be 79b4 b8be 5424 d8be
00000240: 3d70 033f 65f6 d1be 4425 1ebf 503d 2dbe
00000250: b0c2 3b3e 2137 7c3f 1835 133d 6140 9cbd
00000260: 9279 b5bd dbc1 003f 11e2 d2be b553 4abe
00000270: 9a1a 0f3f ea81 8dbe c8a8 013f 0365 2cbe
00000280: e153 5b3e 2f35 b13f 93a6 83be eb3b cfbe
00000290: f4fc 7fbe 3a86 7d3e a0c0 073f 4b3d 4b3d
000002a0: c6f3 07bf 3428 f7be a70c dfbe c6ee 4ebc
000002b0: 7e37 c1be ddab 583e af51 38ba 7995 cdbe
000002c0: 0a32 3a3b d953 a23d 334f 333f 44b2 343e
000002d0: 214b c73d 5312 523f 3169 01be 71b9 8ebe
000002e0: 1d45 73be ea41 213d 610e c13e 4850 90bd
000002f0: 5cda 303f cfb1 573e 87a4 de3d 2889 e5bf
00000300: caed 02bf 74fa 123f d5e6 103f e740 a93d
00000310: 6a2f b3bd d184 fbbe 0393 183f 933b fabe
00000320: a4be 273d c9cc 873e 8e76 9f3e 9dd4 ee3e
00000330: 337f 0a3f d4fd bbbe 6836 53bc 2543 3b3e
00000340: 2777 0d3e 66fc 793d 456c 243e 715e d5bb
00000350: 3f17 a03e f707 17be 03c9 203e 4ef3 81bf
00000360: 60dd b0be b54c bb3e 63f2 b2bf f2a6 873e
00000370: dd84 19be e787 d7bc 6099 a03e f03d a1bd
00000380: 1d06 a53f 1836 10be c1ce 3e3f 694e c6be
00000390: 616f 9a3e 5cdd 513e 0b58 d1bf 2675 0a3f
000003a0: 9867 243d 8d9e 1abf 207f 9abe e5a4 ae3e
000003b0: 6f86 a63f 20b6 d3be 9628 ffbe 0247 8d3e
000003c0: 8746 42be 8549 6a3e f320 593f 547a 33bd
000003d0: 4379 8bbe a922 193c 7c44 9e3d 519d 223e
000003e0: 4c9e 3f3f 9f96 3bbe 0b1f babd d968 b73e
000003f0: f09a ab3e 5c3e b9bd 694d bf3f c011 093f
-0.2466168 0.50028354 -0.13380636 -0.4451692 0.2512628 0.23712192 0.33509892 0.051801916
-1.6744585 0.07979139 0.6878931 -0.30060214 0.17651998 -0.017038176 0.5006799 -0.4611405
0.27994305 -0.3023755 -0.50686824 -0.48991564 0.23405384 0.46726266 0.45960376 0.29667795
0.5459572 -0.36769435 -0.2023621 -0.4539857 -0.2810104 0.09674211 0.48579085 -0.28566238
-0.045326013 -0.1795021 -0.032782625 -0.42435643 0.4787704 0.16105327 -1.8003824 0.44666874
0.08630084 0.19268174 -0.55391735 -0.03021795 -0.40829015 0.16370493 0.09769162 0.09683569
0.027312133 0.7183721 0.2680416 0.46993446 0.06287232 0.6830929 -0.055728037 -0.16756535
0.60830516 0.38480893 -0.03698786 -1.8836924 0.10050973 0.5847879 0.538214 0.3546463
0.9553635 1.8482212 -0.039177626 0.6321094 0.70527244 0.17672917 -0.10933198 1.5201192
0.2611744 0.34008828 -0.23988333 -0.25921494 0.2522248 1.0869985 -0.27322698 0.55531895
-0.16976126 -0.30146742 0.41412282 -1.561237 0.06799554 -0.44059443 0.64732105 -0.0041605183
0.8280855 -0.08096849 0.24681559 0.09861184 0.5914341 -0.096977584 -0.13282813 0.21720465
-0.054227415 -0.34405687 -0.013252147 0.5021013 0.6557212 -0.5757508 -0.3588189 0.70267713
-0.73516834 0.5396226 -0.01790428 -0.15970366 -0.08796161 0.8118597 -0.13764124 0.39521554
-0.30302745 -0.38255277 -0.41775596 0.28457227 -0.7684162 0.54195887 0.39612046 1.4857675
-0.06300439 -0.091923974 0.08246343 -0.16226776 -0.08656885 0.35793588 0.3329812 -0.28560603
0.4996922 -0.37417963 0.3433053 0.4888445 0.5534312 -0.4303737 0.7519978 0.16202249
-0.3510861 0.09431966 -0.23640145 0.021704659 1.1519225 -0.38965172 -0.3607519 -0.42215216
0.5134314 -0.41008297 -0.6177561 -0.1691792 0.18335986 0.9852162 0.035939306 -0.07629467
-0.08861078 0.502958 -0.411881 -0.19758494 0.55899966 -0.2763818 0.50648165 -0.16835408
0.21418716 1.3844355 -0.25713024 -0.404754 -0.24998838 0.24758235 0.530283 0.049619
-0.53106344 -0.4827286 -0.4356434 -0.01263017 -0.3773765 0.2115931 -0.0007031215 -0.401531
0.0028411173 0.07926149 0.70042723 0.17646128 0.097311266 0.8205921 -0.12637784 -0.27875856
-0.23756833 0.0393695 0.37706283 -0.070465624 0.6908319 0.21063922 0.10871225 -1.7932482
-0.5114409 0.5741341 0.5660222 0.08264332 -0.08749278 -0.49124768 0.5959932 -0.48873577
0.040953293 0.26523426 0.31145138 0.46646586 0.5410034 -0.36717093 -0.012891389 0.18287332
0.13814984 0.06103172 0.16056927 -0.0065115024 0.31267735 -0.14749132 0.1570168 -1.0152376
-0.34543896 0.3658196 -1.398022 0.26494557 -0.1499209 -0.02630992 0.31367016 -0.07873142
1.2892491 -0.14083135 0.7453423 -0.38731697 0.301631 0.20494598 -1.6354994 0.54085004
0.040137857 -0.6039818 -0.30175114 0.3411018 1.3009776 -0.41349888 -0.49835652 0.27593237
-0.18972217 0.22879608 0.848159 -0.043817833 -0.27240953 0.0093466425 0.07727906 0.15880324
0.74850917 -0.18319176 -0.09087952 0.3582218 0.33516645 -0.09045097 1.4945499 0.5354271

fc1.bias f4 [256]
00000000: 515b 923f db59 d03f acf5 24be 0e2d f13e
00000010: 94ea dabd 2b44 923f 693e b1be 42a8 853e
00000020: 27a6 d6be 9b59 eebe 47f1 f23e f9f5 c1be
00000030: 4a25 13be 097d 07be 77ec c53e f0d3 8dbf
00000040: 9b24 d23e 1381 81bf 591b 873f f69d 033f
00000050: 921a db3e e590 ce3f 1fa8 0940 dd98 44be
00000060: 37d1 f73f 7c1b e9be f4f0 f43e 4331 0cbf
00000070: b57d 393f dd7c 403f 3ebd 60bf b372 a4be
00000080: 6684 12bf d5d2 903f 8887 9e3f b664 8dbf
00000090: f807 6d3f 86cd 5abf 0506 6c3f b9f5 98bd
000000a0: 56a4 8bbe 195d 07bf 1ecc 513f 7f5f ed3f
000000b0: 5999 a13f 325a a6be eda5 a23d abe7 a23d
000000c0: e29f 653f 2796 c13e 88b6 f9ba 8c8b d0bd
000000d0: b567 b73f 24a3 b23c 35b4 b13d 4375 893f
000000e0: d18d f6be 87dd 01bf 21b6 9bbe 3a7f 583f
000000f0: 38ae 363f f82c 71bd 72c9 7fbf b0ba a53d
00000100: fa59 1240 4211 413f f9e5 75bd aab7 1240
00000110: ef55 803c 733c 8e3f 10d9 5ebf 8380 023f
00000120: 99d4 8dbd 8297 193d 2920 653f 6797 1b3f
00000130: 89f6 e0bf 0f62 bfbf 0158 01bd 919e dcbe
00000140: 5d6d 22bf 8e69 d5be d8f6 a9bb 186a 07bf
00000150: ebd6 bd3f be6c a4bf 5c98 f2be 52c5 fabd
00000160: c78e eb3f f9a8 083e 6b08 72bf c82e 09bf
00000170: c499 f1be 4599 85bf 5c25 a1be 2a92 aabe
00000180: 51da 133f 0a41 de3e 2d84 c33f 5e9f 6a3d
00000190: d747 153f 6b68 503d 4dca 8ebe 0d1e 07bf
000001a0: 1626 f23f 3ac9 80be 9e50 473d a6c7 cfbe
000001b0: 1ee3 203b b4b0 fe3a 2ffa e93f 5e82 6ebb
000001c0: cfa4 cfbe 1d20 f73e e7c0 1cbf edd6 263f
000001d0: 3c88 17be 1847 0bbf 6100 573f 22dd 45bf
000001e0: 8f02 423f f3c3 e33e 7bea 89be db26 753f
000001f0: e2bc 9c3f 6881 b4bf 0f9f 82bf bfda 1740
00000200: c096 0cbf 7307 d53d 7e74 4c3f f099 12bf
00000210: fe28 853c 8c79 58be 6fb0 2c3f 47e4 ac3d
00000220: 8834 86be 205f 5bbf 6107 85bc 6895 3e3f
00000230: 902c 67bf 51ac 89bc 168e 81bf 69a9 fb3e
00000240: aee7 77be d11c ff3f 9c33 443f 4ddb 68bd
00000250: 349f ed3f 0a84 3e3f 758d 49be e3bd b3bf
00000260: f664 00bf feee 003e 1838 cd3f 9d22 b43c
00000270: 8fb7 5ebe 22c3 3440 529c dfbf 3139 9abf
00000280: 4078 93ba 0828 40be c8c6 dd3f e731 953f
00000290: 0aca 693f 8f33 16bf 183e 54bf 14f9 c0be
000002a0: e103 f5bf 400a b1be a5cc 18be 86d3 823e
000002b0: 0fc7 47bd 15ab da3f 6934 c2bf 95c0 e9bd
000002c0: b7a3 f7bd 112f 9c3d 1150 9f3e 649c 0440
000002d0: 4afb bbbe 270a 523e 4d6a 463f 04e9 493a
000002e0: 8409 8f3f 8c38 8a3f e911 943f 7564 fabe
000002f0: 3e77 eabf 2bea f63f ce17 cdbe fcf7 aa3c
00000300: ac84 f93d 4658 7f3f b509 0540 4798 433f
00000310: 9fe5 053f f247 1b3b 9b10 f63e 9d10 90be
00000320: c634 883f aa71 873f 5507 1bbe b12c 3bbe
00000330: a56d ff3e 371c 6a3d fcad b6be f5e5 273f
00000340: a104 76bf fb0f 13be 7624 b2be b742 203e
00000350: 3a6f 01bf ab48 203e 53ba b7be e6bb ef3f
00000360: 1dcc 58bf 70f2 1c3f 968e 983f 89c1 8abd
00000370: 39bb 64be 5a7e 383f d006 6f3e b106 1d3e
00000380: 0eb4 cf3f 2a12 883f 6a02 a1be 478b 683f
00000390: 1c0f 7cbe 92a8 dbbe 1ac7 1ebf 49f5 bcbe
000003a0: 98b5 1fbf b2e4 4f3e 7279 62bd fe17 06bf
000003b0: fba6 80bd 8ff6 21be 77b4 50be c053 3fbf
000003c0: 562f 0fbe 1657 fdbe f6eb 683d e2eb b1bf
000003d0: 6397 72be 1a11 93be c488 923f 6a22 f1be
000003e0: 2509 4740 c805 fd3f ffc9 d83f 95a1 91be
000003f0: 0a62 f73f 591e 4d3f 8f3f d1be 9111 0c3f
1.1434118 1.6277422 -0.16109341 0.47104686 -0.106892735 1.1427053 -0.34617928 0.26104933
-0.4192364 -0.4655274 0.47449705 -0.37882975 -0.14369693 -0.13231291 0.3865697 -1.1080303
0.41043553 -1.0117515 1.0555221 0.51412904 0.4279371 1.6137968 2.1508863 -0.19198938
1.9360722 -0.4552878 0.47840083 -0.5476267 0.7245744 0.75190526 -0.8778876 -0.3211876
-0.57233274 1.1314341 1.2385111 -1.104636 0.92590284 -0.85469854 0.92196685 -0.07468743
-0.27273816 -0.5287643 0.81952083 1.8544768 1.2624923 -0.3249069 0.07941804 0.079543434
0.89697087 0.3780987 -0.0019051591 -0.101828665 1.4328524 0.021806307 0.0867695 1.073891
-0.48155072 -0.5072865 -0.3041239 0.8456913 0.71359587 -0.058880776 -0.99916756 0.080922484
2.2867417 0.7541696 -0.060033772 2.29246 0.015665976 1.1112198 -0.8704996 0.50977343
-0.069253154 0.037498005 0.895022 0.60777897 -1.7575237 -1.49518 -0.031578068 -0.43089727
-0.63448125 -0.41682094 -0.005186897 -0.5289626 1.4831213 -1.2845685 -0.47381866 -0.12244667
1.8402947 0.13345708 -0.94544095 -0.5358701 -0.47187626 -1.0437399 -0.31473815 -0.3331464
0.57755 0.43408996 1.5274712 0.05728089 0.58312744 0.05088083 -0.27888718 -0.5278023
1.8917873 -0.25153524 0.048660867 -0.40582007 0.0024549435 0.0019431324 1.8279475 -0.0036393623
-0.40555426 0.48266688 -0.61231846 0.651717 -0.14798063 -0.54405355 0.83984953 -0.77290547
0.75785154 0.44485435 -0.26936707 0.95762414 1.2245142 -1.4101992 -1.0204791 2.3727262
-0.54917526 0.104018115 0.7986525 -0.5726614 0.016254898 -0.21140116 0.67456716 0.08441978
-0.26211953 -0.85692024 -0.01623887 0.74446726 -0.9030237 -0.0168058 -1.0121486 0.49152687
-0.24209473 1.9930669 0.7664125 -0.056849767 1.856421 0.74420226 -0.19682868 -1.4042324
-0.50154054 0.12591168 1.6032743 0.021989161 -0.2174971 2.82441 -1.746958 -1.2048703
-0.0011251047 -0.1876527 1.7326288 1.1655854 0.9132391 -0.5867242 -0.8290725 -0.37690032
-1.9141809 -0.34578133 -0.14921816 0.25552005 -0.04877382 1.708346 -1.5172244 -0.11413685
-0.12091773 0.07626165 0.31115773 2.0720453 -0.36715156 0.20511685 0.7750595 0.00077022635
1.1174779 1.0798507 1.1567966 -0.48904768 -1.831764 1.9290212 -0.40057224 0.020870201
0.12183508 0.9974407 2.0787175 0.7640423 0.523035 0.0023694006 0.48059544 -0.28137675
1.0641105 1.0581563 -0.15139516 -0.18278767 0.4988834 0.057155814 -0.35679615 0.6558526
-0.96100813 -0.14361565 -0.34793442 0.1565045 -0.50560343 0.1565272 -0.35884342 1.8729217
-0.8468645 0.6130743 1.1918514 -0.06775195 -0.22337045 0.720678 0.23342443 0.15334584
1.6226823 1.0630543 -0.31447154 0.9083752 -0.24615139 -0.42902046 -0.62022555 -0.36905888
-0.62386465 0.20302084 -0.0552916 -0.5238036 -0.06281849 -0.15816711 -0.20381342 -0.7473717
-0.13982901 -0.49480504 0.056865655 -1.3900111 -0.23690562 -0.28723985 1.1447988 -0.47096568
3.1099331 1.9767389 1.6936644 -0.2844359 1.9326794 0.8012443 -0.40868804 0.54714304

fc2.weight f4 [256, 256]
00000000: 1aaf 11bd 805a 333d 38f4 5d3c 369c 1bbd
00000010: 078d f33b 0ec1 2c3d 7a50 05bc 93e0 a23c
00000020: a49a 773d 92f0 4b3d 072a 623d d60f 443d
00000030: 7079 c2bc 6311 9c3c 0d8d 83bc 382d 25bc
00000040: 635c 16bd 347d 5fbd e81e 8fba 62b2 3ebd
00000050: f04e a2bc e785 423d 0e55 9b3c 3328 40bd
00000060: f1e9 22bd ece0 fbbb 11ed 1e3d 161d 6cbd
00000070: 38ef 42bc 4f96 483d 68ce 7dbd d3a4 72bc
00000080: 7695 0e3d b83b 403b f5f6 b13c 169a 6f3d
00000090: 7019 523c a4c5 12bd af33 3ebd 0024 47b9
000000a0: f449 ef3c 930c 71bd 8b81 3f3d 53bd 5c3c
000000b0: 1fae c6bc ac96 893c d96a babc 400c 9a3c
000000c0: fdf2 16bd 8c9a 4bbc 58c7 80bc 7477 cb3c
000000d0: 1fea 0ebc 88f0 263c a9f5 3f3d ca24 edbb
000000e0: 4075 8dba 80ec 0c3c d4bd 8e3c df73 81bd
000000f0: 4edb 17bc 331f 213d a1f4 f63a c00a 33bc
00000100: b4fb 35bd 4242 07bd a37f 603d 959c cb3c
00000110: 3c38 65bd 7654 a13b 4a6c 10bd ee82 5f3d
00000120: 5aef 1bbd 60fa 543b 4138 5ebb c0d2 7cbb
00000130: 94ab 003d 421d 27bd 5e6f 04bd 78d4 74bc
00000140: cae1 623d 5020 8bbc b69c 6bbd ac49 983c
00000150: e405 253b e0fc 003d b0cf b5bb 1615 53bd
00000160: e390 743c 92ec 6b3d 6dd2 e93c 6482 6e3d
00000170: 19a0 973c 40b8 9fba bd3a 85bd d076 a0bc
00000180: aac0 543d e20a 16bd 3ece 85bd e1f5 07bc
00000190: 900a efbc a476 a1bc b85f 0dbd 9224 3f3d
000001a0: 294d 83bc 7873 6ebd f2d9 20bd 6dc5 c63b
000001b0: a97b fc37 fa19 ce3b b55b 76bd 0457 513b
000001c0: 48de 61bc 7380 073d a8d3 df3c 5b27 363c
000001d0: cd00 39bc 10b4 d93c 2a00 703d e625 053d
000001e0: 84b5 353c 1954 ae3b ae6d 5fbd 6595 19bd
000001f0: 105a ecbc 00ac c73c 78e2 0ebc 9878 b53b
00000200: 376d 6abd 3794 38bd 1df6 89bc 4abe 723d
00000210: 8662 463d 18e0 87bc cb12 26bc 8ac5 dc3c
00000220: e693 3cbd d27b 39bd 201a b3bb c0f1 6c3c
00000230: e697 83bc fae4 053d 0817 27bc af55 acbc
00000240: b04d babc 9415 413d 94f6 533d 2186 40bd
00000250: 3953 203d 6478 693d 35c3 b9bc fa3a 7b3d
00000260: b88b efbc aaac 6c3d b616 f7bc 778e 12bc
00000270: 60e2 77bc 2e97 04bd 76dd 173d 406f 1c3c
00000280: 5fd7 fbbc 58b7 06bc cf22 80bb e4be e0bc
00000290: ce75 10bd fd9e 213d a856 1b3d 2676 7c3d
000002a0: 0a31 343d 4ef9 373d fb27 1abd 887e 01bd
000002b0: b0c6 4b3c bfa0 93ba 68d2 bdbc ac3f 28bd
000002c0: 06af 7bbd acdf 403d 5171 60bd 75c2 9cbc
000002d0: b000 a13b 827d 8abd 2e45 fa3a aa64 243d
000002e0: 7870 a6bc 8a35 0c3d 5d09 dc3c 020e 41bd
000002f0: 70a3 54bc a66f 60bd 72a6 44bd c35f 63bb
00000300: 7ece 10bd ff11 78bd 6055 ebbc f2dd 43bd
00000310: 2248 c2bc 94f7 4bbd 7469 183d 12e3 7ebd
00000320: d3a0 3ebd 2df3 0a3d 3556 a6bc 2dd1 13bd
00000330: 6c0d 65bd 6a75 5a3d 4e2d 62bd 69b4 023d
00000340: ee99 5dbd 10cb 473d 5f51 28bc 441e 96bc
00000350: a626 263d 5a89 1fbd 1ea1 0a3c 5f42 4fbd
00000360: 2c4d 473d 3508 cf3b 8120 cabc fe24 0ebd
00000370: 58d7 c63c b3bd f33c e655 c83c 376c 9a3b
00000380: 07fe 2abd ac84 b3bc d0ac 26bd f229 47ba
00000390: a699 5f3c 980a 6d3c 427b 37bd 1aa5 56bd
000003a0: 8072 5f3c d1b2 e03b d809 57bd d031 b53b
000003b0: 0067 f6b9 588c fdbc ea3b 273d 2c1f 033d
000003c0: 9de8 733d 9800 ecba 64df 67bc 44cf 853c
000003d0: 0e69 523d 8822 5bbd a7d5 573c 0835 a1ba
000003e0: 2e59 64bd 8527 27bd 834e c7bb d637 02bc
000003f0: 2812 033d 51d3 4f3c 9561 453c 3805 6bbc
-0.03556738 0.04378748 0.013546996 -0.03799077 0.0074325833 0.0421763 -0.008136863 0.019882476
0.06045021 0.049789973 0.05521586 0.047866665 -0.023739547 0.01905126 -0.01605847 -0.010081582
-0.0367092 -0.054562762 -0.0010919245 -0.046556838 -0.019813031 0.04749098 0.018961456 -0.046913337
-0.039773885 -0.007686725 0.038800303 -0.057644926 -0.0118978545 0.04897147 -0.061964422 -0.014809805
0.034810506 0.002933247 0.021724204 0.058496557 0.012823448 -0.035833016 -0.046436008 -0.0001899153
0.029210068 -0.058849882 0.0467544 0.013472873 -0.02425295 0.016795479 -0.022756027 0.01880467
-0.036852825 -0.012426984 -0.015720055 0.024837233 -0.008722811 0.010189183 0.04686514 -0.0072370516
-0.001079239 0.008601308 0.017424501 -0.06320929 -0.009268595 0.039336395 0.0018841216 -0.010927856
-0.044429496 -0.033022173 0.054809224 0.024854938 -0.055961832 0.0049233986 -0.035259522 0.054568224
-0.03807006 0.0032497868 -0.0033908042 -0.0038577765 0.03141363 -0.040799387 -0.03233277 -0.014943235
0.05539111 -0.016983181 -0.057522498 0.018589817 0.0025180513 0.03149116 -0.00554844 -0.05153378
0.014927122 0.057598658 0.028542722 0.05822982 0.018508958 -0.0012185648 -0.06505344 -0.019587904
0.05194155 -0.036631472 -0.06533478 -0.008298368 -0.029179841 -0.019709893 -0.034515113 0.046665736
-0.016028004 -0.05821559 -0.03927035 0.0060660155 3.0098325e-05 0.0062897177 -0.060146052 0.0031942734
-0.013785906 0.033081483 0.027322605 0.0111177815 -0.011291695 0.026575118 0.058593906 0.032506846
0.01109064 0.005320084 -0.054547958 -0.03749599 -0.028851539 0.024374008 -0.008720987 0.0055380575
-0.05723306 -0.045063224 -0.016840989 0.059263505 0.048433803 -0.016586348 -0.0101363165 0.026949663
-0.046039484 -0.0452841 -0.005465761 0.014461935 -0.016063642 0.032689072 -0.010198362 -0.02103695
-0.022742122 0.04713972 0.051748827 -0.047002915 0.039141867 0.05699958 -0.02267609 0.06133554
-0.029241428 0.057781853 -0.030162197 -0.008945099 -0.015129656 -0.03237074 0.037076436 0.009548008
-0.030742345 -0.0082224235 -0.0039103995 -0.027434774 -0.035268597 0.039458264 0.03792444 0.061636113
0.04399208 0.04491549 -0.037635785 -0.03161481 0.0124375075 -0.0011263116 -0.023171619 -0.041076347
-0.061446212 0.04708831 -0.054795567 -0.019135693 0.004913412 -0.0676222 0.0019094103 0.040135063
-0.020317301 0.034230746 0.026859934 -0.0471325 -0.01297842 -0.054793976 -0.048010297 -0.003469453
-0.035353176 -0.060564037 -0.028727233 -0.047819085 -0.023716036 -0.049796656 0.037209943 -0.06222827
-0.046540093 0.033923317 -0.020304779 -0.036088157 -0.055921003 0.05333463 -0.055218987 0.031910334
-0.054101877 0.04877764 -0.010273307 -0.018324979 0.0405642 -0.038949348 0.008461265 -0.050600406
0.04865758 0.006318117 -0.024673702 -0.034703247 0.024272606 0.029753542 0.024455022 0.0047126072
-0.041746166 -0.021913849 -0.04069215 -0.0007597498 0.0136474725 0.014467858 -0.044795282 -0.052403547
0.013638139 0.006857254 -0.052499622 0.0055296198 -0.00046997517 -0.03095071 0.040828623 0.03201215
0.05954801 -0.0018005548 -0.014152382 0.016334184 0.05136972 -0.05349973 0.013173497 -0.001229913
-0.05574911 -0.040809173 -0.0060823574 -0.007947883 0.031999737 0.012684659 0.012047191 -0.014344506

fc2.bias f4 [256]
00000000: 1032 73bc 4cab 7f3d 4096 f13c c092 48bc
00000010: ff6a d2bd fe70 1dbd 2690 013f 8512 403f
00000020: 8d17 e93e 39e0 4f3d 54ff 0fbd 2bf6 6ebd
00000030: ee0b 483d b24e 43be 7762 bcbe 5716 a83f
00000040: 3bff 5f3f c91f 8fbd 665f 403e 2c77 87bc
00000050: 091a 8d3f 5e4f 41bd 5f3a 9ebe 64b2 8c3f
00000060: 6e31 1e3f 8b3c e63f 4073 13bb 0609 723f
00000070: fc5e 833f 924a b7bf 494d 133f 8924 523c
00000080: 65ff 123c 7c1d 8e3c e197 a4be 18cc 913f
00000090: 42b4 9d3f 8a2f a83e 61a7 973e 67b7 9a3c
000000a0: b528 173f 5e02 1f3d cf83 b73f 7879 1a3d
000000b0: 028b 69bf 5da1 5e3e c2c5 7c3d d780 97bf
000000c0: 4482 2a3d 8c1b 973f a8a5 2f3f 199d 943f
000000d0: a4c4 b63f ddf8 dc3f 10fe cfbc 0d8a 0b3f
000000e0: e109 eb3e 4454 013d d32b cd3f 5fba fdbc
000000f0: feea 103f 0555 7cbd 5ec4 963f 86a7 32bb
00000100: 3107 5ebf 92c8 983f 6cfc 593d b1a7 d5bc
00000110: 05fa 4fbd 35bf 8fbd 191e 1b3f 170d eb3d
00000120: a66f b03f 75ec 3cbf 77c6 933e b1c0 98bd
00000130: f4a1 b0bf e522 a5bf 72a0 75be 009e ca3f
00000140: d120 233d d46f 89bc 3843 a73e 50bd 823e
00000150: b39b a4be 904a 063d 3dc6 643c 900f 623f
00000160: c12d e63e aae4 3a3d 48cf b9bf 0ac6 6abc
00000170: fd3f 0f3f c67f 3cbd d490 c13e 97a2 a23f
00000180: 25ab 18bb d857 45bd f1ea 183f 66c2 5f3d
00000190: 8c61 e4bc 9743 893f 4e49 373d e2ab ba3f
000001a0: baf4 ed3c f021 b3bc baea 5d3f 179b 433c
000001b0: c0c9 8a3f 0746 883f a9c8 483f 5f4e a3bd
000001c0: 818d c13e 1e04 933f c2de 1b3f 1b2d 8abf
000001d0: a0e9 c13f e1a5 08be e7ff 68bd 0cd3 30bd
000001e0: fcb9 76bf d277 e13f 4bf0 983f 7fb0 5a3f
000001f0: 7c0c 083f 3607 8f3c 2b16 8f3f 2058 8b3f
00000200: 0726 95bd 42f9 273f 6cab 99bf 8604 a23e
00000210: e4dd 3e3d 25c3 d2be 488a 4c3d 4065 7bbd
00000220: a061 0fbe 1670 7ebd 6b37 0a3d a7e6 9b3f
00000230: 8460 3c3e f0cc ffbc 4afb ae3f ba89 1f3e
00000240: 9739 febe c18f 853e 7671 18bd 54a3 d13c
00000250: cabd 0a3e 01a8 fb3e 781a 2f3d c6ac f03e
00000260: 04d1 6c3d e21d 833f ce3c 44be a676 91bd
00000270: 5776 c43e 0b6a a8be 9839 83bd d368 21bd
00000280: d5db 823e 5a93 4b3d f4cc 043e 0d1c 1a3d
00000290: da87 c639 feae a43f 5cd6 a83e 1d77 6cbd
000002a0: a5dc a8bd 2592 743d c4d5 a5be 8572 92bf
000002b0: e25a e83e dc6e 6ebb ed53 963f 4108 633e
000002c0: 8cce 72bd 2267 cf3d e63e 063e 368d 623f
000002d0: 5a6c 2fbf 0da8 be3f 0a7f 85bd d53c b93e
000002e0: 57bf 04be c732 b53f 6443 9ebf 40c4 2f3b
000002f0: 052b d13d d107 84bf f870 ac3e 6f05 803f
00000300: fe1f 1e3d 7659 40be 0fe0 b83f e4ce 0dbd
00000310: 35d2 c33f fa77 aebe 6a91 a43e b074 fc3c
00000320: f196 bebb ab77 563d bf95 a3bf 986f 8c3f
00000330: 30b0 1fbe 6227 edbe 5cac 50bd 2943 503d
00000340: 860a 273d a562 9e3e 1ffd 8a3f fc9b 143f
00000350: a14a d63f a34a 62bd c8a9 c63c 41d9 05bd
00000360: c9e5 45bd ca58 e63f ed3b 1ebd 20b5 2f3d
00000370: 34a2 bd3c fdb4 2dbd be31 c33f ae94 bdbf
00000380: 416d 5fbd 3f90 a43f 7189 6b3d 63ee e23c
00000390: 9433 10bd af29 8f3e 4699 6e3f 9257 f33e
000003a0: 1b97 a03d 7079 3e3d b3ca c73f 1265 bbbf
000003b0: 64ec 103e 6ce6 853f cbc6 3abf 2b7d 033e
000003c0: e8e0 b9be 0103 173d 83ce 473d 5fc9 3abf
000003d0: ab65 85bf 847c 383d eab7 ee3c be88 153d
000003e0: 0a0e 19bd 7f74 2ebf c354 0abc 98f4 7abf
000003f0: b785 77be d34d bc3f 605a 3bbb bad8 4f3f
-0.014843479 0.06241922 0.02949059 -0.012242019 -0.10274314 -0.038437836 0.5061058 0.7502826
0.4552578 0.050750945 -0.03515561 -0.058340233 0.048839502 -0.19072989 -0.36793873 1.3131818
0.87498826 -0.069884844 0.18786392 -0.016536318 1.102357 -0.04719483 -0.3090391 1.099194
0.61794174 1.7987226 -0.0022499114 0.9454502 1.0263362 -1.4319632 0.575398 0.0128260935
0.008972024 0.017348044 -0.32147124 1.139041 1.2320635 0.3284877 0.29619887 0.018886281
0.5904649 0.038820617 1.43371 0.037713498 -0.91227734 0.21741243 0.061712034 -1.1836194
0.041628137 1.1805282 0.68612146 1.1610442 1.427876 1.7263447 -0.025389701 0.54507524
0.45905975 0.031574503 1.6028999 -0.030972658 0.5660857 -0.06160452 1.1778677 -0.0027260496
-0.86729723 1.1936209 0.053219244 -0.026080938 -0.050775547 -0.07018892 0.605928 0.11477106
1.3784072 -0.73798305 0.28862354 -0.07458628 -1.3799424 -1.2901274 -0.23986986 1.5829468
0.039826218 -0.016776957 0.3266847 0.2553506 -0.3215004 0.032785952 0.013963279 0.88304996
0.44956782 0.045628227 -1.4516382 -0.014329443 0.55957013 -0.04602029 0.37805808 1.2705868
-0.002329537 -0.048179477 0.5973349 0.054628752 -0.027878545 1.0723752 0.044747643 1.4583704
0.029047359 -0.021866769 0.8668629 0.011938832 1.0842819 1.0646371 0.78431183 -0.079739325
0.3780327 1.1485631 0.60886776 -1.0795015 1.5149422 -0.13344528 -0.056884672 -0.04317002
-0.9637754 1.7614691 1.1948332 0.8542556 0.5314405 0.017459493 1.117864 1.0886269
-0.07282644 0.6561471 -1.2005439 0.31644076 0.04659833 -0.41164508 0.049936563 -0.061375856
-0.14002085 -0.062118612 0.033744257 1.2179765 0.18396193 -0.031225652 1.3670437 0.15579882
-0.49653313 0.26086238 -0.03721758 0.025590576 0.13548961 0.49151614 0.042749852 0.47006816
0.05781652 1.0243495 -0.1916382 -0.071027085 0.38371536 -0.32893404 -0.064074695 -0.03940661
0.25558344 0.049701072 0.12968808 0.037624408 0.0003786672 1.2865903 0.32976043 -0.057730783
-0.082452096 0.059709687 -0.32389653 -1.1441199 0.45381838 -0.0036381995 1.1744362 0.22171117
-0.05927901 0.10127093 0.13109931 0.8849672 -0.68524706 1.4895035 -0.065183714 0.36179224
-0.12963615 1.4156121 -1.2364316 0.0026819855 0.102132834 -1.0314885 0.33679938 1.0001658
0.03860473 -0.18784127 1.4443377 -0.034621134 1.5298525 -0.3407591 0.32142192 0.03081736
-0.0058163335 0.052360218 -1.2780074 1.0971556 -0.15594554 -0.4631911 -0.050945625 0.0508453
0.04078152 0.30934635 1.0858496 0.58050513 1.6741525 -0.05524696 0.02425088 -0.032677893
-0.048314843 1.7995846 -0.03863137 0.042897344 0.023148634 -0.042408932 1.5249555 -1.4810998
-0.054547552 1.285652 0.05750412 0.027701562 -0.03520544 0.2796149 0.93202627 0.47527748
0.07841321 0.04650253 1.5608734 -1.4640219 0.14152676 1.0460944 -0.72959584 0.12840717
-0.36304402 0.0368681 0.04878093 -0.7296352 -1.0421652 0.045040622 0.029140431 0.03650736
-0.037366904 -0.6814651 -0.00844306 -0.9802947 -0.24172102 1.471125 -0.0028587803 0.81190073

fc3.weight f4 [18, 256]
00000000: 334b 0e3b 7cfa 67bd d9e3 52bf 0638 1ebd
00000010: 90cb e7be 2e94 2ebd 4238 90be cbc0 db3e
00000020: 199b 923d 4ab6 6e3c 2ee8 11bd 00e7 2fba
00000030: 8c9e 603d 54e4 3dbf d751 04bd 0b09 7d3e
00000040: 76ad b53e d0af 783c ec40 213e 0ce1 8fbc
00000050: 6ad0 113e f421 10bd a39a a7be 4348 d5bd
00000060: 227d ee3e ad0f ef3c 082a 80bc 36c6 2fbd
00000070: 1d70 30be af0c 71be 3773 e03e 633a afbc
00000080: 9e18 dc3b a074 69bd 032b 823d c5fc bcbd
00000090: 2588 d4bd 8bf2 33bc a3c3 933d 545b 65bf
000000a0: e0d4 ab3d 05ba cf3c 9065 11be 0c32 70bd
000000b0: 8f79 13bd 3caf c1be dcc1 01bd a9ad 30bf
000000c0: 4890 b63c 7f0b 32be e2c6 f93c 9de0 2a3e
000000d0: bfea 28bd 0c2d d13c c62f bb3c 65da 42be
000000e0: 0af3 f73e d8a9 043c 726b 4a3d 7d14 27bd
000000f0: ce37 34bd 50d9 453d 227f 35be 6679 1bbe
00000100: 46ef 0ebf 709e 72be 29b0 4bbc b9c4 aa3c
00000110: 7acb 3c3d cbcc 2e3d 5952 1a3d 3114 3d3e
00000120: 6e1d a8bd ef52 3dbc 6cf8 80be f915 c33d
00000130: 9f19 2abf bd30 0dbf 78d2 13bf c3df c3bd
00000140: f077 cebc 5087 78bc 688d d7be b2e6 eabe
00000150: a9b6 0fbd 9fbc cabc a732 60bd de6c fe3b
00000160: 6434 6fbe e90d 57bc ad47 3dbd 16f3 10bd
00000170: b3b9 e9be da8e 65bd 08d1 073f 8e0c ccbd
00000180: 1ddf e53d c084 293d 5bf1 523e 9009 0bbf
00000190: 9475 6fbd 1a44 59be c2d9 ce3a 4070 55bc
000001a0: 6067 873c ce30 0a3d aa4d 383f 3184 abbc
000001b0: 15b0 e9bd 7d20 e8bd 618b e83d ea18 10bf
000001c0: e356 ecbe 021e 6abd 2de3 343e 1904 0fbf
000001d0: 1fc1 c3bd 0aab 82bf e836 c1bc 89ca f13b
000001e0: 1275 14bf eb6d 8d3b 6593 03be 3a9c c6bc
000001f0: c2bf 3dbe b0eb ed3c ea4e 75be 0b23 aabe
00000200: 3fec 893e de98 a6bc 8ebb 0bbf 3def 1ebd
00000210: 5356 563e 7e6f 49bf 001d 8b39 0eb1 7ebd
00000220: b214 90bc a7d9 b2bc 68cb 0cbd 78dd 08be
00000230: 07b8 e13e e0bb bb3c 4868 4f3c 5821 e23e
00000240: 7220 4cbd f013 d23c c02b 36bc 9ce9 9ebc
00000250: aed3 e8bd cc95 6fbe 2e70 ac3e a83d c83c
00000260: 1080 1cbc 4a1d 89be cffb 07bf 0bc4 e339
00000270: cf61 cdbe 9f6d 30bf e89e f8bc a67f c1be
00000280: 59d9 f03e 7e3e dfbc 45b5 abbe 6cc0 fcbc
00000290: 16a3 a0bb fd3f 03be 5845 b8be a00c 2fbd
000002a0: 6414 c3be 981e dbbe e772 1bbe 6b1d b5be
000002b0: 663c 243e 43f1 03bd 6efc d83c a272 843e
000002c0: 803d ac3c 425e b1be dbf4 afbe 6501 b3bd
000002d0: 705b b7bd 23fc 1bbd b273 e0bc 614f 5c3f
000002e0: b688 a7be fade cebd d597 15bf 28b7 693c
000002f0: 2ac7 5ebf 350f dfbe a610 bb3e 3b3f 373d
00000300: 64d7 063d 9dfb 96be 2f21 e6bd 0009 ba3c
00000310: 8ff3 10be aa48 7f3e 8343 d13e c34c 103d
00000320: cef7 633d d2ab 31bd c6ac 01bf 76be 68be
00000330: 933e 11bf b075 c9be 2677 863e 45d9 43bc
00000340: 04a6 6c3d 3c39 f1be 7382 67be 9d94 88bd
00000350: e8b6 7d3d 5b67 093d 1ed8 35bd 2cf2 c2bc
00000360: 8e38 4dbd f5aa 423d e788 fb3c 2257 65bd
00000370: 0015 7c3c b4b6 f53a 581f f8bd 91fc 01bf
00000380: fb8a 35be 7dd3 84bd 8c5b 003d c083 323c
00000390: 9ec6 69bd 5f10 553e eabc 2dbe d959 623f
000003a0: ca21 92be f2d1 7bbc aef8 babd cd54 62bf
000003b0: 33a1 233e 8e39 6e3e d4c5 553e 2cf4 da3a
000003c0: be05 d4be 5f1d 60bc 9dd2 f7be ba0f 11be
000003d0: 1cd7 71bf 9f8d 3bbd ce6c 72bd 760c 0a3d
000003e0: a828 09bc b510 53bd ea2d 173d 99d0 46be
000003f0: 0a26 1a3e df91 86bd 6ec1 23bd 3de1 753c
0.0021712303 -0.056635365 -0.8237892 -0.038627647 -0.45272493 -0.042621784 -0.2816792 0.42920527
0.07158489 0.014569828 -0.035621814 -0.0006710142 0.054838702 -0.74176526 -0.03230461 0.24710481
0.35483903 0.015178636 0.15747422 -0.017563365 0.1423966 -0.03518863 -0.32735166 -0.104141735
0.46579844 0.02918228 -0.015645042 -0.042913638 -0.17230268 -0.23539995 0.43837902 -0.021390146
0.006716802 -0.056995988 0.0635586 -0.092278995 -0.1037753 -0.01098312 0.07215049 -0.8959248
0.08390212 0.025357256 -0.141989 -0.05864148 -0.0360046 -0.37829006 -0.03167902 -0.69014984
0.022285596 -0.17387198 0.030490343 0.16687246 -0.041239496 0.025534175 0.022849929 -0.19028623
0.48427612 0.0080971345 0.049418874 -0.040791024 -0.043998532 0.04830295 -0.17724279 -0.15183029
-0.5583385 -0.23693252 -0.012432137 0.020845758 0.046092488 0.042675775 0.03767619 0.18464734
-0.08208738 -0.011555417 -0.2518953 0.09525675 -0.66445345 -0.55152494 -0.57743025 -0.095641635
-0.025203675 -0.01516898 -0.42100072 -0.45879132 -0.035086308 -0.024748145 -0.054735806 0.007764443
-0.23359829 -0.013125875 -0.046210933 -0.035388075 -0.4564949 -0.056044437 0.5305333 -0.09963332
0.11224196 0.041386366 0.20599882 -0.54311466 -0.05846174 -0.21217385 0.001578145 -0.013027251
0.016528785 0.03373795 0.71993506 -0.020937057 -0.11410538 -0.11334322 0.113547094 -0.56288016
-0.4616004 -0.057157524 0.17664786 -0.5586563 -0.09558319 -1.0208447 -0.023585752 0.0073788804
-0.57991135 0.0043160818 -0.12849195 -0.024244417 -0.18530181 0.029043049 -0.23955885 -0.3322986
0.26938054 -0.020336565 -0.5458306 -0.038802374 0.20931368 -0.7868575 0.00026533753 -0.06218057
-0.017587993 -0.0218323 -0.03437367 -0.13365734 0.44085714 0.022916734 0.01265914 0.44166064
-0.04983563 0.025644273 -0.011118829 -0.019398503 -0.113685 -0.23396987 0.33679336 0.024443462
-0.009552017 -0.26780158 -0.53118604 0.00043442877 -0.40113685 -0.6891727 -0.03034921 -0.377927
0.47040823 -0.027251478 -0.33536735 -0.030853473 -0.004902254 -0.12817378 -0.35990405 -0.04273665
-0.38101494 -0.4279678 -0.1518055 -0.35374007 0.16038665 -0.032212507 0.026487555 0.25868708
0.02102542 -0.34642226 -0.34366497 -0.087405 -0.08952987 -0.038082253 -0.027398918 0.8605862
-0.3272149 -0.10101123 -0.584348 0.014264859 -0.8702265 -0.4356629 0.3653614 0.044738036
0.032920256 -0.2948884 -0.11236798 0.02270937 -0.1415541 0.24930063 0.4087182 0.035229456
0.055656247 -0.04337675 -0.50654256 -0.22728905 -0.56736106 -0.393476 0.26262778 -0.011953657
0.057775512 -0.4711398 -0.22608356 -0.06668971 0.06194201 0.033545833 -0.04439556 -0.023797117
-0.050102763 0.04752632 0.030704929 -0.0559913 0.015385866 0.0018746466 -0.12115353 -0.5077601
-0.17728798 -0.06485651 0.031337306 0.010895669 -0.05707418 0.20807026 -0.16966596 0.88418347
-0.28541404 -0.015369879 -0.09129463 -0.88410646 0.15979461 0.23264143 0.20876247 0.0016704849
-0.4141063 -0.013678878 -0.48402873 -0.14166155 -0.94468856 -0.045789357 -0.059185795 0.03370329
-0.00837151 -0.051529605 0.03690902 -0.19415511 0.15053573 -0.065707915 -0.03997939 0.015007314

fc3.bias f4 [18]
00000000: 70d4 0f3f a463 0e3f 46eb e33e dd92 8f3f
00000010: a83f f93e 4dea d83e 8e61 1b3f d64c e93e
00000020: e10d 15be 427f 9c3f 79ed 003e a2c8 263f
00000030: e6fb e53e 0c3d b1be fcb1 31bd 06e9 473f
00000040: 5d7a 163f f213 ec3e
0.5618353 0.5562079 0.44515437 1.1216694 0.48681378 0.42366257 0.6069573 0.45566434
-0.14556076 1.2226336 0.12590589 0.6514989 0.44918746 -0.34616888 -0.04338263 0.7808994
0.5878046 0.46108967
