code/outputs/price_comparison/2stations/theta2/models/dqn_checkpoint.pth (torch, 354981 bytes, 6 tensors)

fc1.weight f4 [256, 5]
0	0xbf124c8e	-0.57148063
1	0xbeb250a2	-0.34827143
2	0xbe2e3ac6	-0.17014608
3	0x3e2f0b00	0.1709404
4	0x3e5b7d5a	0.21434537
5	0xbe81a838	-0.25323653
6	0xbed09abb	-0.4074305
7	0xbee381b2	-0.44434887
8	0xbe8fe684	-0.28105557
9	0x3e3b6d87	0.183035
10	0xbe8c9910	-0.27460527
11	0x3ef22e2d	0.47300854
12	0x3f15da10	0.5853586
13	0x3ee583b4	0.44827044
14	0x3f09c550	0.538167
15	0xbcc50298	-0.024049088
16	0xbf14552c	-0.5794246
17	0xbe54b51a	-0.2077221
18	0x3c9ddfc6	0.019271743
19	0x3f930420	1.1485634
20	0xbe83b3e6	-0.2572319
21	0x3e075660	0.13216543
22	0x3f4740ee	0.7783345
23	0x3f121209	0.5705877
24	0xbf9c1181	-1.2192842
25	0x3d3e4591	0.046453062
26	0xbdaa3ba6	-0.08312158
27	0x3f0ecea5	0.55784065
28	0x3f3334af	0.70002264
29	0x3e8a0ac7	0.26961347
30	0x3ec3ff9e	0.38280958
31	0xbde35a5c	-0.11101219
32	0x3f535d84	0.8256457
33	0x3d5d066b	0.0539612
34	0xbf75c00c	-0.95996165
35	0x3e570e7f	0.21001624
36	0x3f7dfbfb	0.99212617
37	0x3fd46650	1.6593723
38	0x3fbdb240	1.4820023
39	0x3f954311	1.1661092
40	0xbe6a21d6	-0.2286447
41	0x3cd6bd43	0.026213294
42	0x3f978046	1.1836021
43	0x3f3dca99	0.74137264
44	0x3f3cce97	0.7375273
45	0x3e750270	0.23926711
46	0xbcd47b6d	-0.02593776
47	0x3f3da8b0	0.7408552
48	0x3e97b41d	0.29629603
49	0xbfaeb445	-1.3648764
50	0x3e867b68	0.26266026
51	0x3f51817a	0.8183819
52	0x4013281a	2.2993226
53	0x40332977	2.7994058
54	0x40225aee	2.5368
55	0xbdb9240f	-0.09040081
56	0x3dbae8ee	0.09126459
57	0x3ebd25c4	0.36942875
58	0x3f6cd693	0.92514914
59	0xbf702b84	-0.938164
60	0x3e37c2a4	0.17945343
61	0xbede810f	-0.4345784
62	0x3f34c4dc	0.70612884
63	0x3e472563	0.19447856
64	0xbefc06a5	-0.4922382
65	0xbd1ff706	-0.03905394
66	0xbed0e512	-0.40799767
67	0xbe8cad5d	-0.27476016
68	0xbe75fdb9	-0.24022569
69	0x3ee0055e	0.43754095
70	0xbe17c56d	-0.14821406
71	0xbdfadd3e	-0.1224923
72	0x3de1d4ba	0.110269025
73	0xbbd4c1b2	-0.006492817
74	0xbd43c904	-0.047799125
75	0xbe8bfb0a	-0.27339965
76	0x3f045b52	0.51701844
77	0x3fd0db86	1.6316993
78	0x3fc3d297	1.5298642
79	0x3d777274	0.060411885
80	0xbd47addf	-0.0487498
81	0x3e262f39	0.16228952
82	0x3f4f7e2e	0.8105191
83	0x3f0c74c9	0.548657
84	0xbfadbf79	-1.3574058
85	0x3ec0dc6f	0.37668177
86	0xbd948ea5	-0.0725377
87	0xbec94c99	-0.39316252
88	0xbf0af99e	-0.54287136
89	0x3ec30559	0.38090017
90	0x3dfd0edf	0.12356352
91	0xbe724454	-0.23658878
92	0x3e4cddbb	0.20006458
93	0x3e4f560a	0.20247665
94	0xbec9dd1d	-0.3942651
95	0x3eef8c65	0.467868
96	0x3f26df9f	0.6518497
97	0xbde67b16	-0.112539455
98	0xbed1ec83	-0.41000757
99	0x3f2db694	0.6785672
100	0x3e9fd871	0.3121982
101	0x3eab91a6	0.33509558
102	0x3e54f18d	0.2079527
103	0x3f129aa0	0.5726719
104	0x3f8529af	1.0403346
105	0xbe3bfa5d	-0.18357225
106	0x3e594161	0.21216346
107	0x3f9f4e3e	1.2445753
108	0x3f2f4f67	0.68480533
109	0xbf45d913	-0.77284354
110	0x3ed3529e	0.4127397
111	0x3f5ed11d	0.8703783
112	0x3d2c6307	0.042086627
113	0xbe7f3585	-0.2492276
114	0x3f6c643e	0.9234046
115	0xbee9dfe9	-0.45678642
116	0x3e163ae1	0.14670898
117	0x3d799a66	0.06093826
118	0xbe51802d	-0.20459051
119	0xbcdd6867	-0.027027322
120	0x3e6f76be	0.2338514
121	0xbc86b802	-0.016445164
122	0x3f65826e	0.89652145
123	0x3d6c0830	0.057624996
124	0xbf9bbf2b	-1.2167715
125	0x3d583f22	0.052794583
126	0xbc2e30a0	-0.01063171
127	0x3f8d9e06	1.106385
128	0x3e5b3009	0.21405043
129	0xbfd3e646	-1.6554649
130	0xbe0d8878	-0.1382159
131	0x3f217d99	0.6308227
132	0x4013967f	2.3060606
133	0x403a00fd	2.9063103
134	0x3f6fd603	0.9368593
135	0xbbf7b390	-0.0075592473
136	0x3f254ed2	0.64573395
137	0xbc04e54d	-0.00811131
138	0xbe6cba5b	-0.23117964
139	0x3f630a99	0.88688046
140	0xbe38cc1b	-0.1804661
141	0x3e52b932	0.20578459
142	0x3f76f8cd	0.9647339
143	0x3e1795dd	0.14803262
144	0xbf8b7537	-1.0895146
145	0x3c4c952f	0.01248674
146	0x3f1805df	0.5938396
147	0x40267379	2.600798
148	0x400d0163	2.2032096
149	0x3ec3178e	0.38103908
150	0xbe4edc00	-0.20201111
151	0xbeab1851	-0.3341699
152	0xbe689307	-0.22712336
153	0x3e8a68f8	0.2703321
154	0x3e09fb52	0.13474777
155	0x3f24c744	0.64366555
156	0x3faa389a	1.3298523
157	0x4030bd86	2.7615676
158	0x403035d2	2.753285
159	0x401d3a03	2.4566658
160	0xbcd4bd82	-0.02596927
161	0xbd9aa26e	-0.07550512
162	0x3f1ed867	0.62048954
163	0x3ee97494	0.45596755
164	0x3f0e0ccb	0.5548827
165	0xbe9e113d	-0.30872527
166	0x3ea7e8e5	0.32794872
167	0x3fb0f0ad	1.3823448
168	0x3ff77e86	1.9335487
169	0x3fcfcb19	1.6233855
170	0xbe2d67b1	-0.16934086
171	0x3bb4116f	0.0054952423
172	0xbe92637c	-0.28591526
173	0xbed2f3fa	-0.41201764
174	0xbebaac6a	-0.36459666
175	0xbd6869e9	-0.05674163
176	0xbdbff643	-0.093731426
177	0x3ebfe5c7	0.37479994
178	0x3e1c549d	0.15266652
179	0xbecd92aa	-0.40150958
180	0xbd17a6cd	-0.037024308
181	0xbe26bf50	-0.16283917
182	0xbe80f4ab	-0.25186667
183	0xbd3a65f7	-0.045507398
184	0x3dc4bf48	0.096067965
185	0xbcac35fb	-0.021021834
186	0xbe824ca8	-0.2544911
187	0xbd12388f	-0.03569847
188	0x3e392242	0.18079475
189	0xbec0eca9	-0.37680557
190	0xbe939b31	-0.2882934
191	0xbe3fa62b	-0.18715732
192	0xbe3cea23	-0.18448691
193	0xbea873df	-0.32900903
194	0x3e469bdf	0.19395398
195	0x3eaafcc4	0.3339597
196	0x3f7a5415	0.9778455
197	0x401373eb	2.30395
198	0x403fac87	2.9949052
199	0x400ddac4	2.2164774
200	0x3eaa44d4	0.33255637
201	0x3da2e129	0.07953102
202	0xbeec3bdb	-0.46139416
203	0x3ea257cb	0.31707606
204	0x3ebd780f	0.3700566
205	0xbd6c5942	-0.05770231
206	0xbea5d7ba	-0.3239115
207	0x3e58a792	0.21157673
208	0x3eb15eac	0.3464254
209	0x3df97da6	0.12182169
210	0x3f16392f	0.58681005
211	0x3d0bfab7	0.034174647
212	0xbf025967	-0.5091767
213	0xbf5467dc	-0.82970977
214	0x3f10952a	0.56477606
215	0x3ea580fd	0.32324973
216	0xbdd61f7b	-0.10455223
217	0xbf6eba8b	-0.9325339
218	0xbedf12f2	-0.43569142
219	0x3ebd819c	0.37012947
220	0x3eea874c	0.45806348
221	0xbe3b691b	-0.18301813
222	0xbf117ebe	-0.5683402
223	0xbf718d9c	-0.94356704
224	0x3ecb7461	0.39737228
225	0xbecbc176	-0.39796036
226	0xbe76292d	-0.24039145
227	0xbe809f93	-0.25121745
228	0xbe0d6f12	-0.13811901
229	0xbedd33ff	-0.43203732
230	0x3ec4f3b9	0.38467196
231	0x3d5ec54a	0.05438737
232	0xbf6cdfaf	-0.92528814
233	0xbf2b9477	-0.67023414
234	0x3feb425f	1.837963
235	0x3eafdc56	0.3434779
236	0x3de7ff6c	0.11328015
237	0xbf6da6c5	-0.92832595
238	0xbf9db96a	-1.2322209
239	0xbee99adf	-0.4562597
240	0xbe68f1e1	-0.2274852
241	0x3e9aacd5	0.30209985
242	0x3e7efd54	0.24901325
243	0x3dc0623c	0.09393737
244	0x3fbf3bfc	1.4940181
245	0xbead1e10	-0.33811998
246	0x3eef4f21	0.46740058
247	0x3f418474	0.7559273
248	0x3ef3e5bb	0.47636208
249	0xbf90e05c	-1.1318469
250	0x3f230f77	0.6369547
251	0xbe88de6d	-0.26732197
252	0xbe80a580	-0.25126266
253	0xbf059ca9	-0.5219217
254	0x3f043517	0.5164351
255	0xbd83ff9a	-0.064452365

fc1.bias f4 [256]
0	0xbeca9938	-0.39570022
1	0xbead7421	-0.33877662
2	0x3eeadd47	0.45871946
3	0x3f568704	0.8379977
4	0x3f4999ee	0.78750503
5	0x3fd3da9e	1.6551092
6	0x3e53c704	0.20681387
7	0x3feec5fe	1.8654172
8	0x40144256	2.3165488
9	0x3f0b9662	0.5452634
10	0x4092994d	4.5812135
11	0x3f70beef	0.9404134
12	0x3f70f045	0.9411662
13	0x3f41b424	0.756655
14	0xbdc3398b	-0.0953246
15	0x3fd282d3	1.6446174
16	0xbcec4809	-0.028842943
17	0xbf2f5f98	-0.6850524
18	0x3f3e8133	0.7441589
19	0x3ecc5f8d	0.3991665
20	0x3e03f71e	0.12887236
21	0x3f6c3b12	0.92277634
22	0x3f375835	0.7161897
23	0x3ebd0d5a	0.3692425
24	0x3ed469ad	0.41486874
25	0x3f91d781	1.1393892
26	0x3f8d6036	1.1044986
27	0x3fd01a3d	1.6258007
28	0x3f51cc95	0.8195279
29	0x3f95583a	1.166755
30	0xbe7f9074	-0.24957448
31	0x40595669	3.395899
32	0x3ffd70dd	1.9800068
33	0x405cefb6	3.4521308
34	0xbd571f2b	-0.05251996
35	0xbe884f1d	-0.2662286
36	0xbe37961e	-0.17928359
37	0x3d19e869	0.03757516
38	0xbeb7d4a7	-0.35904428
39	0x409564e5	4.668566
40	0xbf0ee569	-0.558188
41	0xbec0c495	-0.3764998
42	0xbf7da967	-0.9908661
43	0xbf0e7873	-0.5565254
44	0xbf37a495	-0.7173551
45	0x3e19b994	0.15012199
46	0x3c91db02	0.017804626
47	0xbf8583de	-1.0430868
48	0x3f95be54	1.1698709
49	0x3f495947	0.7865185
50	0x3f522ddc	0.82101226
51	0xbed1c117	-0.40967628
52	0x3f884811	1.0646993
53	0x3e18f6e0	0.14937925
54	0xbefb01c1	-0.49024776
55	0xbba1bbc9	-0.004935716
56	0xbf556d7f	-0.833702
57	0x400dc99f	2.215431
58	0xbf2d9cb6	-0.67817247
59	0x3b928847	0.004471812
60	0xbeb3d68d	-0.35124627
61	0x3ed3d242	0.4137135
62	0x4048a0d3	3.134816
63	0xbd1f26fb	-0.038855534
64	0xbe08e193	-0.133673
65	0xbca1a591	-0.019732269
66	0x3f6821af	0.906764
67	0xbe07e339	-0.13270272
68	0x3e83615c	0.25660217
69	0x40368e1d	2.852424
70	0xbe4b7167	-0.19867478
71	0xbd78888d	-0.0606771
72	0x3ea4af2a	0.3216489
73	0x405028e6	3.2524962
74	0x3e47e440	0.19520664
75	0xbdc48de0	-0.09597373
76	0xbf3962ce	-0.7241639
77	0x3f484dca	0.78243697
78	0xbe29689b	-0.1654381
79	0x3fded107	1.740754
80	0x3f8f3dc2	1.1190722
81	0x3df784fb	0.12085911
82	0xbb9ba8c4	-0.004750343
83	0x400b5626	2.177133
84	0xbd87699f	-0.066119425
85	0x3e810b88	0.2520411
86	0x402e97d7	2.7280176
87	0xbea31665	-0.31853023
88	0x3f84ed15	1.0384852
89	0x3e9d7115	0.30750337
90	0x3debd7c7	0.11515766
91	0xbe9f029c	-0.31056678
92	0x3e7b4fd4	0.24542171
93	0x3fc6b5a6	1.5524185
94	0x3d869f45	0.06573347
95	0x404b8c08	3.1804218
96	0xbdd00f70	-0.101591945
97	0x3ebabe86	0.36473483
98	0x3e675de9	0.22594418
99	0x3f826c9b	1.0189394
100	0xbe654da2	-0.22392896
101	0xbebcf2d4	-0.36904013
102	0x3f9b30e1	1.2124292
103	0xbf3c1e1c	-0.73483443
104	0x3f25d271	0.64774233
105	0xbee039a0	-0.43793964
106	0x3f7796ba	0.96714365
107	0x3cc9e0ed	0.024643386
108	0x40103ce0	2.2537155
109	0xbf6f63ba	-0.93511546
110	0x3f3db857	0.74109405
111	0xbcafe836	-0.021473031
112	0xbcf77980	-0.030209303
113	0xbcafde58	-0.021468326
114	0x3f5e4816	0.86828744
115	0xbf0093a1	-0.50225264
116	0x3e20b919	0.15695609
117	0x3faa6a7f	1.331375
118	0xbe02d77b	-0.12777512
119	0x3fa2008b	1.2656416
120	0x3f553cd7	0.8329596
121	0x3da1f472	0.07907952
122	0x3f53fdbf	0.8280906
123	0x40422cda	3.0339875
124	0x402910b3	2.6416442
125	0x3eddff87	0.43359014
126	0xbf7f3b6c	-0.99700046
127	0x3ee8c507	0.4546282
128	0xbe907e93	-0.28221568
129	0x3f967f5a	1.1757615
130	0xbdc649bd	-0.09682033
131	0x3f29e4a7	0.6636452
132	0xbf5de218	-0.86673117
133	0x3f974380	1.1817474
134	0x3fb1b458	1.3883162
135	0xbedf7812	-0.43646294
136	0x3f048dad	0.5177868
137	0x3f94602e	1.1591852
138	0x3c7144e4	0.014725897
139	0xbf1a56c1	-0.60288626
140	0x3e1d6823	0.15371756
141	0x404e0111	3.218815
142	0xbe5dbeb4	-0.21654779
143	0xbf758ba8	-0.95916224
144	0xbd737b87	-0.059443977
145	0xbee1a8da	-0.44074136
146	0xbf598390	-0.84966373
147	0xbf20e7a1	-0.6285344
148	0x3facbd5d	1.3495289
149	0x3f140f6d	0.5783604
150	0xbe88b6ed	-0.2670206
151	0x3bc74f4f	0.0060824524
152	0x3e45def0	0.19323325
153	0x3f974308	1.1817331
154	0xbe796070	-0.24353194
155	0x3e6b92ec	0.23005265
156	0xbe23efc3	-0.1600943
157	0xbe84d030	-0.25940084
158	0x3ffd1d7d	1.9774624
159	0x3fd3a816	1.6535671
160	0xbeecbf3e	-0.46239656
161	0xbe846596	-0.25858754
162	0xbdbf9786	-0.09355073
163	0xbf4a054f	-0.7891435
164	0xbe9ea496	-0.30984944
165	0x3d611efe	0.054961197
166	0x3fee1547	1.8600243
167	0x3f25c5e3	0.64755076
168	0x3f30fb70	0.69133663
169	0xbe8e8f9f	-0.2784395
170	0x3e1e7772	0.15475252
171	0xbe8086ba	-0.25102788
172	0xbe17715d	-0.14789338
173	0x3fe985d5	1.8243967
174	0x3dad12ca	0.08450849
175	0x3ecbca58	0.39802814
176	0x3fb3d584	1.4049535
177	0x3f0dc405	0.5537723
178	0x3f7f9527	0.99836963
179	0x402db236	2.7140021
180	0x3f351024	0.70727754
181	0xbdc614d2	-0.0967194
182	0x401385a4	2.3050318
183	0xbe923b67	-0.28560945
184	0xbe455964	-0.19272381
185	0x3f649c2e	0.8930081
186	0x3fbfd77d	1.4987637
187	0x3fde1949	1.7351466
188	0x3f421e1a	0.7582718
189	0x3ff6ae53	1.927195
190	0xbe6ef432	-0.2333534
191	0xbd42fded	-0.047605444
192	0x3f158d92	0.58419144
193	0x3d03e6dd	0.03220259
194	0x3f89c3c2	1.0762866
195	0x3d65eef9	0.056136105
196	0x3d8e635c	0.06952545
197	0x3ebe2e7b	0.37144837
198	0x3fb3cf8e	1.4047716
199	0x40214b49	2.52022
200	0x3db07993	0.086169384
201	0x3dbc259c	0.09186861
202	0xbee1cd17	-0.44101784
203	0x3f5ff095	0.87476474
204	0x3dd6dded	0.10491548
205	0x3faddf03	1.3583683
206	0x4024ea6e	2.5768085
207	0x3ff561cf	1.9170474
208	0x405990fa	3.3994737
209	0x3e7e261b	0.24819224
210	0x3fb7789f	1.4333686
211	0xbdf8ff67	-0.12158089
212	0x40089d95	2.134618
213	0x3f66b626	0.90121686
214	0xbebd24cd	-0.3694214
215	0xbe89db3e	-0.2692508
216	0x3f6c529c	0.9231355
217	0xbeb9e8aa	-0.3631032
218	0xbe36473b	-0.1780061
219	0x3f6e33f1	0.93048006
220	0x3e2d7599	0.16939391
221	0x3e6df648	0.2323848
222	0x3d8fea83	0.070271514
223	0xbe1ce94c	-0.1532337
224	0x3f91e675	1.1398455
225	0x3fa95025	1.3227583
226	0xbe5c2459	-0.2149824
227	0x40006630	2.006237
228	0x3bdd42bb	0.0067523397
229	0x40008239	2.0079482
230	0x3f4b0c5b	0.7931573
231	0x3dc0cb3c	0.09413764
232	0x3eb1a835	0.34698644
233	0x3fa28c54	1.2699075
234	0x3f9416df	1.156948
235	0x3f31f3c1	0.69512564
236	0x3f03532f	0.51298803
237	0x404bf356	3.186727
238	0xbd8da3f7	-0.069160394
239	0x405304b0	3.297161
240	0x3fed2848	1.8527918
241	0xbd313332	-0.043261714
242	0xbd32b9e0	-0.043634295
243	0x3fb53ba5	1.4158827
244	0xbf2e75df	-0.68148607
245	0x3f9d3d0a	1.2284253
246	0x3ef74b3b	0.48299584
247	0x3e822032	0.25415188
248	0x3f328453	0.6973316
249	0x3fba9f5c	1.4579883
250	0xbf42011a	-0.7578293
251	0xbf5ca3b6	-0.86187303
252	0xbf41ffbe	-0.75780857
253	0x3e26b98e	0.16281721
254	0x402d243c	2.7053366
255	0x3f333cae	0.70014465

fc2.weight f4 [256, 256]
0	0xbd730ce0	-0.05933845
1	0xbd249954	-0.040185288
2	0xbc7be3c8	-0.0153741315
3	0xbc467e50	-0.012115076
4	0xbb580ec0	-0.0032967776
5	0x3d1895b4	0.037252143
6	0x3ccb3038	0.024803266
7	0x3c247c40	0.010039389
8	0x3d11d092	0.0355993
9	0xbcf2892c	-0.029606424
10	0xbd6b0d7e	-0.057385914
11	0x3b9774c0	0.004622072
12	0x3d2a6340	0.04159856
13	0xbc30a5f8	-0.0107817575
14	0x3cdb3730	0.026759714
15	0x3cc1ed6c	0.023672782
16	0x3d428ac8	0.047495633
17	0xbd3e2274	-0.046419576
18	0x3cf779f4	0.030209519
19	0x3d546b20	0.051859975
20	0xbd6215d4	-0.0551966
21	0x3d22104e	0.03956633
22	0x3c358e00	0.011081219
23	0x3c3e0a60	0.011599153
24	0x3d427b7a	0.047481038
25	0x3d08993a	0.033349253
26	0x3d348790	0.044074595
27	0xbcda7458	-0.026666805
28	0xbd7595fe	-0.059957497
29	0xbcc4faf8	-0.024045452
30	0x3cfe2b20	0.031026423
31	0x3c2d12b0	0.0105635375
32	0x3caf471c	0.021396212
33	0xbca35cc4	-0.019941695
34	0xbbad7f00	-0.0052946806
35	0xbcb1ad78	-0.021689162
36	0xbd6eca60	-0.05829847
37	0x3d6d3936	0.05791589
38	0x3d7e5e1e	0.062101476
39	0xbc185748	-0.009298153
40	0xbd5bc7ca	-0.05365733
41	0x3d44fed0	0.04809457
42	0xbd34f6c6	-0.044180654
43	0x3cdef7a8	0.027217701
44	0xbd1cac94	-0.03825052
45	0xbd5b8a74	-0.053598836
46	0x3c1895f0	0.009313092
47	0x3d1cbbf4	0.038265184
48	0xbd060bf6	-0.03272625
49	0xbd2fa318	-0.042880148
50	0xbb653de0	-0.0034979507
51	0xbd78c760	-0.060737014
52	0xbd3bc170	-0.045838773
53	0xbc9cd04c	-0.019142292
54	0xbd511600	-0.05104637
55	0xbd571c7c	-0.0525174
56	0x3abe5080	0.001451984
57	0x3cbe9024	0.023262091
58	0x3d38b13c	0.0450909
59	0xbd6dc182	-0.05804587
60	0x3c5c20a8	0.01343552
61	0xbcc91778	-0.024547324
62	0x3d238570	0.039922178
63	0x3d4b5da8	0.049649864
64	0xbcd4fb1c	-0.025998645
65	0x3d39cb5e	0.04535996
66	0xbcbbf40c	-0.022943519
67	0x3a1f6780	0.00060807914
68	0x3cfdafa4	0.030967541
69	0x3d0f442c	0.034977123
70	0x3c964c0c	0.018346809
71	0xbd05cfc2	-0.032668836
72	0xbd6d3c46	-0.05791881
73	0x3c449380	0.011998057
74	0xbd41df82	-0.047332294
75	0xbd103176	-0.03520342
76	0xbc607878	-0.013700597
77	0x3d0c6140	0.034272432
78	0x3ca2b8f8	0.01986359
79	0x39a98800	0.0003233552
80	0x3d206cc6	0.039166234
81	0x3b52b3e0	0.003215067
82	0xbcba7d24	-0.02276475
83	0x3d0728e8	0.032997996
84	0x3d184b48	0.03718117
85	0x3b277e80	0.0025557578
86	0xbd43ceb4	-0.04780455
87	0x3ce09a60	0.027417362
88	0xbd4e6e8a	-0.050398387
89	0xbc869cb0	-0.016432136
90	0x3d02245a	0.03177295
91	0x3d5fde5c	0.054655418
92	0xbbddc4e0	-0.006767854
93	0xbd1cdd14	-0.038296774
94	0xbd103c3a	-0.035213687
95	0xbd511c56	-0.051052414
96	0xbd359e2c	-0.044340298
97	0xbc6e7c78	-0.014556043
98	0x3d6b9926	0.0575191
99	0x3d5f2b0a	0.054484405
100	0x3d6f6ed2	0.058455296
101	0x3cd6fd74	0.026243903
102	0xbd0242b8	-0.03180191
103	0x3d3fc058	0.046814293
104	0xbd5e05d8	-0.05420479
105	0xbc5553b0	-0.013020441
106	0x3d70b180	0.058763027
107	0x3d0947d4	0.033515766
108	0x3d5945ba	0.053045012
109	0xbcd98d60	-0.02655667
110	0xbd2f3e78	-0.042784184
111	0xbd2ea50e	-0.042637877
112	0x3b9e8020	0.004837051
113	0x3d134810	0.035957396
114	0xbcbbfb6c	-0.022947036
115	0x3ac62bc0	0.001511924
116	0xbd162f2c	-0.03666608
117	0x3d43e398	0.047824472
118	0xbcfdebb8	-0.030996189
119	0x3c92b424	0.017908163
120	0x3d5974ce	0.05308991
121	0xbd66eee8	-0.056380183
122	0x3d1f7592	0.038930483
123	0xbcde8178	-0.027161345
124	0xbccf45bc	-0.025301807
125	0xbd124296	-0.035708033
126	0xbd073376	-0.03300806
127	0x3cfe5acc	0.031049155
128	0xbc458af0	-0.012057051
129	0x3c05e798	0.008172892
130	0x3ca37860	0.01995486
131	0xbd31605e	-0.043304794
132	0xbd05f2e4	-0.03270234
133	0x3d45fe88	0.048338443
134	0x3d4e7bea	0.050411142
135	0xbc28ed88	-0.010310538
136	0xbd3bb3a2	-0.045825608
137	0x3c365d80	0.011130691
138	0xbce4715c	-0.027886085
139	0xbcc6d190	-0.024269849
140	0xbd391a70	-0.04519123
141	0x3c2ac070	0.010421857
142	0x3cf251f4	0.029580094
143	0x3c97040c	0.018434547
144	0xbc4beae8	-0.012446143
145	0xbd1cceba	-0.038283087
146	0xbca079e4	-0.019589372
147	0x3d1db3b4	0.038501456
148	0xbd14ee5a	-0.036360122
149	0x3be2b930	0.0069190487
150	0x3cdf769c	0.027278237
151	0x3d2f3d90	0.04278332
152	0x3cffa1d4	0.031205095
153	0x3d710544	0.058842912
154	0xbd3c74aa	-0.046009697
155	0x3d68a466	0.056797408
156	0xbd541962	-0.05178202
157	0xbd055d4a	-0.03255967
158	0x3c4fc1e8	0.012680508
159	0x3d085ab6	0.033289634
160	0xbd66a87a	-0.056313016
161	0xbc7e6d30	-0.015528962
162	0x3cac2d20	0.021017611
163	0x3d0705d2	0.032964535
164	0xbce41fb4	-0.027847148
165	0xbbfa5720	-0.0076397806
166	0xbc5246e0	-0.012834281
167	0xbc9da66c	-0.019244395
168	0xbd743ca6	-0.05962815
169	0x3d3b5f38	0.045745105
170	0xbd21ae86	-0.03947308
171	0x3cec3918	0.028835818
172	0xbd6fc38e	-0.058536105
173	0xbd0d235e	-0.034457557
174	0xbb8ad310	-0.0042365864
175	0x3c54c588	0.012986548
176	0xbcae5818	-0.02128224
177	0x3d1d75e2	0.0384425
178	0x3c07f840	0.0082989335
179	0x3c132328	0.00898055
180	0xbd20f244	-0.039293543
181	0x3d33ea44	0.043924585
182	0x3d440238	0.04785368
183	0x3c0f0588	0.008729346
184	0xbc5cde30	-0.013480708
185	0xbc09bdb0	-0.008407041
186	0x3d7f641c	0.06235133
187	0xbca49050	-0.020088345
188	0xbc949c80	-0.018141031
189	0xbd5c5882	-0.053795345
190	0x3cf40ad0	0.029790312
191	0xbd428afc	-0.047495827
192	0x3c81a880	0.015827417
193	0x3c7d3468	0.015454389
194	0x3d6a6528	0.057225376
195	0xbc803cd8	-0.015654013
196	0xbd32eba8	-0.04368177
197	0xbd36593a	-0.044518687
198	0x3cf870a0	0.030327141
199	0xbd69a9d6	-0.057046734
200	0x3d5a5d0c	0.053311393
201	0x3b212f80	0.0024594963
202	0x3d11a054	0.03555329
203	0xbb8867c0	-0.0041627586
204	0x3d172a14	0.036905363
205	0x3d5cde2c	0.053922817
206	0xb98e6500	-0.000271596
207	0x3d11a7a2	0.035560258
208	0x3c690a60	0.014223665
209	0xbcbd0f54	-0.023078598
210	0xbcd33f58	-0.02578704
211	0x3d24502e	0.040115528
212	0xbd036140	-0.032075167
213	0xbd2f9328	-0.04286495
214	0xbd097ab0	-0.03356427
215	0x3d0683bc	0.032840475
216	0xbd0e6166	-0.034760855
217	0x3c1b3f08	0.009475477
218	0x3d12c6e6	0.035834216
219	0xbd43b24c	-0.04777746
220	0xbba04620	-0.004891172
221	0x3d23474a	0.03986291
222	0xbd2f6ce2	-0.042828448
223	0xbb824ba0	-0.0039763004
224	0x3d6e0c06	0.058116935
225	0x3b6dd960	0.0036292896
226	0x3d6baa8c	0.057535693
227	0xbd2991b6	-0.041398726
228	0xbd4e9bbe	-0.050441496
229	0xbc9969d8	-0.018727228
230	0xbcae9f08	-0.021316066
231	0xbd005e32	-0.03133983
232	0xbd5a96be	-0.053366415
233	0xbd086f12	-0.03330905
234	0xbd623392	-0.055224963
235	0x3c85ebb8	0.016347751
236	0xbd4915a6	-0.04909291
237	0x3d6be2dc	0.057589397
238	0x3d33b160	0.04387033
239	0xbcfbc210	-0.030732185
240	0xbc935514	-0.017984904
241	0xbc9be258	-0.019028828
242	0xbd199ea4	-0.037504807
243	0xbd5ca7d6	-0.053871
244	0xbbe6b920	-0.0070411116
245	0xbd38719a	-0.045030214
246	0x3d4fbd3a	0.05071757
247	0x3d6aed34	0.05735512
248	0x3d1234c4	0.035694852
249	0x3d776de0	0.06040752
250	0xbd4f23e0	-0.050571322
251	0x3cb27438	0.021783933
252	0x3d0ea9f2	0.03483004
253	0xbd2741ea	-0.040834345
254	0xbd32ee2a	-0.043684162
255	0x3c3eff30	0.011657521

fc2.bias f4 [256]
0	0x3cd8dda0	0.026472867
1	0xbd7b602b	-0.06137101
2	0xbd3db002	-0.046310432
3	0x3e99ec4c	0.30063093
4	0x3f301e89	0.6879659
5	0xbd1d3190	-0.038377345
6	0x3f1eb2ac	0.6199138
7	0x3eda06a6	0.42583197
8	0xbcd8c68e	-0.026461866
9	0x3e759d0e	0.23985693
10	0x3ea4ee31	0.32212976
11	0x3f25e849	0.64807564
12	0x3f60a276	0.87747896
13	0x3fffa16a	1.9971135
14	0x3f0d08ab	0.5509135
15	0xbc809a69	-0.015698629
16	0xbc9d4b4c	-0.019200943
17	0x3c16dfc8	0.009208627
18	0x3decf82d	0.11570773
19	0x3f5abc17	0.8544325
20	0xbd94404c	-0.07238826
21	0x3d3852d6	0.045000874
22	0x3ec934a1	0.39297965
23	0x3e64827e	0.22315404
24	0x3eca520a	0.39515716
25	0x3f025b28	0.50920343
26	0x3ce1bc9b	0.027555754
27	0xbc992488	-0.018694177
28	0x3fadd6aa	1.3581135
29	0xbc4bfc89	-0.012450346
30	0x3ebe91ee	0.3722071
31	0x3d967f01	0.07348443
32	0xbbdef8b6	-0.006804551
33	0xbc2cf188	-0.010555632
34	0x3f07c9e4	0.53042436
35	0xbdbaec39	-0.09127087
36	0x3fa4fa0d	1.288881
37	0x3e873952	0.2641092
38	0x3faffd58	1.3749189
39	0xbd220c00	-0.039562225
40	0x400b3434	2.1750612
41	0xbd6f9a55	-0.058496792
42	0xbc0851b1	-0.008320258
43	0x3f77f0b3	0.9685165
44	0x3f26a99f	0.6510257
45	0x3f930a9f	1.1487616
46	0xbc7b4294	-0.015335698
47	0xbd55f382	-0.05223418
48	0x3f2f3dcb	0.68453664
49	0xbce8bab6	-0.028409343
50	0x3fb23bcf	1.3924502
51	0xbd5d193e	-0.05397915
52	0xbd83a79f	-0.064284556
53	0x3e91bcca	0.28464347
54	0x3e5082a6	0.20362338
55	0x3c910904	0.017704494
56	0x3d4dee26	0.050275944
57	0x3f10f119	0.56617886
58	0x3ef145c4	0.4712354
59	0x3d702c6c	0.058636114
60	0xbd20d024	-0.039261
61	0x3e23793d	0.15964217
62	0x3e2d94c2	0.16951278
63	0x3f21ec2f	0.6325101
64	0x3d0fc624	0.03510107
65	0x3e04c9a5	0.12967546
66	0xbc9e533d	-0.0193268
67	0xbefe1c5c	-0.4963101
68	0x3f320c77	0.6955027
69	0x3eba4b27	0.36385462
70	0x3edf7c3b	0.43649468
71	0x3f856b8b	1.0423445
72	0x3f159876	0.5843576
73	0x3ebad613	0.3649145
74	0x3e8f40d6	0.27979153
75	0x3fef23d5	1.868281
76	0x3d8882dd	0.06665585
77	0x3ea6adac	0.32554376
78	0x3ec0b06e	0.37634605
79	0xbd8061e4	-0.06268671
80	0x3da1511d	0.07876799
81	0xbd8180cd	-0.06323395
82	0xbbd0cbef	-0.006371967
83	0x3f6dcb5a	0.92888415
84	0xbc0448c8	-0.008073993
85	0x3b9f6782	0.004864634
86	0x3f10db42	0.5658456
87	0x3c5c2330	0.013436124
88	0x3d3819ed	0.0449466
89	0x3fb78253	1.4336647
90	0x3f0b6054	0.5444386
91	0x3f273fde	0.6533183
92	0xbdc8e8a4	-0.09809998
93	0x3f154f0e	0.5832375
94	0x3d39e779	0.045386765
95	0xbdb2ae50	-0.08724654
96	0xbc5a36e0	-0.013318747
97	0xbcfff130	-0.031242937
98	0x3d005928	0.031335026
99	0xbd3fb68d	-0.046804953
100	0x3e4599dd	0.19296975
101	0xbd0c9510	-0.034321845
102	0xbd80e9c1	-0.06294585
103	0x4019055e	2.3909526
104	0x3e473c38	0.19456565
105	0x3e63d53d	0.22249313
106	0x3e681fbf	0.2266836
107	0x3ec5a15f	0.3859968
108	0x3e115c66	0.14195403
109	0xbd8c9eaf	-0.06866204
110	0x3cbdf177	0.023186428
111	0xbd1fe127	-0.03903308
112	0x3fcbfe18	1.5936918
113	0x3ffbf706	1.968476
114	0xbd6cee3c	-0.057844386
115	0xbe11adcf	-0.14226459
116	0xbd25d822	-0.040489323
117	0x3efb8fc0	0.4913311
118	0x3fe9fe9c	1.8280826
119	0x3b7403d2	0.0037233722
120	0x3f15f164	0.5857146
121	0x3f1d07b7	0.61339897
122	0xbd2b019b	-0.041749578
123	0x3ed458d0	0.4147401
124	0x3ee95edf	0.45580193
125	0x3cb6b6d1	0.02230397
126	0x3f155247	0.5832867
127	0x3f9293c7	1.1451348
128	0xbd4bdae1	-0.049769286
129	0x3eee7325	0.46572223
130	0x3e8cedab	0.27525076
131	0x3faad950	1.3347569
132	0xbc4c43a6	-0.0124673005
133	0xbcc02106	-0.023453247
134	0xbbc6f1a1	-0.006071285
135	0x3e8020e9	0.25025108
136	0x3e4d954c	0.20076483
137	0x3e88cbf0	0.26718092
138	0x3d500493	0.050785612
139	0x3edf7553	0.436442
140	0x3fad3061	1.3530389
141	0xbca42475	-0.020036915
142	0x3ee26dfa	0.4422453
143	0xbcac9339	-0.021066295
144	0xbe059edd	-0.13048883
145	0x3d8a8112	0.067628995
146	0x3df59004	0.119903594
147	0x3e85fd38	0.26169753
148	0x3ee47df1	0.44627336
149	0x3f2bbeb1	0.67087847
150	0x3fab3350	1.3375034
151	0x3ee86139	0.45386675
152	0x3f45aa86	0.77213323
153	0xbf22b2b6	-0.6355394
154	0xbe826494	-0.2546736
155	0x3cdc853b	0.026918998
156	0xbb912810	-0.0044298247
157	0x3ca00440	0.019533277
158	0x3bc9c720	0.0061577708
159	0x3ed86e5c	0.42271698
160	0x3f94914a	1.1606839
161	0x3db530c2	0.088471904
162	0x3e3bf2af	0.18354295
163	0x3edad644	0.42741597
164	0x3d694a61	0.0569557
165	0x3e8776cd	0.26457825
166	0x3c8c16b2	0.017100666
167	0xbcbaae1c	-0.0227881
168	0xbcdd8c69	-0.027044492
169	0xbc6c2158	-0.014412247
170	0x3fcd6d28	1.6048937
171	0x3ce58ca4	0.028021164
172	0x3cfedc7d	0.031110996
173	0x3e51f385	0.20503052
174	0x3d1566b1	0.036474887
175	0x3e6c467f	0.23073767
176	0x3db6004c	0.088867754
177	0x3ecff237	0.40614483
178	0xbd2f16b6	-0.04274627
179	0xbd88dc34	-0.066826254
180	0xbdc2f367	-0.095190816
181	0x3f1c9200	0.6116028
182	0x3e0f549e	0.13997123
183	0x3e954fd4	0.29162467
184	0x3d7bb0cb	0.0614479
185	0x3ef94629	0.4868634
186	0xbd9a67e0	-0.07539344
187	0xbd67a451	-0.05655319
188	0x3d87773b	0.06614538
189	0x3e819826	0.25311393
190	0x3f5f7e5c	0.87302184
191	0x3eada67c	0.3391608
192	0x3e5a5030	0.21319652
193	0xbe58be3c	-0.21166319
194	0x3f1d564f	0.6145982
195	0x3f41f95b	0.7577111
196	0xbe629e34	-0.22130662
197	0xbd543681	-0.05180979
198	0xbd554020	-0.052063107
199	0x3f169dd3	0.5883457
200	0x3c5e966c	0.013585668
201	0x3fff854f	1.9962558
202	0x3ca90210	0.020630866
203	0x3f2f6334	0.68510747
204	0x3d14ff3e	0.03637623
205	0x3dc68bc7	0.09694629
206	0x3e9564df	0.2917852
207	0x3e68f6c4	0.22750384
208	0x3e44bdee	0.19213077
209	0x3fd22766	1.6418273
210	0xbd2bca45	-0.041940946
211	0xbd4b34a0	-0.049610734
212	0x3fa348cd	1.2756592
213	0x3cf4618c	0.02983167
214	0x3cc38498	0.023866937
215	0x3e4f34ce	0.20234987
216	0x401bc5b0	2.433941
217	0xbf27902f	-0.6545438
218	0x3e40071a	0.18752709
219	0xbd2751e4	-0.04084958
220	0xbcc4efbc	-0.024040096
221	0x3f108227	0.56448597
222	0x3f06ddcb	0.5268218
223	0x3d14ec0f	0.036357936
224	0x3c744088	0.014907964
225	0x3d527adc	0.0513867
226	0x3b314187	0.0027047114
227	0x3e6c9ca7	0.23106633
228	0xbd6c4d70	-0.057691038
229	0xbe56d28a	-0.20978752
230	0xbc901c18	-0.017591521
231	0x3df0f627	0.117657
232	0x3f04f394	0.5193417
233	0x3eae39bc	0.34028423
234	0x3d35e947	0.044411924
235	0xbd6c51c7	-0.057695176
236	0x3ed1f6ee	0.41008705
237	0x3ef03b33	0.46920165
238	0x3f08dbda	0.53460467
239	0x3eeaa869	0.45831612
240	0x3f580dd5	0.84396106
241	0xbf3c7608	-0.736176
242	0x3f3dda5c	0.74161315
243	0xbdb54c74	-0.08852473
244	0x3f9a3676	1.204787
245	0xbf0b7de3	-0.5448896
246	0x3e69abd7	0.22819458
247	0xbc716c90	-0.014735356
248	0x3d0de03c	0.034637675
249	0x3ed4b7b3	0.415464
250	0xbd2d4b38	-0.042308062
251	0xbcb45fec	-0.022018395
252	0x3fe7435f	1.8067435
253	0xb993649d	-0.00028112988
254	0x3cdf6b70	0.02727291
255	0xbf41356c	-0.7547214

fc3.weight f4 [81, 256]
0	0xbc3172d8	-0.010830604
1	0xbe5b2126	-0.21399364
2	0xbcea558b	-0.028605243
3	0xbe476d3d	-0.19475265
4	0xbdcc4e01	-0.099758156
5	0x3d376a0d	0.044778872
6	0xbdeaa1bd	-0.114566304
7	0xbd80cceb	-0.06289085
8	0x3c74be22	0.014937909
9	0x3dad97e4	0.084762365
10	0xbd75f266	-0.060045622
11	0x3cc00155	0.023438135
12	0xbb35eb68	-0.0027758721
13	0x3eccb373	0.3998066
14	0xbd3bf73f	-0.04589009
15	0x3d3e469a	0.04645405
16	0x3d1cef8b	0.038314383
17	0xbd6a32a3	-0.057177197
18	0x3cde622f	0.027146427
19	0xbb494020	-0.0030708387
20	0xbdc94c2f	-0.09828984
21	0xbc920e00	-0.017828941
22	0xbd9f82b3	-0.07788601
23	0xbd86b270	-0.06577003
24	0xbd380266	-0.044924162
25	0x3d67078e	0.05640369
26	0xbd9d4090	-0.0767833
27	0xbd15313a	-0.0364239
28	0xbd40f582	-0.047109134
29	0x3d7893e7	0.060687926
30	0xbcc0187c	-0.023449175
31	0xbdf2ead3	-0.118611954
32	0xbbba8025	-0.0056915455
33	0x3bfa9240	0.007646829
34	0xbd827e71	-0.06371773
35	0xbe53ea25	-0.20694788
36	0xbd1fa666	-0.03897705
37	0xbd4017e2	-0.046897776
38	0xbd879305	-0.066198386
39	0x3d66b056	0.05632051
40	0x3de450fa	0.111482576
41	0xbe47df56	-0.1951879
42	0xbd273ed8	-0.040831417
43	0xbd8e4c95	-0.069482006
44	0x3d2a3f41	0.04156423
45	0x3d12b1ec	0.03581421
46	0xbd328c89	-0.043591056
47	0xbd660468	-0.056156546
48	0x3d7c82cd	0.06164818
49	0xbeba6841	-0.36407664
50	0xbc60fc81	-0.013732077
51	0x3d15ba6a	0.03655473
52	0x3d2681f2	0.04065127
53	0x3a668ab0	0.000879447
54	0xbd8dd70b	-0.06925782
55	0xbd3f5080	-0.04670763
56	0x3c081b1b	0.008307244
57	0x3e34c3d5	0.17652829
58	0xbba4fc65	-0.0050349706
59	0xbbee2a10	-0.007268198
60	0xbd4328de	-0.047646396
61	0x3e07bbeb	0.13255279
62	0xbd8bf8ce	-0.06834565
63	0x3d3a5da7	0.04549947
64	0xbcabf8c0	-0.020992637
65	0xbd7eba3d	-0.06218933
66	0x3d7d913e	0.061906092
67	0xbecd9f0c	-0.40160406
68	0x3d891392	0.06693186
69	0x3c8dd038	0.0173112
70	0x3b883b34	0.004157448
71	0xbdd5afdd	-0.10433934
72	0xbcec1611	-0.028819116
73	0x3d7de2f1	0.061984006
74	0xb8cca0e5	-9.757447e-05
75	0x3c34c76d	0.011033875
76	0xbd83597a	-0.06413551
77	0xbd213dd0	-0.03936559
78	0xbd536574	-0.051610425
79	0x3d5a8029	0.05334488
80	0xbd8869ec	-0.06660828
81	0x3ceef3f8	0.029169068
82	0xbb94fe4b	-0.0045469156
83	0xbd1c9b09	-0.03823379
84	0x3bac9bf0	0.0052676126
85	0x3d59e1ba	0.053193785
86	0xbd9fc03a	-0.07800336
87	0xbd7486c4	-0.059698835
88	0xbca857e0	-0.020549715
89	0xbda0d57b	-0.07853218
90	0xbd151fa3	-0.036407124
91	0xbda9d02f	-0.08291661
92	0xbe6ec24b	-0.23316304
93	0x3d46f4fd	0.048573483
94	0x3cebdce4	0.028791852
95	0x3c533096	0.012890002
96	0x3bd69730	0.0065487847
97	0xbd54dec0	-0.051970243
98	0xbd795cc6	-0.06087949
99	0xbe293b54	-0.16526538
100	0xbd9a147c	-0.07523438
101	0x3d08454c	0.03326921
102	0xbe4fc0f2	-0.20288447
103	0xbd329bec	-0.04360573
104	0xbc13e867	-0.009027577
105	0xbdd5c71b	-0.10438367
106	0x3d9a06a9	0.075208016
107	0xbdfe5b4d	-0.12419758
108	0xbda3929d	-0.07986949
109	0xbd94b7b1	-0.07261599
110	0x3c961b5f	0.018323598
111	0xbe16e691	-0.14736392
112	0xbdb6e024	-0.0892947
113	0x3dc1f0aa	0.09469731
114	0xbd09a2dc	-0.03360258
115	0xbea22947	-0.31672117
116	0x3d2e3eb2	0.04254026
117	0x3de81c2a	0.11333497
118	0x3da96c0d	0.08272562
119	0xbe296f37	-0.16546331
120	0x3bdb9717	0.006701361
121	0xbd99610c	-0.07489213
122	0xbd7b6f9a	-0.06138573
123	0x3da4b633	0.08042564
124	0xbdf079b2	-0.117419615
125	0xbd106add	-0.035258163
126	0xbc3c0b34	-0.01147728
127	0x3e31bb63	0.17356639
128	0x3bef92b0	0.0073111877
129	0x3b56f7c0	0.003280148
130	0xbde277cb	-0.11058005
131	0xbaa179c5	-0.0012319615
132	0x3d29690e	0.041359954
133	0xbdc9e80d	-0.09858713
134	0xbc92ecb8	-0.017935142
135	0x3ca4df03	0.020125872
136	0xbdb0f74c	-0.08640918
137	0xbd56bc6a	-0.05242578
138	0x3d5c6d38	0.053815097
139	0xbcd726fa	-0.026263703
140	0xbcd44aef	-0.025914637
141	0xbdcab8bc	-0.098985165
142	0xbd39d35f	-0.045367595
143	0xbd82526b	-0.06363376
144	0xbe7b184d	-0.24520989
145	0x3d26ec69	0.040752802
146	0x3d5714b7	0.05250999
147	0xbb948815	-0.004532824
148	0xbcac4f0e	-0.02103379
149	0x3da3555a	0.07975264
150	0x3d35ea25	0.04441275
151	0xbd9414b2	-0.0723051
152	0xbd72b0f2	-0.05925078
153	0xbeb835f9	-0.35978678
154	0xbe091203	-0.13385777
155	0xb89f3400	-7.5913966e-05
156	0x3cc87cd0	0.024473578
157	0x3cb46c00	0.022024155
158	0xbc868028	-0.016418532
159	0xbd39925e	-0.045305602
160	0x3ca028bc	0.019550674
161	0xbe484fb5	-0.19561656
162	0xbd3f6c1a	-0.046733953
163	0xbd0d1799	-0.034446333
164	0xbd6fc064	-0.058533087
165	0xbda47ed7	-0.08032005
166	0xbd5aa4b9	-0.053379748
167	0x3b8e22b5	0.0043376335
168	0xbd6dd419	-0.0580636
169	0x3d37be9e	0.04485952
170	0x3dbe4dba	0.09292169
171	0xbd232250	-0.039827645
172	0x3cfbdc90	0.03074482
173	0xbcca184a	-0.024669785
174	0x3ce4654c	0.027880333
175	0x3dabd22c	0.083896965
176	0xbdbf8041	-0.09350634
177	0xbd9ec893	-0.077531
178	0x3d0d91c8	0.034562856
179	0xbd4d204a	-0.05007962
180	0xbe703e0d	-0.2346117
181	0x3d0009be	0.03125929
182	0xbc9399e5	-0.018017719
183	0xbdce9425	-0.1008685
184	0xbe49d288	-0.19709218
185	0x3cdefd97	0.02722053
186	0xbf1c2c4c	-0.6100509
187	0xbc9085c8	-0.017641917
188	0xbcdf2957	-0.027241392
189	0xbeae3e50	-0.34031916
190	0x3e060c27	0.13090573
191	0xbdabcb99	-0.083884425
192	0xbd2251ee	-0.039628915
193	0xbdbbc854	-0.09169069
194	0x3c4f38ee	0.01264785
195	0x3de95b80	0.11394405
196	0xbe46ef05	-0.19427116
197	0x3c57dc8d	0.013175142
198	0x3d4291ec	0.047502443
199	0x3bf64be2	0.00751637
200	0x3d5eaa98	0.05436191
201	0xba899b7a	-0.0010498606
202	0x3d8ac365	0.0677555
203	0x3c0d1055	0.008609851
204	0xbd268d90	-0.04066235
205	0xbded4786	-0.11585908
206	0x39d461e5	0.00040508728
207	0x3d05d9a2	0.032678254
208	0xbe1da1c2	-0.15393737
209	0x3c82a04c	0.015945576
210	0xbe27d099	-0.16388167
211	0xbcf8ea8e	-0.030385282
212	0xbc7903c7	-0.0151986545
213	0xbbd863b0	-0.0066036806
214	0x3d4b5ef4	0.0496511
215	0xbe1beb8b	-0.15226571
216	0xbd45b8a9	-0.04827181
217	0xbea399fd	-0.3195342
218	0xbceeee16	-0.029166263
219	0xbd5d508d	-0.054031897
220	0xbd453ffa	-0.048156716
221	0xbd49036d	-0.049075533
222	0xbc92a862	-0.017902557
223	0xbd71efbe	-0.059066527
224	0x3cce24a8	0.025163963
225	0xbd3bae60	-0.045820594
226	0xbcbce1f8	-0.023056969
227	0xbdc5eaaf	-0.09663903
228	0x3d203050	0.039108574
229	0x3c0315e3	0.008000824
230	0x3bdb12ef	0.0066856067
231	0x3c95d30a	0.018289108
232	0xbcee40cf	-0.029083638
233	0xbcbb707e	-0.022880789
234	0xbd34221e	-0.04397785
235	0xbcf2261b	-0.029559186
236	0xbd342695	-0.043982107
237	0xbdd34990	-0.10316765
238	0xbd69ae37	-0.05705091
239	0xbd9e6fbe	-0.07736157
240	0x3bae73e9	0.005323876
241	0xbe7b77ca	-0.24557415
242	0xbb5b4063	-0.0033455126
243	0xbd7e533f	-0.06209111
244	0xba5ca74f	-0.0008417265
245	0xbf14a4e9	-0.5806413
246	0x3bb06db2	0.0053841705
247	0xbd4b5954	-0.049645737
248	0x3d1eed89	0.03880075
249	0x3d0cb503	0.034352314
250	0x3d160149	0.03662232
251	0xbd0c4b0c	-0.034251258
252	0x3e2cc3cd	0.16871567
253	0x3d20281c	0.03910075
254	0xbcb0f97c	-0.021603338
255	0xbf3c5cc6	-0.7357906

fc3.bias f4 [81]
0	0x3f002838	0.5006137
1	0x3eac75cf	0.3368363
2	0x3ead6257	0.3386409
3	0x3eeea24b	0.46608195
4	0x3f0608af	0.52357
5	0xbd41a551	-0.0472768
6	0x3edb5196	0.42835683
7	0x3f23245a	0.63727343
8	0x3f1b2b4a	0.6061293
9	0x3f9754f0	1.1822796
10	0x3f3b5218	0.7317214
11	0x3efd9bf1	0.49533036
12	0x3e84be8a	0.2592662
13	0x3ede7203	0.4344636
14	0x3e9d22bf	0.30690572
15	0x3ef5705d	0.4793729
16	0x3ea54a7a	0.32283384
17	0xbde07057	-0.10958927
18	0x3f94289e	1.1574895
19	0x3f0ee4a9	0.5581766
20	0x3f00c3ce	0.50298774
21	0x3e35d7f9	0.17758168
22	0x3f29990e	0.6624917
23	0x3f091529	0.5354791
24	0x3f10830e	0.56449974
25	0x3d366b4e	0.044535927
26	0x3f150cbb	0.5822255
27	0x3e845f6a	0.25854045
28	0x3f148c75	0.5802682
29	0x3dc08b18	0.0940153
30	0x3f4303ff	0.7617797
31	0x3ecc4761	0.39898208
32	0x3ea12122	0.3147059
33	0x3f5ee75d	0.8707178
34	0x3f02cb4e	0.5109147
35	0x3ef76363	0.48318014
36	0x3f8351c9	1.0259334
37	0x3ed687a4	0.4190036
38	0x3efab847	0.48968717
39	0x3f16d23c	0.5891454
40	0x3eeca8ce	0.46222538
41	0x3e6ba8bf	0.2301359
42	0x3f2822f1	0.65678316
43	0x3f9c96ca	1.2233517
44	0x3eb26556	0.34842938
45	0x3ec27004	0.37976086
46	0x3cd5df80	0.02610755
47	0xbf08c342	-0.5342294
48	0xbea9efc2	-0.33190733
49	0xbd8a3891	-0.067490704
50	0xbd6e198c	-0.058129832
51	0x3ead7286	0.33876437
52	0xbf1e4cd4	-0.6183598
53	0xbe82e034	-0.25561678
54	0x3f5926c2	0.84824765
55	0x3f376aba	0.71647227
56	0x3cd3b8c1	0.025844933
57	0x3f408120	0.7519703
58	0x3f145a5c	0.5795038
59	0x3f02d183	0.5110094
60	0x3de1a385	0.11017517
61	0x3e5726ef	0.21010946
62	0x3dde35ad	0.108500816
63	0x3f61ad52	0.8815509
64	0x3f334bc5	0.7003749
65	0x3f39f650	0.7264147
66	0x3ed765c2	0.42069823
67	0x3ee11972	0.43964726
68	0x3ea863ad	0.32888547
69	0x3f08b043	0.53393954
70	0x3f178a3a	0.5919529
71	0x3e5e739c	0.21723789
72	0x3e92b0e4	0.28650582
73	0xbed701e0	-0.41993618
74	0xbecb12da	-0.3966282
75	0x3d878dc6	0.06618838
76	0xbee4fdd5	-0.44724908
77	0xbeac1646	-0.33610743
78	0x3c8f7016	0.017509501
79	0xbed32dce	-0.41245884
80	0xbbf124c2	-0.007359118
