code/outputs/seed/3/models/dqn_checkpoint.pth (torch, 354981 bytes, 6 tensors)

fc1.weight f4 [256, 5]
0	0xbdd018aa	-0.10160954
1	0x3dd9bebf	0.10632085
2	0x3fd38848	1.6525965
3	0x3f8e8334	1.113379
4	0x3fb11a13	1.3836082
5	0x3dda9bd3	0.10674252
6	0xbcf8fedf	-0.03039497
7	0xbede783c	-0.43451107
8	0xbef67594	-0.4813658
9	0xbd88cd56	-0.0667979
10	0xbe8ccfae	-0.27502197
11	0x3eac9147	0.33704588
12	0x4003103d	2.047866
13	0x3f9dffb8	1.2343664
14	0x3f9d8738	1.230689
15	0xbea42f55	-0.3206736
16	0xbf8e68a1	-1.112568
17	0xbf9e70e8	-1.2378206
18	0xbf37798d	-0.71669847
19	0x401d9e55	2.4627888
20	0x3d378936	0.04480859
21	0x3f93caba	1.1546242
22	0x404d2acd	3.2057374
23	0x3fce5345	1.6119162
24	0x402e3dc9	2.722521
25	0x3d8865a2	0.0666001
26	0xbcdb1fcc	-0.02674856
27	0x3f94ef56	1.163554
28	0x3f6f9a9a	0.9359528
29	0xbdbf316e	-0.093356
30	0x3d4a632f	0.049410995
31	0xbdc060cb	-0.09393462
32	0x3f83b7cb	1.0290464
33	0x3f65402f	0.8955106
34	0x3ed1ea75	0.4099919
35	0x3eb52075	0.35376325
36	0x3e5be5ee	0.2147443
37	0xbe587dff	-0.21141814
38	0xbd1e822a	-0.038698353
39	0x3f541aba	0.8285328
40	0xbe31d18f	-0.17365097
41	0x3e26ca57	0.16288124
42	0x3f84cc66	1.0374877
43	0x3f83b8f9	1.0290824
44	0xbfc4dca1	-1.5379831
45	0xbe55d909	-0.20883574
46	0x3e97fbea	0.29684383
47	0x3faf2e78	1.3686056
48	0x3ec2a30a	0.38015014
49	0xbf0658e1	-0.5247937
50	0x3df1d1d9	0.118076034
51	0xbe45b515	-0.19307359
52	0x3f96d1c6	1.1782768
53	0x3f25b34e	0.6472672
54	0xbe264a76	-0.16239342
55	0xbebd1b5e	-0.36934942
56	0xbe934a43	-0.28767595
57	0xbdce6845	-0.100784816
58	0xbe69190d	-0.22763462
59	0xbb9be06c	-0.004756978
60	0x3e799ade	0.24375483
61	0xbe0c5b07	-0.13706599
62	0x3f41b3b1	0.7566481
63	0xbc53098e	-0.012880696
64	0x3ede9dbf	0.43479726
65	0x3ec50f40	0.38488197
66	0xbe54775b	-0.20748655
67	0xbe397451	-0.18110777
68	0xbf38a6fe	-0.7212981
69	0xbe205900	-0.15658951
70	0x3c907a94	0.017636575
71	0xbe0e86bb	-0.13918583
72	0x3ee3ed49	0.44516972
73	0x3e854347	0.2602789
74	0x3c0f4672	0.008744823
75	0xbe51c051	-0.20483519
76	0x3e425d10	0.18980813
77	0x3fd6e783	1.6789402
78	0x3f81a23e	1.0127637
79	0xbf97102f	-1.1801814
80	0x3eeebe26	0.46629447
81	0x3ec28ba9	0.37997177
82	0xbf238e1f	-0.63888735
83	0xbe23f25b	-0.1601042
84	0x3ff43b20	1.9080544
85	0xbe9d91c9	-0.30775288
86	0xbd29e953	-0.04148228
87	0xbc62cd70	-0.013842925
88	0x3dbfc87a	0.0936441
89	0x3fdfaea1	1.7475168
90	0xbeda20dc	-0.42603195
91	0x3e4dd588	0.20100987
92	0x3e1e41c1	0.1545477
93	0x3ddc33f9	0.107521005
94	0x3f995def	1.1981791
95	0xbe515487	-0.20442401
96	0xbdcddeff	-0.10052299
97	0x3bdcb98b	0.0067359856
98	0x3d8e4a91	0.06947816
99	0x3f48a542	0.78377163
100	0x3e6b3fe8	0.22973597
101	0xbb814d0f	-0.0039459537
102	0xbf4d8a22	-0.802889
103	0xbf2eae18	-0.68234396
104	0xbe892974	-0.2678944
105	0x3c4736f5	0.012159099
106	0xbe043741	-0.12911703
107	0xbb9c870d	-0.0047768415
108	0x3f48a6f2	0.7837974
109	0x3f9eb8ea	1.2400181
110	0xbe0da593	-0.13832693
111	0xbedfcda1	-0.4371157
112	0x3e7fa59d	0.2496552
113	0xbe059848	-0.13046372
114	0x3d2415ef	0.04005998
115	0x3e581742	0.21102622
116	0x3e708e33	0.23491745
117	0x3fc3489d	1.5256535
118	0x3fdd5edb	1.7294573
119	0x3c7e6ce3	0.01552889
120	0xbecac167	-0.3960068
121	0xbc8570a7	-0.016289068
122	0x3ca67d77	0.020323498
123	0xbe058bc5	-0.13041599
124	0x3f787744	0.97056985
125	0x3d90e5dc	0.07075092
126	0x3ed9278a	0.42412978
127	0xbe1c9380	-0.15290642
128	0x3e0336db	0.12813894
129	0x3f59e293	0.8511135
130	0x3e015ae2	0.12632325
131	0x3edbc202	0.42921454
132	0x3fc6113f	1.5474013
133	0x3fdda793	1.7316765
134	0x3e44c4f7	0.19215761
135	0x3e371a29	0.17881073
136	0x3c962ed8	0.018332884
137	0xbf5eb2ca	-0.8699156
138	0xbef0919b	-0.46986088
139	0xbde3ab06	-0.111166045
140	0xbd21a730	-0.039466083
141	0xbe4c5493	-0.19954138
142	0xbded58d0	-0.11589205
143	0xbde8ee9f	-0.11373638
144	0xbd24d620	-0.040243268
145	0xbe8cf3a1	-0.27529624
146	0xbdb373c1	-0.08762313
147	0x3ea2cee9	0.31798485
148	0xbc9b1ddc	-0.018935136
149	0x3fadf9b3	1.3591827
150	0xbeb727ad	-0.35772458
151	0x3d8957be	0.067061886
152	0xbdd1af77	-0.102385454
153	0x3f13feda	0.5781075
154	0x3d811cea	0.06304343
155	0xbd7d29f2	-0.06180758
156	0x3cafe965	0.021473596
157	0x3f634ef9	0.8879238
158	0x3f4ed368	0.8079133
159	0xbd06241d	-0.032749284
160	0x3c4b730d	0.012417567
161	0xbbd031f0	-0.0063536093
162	0x3f7747e5	0.9659408
163	0x3f8b3ed3	1.0878547
164	0xbffeb107	-1.9897774
165	0x3e106f73	0.14105015
166	0xbe81847b	-0.25296387
167	0x3fae3506	1.3609931
168	0x3f47d6e0	0.7806225
169	0xbe9f989e	-0.31171125
170	0x3ec888d0	0.3916688
171	0xbe09535a	-0.13410702
172	0xbf1c0e8a	-0.60959685
173	0xbf2987f0	-0.6622305
174	0xbf59e279	-0.85111195
175	0x3e360739	0.17776193
176	0x3e5c15dd	0.21492715
177	0x3fba413f	1.4551162
178	0x3f4555f4	0.7708428
179	0xbecf9010	-0.40539598
180	0xbecc19da	-0.39863473
181	0xbf2574a9	-0.64631134
182	0xbdf4c8be	-0.11952351
183	0xbed43801	-0.41448978
184	0x3fd2460c	1.6427627
185	0x3dac9daa	0.084285095
186	0xbe12120e	-0.142647
187	0xbcf24e1d	-0.029578263
188	0x3f985448	1.1900721
189	0x3f718b54	0.9435322
190	0x3e910719	0.28325728
191	0x3e5c4a2c	0.2151267
192	0xbf1d5118	-0.61451864
193	0xbf1227ce	-0.5709199
194	0x3f31806a	0.6933657
195	0x3dbda681	0.09260274
196	0xbe19451e	-0.14967772
197	0xbf0b8eee	-0.5451497
198	0x3f766d29	0.96260315
199	0x3f8375db	1.0270342
200	0xbe093137	-0.1339768
201	0xbda2fd78	-0.079585016
202	0x3d9c07d1	0.07618678
203	0x3f16f0ff	0.5896148
204	0x3fd4b45c	1.6617541
205	0x3de46a5f	0.11153101
206	0xbdb62142	-0.08893062
207	0x3fa8e107	1.3193673
208	0x3e963182	0.29334646
209	0xbe8e02da	-0.2773655
210	0xbe69060f	-0.22756217
211	0xbeaaa73f	-0.33330724
212	0x3e047285	0.1293431
213	0x3ea30729	0.318414
214	0xbda30b5e	-0.079611525
215	0x3df1cf47	0.11807113
216	0xbda9f2c6	-0.082982585
217	0x3fd2d8a1	1.647236
218	0x3efd439a	0.49465638
219	0x3f542021	0.82861525
220	0x3ec541fe	0.3852691
221	0xbf8cc6bc	-1.0998149
222	0x3e38f98c	0.18063945
223	0xbe0cfd9e	-0.13768622
224	0x4001366c	2.0189466
225	0x3e9767a1	0.2957125
226	0xbe1dbfb6	-0.15405163
227	0x3f8e140b	1.1099867
228	0x3e9e9199	0.30970457
229	0xbe271a20	-0.1631856
230	0xbe279227	-0.16364346
231	0xbee2e13b	-0.44312462
232	0x3e636bf1	0.22209145
233	0x3e8be663	0.2732421
234	0xbeb272ac	-0.34853113
235	0xbac2f50a	-0.0014874053
236	0x3f0a736c	0.5408237
237	0x400048a7	2.0044343
238	0x3f28b182	0.65895855
239	0x3f80a6f6	1.0050952
240	0x3cd01f5a	0.025405575
241	0xbed44461	-0.4145842
242	0xbedf6435	-0.4363114
243	0x3e453de5	0.19261892
244	0xbe980935	-0.29694524
245	0xbd86ef31	-0.06588591
246	0x3d225e1f	0.039640542
247	0x3f9dec5e	1.2337759
248	0x3f9536a0	1.1657295
249	0xbf606f71	-0.87670046
250	0x3e4f2f68	0.20232928
251	0x3e771376	0.24128518
252	0xbf9a644e	-1.206186
253	0xbf7cfe5a	-0.9882561
254	0x3fbcddeb	1.4755224
255	0x3dcd367e	0.10020159

fc1.bias f4 [256]
0	0x4001f50a	2.030581
1	0xbf903927	-1.1267442
2	0x4020d4b0	2.5129814
3	0x404b63ff	3.1779783
4	0x40661327	3.594919
5	0x3fae3deb	1.3612646
6	0x3ff2202b	1.8916067
7	0xbf1bf909	-0.6092687
8	0x3ea813d7	0.32827637
9	0x3f8a18af	1.0788783
10	0x3f8392ee	1.0279214
11	0xbe3f9395	-0.18708642
12	0x3fc62fdd	1.5483357
13	0xbf82377c	-1.0173182
14	0xbe8b998b	-0.2726558
15	0x3ec94b66	0.39315337
16	0x3ef34ce7	0.4751961
17	0x4005ee19	2.0926573
18	0x3d1897ed	0.037254263
19	0x3f98c203	1.1934208
20	0xbf4f95cd	-0.8108795
21	0x3cd69e89	0.026198642
22	0xbdbbbc1e	-0.0916674
23	0x3f7af261	0.9802609
24	0x3f9b0c9e	1.2113225
25	0xbedf65a3	-0.4363223
26	0x3fc7c3a3	1.5606579
27	0xbf7e25df	-0.99276537
28	0xbe853b4f	-0.2602181
29	0x3fbcfe2b	1.4765066
30	0x3f2f4f40	0.684803
31	0x3fe36f95	1.7768427
32	0x3ee2e558	0.443156
33	0x3fccbf96	1.5995967
34	0xbf098f52	-0.53734314
35	0x3f87d63d	1.0612255
36	0x3feca547	1.8487939
37	0xbd20bf3a	-0.039244868
38	0xbf0abc05	-0.54193145
39	0x3dce075e	0.10059999
40	0x400fe4b7	2.2483346
41	0x3f547e5d	0.83005315
42	0xbdc54f68	-0.09634286
43	0x3ffa7b63	1.9568905
44	0x40202fdc	2.502921
45	0x3fb07c0b	1.3787855
46	0x3dcaa2bc	0.0989432
47	0x400671a6	2.1006866
48	0xbed00319	-0.40627363
49	0x3f06dd0f	0.5268106
50	0x3dee1f8f	0.11627113
51	0x3febbd83	1.8417209
52	0x3f48d28a	0.7844626
53	0xbd423779	-0.047416184
54	0x3f07dde5	0.5307296
55	0x3fdf81c8	1.7461481
56	0xbf28971a	-0.6585556
57	0x3f2e56b0	0.68101025
58	0x3ffd0e9b	1.9770082
59	0xbf7dd96a	-0.9915987
60	0x40178874	2.3677034
61	0x3f046548	0.5171704
62	0xbeda0d03	-0.42588052
63	0x4057f24c	3.3741636
64	0x3f1584c4	0.5840571
65	0x3c89fd0f	0.0168443
66	0x3ffd87d8	1.9807081
67	0x3f226406	0.63433874
68	0x3ed8a46f	0.42312953
69	0x3fe75c10	1.807497
70	0xbed1b323	-0.40956983
71	0x3ff3b73c	1.9040294
72	0x40053d1d	2.081855
73	0x3f7b891a	0.98256075
74	0x3f7cd545	0.98762923
75	0x3f9c67f1	1.221922
76	0x3fe1720e	1.7612932
77	0x3e76f7f6	0.24118027
78	0xbdcfedcb	-0.10152777
79	0x3fdd8467	1.7306031
80	0x3fa42835	1.282477
81	0xbdd4eb15	-0.10396401
82	0x40289f07	2.6347063
83	0x3fe0d0af	1.7563685
84	0xbf192e6a	-0.5983645
85	0x3fa05af9	1.2527763
86	0x3fdda9fe	1.7317502
87	0x3f32999a	0.6976563
88	0x3ffafca3	1.9608349
89	0x401a3b14	2.4098558
90	0x3f8274d5	1.0191904
91	0xbe8a57ff	-0.2702026
92	0x3fe78ae6	1.8089263
93	0x3fe13663	1.7594723
94	0xbc92261d	-0.01784044
95	0x3fd9f5ce	1.7028139
96	0x40163515	2.3469899
97	0x3f98d580	1.1940155
98	0xbd98eb99	-0.07466812
99	0x3ed22c3e	0.4104938
100	0xbebd46e1	-0.3696814
101	0x3fe050d6	1.7524669
102	0x3ff75008	1.9321299
103	0x3faa5d64	1.330975
104	0x401f3480	2.4875793
105	0x3fe00a6c	1.750318
106	0x3fe94eee	1.8227212
107	0x3fdc2df3	1.7201523
108	0x40016eb0	2.0223808
109	0xbf60d6aa	-0.8782755
110	0x3f5c86fd	0.86143476
111	0x3f3ed901	0.7454987
112	0x40218996	2.5240226
113	0x3fa917e9	1.3210422
114	0xbe3b2483	-0.18275647
115	0x3fe36b7f	1.776718
116	0x3f888cdc	1.0667987
117	0x3d3705b4	0.044683173
118	0x3fc86ac5	1.5657583
119	0x3f5d8d33	0.8654358
120	0xbf074419	-0.52838284
121	0x3fbbe781	1.4680024
122	0x3f0b3d7b	0.54390687
123	0xbec306c9	-0.38091114
124	0x3f34e788	0.7066579
125	0x3fa1a0b0	1.2627163
126	0xbf7bf088	-0.98413897
127	0xbf02bb02	-0.510666
128	0xbf91efcc	-1.1401305
129	0x3f7b3b86	0.981377
130	0x3f7879c9	0.9706083
131	0x3fc8ce94	1.5688043
132	0xbf03306d	-0.51245767
133	0xbe0cf412	-0.1376498
134	0x3fcb3ea3	1.587849
135	0xbe49eb9e	-0.19718787
136	0x3dce6f40	0.10079813
137	0xbefdd7f5	-0.49578825
138	0xbf25354f	-0.6453447
139	0x3fe6152f	1.7975215
140	0x4003c79d	2.0590584
141	0x3fe8a1df	1.8174399
142	0x3fcd8d23	1.6058697
143	0x3ee1425b	0.43995938
144	0x3fdbb19c	1.7163577
145	0x40555682	3.333405
146	0x401ed699	2.481848
147	0x3f872652	1.055857
148	0x3f01db60	0.50725365
149	0xbf385c17	-0.7201552
150	0x40140ac9	2.3131583
151	0x3edc387a	0.43011838
152	0xbf8bd16d	-1.0923287
153	0x3e25b623	0.16182761
154	0xbec3c6df	-0.38237664
155	0x3f0e1c25	0.55511695
156	0xbdfe03b3	-0.12403049
157	0x3cbc2880	0.02296853
158	0xbe30e960	-0.17276525
159	0xbe2b2e64	-0.16716915
160	0x3dd5a178	0.10431188
161	0x3f70adce	0.94015205
162	0x3f57316e	0.840598
163	0x3f92c55e	1.1466482
164	0x3fed7b73	1.8553299
165	0x3f08c9fc	0.53433204
166	0x3faf36f9	1.3688651
167	0xbdf6d1c6	-0.1205173
168	0x3fb9ef27	1.4526109
169	0xbedd31fa	-0.43202192
170	0xbf0bcf86	-0.5461353
171	0x3daf0143	0.085451625
172	0x3fc06a97	1.5032529
173	0x3e4c09e9	0.19925655
174	0xbeb9fa3a	-0.3632372
175	0xbf2a319b	-0.6648194
176	0x3fe4593a	1.783973
177	0x40572a3b	3.3619525
178	0x3f7a61e0	0.97805595
179	0x3f132816	0.5748304
180	0xbea814a8	-0.3282826
181	0xbdde4a9e	-0.10854076
182	0x3fa70fd9	1.3051711
183	0x3feb0241	1.8360063
184	0x3fb66e6c	1.4252448
185	0x3e96e4d5	0.2947146
186	0x3fa967c4	1.3234792
187	0x3fd82cc7	1.6888665
188	0x3fcad24b	1.5845426
189	0x40019e1d	2.0252755
190	0x3efb7591	0.49113134
191	0xbf736054	-0.9506886
192	0x3fd7e309	1.6866161
193	0x3fce73e1	1.6129113
194	0x3fdde4de	1.733547
195	0x3fc47d17	1.5350674
196	0x40079b3b	2.1188495
197	0xbd834024	-0.06408718
198	0xbe81d2a3	-0.25356016
199	0x3f0cf7ef	0.55065817
200	0xbdf1063a	-0.11768766
201	0x400d3520	2.2063675
202	0x3dd58ecd	0.10427628
203	0x3f33821b	0.701204
204	0x3faf0568	1.3673525
205	0x3fd73092	1.6811697
206	0x3f9e75b6	1.2379673
207	0x40086a72	2.131497
208	0x3fa09941	1.2546769
209	0xbe65d540	-0.2244463
210	0x404173d8	3.0226955
211	0xbea2f3c3	-0.318266
212	0x400da6db	2.213309
213	0xbe459406	-0.19294748
214	0xbec18813	-0.3779913
215	0xbf56a711	-0.83848673
216	0xbf8b65f3	-1.0890487
217	0xbf22cc1a	-0.63592684
218	0x3d0fde64	0.035124198
219	0xbc9dd7bb	-0.019267907
220	0x3fee3bfd	1.8612057
221	0x3fc05c88	1.5028238
222	0x3fcdac0c	1.606813
223	0x3f930fcf	1.1489199
224	0x3ffc864b	1.9728483
225	0x3f6f4227	0.93460315
226	0x3fef99ac	1.8718772
227	0xbecb0834	-0.39654696
228	0xbf2e9924	-0.68202424
229	0x3f322a21	0.69595534
230	0x3f94d035	1.162604
231	0x3ff53e28	1.9159594
232	0x4000b7e7	2.0112245
233	0xbf8e5577	-1.1119832
234	0xbf40377a	-0.7508465
235	0xbe23faaf	-0.16013597
236	0xbf0c410c	-0.54786754
237	0x3f1f7193	0.62282676
238	0x3f83f363	1.0308651
239	0x3f3f01c4	0.7461207
240	0x40104cef	2.2546957
241	0x3f4b43f6	0.79400575
242	0x3fee397a	1.861129
243	0x40157586	2.335298
244	0x3fb85028	1.4399462
245	0x3fc328b6	1.5246799
246	0x3fc17e49	1.5116664
247	0xbe48afb2	-0.19598272
248	0x3feff888	1.8747721
249	0xbec42771	-0.3831134
250	0xbc49b4fc	-0.012311216
251	0xbf8779e6	-1.0584075
252	0x3fd4717e	1.6597135
253	0x3fa9752a	1.3238881
254	0x3f1dd0bd	0.61646634
255	0x3db85f0f	0.09002506

fc2.weight f4 [256, 256]
0	0x3dbf17d3	0.09330716
1	0xbe88a768	-0.2669022
2	0xbd0ef3b2	-0.034900375
3	0x3ec9519f	0.39320084
4	0x3d886a8f	0.066609494
5	0xbdb7552b	-0.089517914
6	0xbe58a1b2	-0.21155432
7	0xbeea9860	-0.45819378
8	0x3eab6cae	0.33481354
9	0x3e61ba01	0.22043611
10	0xbde06741	-0.10957194
11	0xbb1530e0	-0.0022764727
12	0xbea6842b	-0.3252271
13	0xbe8054c3	-0.25064668
14	0xbd50edd4	-0.05100806
15	0x3eafba33	0.34321746
16	0xbe9c8861	-0.305728
17	0x3ebe0ca4	0.3711902
18	0xbf2f2218	-0.684114
19	0x3ebd0ce2	0.3692389
20	0xbe64e7a1	-0.22353984
21	0xbf148b2f	-0.5802488
22	0xbcedd270	-0.029031008
23	0xbd35c5f2	-0.04437823
24	0x3e9a107d	0.30090705
25	0xbf5a2063	-0.8520567
26	0xbd9081d8	-0.07056016
27	0xbe62b234	-0.22138292
28	0xbd61625c	-0.055025443
29	0x3eac5271	0.33656648
30	0x3d334608	0.04376796
31	0x3e96c1bc	0.29444683
32	0x3e1313b3	0.14362983
33	0xbe03c43b	-0.12867825
34	0xbe7bfa68	-0.24607241
35	0xbd45fb73	-0.048335504
36	0x3e838347	0.25686094
37	0xbf8efd6b	-1.1171087
38	0xbf0869b4	-0.5328629
39	0xbf2ace2c	-0.66720843
40	0x3ecc193e	0.39863008
41	0xbe306e6f	-0.17229627
42	0x3bf616a0	0.0075100213
43	0x3c7e1045	0.015506809
44	0x3f30ebff	0.691101
45	0xbdf2787d	-0.118393876
46	0x3d275204	0.0408497
47	0xbd0f720e	-0.03502088
48	0xbc8103c0	-0.015748858
49	0x3f0d78cf	0.55262464
50	0xbeafbea4	-0.34325135
51	0xbe820dbe	-0.2540111
52	0xbe0c5963	-0.13705973
53	0xbb0e1c00	-0.002168417
54	0xbd6eaa3f	-0.058267828
55	0xbe15646e	-0.14589092
56	0xbe88a513	-0.26688442
57	0x3ebc151f	0.36734864
58	0x3eaee40e	0.34158367
59	0xbe8f6e8c	-0.28014028
60	0x3c4b6eb3	0.0124165295
61	0x3ec7f7a3	0.3905612
62	0xbf16d410	-0.5891733
63	0x3eab7e8a	0.3349498
64	0x3ebf56b6	0.37370843
65	0xbf2b41e5	-0.6689742
66	0x3edf0767	0.43560335
67	0x3e1096a6	0.14119968
68	0xbe48d004	-0.19610602
69	0xbe023600	-0.12715912
70	0x3d590868	0.052986532
71	0x3d9f413a	0.07776113
72	0xbd5e9eb5	-0.054350574
73	0x3e3dbddd	0.18529458
74	0x3de0bc23	0.10973384
75	0x3e6d59f8	0.23178852
76	0x3e99c3e3	0.30032262
77	0xbf11dd6a	-0.56978476
78	0xbd7d8b52	-0.061900444
79	0x3e58a2c1	0.21155836
80	0x3df79753	0.1208941
81	0xbf50c9fc	-0.81558204
82	0xbe003c23	-0.1252294
83	0x3dc8d2d0	0.09805834
84	0xbd94c1d9	-0.07263536
85	0x3e4420db	0.19153158
86	0x3d3ff6a0	0.04686606
87	0x3ef005a9	0.46879318
88	0x3ed9ab82	0.42513663
89	0x3ed0877a	0.4072836
90	0xbe6e92eb	-0.23298232
91	0xbbfd9250	-0.007738389
92	0xbe59e7ea	-0.21279874
93	0x3e866d60	0.26255322
94	0xbbc060d0	-0.005870916
95	0x3e8156b8	0.25261474
96	0x3d0fcb4f	0.035106
97	0xbe044638	-0.12917411
98	0xbd3b9548	-0.045796663
99	0x3eb65ea1	0.3561907
100	0xbd367e4e	-0.044554047
101	0xbe1a8746	-0.15090665
102	0x3e2776db	0.16353934
103	0xbe4d3527	-0.20039807
104	0x3eb5b2d1	0.3548799
105	0xbe4be5e0	-0.19911909
106	0x3db48f7d	0.08816431
107	0xbdb8c8f9	-0.090227075
108	0xbda5ec25	-0.081016816
109	0xbe0db714	-0.1383937
110	0x3dff20af	0.12457406
111	0x3d291496	0.041279398
112	0xbe04da10	-0.12973809
113	0x3f091a2a	0.5355555
114	0x3ca60c34	0.02026949
115	0x3dc2ce5b	0.095120154
116	0xbd7107c4	-0.058845297
117	0xbe88216e	-0.26588005
118	0xbe9e382c	-0.3090223
119	0x3e509a5a	0.2037138
120	0xbf0a352f	-0.539874
121	0x3f2868ed	0.65785104
122	0x3e9398f2	0.28827626
123	0xbd72cdfa	-0.059278466
124	0xbe09a8dc	-0.13443321
125	0xbd59996e	-0.053124838
126	0xbe53db6a	-0.20689169
127	0xbe857c73	-0.2607151
128	0xbeaaf22a	-0.33387882
129	0x3e741537	0.23836218
130	0x3dee07e3	0.11622598
131	0x3c2eba7e	0.01066458
132	0xbf79eee2	-0.9763013
133	0x3cfc0eb0	0.030768722
134	0x3ebd7247	0.3700125
135	0xbcd260d0	-0.02568093
136	0xbe4083ee	-0.18800327
137	0xbdce9953	-0.10087838
138	0xbe09dfff	-0.13464354
139	0x3f13c37f	0.5772018
140	0xbd3a9abc	-0.045557722
141	0xbe09b58f	-0.13448165
142	0xbdee613e	-0.11639641
143	0x3eb2c54e	0.34916157
144	0x3e894993	0.26813945
145	0x3c0c32fa	0.008557076
146	0x3f4ae8ad	0.79261285
147	0x3e6d08f5	0.23147948
148	0x3e777a2c	0.24167699
149	0xbf0cf621	-0.5506306
150	0xbe40da02	-0.18833163
151	0x3e88b258	0.26698565
152	0xbe44977f	-0.19198416
153	0xbee3ea39	-0.44514635
154	0x3d54dd0a	0.05196861
155	0xbd90adfe	-0.070644364
156	0xbf3e1475	-0.74249965
157	0xbf2fbbfd	-0.6864622
158	0x3c0d5be0	0.008627862
159	0x3c7249e8	0.014788128
160	0xbd3675ba	-0.044545867
161	0x3ebc1ee7	0.36742327
162	0x3eceb452	0.40371948
163	0xbe35200f	-0.1768801
164	0x3e7b50d0	0.24542546
165	0xbe606efb	-0.21917336
166	0xbeb89ac7	-0.36055586
167	0x3d4c0866	0.049812697
168	0x3ecd7b99	0.4013336
169	0x3d7ac6f6	0.0612249
170	0xbf1d5bd3	-0.6146824
171	0xbe92c975	-0.28669325
172	0xbe267b5b	-0.16257994
173	0xbec42e0a	-0.38316375
174	0x3ceb14b0	0.028696388
175	0xbe697bd4	-0.22801143
176	0x3e48c196	0.19605097
177	0x3ebe6a8e	0.3719067
178	0x3ef120aa	0.47095233
179	0x3ec9b35b	0.3939465
180	0x3c8679d4	0.016415514
181	0x3bee8d50	0.0072800294
182	0xbe0442c9	-0.12916102
183	0x3e96a52f	0.294229
184	0xbe5fd11d	-0.21857114
185	0xbee8b0c3	-0.45447358
186	0xbe768315	-0.24073441
187	0x3e41f921	0.18942691
188	0xbdc1f228	-0.09470016
189	0xbd88f300	-0.066869736
190	0x3ea8c666	0.32963866
191	0xbe75a6f3	-0.23989467
192	0xbe259f51	-0.16174056
193	0xbf0e337c	-0.5554731
194	0x3dd1a52d	0.10236583
195	0x3ec64d82	0.3873101
196	0x3dd1008b	0.10205182
197	0x3f9c170a	1.2194531
198	0xbcd179f0	-0.02557084
199	0x3e9f3475	0.3109471
200	0x3d5348a8	0.051582962
201	0xbde2e689	-0.11079127
202	0xbf0cc83e	-0.54993045
203	0x3edaec9c	0.42758644
204	0x3e175e2c	0.14782017
205	0x3e88fbee	0.26754707
206	0xbb09fe92	-0.0021056277
207	0xbdd7bf5c	-0.10534546
208	0xbd6be643	-0.05759264
209	0xbc22f598	-0.009946249
210	0x3ec2743b	0.37979302
211	0xbcf0ce84	-0.02939535
212	0x3dd9faa7	0.10643511
213	0xbcd7a3a8	-0.026323155
214	0xbd3163e4	-0.043308154
215	0xbe5d0dec	-0.21587342
216	0xbead80aa	-0.33887225
217	0xbdf222cc	-0.11823043
218	0x3f1be464	0.6089537
219	0xbf49e135	-0.78859264
220	0xbd527866	-0.051384352
221	0xbd921f90	-0.07134926
222	0xbed5a827	-0.41729853
223	0x3da85093	0.08218493
224	0xbc953a08	-0.018216148
225	0x3c997abc	0.018735282
226	0x3e5f5d73	0.21812992
227	0xbd75c8d4	-0.060005978
228	0xbe076d8f	-0.13225387
229	0x3e905714	0.28191435
230	0xbdbe3609	-0.0928765
231	0x3e30103c	0.17193693
232	0xbe0f2a33	-0.13980941
233	0xbe576acc	-0.21036834
234	0xbe80ac6e	-0.25131553
235	0x3ce750bc	0.02823674
236	0xbdc0f1f7	-0.09421151
237	0xbe3c2670	-0.18374038
238	0x3e7dbe57	0.2477964
239	0xbe818a49	-0.25300816
240	0xbda711ef	-0.081577174
241	0x3da6d11a	0.08145352
242	0xbe4ce289	-0.20008291
243	0x3e1c4dd4	0.15264064
244	0x3f5c446d	0.8604191
245	0xbe119d54	-0.14220172
246	0xbd83bde8	-0.06432706
247	0x3c6c9b63	0.014441344
248	0xbda3ea9a	-0.08003731
249	0xbc64ddc0	-0.013968885
250	0xbf361e24	-0.7113974
251	0xbe201118	-0.15631521
252	0xbe618fd9	-0.2202753
253	0xbe05aac8	-0.13053429
254	0x3ec24f28	0.37951016
255	0xbf0190b0	-0.506114

fc2.bias f4 [256]
0	0x3ed456d3	0.41472492
1	0x3d45a09a	0.048248865
2	0x3d4b853f	0.04968762
3	0x3f2399e5	0.639067
4	0x3dd7140b	0.1050187
5	0xbbcd7187	-0.006269637
6	0xbd508d90	-0.050916255
7	0x3ca208e4	0.01977963
8	0xbc0ca8d5	-0.008585175
9	0xbd65bd6d	-0.056088854
10	0x3f83923a	1.0279
11	0x401579e2	2.3355641
12	0x3efe5f90	0.49682283
13	0x3c821b30	0.015882105
14	0x3f7bcde5	0.98361045
15	0xbd9ff4aa	-0.07810338
16	0x3ef51a7e	0.47871774
17	0x3ce41d4b	0.027846
18	0xbd43b819	-0.04778299
19	0x3ffb34cb	1.9625486
20	0x40044c06	2.06714
21	0x3d0a0e22	0.033704884
22	0x3f33b919	0.7020431
23	0x3f8026eb	1.0011877
24	0x3eda1180	0.42591476
25	0x3edd05ba	0.43168432
26	0x3d481587	0.048848655
27	0xbd35e606	-0.04440882
28	0x3ca704e9	0.020388084
29	0x3f3a4c23	0.72772425
30	0x3fad58f1	1.3542768
31	0x3e07b291	0.13251711
32	0x3e9c993a	0.30585653
33	0x3f4bb1e0	0.7956829
34	0x40059ee1	2.0878222
35	0xbd14421e	-0.036195867
36	0x3e3ca584	0.18422514
37	0x3d9573c4	0.07297471
38	0xbd0f6375	-0.03500696
39	0x3b62a69e	0.0034584175
40	0x3f289d19	0.6586471
41	0xbd6fa764	-0.058509246
42	0xbe346f5d	-0.17620607
43	0xbe6539d1	-0.22385336
44	0x3f639421	0.888979
45	0x3e60a067	0.21936189
46	0x3cd2c403	0.025728231
47	0x3f47eb48	0.78093386
48	0x3fcf1fe1	1.6181604
49	0x3ed30a4b	0.4121879
50	0x3f58c570	0.84676266
51	0xbd6a2cf2	-0.05717177
52	0x3d65e8fb	0.05613039
53	0xbe5e23d1	-0.2169335
54	0x3f3364e2	0.7007581
55	0x3be1e1f1	0.0068933894
56	0x3f571352	0.84013855
57	0xbc649efe	-0.013953922
58	0x3fa6bd29	1.3026477
59	0x3e82b9a3	0.25532255
60	0x3c42e516	0.011895439
61	0x3f7e28f7	0.9928126
62	0x3f3c5da2	0.7358037
63	0x3baf9660	0.0053585023
64	0x3eec15c8	0.46110368
65	0x3f937688	1.1520548
66	0x3fadc08c	1.3574386
67	0x3fe467b9	1.7844154
68	0x40076507	2.1155412
69	0xbd27c6f7	-0.040961232
70	0x3f211f04	0.6293795
71	0x3f82d2b2	1.0220549
72	0x3eeac9be	0.45857042
73	0x3f618fd8	0.88110113
74	0x3f6754cd	0.9036377
75	0xbc9a2abc	-0.018819205
76	0x3ea478ae	0.3212332
77	0x3f1b217c	0.6059797
78	0x3eacc4ef	0.33743998
79	0x3f9fe1de	1.2490804
80	0x3b2d7b2b	0.002647112
81	0x3daa4b2f	0.083151214
82	0xbebc1292	-0.36732918
83	0xbc9cf326	-0.019158911
84	0x4001ca27	2.0279634
85	0x3f81fb48	1.015481
86	0x3f8e6e76	1.112746
87	0xbe9e4afe	-0.3091659
88	0x3f8f1fa0	1.1181526
89	0x3f2f6283	0.6850969
90	0x3e081eda	0.13293019
91	0x3e886bf2	0.26644856
92	0x3f1c536a	0.6106478
93	0x3f7740e2	0.9658338
94	0x3f393d54	0.72359204
95	0x3f42e1f3	0.7612602
96	0xbd41dcdd	-0.047329772
97	0x3f92d81d	1.1472203
98	0x3ff6a5e5	1.9269377
99	0x3d88dbea	0.0668257
100	0x40005099	2.0049193
101	0x3fa67af1	1.3006269
102	0x3f9170ef	1.136259
103	0x3f55f974	0.8358376
104	0x3f0d7245	0.55252486
105	0x3ba3afc9	0.0049953205
106	0x3f30478f	0.6885919
107	0x3fd5c2ff	1.6700133
108	0xbca42427	-0.02003677
109	0x3e81a4c9	0.25321034
110	0x3f36a305	0.713425
111	0xbc96132f	-0.018319694
112	0x3ec8f0ac	0.39246118
113	0x3f3f0988	0.7462392
114	0x3d439dfb	0.047758084
115	0x3edab701	0.42717746
116	0x3c1c00bc	0.009521659
117	0x3f41c3d7	0.7568945
118	0x3f58687c	0.8453443
119	0x3f3fb4ff	0.74885553
120	0x3f8f4bf3	1.1195053
121	0xbba1ab30	-0.004933737
122	0xbd461451	-0.04835922
123	0x3f54f9ab	0.83193463
124	0xbd6add73	-0.057340097
125	0x3f61eec4	0.8825495
126	0x3ce0efdc	0.027458124
127	0x3d064d88	0.032788783
128	0x3f8b67ef	1.0891093
129	0xbf2dfe5c	-0.67966247
130	0x3f7addd3	0.97994727
131	0x3f4c1f0a	0.7973486
132	0xbd1e0e22	-0.038587697
133	0x3fc61052	1.547373
134	0xbe0afa15	-0.13571961
135	0xbd771b5d	-0.06032883
136	0x3d16e0d4	0.036835507
137	0x3f430fa1	0.7619572
138	0xbd3b2f24	-0.045699254
139	0x3d7072a2	0.058703072
140	0xbe1d14a4	-0.15339905
141	0x3f21b68c	0.6316917
142	0xbd06db83	-0.032924186
143	0x404d8bb4	3.2116518
144	0xbcbb9623	-0.02289874
145	0x3d8a6501	0.06757546
146	0x3d5ae1e1	0.05343807
147	0x3f5ebef9	0.8701015
148	0x3f0ab956	0.5418905
149	0xbc44a1db	-0.01200148
150	0xbc98d998	-0.018658444
151	0x3fa5b88a	1.2946942
152	0xbccc1e48	-0.024916783
153	0x3f249325	0.64287025
154	0xbbc1a856	-0.00590996
155	0x3f2e9e78	0.68210554
156	0xbd112a02	-0.035440452
157	0x3be2584a	0.0069074975
158	0x3fa0932a	1.2544911
159	0x3f26b1b1	0.65114886
160	0x3f81d3a3	1.0142711
161	0xbce34d1a	-0.027746726
162	0xbd1bed14	-0.038067892
163	0x3d5304ca	0.05151824
164	0x3f40bdc0	0.75289536
165	0xbcdc5e00	-0.026900291
166	0x3f62c635	0.8858369
167	0xbd5d5194	-0.054032877
168	0x3ef75abc	0.48311412
169	0x3f119e50	0.5688219
170	0x3f7328d8	0.949842
171	0x3d2b210c	0.041779563
172	0xbd0cddb6	-0.034391128
173	0x3f2f6e20	0.6852741
174	0xbc9b851c	-0.01898437
175	0xbd0a85ec	-0.033819124
176	0x3cdb9f6a	0.026809413
177	0xbe76c940	-0.24100208
178	0xbd7d8035	-0.061889846
179	0xbe89fd7b	-0.26951203
180	0x3e6fdf41	0.23425008
181	0x3f44d6f5	0.768905
182	0x3d3eac44	0.046551004
183	0x3f99d9d1	1.2019597
184	0x3ffee940	1.9914932
185	0x3fb02728	1.376195
186	0x3b922d07	0.004460934
187	0xbddcadd9	-0.10775346
188	0xbe373ffb	-0.178955
189	0x3f38b6f3	0.7215416
190	0x3fb549e0	1.416317
191	0x3f115187	0.56765026
192	0x404cc80f	3.1997106
193	0x3e4766a3	0.19472747
194	0x3f573de4	0.8407881
195	0x3ed798ac	0.42108667
196	0x3f17b4fc	0.59260535
197	0x3f1bfb4c	0.60930324
198	0x3f50d09a	0.815683
199	0x3f408a48	0.75211
200	0xbd460be1	-0.048351172
201	0x3aa62aea	0.0012677584
202	0x3ebb11d0	0.36537027
203	0x3f0f149b	0.55890816
204	0x3d609111	0.054825846
205	0x3f85767d	1.0426785
206	0x3f46c148	0.77638674
207	0x3f6895c9	0.90853554
208	0xbd775b14	-0.060389593
209	0x3ec6e985	0.38850036
210	0x3fb37781	1.4020845
211	0x3f856404	1.0421147
212	0x3fe02e7c	1.7514186
213	0x3df7227e	0.12067126
214	0xbd3a2735	-0.045447547
215	0x3eaab991	0.333447
216	0x3f5861ef	0.84524435
217	0xbd4bc2bc	-0.04974626
218	0x3ee1fbb7	0.44137356
219	0x3f68f4f4	0.9099877
220	0x3f3e2c44	0.74286294
221	0x3f592437	0.84820884
222	0x3f194dc4	0.59884286
223	0xbd518b19	-0.051158044
224	0x3eabab99	0.33529356
225	0x3ed8e583	0.42362604
226	0xbb9543e9	-0.0045552147
227	0x3f4d9977	0.80312294
228	0xbc912894	-0.017719544
229	0x3cb9d84b	0.022686144
230	0x3f9702d7	1.1797742
231	0xbcaba68c	-0.02095344
232	0x3dc7cbc5	0.09755663
233	0x3e25a2a4	0.16175324
234	0xbc193145	-0.009350126
235	0x3f3c672d	0.73594934
236	0x400b0a58	2.1725063
237	0xbd830cd8	-0.06398934
238	0x3ffcaaf8	1.9739676
239	0xbcb6a9d8	-0.022297785
240	0x3f8c8435	1.0977846
241	0x3f10275e	0.5631007
242	0x3f95108b	1.1645674
243	0x3f456459	0.77106243
244	0x3c126390	0.00893487
245	0x3f5a6097	0.85303634
246	0x3d153f34	0.03643723
247	0x3f7a6c4a	0.97821486
248	0xbd3f5568	-0.04671231
249	0xbd1e69ec	-0.038675234
250	0xbde5c853	-0.112198494
251	0xbd65811d	-0.056031335
252	0x3d0d7c30	0.034542263
253	0xbe3a8c01	-0.1821747
254	0x3ef1b31a	0.47206956
255	0x3f5d836d	0.86528665

fc3.weight f4 [81, 256]
0	0xbd689141	-0.05677915
1	0xbd08781d	-0.033317674
2	0x3d241362	0.040057547
3	0x3e456a5f	0.19278859
4	0xbdb3dc0d	-0.08782206
5	0x3a892280	0.0010462552
6	0x3d54faf6	0.051997148
7	0xbc0bb2c8	-0.0085265115
8	0x3d61efc8	0.055160314
9	0x3d3839fa	0.044977166
10	0xbd0107cc	-0.031501576
11	0x3ba0f666	0.0049121855
12	0xbd4cf792	-0.05004079
13	0xbd405c46	-0.046963
14	0x3df614d3	0.12015691
15	0x3d0ebd32	0.0348484
16	0x3d9d1891	0.07670701
17	0x3d1d7d09	0.03844932
18	0x3d619362	0.055072196
19	0x3cd01bdd	0.025403911
20	0xbd8ff8b9	-0.07029862
21	0x3ce9414d	0.02847352
22	0x3e4c1f6e	0.19933864
23	0xbbb23700	-0.0054386854
24	0xba094b49	-0.00052373536
25	0xbdad7ad5	-0.08470694
26	0xbe235a5e	-0.15952441
27	0xbd3ce2ac	-0.04611461
28	0xbcdd1958	-0.026989624
29	0xbd578c09	-0.052623782
30	0xbcac8303	-0.021058565
31	0x3e023120	0.12714052
32	0xbd8eab9e	-0.06966327
33	0xbc9cc337	-0.019136054
34	0x3c8e8bd6	0.017400663
35	0xbcbe7b94	-0.023252286
36	0xbdd5ce2c	-0.10439715
37	0x3d61e3d2	0.055148907
38	0x3c746f28	0.01491908
39	0xbd4a5e67	-0.049406435
40	0x3c13aa54	0.009012777
41	0xb92d6d25	-0.00016539225
42	0x3e26179c	0.16219944
43	0x3da81b3b	0.08208319
44	0x3de89fef	0.1135863
45	0xbd876451	-0.06610931
46	0x3cc50969	0.024052339
47	0xbda4b58c	-0.0804244
48	0x3cec4d24	0.028845377
49	0xbd196071	-0.03744549
50	0xbccce8bd	-0.025013322
51	0xbc96fa78	-0.01842998
52	0xbd192498	-0.037388414
53	0x3e261929	0.16220535
54	0x3ac1efcf	0.00147962
55	0xbdc3ebeb	-0.09566482
56	0x3b14a885	0.0022683453
57	0xbcd7ea22	-0.02635676
58	0x3d00d61a	0.031454183
59	0x3de9eeb2	0.11422481
60	0x3c981d2d	0.0185686
61	0xbda82ceb	-0.082116924
62	0xbdb90dce	-0.09035836
63	0x3ccdd308	0.025125042
64	0xbde30260	-0.11084437
65	0x3d291101	0.04127598
66	0x3d1e15d3	0.038595032
67	0xbcf7f944	-0.030270226
68	0x3d75cbf6	0.060008965
69	0xbd36f0f0	-0.04466337
70	0x3cecedec	0.028922044
71	0xbd53c6e9	-0.051703367
72	0xbd4ab11e	-0.04948532
73	0x3ac80841	0.0015261249
74	0xbcd7e0b6	-0.026352268
75	0xbd66fea6	-0.056395195
76	0xbd0da7e2	-0.034583934
77	0xbd9a7dc6	-0.07543521
78	0xbe014518	-0.12624013
79	0x3cafb14e	0.02144685
80	0xbcb4693e	-0.02202284
81	0x3daa23f1	0.083076365
82	0x3c3f9f27	0.01169566
83	0x3ca43060	0.020042598
84	0x3d40d37e	0.047076695
85	0x3e0ec92b	0.13943927
86	0x3be83371	0.0070862104
87	0xbdc1cce5	-0.09462909
88	0x3b1d2502	0.0023978357
89	0xbe0d3fde	-0.13793895
90	0xbe31e25a	-0.17371503
91	0xbdc99f86	-0.0984488
92	0x3e97754b	0.29581675
93	0xbe3c33fc	-0.18379205
94	0x3d0c08b5	0.03418799
95	0x3e5d49e0	0.21610212
96	0x3c4b0698	0.012391709
97	0x3d1f1084	0.03883411
98	0x3b8731d1	0.0041258116
99	0x3c954b49	0.018224375
100	0xbcfaee34	-0.030631162
101	0xbd648449	-0.05579022
102	0x3dfa4e93	0.12222018
103	0x3de0b45b	0.109719
104	0x3b762666	0.0037559508
105	0x3d43b574	0.04778047
106	0x3e2b4450	0.16725278
107	0x3db312aa	0.08743794
108	0x3d475fd5	0.048675377
109	0x3e07d91d	0.13266416
110	0x3dc3b43c	0.09555861
111	0x3cfc3e4c	0.030791424
112	0xbb20de5c	-0.00245466
113	0xbdd71b01	-0.105031975
114	0xbad7f900	-0.0016477406
115	0xbd8fa33c	-0.07013556
116	0x3c0ecc72	0.008715736
117	0xbdc3b0cc	-0.09555206
118	0xbcd562bb	-0.026048055
119	0xbe0cf9df	-0.13767193
120	0xbc56b1c9	-0.013103911
121	0xbcb5e618	-0.022204444
122	0x3c933c9c	0.017973237
123	0x3e02bd10	0.12767434
124	0xbd2ff45c	-0.04295765
125	0x3e5a49a4	0.21317154
126	0xbbffe490	-0.007809229
127	0x3bf99200	0.0076162815
128	0x3ddc3777	0.107527666
129	0xbee6018f	-0.44923064
130	0xbd83454c	-0.06409702
131	0xbc182002	-0.009284975
132	0xbc609e08	-0.013709553
133	0xbd5b2ca2	-0.053509362
134	0x3e192d5c	0.1495871
135	0x3cfd87fc	0.030948631
136	0x3ba5d204	0.005060436
137	0x3e3ff55e	0.18745944
138	0x3d442d84	0.04789497
139	0x3b1d7f00	0.0024031997
140	0x3ded6511	0.115915425
141	0x3e325f9b	0.17419283
142	0xbcfea354	-0.03108374
143	0x3ccd386d	0.02505132
144	0xbb793ae0	-0.0038029477
145	0x3d0b3747	0.033988263
146	0x3c4d5dc8	0.012534566
147	0x3e2c410e	0.16821691
148	0xbd869bbf	-0.06572675
149	0x3d325440	0.04353738
150	0xbd0fc404	-0.035099044
151	0xbdca8dff	-0.09890365
152	0xbd17172c	-0.036887333
153	0xbc419a08	-0.011816509
154	0x3b05bca0	0.0020406619
155	0xbd49a014	-0.049224928
156	0xbe009d10	-0.12559915
157	0x3d67dc90	0.05660683
158	0xbad1bdd6	-0.001600201
159	0xbdf01b60	-0.11723971
160	0xbd972650	-0.073803544
161	0xbd639888	-0.055565387
162	0x3d11cc88	0.035595447
163	0x3d4faa2c	0.050699398
164	0x3d551e1e	0.052030675
165	0x3b266380	0.0025388896
166	0xbde8adfe	-0.113613114
167	0xbb911270	-0.0044272467
168	0xbd047622	-0.032339223
169	0xbc9588cb	-0.018253705
170	0xbd1d13ce	-0.038348965
171	0x3d631b3a	0.055445887
172	0xbca1e8c9	-0.01976432
173	0xbdbd13c2	-0.09232284
174	0x3d1d1d0a	0.038357772
175	0xbd5b7284	-0.053576007
176	0x3c268d05	0.010165458
177	0xbe023ee4	-0.12719303
178	0x3da039c3	0.07823517
179	0x3e1e559f	0.1546235
180	0xbdaafb82	-0.083487526
181	0x3d842052	0.06451477
182	0x3acf3e22	0.0015811364
183	0xbc4f9b14	-0.012671251
184	0x3d281920	0.041039586
185	0x3bb5ab92	0.0055441344
186	0x3d007842	0.031364687
187	0x3e2f74ae	0.17134354
188	0x3a8629cb	0.0010235844
189	0x3de05918	0.10954493
190	0xbda71c64	-0.08159712
191	0x3db5d631	0.088787444
192	0x3c5241be	0.012833057
193	0xbd1612c0	-0.036638975
194	0x3dbbb5f7	0.091655664
195	0x3aab5892	0.0013072661
196	0xbd55fe6e	-0.052244596
197	0xbd9718e9	-0.07377798
198	0x3d3e347c	0.04643677
199	0x3dc5b0cd	0.09652863
200	0x3d5af7c1	0.053458933
201	0xbcf29c75	-0.02961562
202	0x3ca5bd18	0.020231768
203	0x3db1198c	0.08647451
204	0x3d342695	0.043982107
205	0x3d6d359c	0.057912454
206	0x3da75358	0.081701934
207	0x3d37bc1e	0.044857137
208	0xbd584980	-0.05280447
209	0xbd07ee03	-0.03318597
210	0x3d3230d2	0.04350359
211	0xbd1c7b3b	-0.03820346
212	0x3dd369cd	0.10322914
213	0xbe973ae6	-0.29537123
214	0xbd539284	-0.0516534
215	0xbdb3ec1f	-0.08785271
216	0x3dc3e704	0.09565547
217	0x3e5d13fa	0.21589652
218	0xbdced7fe	-0.10099791
219	0x3c833dac	0.016020618
220	0xbd21f062	-0.039535888
221	0xbc91522e	-0.017739382
222	0x3dbf8b21	0.093527086
223	0x3d5c00ea	0.05371181
224	0x3cb5ed0b	0.022207757
225	0xbbfa7dce	-0.0076443916
226	0xbca3ee28	-0.020011023
227	0xbd95d3e2	-0.07315804
228	0xbd16dcf6	-0.03683182
229	0xbca45f38	-0.020064935
230	0x3d197fd3	0.03747542
231	0x3d3e90c2	0.04652477
232	0xbdf305d2	-0.118663445
233	0xbdf25637	-0.118328504
234	0xbcf48f68	-0.029853538
235	0x3d4851ab	0.04890601
236	0x3cb32155	0.02186648
237	0xbd12b5a5	-0.03581776
238	0x3e2087d1	0.1567681
239	0x3cdf2a28	0.027241781
240	0x3d886762	0.06660344
241	0xbd8ce148	-0.068789065
242	0x3d1c8b69	0.03821889
243	0x3e1c5332	0.15266111
244	0x3e69b768	0.2282387
245	0xbd663038	-0.05619833
246	0x3d696ffa	0.056991555
247	0x3e0dedf5	0.13860305
248	0x3bc7d010	0.006097801
249	0xbd635118	-0.05549726
250	0x3e0220c1	0.12707807
251	0x3d2ebf22	0.042662747
252	0xbd57741c	-0.052600965
253	0xbd9861a5	-0.07440499
254	0x3d82c8cf	0.063859574
255	0xbd2fa7b7	-0.042884555

fc3.bias f4 [81]
0	0x3e9e590e	0.30927318
1	0x3f01cc13	0.5070202
2	0x3f27d5df	0.65560716
3	0x3e64f55e	0.22359225
4	0xbd9c3ae2	-0.076284185
5	0x3e8f353a	0.27970296
6	0x3ec4a1db	0.38404736
7	0x3f1f60e8	0.6225724
8	0x3f34872f	0.70518774
9	0x3ecbc7d7	0.39800903
10	0x3de5be1a	0.112178996
11	0x3eaf9344	0.34292042
12	0x3efe5ab4	0.49678576
13	0x3f2265c4	0.6343653
14	0x3f095831	0.53650194
15	0x3f327366	0.69707334
16	0x3f379bce	0.71722114
17	0xbd5e49b0	-0.054269493
18	0x3f15a70e	0.5845803
19	0x3f334fe4	0.7004378
20	0x3f680b18	0.9064193
21	0x3f9203a8	1.1407366
22	0x3f2385a4	0.63875794
23	0x3f5aa816	0.8541273
24	0x3e8fdf44	0.28100026
25	0x3ebbb0e2	0.36658388
26	0x3d90c170	0.07068145
27	0x3e99b2a1	0.30019096
28	0x3f4c3a11	0.797761
29	0x3e0174f3	0.12642269
30	0x3f214e06	0.6300968
31	0x3f3f1b30	0.7465086
32	0x3f2a0252	0.6640979
33	0x3f2404a3	0.64069575
34	0x3f365c2e	0.71234405
35	0x3ec408d0	0.38287973
36	0x3ecd5a75	0.40108076
37	0x3f3b728b	0.73221654
38	0x3f051cbf	0.5199699
39	0x3f103138	0.563251
40	0x3f6cae16	0.92453134
41	0x3e918a97	0.28426048
42	0x3e1e3dac	0.15453213
43	0x3e8b4fd2	0.27209336
44	0x3f1c4c8d	0.6105431
45	0x3f1817ca	0.594113
46	0x3f52a951	0.82289606
47	0xbe706b40	-0.23478413
48	0x3ef310a4	0.47473633
49	0x3f1b0d5c	0.6056726
50	0x3f173498	0.59064627
51	0x3ed45d1b	0.41477284
52	0x3e3f4a28	0.18680632
53	0x3f26f654	0.65219617
54	0x3f232bd3	0.63738745
55	0x3e1cb415	0.15303071
56	0x3e5580cc	0.20849913
57	0x3fa1b33f	1.2632827
58	0x3f2ebec1	0.6825982
59	0x3f1fbbd2	0.62395966
60	0x3f3cb9d0	0.7372103
61	0x3efc8569	0.49320534
62	0x3f2b0484	0.66803765
63	0x3f1aa6b5	0.60410625
64	0x3faee1e9	1.3662692
65	0x3f0d7e0c	0.5527046
66	0x3f26d1f4	0.65164113
67	0x3f17c8d7	0.5929083
68	0x3d29c010	0.04144293
69	0x3f4e71bc	0.80642295
70	0x3f48f137	0.78493065
71	0x3f84f1f9	1.0386344
72	0x3ec9c6df	0.3940954
73	0x3f61f704	0.8826754
74	0x3ed1671a	0.40898973
75	0xbd1609bb	-0.036630373
76	0x3f61fbbf	0.8827476
77	0x3f06d721	0.5267201
78	0x3f30a41f	0.6900043
79	0x3f46e6fa	0.7769619
80	0x3f146ff0	0.57983303
