code/outputs/seed/19/models/dqn_checkpoint.pth (torch, 354981 bytes, 6 tensors)

fc1.weight f4 [256, 5]
00000000: fbe0 09be d94e b2bd 41cb 03bf 98db e6be
00000010: 3869 603e 1927 223e 1abb efbd 457d 6a3f
00000020: e0a9 d0be 6d71 e63e 9220 ae3d c583 79be
00000030: a305 833f 93e9 89bc 893e 863e b380 813e
00000040: 01e5 133d db35 e8ba 895a 97be dd25 1cbd
00000050: b86b db3e 2e91 de3b 759d a8bf 938e 74bf
00000060: c87e 10bf 23c6 713c 1adf b2be 0bfe c63d
00000070: bfc2 af3d a35e ccbe 7c3f bd3e d3ed 49ba
00000080: 3c25 b4bf 1cb0 95bf cd0b 5fbf 85a0 573c
00000090: 6ba2 583f d763 a43f 7eaa 993f b5e7 84bd
000000a0: d6b3 d33d b641 1cbe b947 3d3f da1d 06bf
000000b0: a104 883f 00c4 59bc 0336 f7bb e124 b93f
000000c0: 1412 4a3f 41fe 46bf bb69 8c3e 9db9 1b3e
000000d0: d08a 2cbf 9464 63bf f42d 75be 2ee8 3e3c
000000e0: 8bee 78bd f2cc 823f e320 6fbe 3ad2 cc3d
000000f0: dcd4 353e c34a 583f abfb 17be 30dd dd3d
00000100: bf1c 81be 741c 9cbe 9a11 23bb 3dfe a33e
00000110: c79f 3ebd d2f7 5abd b7fe 85be 5dd0 8fbe
00000120: 1665 ed3d 2212 8e3e baf2 82be 8cbb 5dbe
00000130: 578b 0a3f 5288 2740 fef5 da3f b97a a9be
00000140: 65e5 523e fcf6 d53e ffcd b5be 8773 e13e
00000150: 16a2 db3d 11ad 3bbe e70e 843e fabe 0f40
00000160: 0b18 db3f c64c a2be 2584 883e c664 01be
00000170: dde8 a03f 0841 1b3f 233e e53e 7941 d13e
00000180: da8d 95be 480e f03e 97e2 a93e 30d7 3e3e
00000190: 7cb4 a8bd 745e 993c fe21 4a3f 9168 f63e
000001a0: 5786 b6be d62f 10bf cec4 6abf f22f a7bd
000001b0: c69e 0abe 6b9b bd3f 27fb b3be 7b7c dfbe
000001c0: 50e9 a4be fe43 0b3e 27b5 9d3e 7bd4 2f3e
000001d0: ec18 5a3e 7b69 a7bf d888 38bf d481 81bd
000001e0: c8ea c8be ffb0 c43e 83af 8b3f 35cb 4f3f
000001f0: 406a f03e 29ce 733e 211b e1bd ceb3 8ebf
00000200: 9538 90bf c1e8 26bf 7dfd e03d 1832 813f
00000210: 4851 053f e985 4c3f 8caf 153d 22a2 263e
00000220: 8493 383f b99e 2c40 2f4e bd3f f53d f6be
00000230: 85e2 0b3f aba1 40be 51fb 04bf b3a1 26bf
00000240: f7b7 a3be 25fb ffbe b475 1cbf bfdf 50bd
00000250: 6862 f2be 554f 813f a37e e2bd ac47 3e3f
00000260: 06e7 0540 3c94 8c3f 866f 97be fb6b 0fbe
00000270: 7519 2d3e 4acd 9b3f 65d8 f13e 2d72 c03d
00000280: 2ee6 50be 1d71 8ebe 08b7 d83e 5422 58bd
00000290: 348a 213e bbd9 d43e 9ab7 2dbe ca1b 28bf
000002a0: 2da9 81bf 3ee5 62bf 7ae4 42be 0009 7dbe
000002b0: c583 aa3e a7df 873e 7ace d73d 64ef 91be
000002c0: 6cf6 52be 3336 323e 135d 3dbe 0d41 a73e
000002d0: 02f6 4fbe 83ef f8bc 5819 8d3e c763 913f
000002e0: 1b29 853f 99b7 a33e cc55 1b3c 2990 e33f
000002f0: a0e8 3b3f 8d3a 0cbf 64b8 2ebd 81ad 4fbc
00000300: 38db ed3f a5f2 8c3f a3d6 87be 9539 b2be
00000310: 736f f53d e0b1 c6be c0bc 553f e881 c33f
00000320: 728f 56be 76ff 233f 6b75 263e 5a99 00bf
00000330: 252b ab3f 79a1 5f3e 0b7f 2dbd c61b 3ebf
00000340: bcaf 313f d16d 333f 1cb5 39bd 128c 87be
00000350: 0e1c a93e a8b6 b43e 5a28 a83e a602 60be
00000360: 7862 533e 9fbf bb3f 50ac 6a3e 332f 093f
00000370: d2c4 493e 0606 cebe 666d b63c d93c d5be
00000380: 9d0f 663d 9ed7 3dbe 1252 6b3e b33e ac3f
00000390: 5a67 053e f414 90bf afa0 cd3d 9253 11be
000003a0: f8ee 4e3f 9ec0 61be d6e0 0d3f 7405 c2be
000003b0: c273 ab3e c4b6 843f b3dd c0bd 33cd 9ebf
000003c0: 1cc2 393e fdf8 97bc f23d b33f fe65 833f
000003d0: edfb 8f3f 1639 88be 7fa7 403e 2e7d b53f
000003e0: 6b01 343f e74a 2ebf 91c1 c43d cf83 14be
000003f0: c80b 453f 41ed 33be d4a1 bc3e f1bd a0be
-0.1346473 -0.08706445 -0.51482016 -0.45089412 0.21915138 0.15835227 -0.11705609 0.91597396
-0.40754604 0.45008412 0.08502306 -0.24366672 1.0236095 -0.01683501 0.26219586 0.25293502
0.036107067 -0.0017716245 -0.2956126 -0.038122047 0.4285562 0.006792209 -1.3173052 -0.9553005
-0.5644345 0.014756712 -0.34935838 0.097164236 0.08582067 -0.39915952 0.36962497 -0.000770298
-1.4073863 -1.1694369 -0.8712738 0.013160829 0.8462283 1.2842969 1.2005155 -0.06489507
0.10337035 -0.15259442 0.73937565 -0.523893 1.0626413 -0.013291359 -0.0075442805 1.446438
0.78933835 -0.7773171 0.27424416 0.15207525 -0.6739931 -0.88825345 -0.23943311 0.011652036
-0.060774367 1.0218794 -0.23352389 0.10001035 0.1775698 0.8448908 -0.14842097 0.10833204
-0.25217244 -0.30490458 -0.0024882318 0.32029906 -0.046539094 -0.053458996 -0.26170895 -0.28088656
0.11591546 0.2774821 -0.2557581 -0.21653575 0.54118866 2.6176953 1.7106321 -0.33101442
0.2059532 0.41789997 -0.35508725 0.44033453 0.10724275 -0.18327738 0.2579262 2.2460313
1.7116712 -0.31699198 0.26663318 -0.12636098 1.2571064 0.60646105 0.4477397 0.40870264
-0.29209787 0.46885896 0.33180687 0.18636775 -0.0823755 0.018721797 0.7895812 0.48126653
-0.35649368 -0.5632299 -0.9170655 -0.08163442 -0.1353713 1.4813055 -0.35152552 -0.4364966
-0.32209253 0.13600156 0.3080227 0.17170899 0.2129857 -1.3079065 -0.72083807 -0.06323591
-0.39241624 0.38416287 1.0912937 0.81169444 0.46956062 0.23809113 -0.109915026 -1.1148622
-1.1267267 -0.65198904 0.10985849 1.0093412 0.5207715 0.7989183 0.036544368 0.16272786
0.7210009 2.6971877 1.4789485 -0.48094144 0.54642516 -0.18811671 -0.5194598 -0.65090483
-0.31976292 -0.49996296 -0.611171 -0.05099463 -0.47340703 1.0102335 -0.1105931 0.7432811
2.0922256 1.0982738 -0.29577273 -0.14006035 0.16904242 1.2172024 0.47235408 0.09396777
-0.20400307 -0.27820674 0.42327142 -0.052767113 0.15775377 0.41572365 -0.1696457 -0.656674
-1.0129753 -0.88631046 -0.1903247 -0.24710464 0.33303657 0.2653782 0.10537429 -0.28502953
-0.20601815 0.17403488 -0.18492536 0.32666817 -0.20308688 -0.030387646 0.27558398 1.1358575
1.0403169 0.3197601 0.009480905 1.7778369 0.7340183 -0.5477684 -0.042656317 -0.012675644
1.8582525 1.1011549 -0.26530942 -0.34809557 0.11984148 -0.38807583 0.83491135 1.5274019
-0.20953158 0.6406168 0.16255729 -0.50233996 1.3372542 0.2183894 -0.042357486 -0.7426113
0.69408774 0.7008944 -0.045338735 -0.26474053 0.33029217 0.35295606 0.32843286 -0.2187601
0.20643032 1.4667853 0.22917295 0.53587645 0.19703987 -0.4023897 0.022268962 -0.41647986
0.056167234 -0.18539283 0.22980526 1.3456634 0.13027707 -1.1256394 0.100404136 -0.14192036
0.8083339 -0.22046134 0.554212 -0.37894785 0.33486754 1.0368276 -0.09417286 -1.2406372
0.18140453 -0.018551344 1.4003279 1.02655 1.1248757 -0.26606053 0.18813895 1.4178827
0.70314664 -0.6808304 0.09607232 -0.14503406 0.769711 -0.17570974 0.36842215 -0.31394914

fc1.bias f4 [256]
00000000: e44f 8abe 05bf c33f 1108 a73f 2d5f 023e
00000010: 8af5 65bf 3ef0 1bbe ee3b 7fbf bd25 3f3d
00000020: 0da7 b53f b94c ce3e ee62 7dbf 7d22 a43f
00000030: 8465 1f3d 0022 8cbe 2f25 963d a44d 793e
00000040: 0753 053d 2937 243f 18a4 c13f e9ef 86bb
00000050: 2a4f 523f fd43 0f40 7255 c2be 0cc6 41bf
00000060: 206a 8b3f 5679 a3bb 6c31 d83e fbff b33e
00000070: 39e4 89bf 195d 943f 613f 8f3e 0280 773f
00000080: 94d3 9abe e5ab 4ebf 98ad 13be 1706 cebe
00000090: d999 a3be c541 cd3e 36c6 a53f fbc6 1d3f
000000a0: 9cc1 793f c402 04bf ffd5 cebe 0872 8b3f
000000b0: 0f39 8ebd 6ae3 863e fb0b dd3f e94b 913e
000000c0: d485 0340 bdd4 0a3f 4129 a63f 1418 b83f
000000d0: 0fb7 bcbe c606 8f3f 7f6c d93f 9665 1540
000000e0: 019e 8cbe 5d79 033e 7981 8bbd 395e 6bbe
000000f0: 8afa 563e e0c1 66bf e88e 9e3f 78ce b13f
00000100: d4db a53f 2534 66be b995 303f d4fb e23f
00000110: 77ea 8b3e 839d e33f 2739 dd3f 6975 d83f
00000120: e20f cc3f 769b 5dbe 8adb cb3d 6765 d3be
00000130: 4bc1 1b40 0b9b 443f 555b 873f 9cc0 21bf
00000140: 7a51 ddbe 7997 803f 1392 9c3f 20a4 973e
00000150: adaf 853e c626 123f 1c68 0cbe 0d73 da3f
00000160: 8b14 613f 7622 7bbd f605 14bf e8a5 77be
00000170: addb 383e 6f84 1c3e 5f93 1c3e b2d4 0940
00000180: 8711 b7bc 6c58 153f c9ef e93e 8448 243f
00000190: 2d04 ca3e f591 c4bd ea85 b63e 928a 91bf
000001a0: 6d76 753f 35b6 c8be 3bea be3f ba6c 58bf
000001b0: 99d4 3b3f e3d3 083f f584 5ebf 24dc a9be
000001c0: 6ee2 91be 1f61 d43e e254 3a3e c070 183f
000001d0: 481b 8ebe 1d7b b33f e082 103f 7291 ba3f
000001e0: 96c9 353f e8e4 94be e6b5 b83e 0be6 c43f
000001f0: 5afa 63be 335d f63f ed00 ac3e 41d2 793f
00000200: 3056 1040 83dd 0e3f 4377 863f a100 2e3f
00000210: bc39 0e3f a968 cf3e d378 a5be 6442 31be
00000220: a43d 88bf 3ce5 d13f fd1c 37bf 0ca8 05bf
00000230: 4d5e 7cbf 45c0 1d40 4453 fc3f c324 c63f
00000240: 70ce 163e 9470 ba3f 4ad1 5cbd 1f32 173f
00000250: 2d02 b5be f356 c7be d43b d2bd a0dc d73f
00000260: 50f6 b73f d7e6 2cbe ff84 143f d013 19be
00000270: 90af 393e 19de c0be 5b4f ea3f ec56 013f
00000280: 92dc e33e 2049 133f c618 16bf 9457 5fbf
00000290: 9ccf a33f 51cd 873f 2b91 79bf b42c 2e3f
000002a0: 4341 4b3f 308d d03f a050 e9be 46fb 0dbf
000002b0: eae5 e43d a147 653c 8e6e 2abf 27af d03f
000002c0: cdc5 9a3f 7d14 bb3e 3518 05be 132d a03e
000002d0: 18a4 a83f cc1a 203f e326 a03f 3ff1 babe
000002e0: 594f 1dbe 3918 383f 1ea2 2340 443f 87be
000002f0: 7428 b1be 017b eabe 5b68 f23e 0da9 933f
00000300: adb6 003f fc90 bc3f db8d cdbe b24a b03f
00000310: 9da6 6cbf 147a 183e b907 8d3f 7a79 bebe
00000320: 83ad 51be 18ff ae3f d56f 313f bd3f 24be
00000330: 6262 993e 524f b8be ae45 8cbd 7b8c 603f
00000340: b224 d1bd 9f72 7a3e df71 ae3e 70ea 02bc
00000350: c798 9bbe dcb0 e13f c11f 8a3f 8702 aabe
00000360: c684 4fbe ff56 993f 9087 113f f733 943e
00000370: 508d 7a3e 0910 cb3f 9245 94be ac51 1c3f
00000380: b1ae dabe 6604 d3be 2d47 efbe 4de7 93bf
00000390: 7f46 b13c 3d28 263f 73d8 0f40 9f5f 68be
000003a0: f22b 3e3f acbf c23e 3a92 e13e 3311 c73e
000003b0: 4dbc a53d 2b94 d7be 64f4 343f 58dd f6be
000003c0: 5974 043e 86ec 773e 09a8 d6be 9886 253f
000003d0: 975e 99be b7b5 8dbe 94f7 ac3e 8939 db3f
000003e0: cd40 84bf 6ed5 e63f df7a c13e 6319 eabd
000003f0: d6be a33f 5e23 a53f 4bd9 e3be 3f21 d93f
-0.27014077 1.529267 1.3049337 0.12731619 -0.8982779 -0.15228364 -0.9970082 0.04666685
1.4191605 0.4029291 -0.9897908 1.2823025 0.038915172 -0.2736969 0.07331311 0.24346024
0.032549884 0.6414667 1.5128202 -0.004117955 0.82152045 2.2385247 -0.37955815 -0.7569282
1.0891762 -0.0049888296 0.42225206 0.35156235 -1.0772773 1.1590911 0.27978042 0.966797
-0.30239546 -0.8073104 -0.1442169 -0.4023902 -0.31953314 0.4008924 1.2951114 0.61631745
0.9756105 -0.5156672 -0.4039764 1.0894175 -0.06944477 0.26345378 1.7269281 0.28378227
2.0550432 0.5423086 1.298134 1.4382348 -0.36858413 1.1173942 1.6986235 2.3343253
-0.27464297 0.12839265 -0.06811804 -0.22985162 0.2099401 -0.9013958 1.2387362 1.3891134
1.2957711 -0.22480829 0.6897846 1.7733102 0.2732732 1.7782444 1.7283067 1.6910831
1.5942347 -0.21641335 0.09953983 -0.412883 2.4336727 0.76799077 1.0574747 -0.63184524
-0.43226224 1.0046226 1.2232078 0.29617405 0.26110592 0.57090414 -0.1371159 1.7066361
0.8792197 -0.06131216 -0.57821596 -0.24184382 0.1805255 0.15284894 0.15290593 2.153607
-0.022347225 0.58338046 0.45690754 0.6417315 0.3945631 -0.095981516 0.35649043 -1.1370413
0.9588383 -0.39201513 1.4915231 -0.84540904 0.73371273 0.53448313 -0.86921626 -0.33175766
-0.28493065 0.41480348 0.18196443 0.5954704 -0.2775519 1.4021946 0.564497 1.4575636
0.7101072 -0.29080892 0.36076277 1.5382704 -0.2226347 1.9247192 0.33594456 0.97586447
2.2552605 0.5580675 1.0505146 0.6796971 0.55556846 0.40509537 -0.32318744 -0.17310482
-1.0643811 1.6398082 -0.7152861 -0.52209544 -0.9858139 2.4648602 1.9712911 1.5479969
0.14727187 1.4565606 -0.05391053 0.59060854 -0.35353222 -0.38933524 -0.102653176 1.6864204
1.4372044 -0.16884933 0.58015436 -0.14948964 0.18133378 -0.37669447 1.8305467 0.5052326
0.4450422 0.57533455 -0.5863155 -0.8724301 1.2797732 1.0609533 -0.97487134 0.6803696
0.79396456 1.6293087 -0.45569324 -0.5546154 0.11176665 0.013994128 -0.66574943 1.6303452
1.2091614 0.3653907 -0.12997515 0.3128439 1.3175077 0.6254089 1.2511867 -0.3651218
-0.153623 0.7191196 2.5567698 -0.26415455 -0.34601176 -0.4579697 0.47345242 1.1535965
0.5027874 1.4731746 -0.4014729 1.3772795 -0.9244173 0.14890319 1.1017982 -0.37202054
-0.20476346 1.3671598 0.6931127 -0.16039939 0.29957873 -0.35998017 -0.06849228 0.87714356
-0.10212077 0.24457787 0.34071252 -0.007990465 -0.30389997 1.7632098 1.079094 -0.33205053
-0.20265493 1.1979674 0.56847477 0.28945896 0.24467969 1.5864269 -0.28959328 0.6106212
-0.42711404 -0.41214293 -0.4673399 -1.1554962 0.02164006 0.6490515 2.247586 -0.22692727
0.74285805 0.3803686 0.44056875 0.3888031 0.08092556 -0.4210523 0.7068541 -0.48215747
0.12935008 0.2421132 -0.41925076 0.646585 -0.2995498 -0.276777 0.33782637 1.7126933
-1.0332276 1.8033884 0.37789056 -0.114306234 1.2792614 1.2901418 -0.4450172 1.6963271

fc2.weight f4 [256, 256]
00000000: a3c5 14bd ff66 7cba f816 b03b 388e 62bd
00000010: a8ed bd3c 44da bebc b20a 2dbd 00b0 50bb
00000020: 8710 75bd 6681 103d ce04 1dbd b33b cb3c
00000030: aa00 5bbd 805f 0b3b 0f98 16bd 549d e43c
00000040: c743 3a3d 49d1 21bd a01a 963c 1e84 513d
00000050: 8274 293b 442d 363d 3316 86bd d482 d93c
00000060: e34e 09bd 2757 f0bc f358 17bd 083d 19bd
00000070: 2d3d 553d 600f 213d 2e5b 5c3d 2506 30bc
00000080: 8093 973b e90b 0dbd ac27 4dbd 5a89 d03c
00000090: 4632 493d 2211 b83c 784f 6bbd 9b46 a23c
000000a0: 40ff 07bd 53d4 d5bc 1511 373d 7e2f 3d3d
000000b0: f03c 553b 009a 6e3d 7541 d83c 8079 cdba
000000c0: 2863 d23c c8f1 41bd 58de 003d 55fa 86bc
000000d0: 9cbe 78bc 8113 1d3d e5c9 3c3d 953e 59bd
000000e0: 7ae2 1ebd b091 08bd 840e 283d f7ef 95bb
000000f0: b0cd babc 1ca7 d23c 22b8 25bd b0a9 3dbd
00000100: aec1 243d 922e 77bd d2a5 16bd 5a11 09bd
00000110: 20da 033d 5d50 3fbd 7222 da3b e856 273d
00000120: f760 24bc 90dc 17bc 5e2a 343d e314 83bd
00000130: a650 363d 4b56 b83a 789d 5fbd 80fa 73bb
00000140: f6fa 5b3d 6b37 73bb a48e 063d 52cd 683d
00000150: b424 f53c 539a 48bd 7a2c 34bd 9375 2dbd
00000160: cdb7 5fbd c043 a5bb b64e 8fbb 7861 65bd
00000170: acc5 25bd 1c2f f73c 42cd 5ebd 19ca 343d
00000180: 2855 bfbc ca1e 97bc bdb1 933c b3d8 32bd
00000190: 1545 f13c 81cd c0bc c44f 7e3d 982e 4fbd
000001a0: 44e6 343b 20a5 573c fef3 c2bc f608 183d
000001b0: a28e 06bd 4da3 983c 808e d336 934c 443d
000001c0: 80e7 f43b 3213 7fbd c5bc 2f3d 9fb3 583d
000001d0: bccc 1fbd eb59 4d3d bb7a 943a f5d3 08bb
000001e0: aa57 9bbb f43a 2cbc fcb5 043d f464 9b3c
000001f0: 38fc 9fbc 7315 72bc 24a5 a5bc 42dc 143d
00000200: a819 f6bc 6bce 9e3c eb5a 5dbc f1f3 7cbd
00000210: 7834 bebc cc65 243d b57c 24bd 056f b6bc
00000220: c654 643d d3b4 de3c 68ff c63c e09a bebc
00000230: 12c5 73bd e07d f73b 405b 1d3b 3890 3fbd
00000240: ae21 50bd 2d91 ce3c df9a a23b d900 053d
00000250: 12db 54bd 24e7 e7bc 20f1 8ebc 95fc 1d3c
00000260: 727f bcbc 1abb 83bd b40f 83bb 96e7 03bd
00000270: 5cf9 9dbc 68db 1a3d 1cc6 77bc c288 86bc
00000280: c06c 2dbd 11dc 8abd d8fa ea3c e6a5 0e3d
00000290: 4b60 bfbc 9927 0cbc 139f e0bc 8d00 8bb9
000002a0: d83b 3dbc 6087 49bc ea76 84bd 7645 67bd
000002b0: 209d 68ba bef5 453d 5970 6abc c88e fd3b
000002c0: b928 27bd 48d0 c73c 8cdc b3ba 2449 81bd
000002d0: 857c 83bd 726a 973b e3af 1dbc 7d66 3cbd
000002e0: 907e e03c 9fbc 33bd a0f0 a8bb 0f82 4c3d
000002f0: 5001 513c 7630 483d 42af d73c f83f 893c
00000300: f040 d3bc 143a 6abb a647 57bd 97b3 9abc
00000310: 707e 2fbd 1093 843c 4206 2cbd 61d9 60bc
00000320: 606e 37bd c483 923b e78c 8bb9 c153 e4bc
00000330: 2c8b 283d e228 253d e910 12bd 0214 093d
00000340: f3f0 b53c 40c1 feba a0a9 383b ecf1 4abd
00000350: a49a 993c 77dc 0bbd beb4 8d3c ce69 583d
00000360: dc33 6cbd e401 df3c 0620 de3b 00aa bb3a
00000370: 8cd0 11bd dc88 b13c e9fb 22bc f267 783c
00000380: ddea 243d c464 3ebd 4eaf c23c 3083 2ebc
00000390: 6859 a8bc bb45 c8bc 7954 b4bc 40af 8cbc
000003a0: 4358 93bc cf48 463a 5090 9c3c 8a17 15bd
000003b0: e07a 053d 624b 723d 9274 753d 6818 8bbd
000003c0: 3087 90bc 1e0e 21bd 987d fabc 8795 84bd
000003d0: ed69 253d b892 093c 08dd c33c 40ce 80bc
000003e0: 06a0 51bd 568f 04bd 3eac 443d 1c4f 5ebd
000003f0: 76b4 243d 9fd0 13bd eba5 63bc f37d c13c
-0.036321294 -0.0009628385 0.005373832 -0.05531141 0.023184612 -0.023297437 -0.042246528 -0.0031843185
-0.059830215 0.035279654 -0.03833466 0.02480874 -0.05346743 0.002126664 -0.036766108 0.027907051
0.045474794 -0.03950623 0.018323243 0.051151387 0.0025856798 0.044476762 -0.06547203 0.026551642
-0.033522498 -0.029338432 -0.036950063 -0.03741172 0.052060295 0.039321303 0.053797893 -0.0107436525
0.0046257377 -0.034435187 -0.050086662 0.02545612 0.04912021 0.022469107 -0.057448834 0.019809058
-0.03320241 -0.02610222 0.044694025 0.04618787 0.0032537542 0.058252335 0.0263984 -0.0015676469
0.025682047 -0.04734972 0.031462044 -0.01647679 -0.015182164 0.03834868 0.04609098 -0.0530382
-0.038790204 -0.033342063 0.04102947 -0.004575725 -0.022803158 0.02571445 -0.040458806 -0.046304405
0.04022377 -0.060347147 -0.036779232 -0.033463813 0.032190442 -0.0467075 0.006656938 0.040854365
-0.010032884 -0.009268895 0.043985717 -0.06400468 0.044510506 0.0014063803 -0.054593533 -0.0037228167
0.053706132 -0.003711189 0.032850876 0.056836434 0.029924728 -0.0489753 -0.04398773 -0.042348456
-0.054618645 -0.005043477 -0.0043733967 -0.056001157 -0.040471718 0.03017383 -0.054394968 0.044138048
-0.023356035 -0.018447299 0.018029088 -0.04366369 0.029451886 -0.023535492 0.06208779 -0.050581545
0.002760307 0.013161927 -0.023797985 0.03711792 -0.03285087 0.018632555 6.304879e-06 0.04792459
0.007473886 -0.062274165 0.042904634 0.052905675 -0.03901361 0.05013458 0.001132808 -0.002087829
-0.004740675 -0.010512102 0.032400116 0.018969037 -0.019529447 -0.014775622 -0.020220347 0.036342867
-0.03004153 0.019385537 -0.013510446 -0.06175608 -0.023218378 0.040136144 -0.040157992 -0.022269735
0.05574491 0.027185833 0.024291709 -0.02326721 -0.059514113 0.0075528473 0.0024010688 -0.046768397
-0.05081337 0.02521571 0.0049623097 0.03247151 -0.051966734 -0.028308459 -0.017448962 0.00964274
-0.02300999 -0.06432171 -0.0039996747 -0.03220328 -0.019283943 0.0378069 -0.015122917 -0.016422633
-0.04234004 -0.067802556 0.028684065 0.03482618 -0.023361346 -0.008554363 -0.027419602 -0.00026512556
-0.011549912 -0.012300342 -0.064679936 -0.056462727 -0.0008873511 0.04833006 -0.014309012 0.007737968
-0.04081032 0.024391308 -0.0013722344 -0.063127786 -0.064202346 0.0046208436 -0.009624454 -0.045996178
0.0274041 -0.043881055 -0.005155638 0.04992872 0.012756661 0.04887434 0.026328687 0.016754135
-0.0257878 -0.0035740184 -0.052558564 -0.018884463 -0.04284519 0.016183406 -0.041998155 -0.013723702
-0.044782996 0.004471274 -0.00026617126 -0.027871968 0.04114835 0.040322192 -0.035660658 0.033466347
0.02220962 -0.0019436255 0.0028177276 -0.04954712 0.018750496 -0.0341458 0.017298099 0.05283528
-0.057666644 0.027222581 0.00677872 0.0014317632 -0.035599276 0.021671705 -0.009947755 0.015161501
0.040263046 -0.046482816 0.023765232 -0.010651395 -0.020550445 -0.024447313 -0.022012936 -0.01717341
-0.017986422 0.000756395 0.019111782 -0.0363994 0.032587886 0.059153922 0.059925623 -0.067917645
-0.017642587 -0.039320104 -0.030577466 -0.064738326 0.04038422 0.008396797 0.023909107 -0.015723348
-0.051178 -0.03236326 0.048015825 -0.054274663 0.040211163 -0.03608763 -0.013894538 0.023619628

fc2.bias f4 [256]
00000000: b4ec 0b3d 5106 4bb9 b092 d73f 83c5 bbbc
00000010: 839a 503e 9cab 0840 8f3a d73e f487 803e
00000020: ca0d 5abd ae6a b73e 068e 0b3e 96b5 243f
00000030: fc7a 8b3e 4eef f23e 5c95 6f3e 75a1 d03e
00000040: 6b90 663f cb5d f13c 9daf 54bd f7d9 82bc
00000050: 9bd2 b33e 8888 173d 621a f93b 3e8c fd3e
00000060: 301f 87bc 6912 6b3f 818c 693f a210 0a40
00000070: aa71 253f 00b6 a33f 5770 ea3c a1a9 c03e
00000080: 79d5 373c 2a74 4b3d 19aa 1dbd ced3 2e3f
00000090: a674 ed3c f0f0 773c 8df4 5abd 8c08 0440
000000a0: bf48 363c 0060 b83d 86f2 1d40 5c80 68bd
000000b0: bc8a 8f3e 831e a9bc 3c5d c73e 2868 bb3c
000000c0: 99c0 773f e092 e63f 4468 6c3d 3a62 de3e
000000d0: 76e8 f03c ef55 9e3c c462 ad3f bd1a 3a3f
000000e0: 91d3 633f ee6d 353f 21f4 b73c 6b6a 123f
000000f0: 7e01 86bd f1fe dcbc 6b05 b93e 397c 763e
00000100: d047 8abb e05e af3f cc89 0f3d f444 c43f
00000110: 6a62 363d 4af4 693e e625 a53f bd55 f43e
00000120: 3ac9 db3e 995a af3f 95c8 ef3e ec8a 16bd
00000130: 94f6 373d afd2 f93c 2645 86bc 6d44 5b3f
00000140: 607e 7e3f ab2d e13e e85b ce3e 2e99 953e
00000150: 828d 5f3f 315a d33f 3c1f 0a3e 9c90 333f
00000160: 2f22 1c40 aef9 39bd 45ac 58bb 04d7 d73e
00000170: 2200 943e 6e33 f0bc 2858 b33e 59ce cf3f
00000180: 3ace 36bd 0004 e13b df04 f73c 32f5 89bc
00000190: d0fe 0bbc 07dd 72bc 6202 da3f ec75 a03f
000001a0: c35c 6c3b 974c d1bc 0f4c e93e 6ca1 df3d
000001b0: 7be8 7abd 84f0 6b3e 09c1 be3e 57bd 033f
000001c0: 3717 fabd 4402 f03f 8511 c23e 45b9 933d
000001d0: da51 9a3f 4ead 473d d589 1640 c54f 9e3e
000001e0: a028 b23f 2ade 003f 10a1 b73e 1f29 143f
000001f0: 76a0 173e a0e6 be3e b212 943e 3dbd 6b3e
00000200: a04e 3a3f 3342 f33f 5349 1f3d 9196 1e3d
00000210: 3c1b ee3d cc40 2ebd f199 303f ee37 bbbc
00000220: 26c2 ba3e 20d5 01bd e665 403d e6d8 803f
00000230: bcd9 2fbc bd65 4c3f 5ef5 543c ffd6 0440
00000240: 8f11 c23e bbc6 9d3c a5b2 39bd a21d 09bd
00000250: 355f 85bd 4eb5 1bbd 6df5 e83c f61e 693e
00000260: a29f dd3e 84d1 693d cff8 2abd ac43 d43b
00000270: 5327 70bd f624 903e db66 6fbd 80ef b43e
00000280: cc2d 8e3f eceb 2cbd a6ee 22bd 2cfc 5cbd
00000290: 1c8c 8b3e 26ab 003f 443c c3bc 7991 acbd
000002a0: 64c3 be3f f40a 233f eea3 e43f 2623 86bc
000002b0: 4254 67bd 3bde 3c3f 9b6a f03d a5d0 463e
000002c0: d3ea 8dbb 1f0d fdbc 994a d13d d069 d83e
000002d0: 14ba 64bd 8e82 80bd 4739 d13e 5fbb 9f3e
000002e0: 3320 cc3e 3dc3 4ebd aa31 d83f f05f f83c
000002f0: 14dc 923f cd57 003f 4007 15bb 52fc f13e
00000300: 6d28 d9bb 0ca4 843e 3cc9 1740 c7f5 1f3f
00000310: 2e0c de3f 29aa d13f 710b 273d 0f26 923d
00000320: c297 c53e 867c e93e 98b3 cb3e 626d 05bd
00000330: 62a3 df3e 1009 6c3f 51e3 e93e 8988 d0bb
00000340: d3ce 2f3f 2c73 163e 497a 41bb 08d5 b83e
00000350: 6e55 863f 737d d7bc cb52 cc3d f0a1 64bd
00000360: 640d 143f 1025 ab3e a852 853e 5968 013f
00000370: 3465 52bd c2d5 d1bc d3e2 75bd eaf6 d13e
00000380: 7d4a c4bc 6b6c b93e 958f cdbe 33a6 53bc
00000390: af7b a93e ad7c 8c3f 1d97 753f 19a7 d03f
000003a0: 5c43 9bbe 693a 073f 1265 243e ed3a ad3f
000003b0: e124 7d3e 579b 6938 5737 113d 3a44 123d
000003c0: d8d0 67bd ce16 c63c 3d66 2040 0694 07bd
000003d0: c603 bc3e d34c f43f e5c0 a13d 3558 723f
000003e0: e6aa 56bd a507 033d 1ce4 243f 0878 493d
000003f0: 3f1d 393d 9d6e d73e a39b 483f fb9a e93e
0.034161285 -0.00019361942 1.684164 -0.02292133 0.20371442 2.1354742 0.42036864 0.25103724
-0.053235807 0.35823578 0.13628396 0.6433958 0.27242267 0.474482 0.2339682 0.40748182
0.90064114 0.02946367 -0.05192529 -0.015973074 0.35121617 0.03699544 0.007602022 0.4952106
-0.016494364 0.91824967 0.91230017 2.1572652 0.6462656 1.2789917 0.028618021 0.37629417
0.011220329 0.04967133 -0.038492296 0.6829194 0.028986286 0.015133128 -0.053455878 2.0630217
0.011125742 0.090026855 2.4679275 -0.056763038 0.28035533 -0.020644432 0.3893832 0.022876814
0.96778256 1.8013573 0.057716623 0.43434316 0.029407721 0.019328086 1.3545766 0.7269705
0.889947 0.70870864 0.022455277 0.5719363 -0.06543253 -0.026977034 0.36136946 0.24070825
-0.0042199865 1.3700829 0.035043523 1.5333543 0.04452745 0.22847095 1.2902191 0.47721663
0.4292696 1.3699523 0.4683272 -0.03675358 0.04491289 0.03049597 -0.016390394 0.85651284
0.9941158 0.43980154 0.40304494 0.2921843 0.873253 1.6511899 0.13488477 0.7014253
2.4395864 -0.04540413 -0.0033061665 0.4215623 0.2890635 -0.029321399 0.35028195 1.6234847
-0.044630267 0.006866932 0.03015369 -0.016840551 -0.008544639 -0.014823205 1.7031977 1.2535987
0.0036066032 -0.025549216 0.4556584 0.10919461 -0.061256867 0.23040968 0.3725665 0.51460785
-0.12211459 1.8750691 0.3790399 0.07213072 1.2056229 0.04874926 2.3521626 0.30920234
1.3918648 0.50338995 0.35865068 0.57875246 0.14807305 0.37285328 0.28920513 0.23021407
0.7277622 1.9004577 0.038888287 0.03871781 0.11626288 -0.042542264 0.68984896 -0.022853818
0.36476249 -0.031697392 0.046972178 1.0066192 -0.010733064 0.7984274 0.012997953 2.0756223
0.3790402 0.019259801 -0.045336384 -0.033475526 -0.065123 -0.038014702 0.02843734 0.22765717
0.43285853 0.057084575 -0.04174119 0.0064777937 -0.058631252 0.281532 -0.0584477 0.35338974
1.1107726 -0.04221718 -0.039778374 -0.053951427 0.27255332 0.5026115 -0.023832448 -0.08426184
1.4903378 0.6368859 1.7862527 -0.016374182 -0.05647684 0.73776597 0.117390834 0.19415529
-0.0043309717 -0.030890046 0.102193065 0.4226823 -0.05584152 -0.06274901 0.40864012 0.3119764
0.39868316 -0.050479162 1.6890156 0.030319184 1.1473413 0.50133973 -0.0022739917 0.47262818
-0.0066271336 0.25906408 2.3716574 0.624844 1.7347467 1.6380054 0.040782396 0.07136165
0.38592345 0.45602816 0.39785457 -0.03257502 0.4367934 0.9220133 0.4568124 -0.0063639325
0.68674964 0.14692372 -0.002952235 0.3610003 1.0494821 -0.026304936 0.09976729 -0.055818498
0.5783293 0.33426714 0.26039624 0.50549847 -0.051366046 -0.025614623 -0.06003077 0.41008693
-0.0239613 0.3621553 -0.40148607 -0.012918043 0.33102176 1.0975548 0.95933706 1.6300994
-0.3032483 0.528235 0.1605418 1.3533608 0.247211 5.56962e-05 0.035453167 0.035709597
-0.056595653 0.024180796 2.5062401 -0.03310015 0.3672163 1.9085945 0.0789812 0.94665843
-0.052409075 0.031989712 0.6441057 0.049186736 0.045193907 0.4207658 0.7836248 0.45626053

fc3.weight f4 [81, 256]
00000000: 46d6 5f3d a45b 823c 873b 2b3c f827 273d
00000010: 164f 893c 6c85 90bc 6fe4 14bc 8acd 4fbd
00000020: 7723 e83c a2c9 1c3e 01c3 f03d 4255 8cbe
00000030: 3c91 1c3d cd8e b93c 90a5 023d 0663 8fbc
00000040: 5958 5ebd 87a5 66bd c000 e0bc 198d 533d
00000050: e93d 28be aa9a 7a3d 80cb 0fba dfee e83d
00000060: 8e00 5c3d 33a7 353d ed4c 97bd 5f15 dabc
00000070: a5a8 e83d 1b09 99bd a449 8abc 841c 1d3e
00000080: 75c8 bb3b 7228 f8bb 3cd7 0bbd 0e83 c2bd
00000090: 0040 e1b6 e7ff 55bd c44f b13c fb03 dfbc
000000a0: fe77 42bd 7b48 1f3d 11d9 823d 1838 083c
000000b0: fca7 9cbd 5ff0 d13c 0b43 84bd b01d 65bd
000000c0: 7845 79bd 1af9 f63c 087e 4ebd e430 2e3e
000000d0: ad34 0bbd 80ff 0fbd 94e2 41bd ff0f a1bd
000000e0: c45b 773d 9b32 ba3d 28df 78bd bc6e 6bbd
000000f0: 6023 5c3d 0ebd 693d 3524 f43c 2617 e4bc
00000100: f8f7 dd3c 4d87 97bc 1e13 58bd f4c0 473b
00000110: 4ab7 333d b660 863d f6ca 4f3e 575f 573e
00000120: eafe 343e f734 8e3c 8edc 06bd 462b 533d
00000130: a0d3 573d ec15 a23c c477 a8bc cee8 393d
00000140: 65b2 5f3e 1187 903e 8f92 6d3e d03d 0abe
00000150: 03d4 903d f0fe ccbd 8099 10bd 399e a8bd
00000160: 8a10 be3d f0f4 203c 0342 24bc 81c5 ad3a
00000170: dd6c 0abd e46f 493d 9a35 303e cd49 95bd
00000180: 6ad2 373d 8c75 993c 0c36 523d b835 ee3d
00000190: 3e74 2c3d ac05 2cbd 6ee6 a0bd 27eb 7fbc
000001a0: 5cd7 b0bc 1014 523d ce02 b53c f27c 453d
000001b0: cc1f 5abd 6b09 3f3d 2da7 ad3e b1bb c53c
000001c0: d279 e5bd d4a4 8c3c e39c 2a3d 4405 02bd
000001d0: 00c5 bebd 3818 953b 772f 933a 3366 383e
000001e0: 09ae 54bd 3bf9 ad3d 6171 8a3d 3c7b 8b3d
000001f0: ceae 153e bcc3 363d 28db 8b3e 5759 8f3e
00000200: 900c 0a3e 8900 e8bc 92a9 1f3d cc27 5f3d
00000210: 1c39 893d 4e4e 5a3d 0229 0b3e 54a7 213d
00000220: 1606 27be eca0 33bd e00b 95bb b971 283c
00000230: 5397 333a c213 1c3e 6a54 4d3d 64c9 27bd
00000240: f12c 133d 4c1b d73c 49ca 72bd b208 4fbd
00000250: 76d0 21bd 96ba 46bd 2836 883c 0181 aabd
00000260: 973a b4bc af42 c2bd 6a1d 76bd 6041 05bc
00000270: e04f 153d 869e 58bd 9cbb 153d 7fe0 803d
00000280: f3fe ac3e 381c b9bc fe71 663d 78ea a63c
00000290: 314f 093e 55ee 9d3d 40c7 e3bc c3a4 68bc
000002a0: b2ff c9bd a8ac 103e 1c26 10bd d252 e6bc
000002b0: 140e e0bc ff49 273e 4314 183d dcc8 f43c
000002c0: 99fa 1ebd a05b d93b 73a8 d03d 1282 553d
000002d0: 8c6b babc e0cd 36bd 8cf5 89bd 3dbf 153e
000002e0: 98db b6bd 9633 1cbd 0c7a d03c 8c1f 42bc
000002f0: 1130 603e 0f7d 77ba 2047 963b b9a3 ecbd
00000300: e03a bdbb 92a4 8ebd 54e9 233d 211d 033e
00000310: 71c6 cbbd 00f8 46bc 16ca 09bd d1e2 083d
00000320: e431 3abe df9b 49be a131 8dbd 50b9 be3c
00000330: 2224 28be 4481 03be 6baf b33d 3297 6fbd
00000340: 9af1 283e e20a 813d 0975 183b e27e 613c
00000350: e2c9 c1bc 3663 6c3c ae06 3a3d e88c a3bc
00000360: 5e80 243d a5d5 6c3e 461b 833d 555f 07bd
00000370: 1b16 9d3c 17c9 65bd 9ccf a5be f428 973d
00000380: fc31 dabc f94d abbd c197 373e 4872 033d
00000390: 7b18 53bd db6c d8bd a1ed a43e 6b46 acbc
000003a0: 7b3a 8ebe bbee 87be e986 f4bb ae3f afbd
000003b0: 73bf 833d 4623 023d 7006 b2bb 27ab 403d
000003c0: 38f0 103c d8f4 d2bc 7475 443d 0cbf 3bbd
000003d0: a839 7f3d 4280 b63c e473 b33c 6f84 22bd
000003e0: 348a 00bd 8fe7 d23b 961d 6ebe 606b 023c
000003f0: e00e c33c 4f1e b43b 5580 1fbd af92 6eba
0.054647706 0.015912838 0.010451204 0.0408096 0.016761344 -0.017641746 -0.009087666 -0.050733127
0.028337223 0.15311292 0.11755944 -0.27408797 0.038224444 0.0226511 0.031896174 -0.017503273
-0.054283474 -0.056310203 -0.027344108 0.051648233 -0.16429867 0.061182655 -0.0005485341 0.11373686
0.053711466 0.044348907 -0.07387719 -0.026621519 0.113602914 -0.0747244 -0.016880818 0.15342909
0.0057306834 -0.007573181 -0.03414081 -0.09497653 -6.712973e-06 -0.052246 0.02164448 -0.027223578
-0.047477715 0.038887482 0.063890584 0.008314155 -0.07649228 0.025627313 -0.064581 -0.055936515
-0.060857266 0.030148078 -0.05041316 0.17010838 -0.033985782 -0.035155773 -0.047335222 -0.07864379
0.06039025 0.090916835 -0.060759693 -0.05747865 0.053744674 0.057065062 0.029802421 -0.02784307
0.02709578 -0.018497134 -0.052752607 0.003048 0.04387597 0.06561415 0.20292267 0.21032463
0.17675367 0.01735924 -0.03292518 0.05155494 0.052692056 0.019785844 -0.020564921 0.045388035
0.21845396 0.28228047 0.23200439 -0.13500142 0.07071688 -0.10009563 -0.03530264 -0.082333036
0.09280498 0.009824023 -0.010025504 0.0013257713 -0.033795226 0.049178973 0.17207947 -0.07289467
0.0448784 0.018732809 0.051321074 0.1163134 0.042103045 -0.041997597 -0.07856451 -0.0156200295
-0.021587066 0.051288664 0.022096064 0.04821486 -0.05325298 0.04663984 0.33916607 0.02413735
-0.11204876 0.01716844 0.041653525 -0.031743303 -0.093149185 0.0045500062 0.0011229356 0.18007736
-0.051923785 0.084948026 0.067599066 0.068106145 0.14617464 0.04462026 0.2731564 0.27997848
0.13481355 -0.028320568 0.038980074 0.054481313 0.06700346 0.053297333 0.13589862 0.039466217
-0.16310915 -0.04385464 -0.0045485348 0.01028102 0.0006850857 0.15241912 0.05012933 -0.040963545
0.03593153 0.026258133 -0.059274945 -0.050545402 -0.039505444 -0.048517786 0.016627386 -0.08325387
-0.022000594 -0.09485375 -0.060086645 -0.008133262 0.036453128 -0.052885555 0.03655587 0.06292819
0.3378826 -0.022596464 0.056261055 0.020375475 0.13409115 0.07711474 -0.02780497 -0.0141994385
-0.09863223 0.14128363 -0.035192594 -0.028115664 -0.027350463 0.16336821 0.037128698 0.029880933
-0.038813207 0.006633237 0.10188379 0.052125998 -0.02275636 -0.04462993 -0.067362875 0.14623733
-0.08928603 -0.038135134 0.025448821 -0.011848342 0.21893336 -0.00094409374 0.0045861155 -0.11554665
-0.0057748407 -0.06964983 0.04001744 0.1280408 -0.09949959 -0.012144089 -0.03363999 0.033419434
-0.18183094 -0.19688366 -0.068942316 0.023281723 -0.16420034 -0.1284228 0.08773693 -0.0584938
0.16498414 0.06300904 0.0023263118 0.013763161 -0.023655836 0.014427951 0.045416526 -0.01996465
0.040161483 0.23128374 0.06401686 -0.0330499 0.01917558 -0.056099977 -0.32384956 0.07380858
-0.026635163 -0.083644815 0.17928983 0.03209141 -0.05153702 -0.105676375 0.32212546 -0.021029672
-0.27778992 -0.26549324 -0.0074623716 -0.08557068 0.064330004 0.03177192 -0.0054328963 0.047038224
0.008846335 -0.025751516 0.047963575 -0.045836493 0.062310845 0.022277955 0.021905847 -0.03967708
-0.0313818 0.0064362953 -0.23253474 0.0079601705 0.023810804 0.005496777 -0.038940746 -0.0009100837

fc3.bias f4 [81]
00000000: 4295 d03c a533 6b3e fb64 c9bd b083 603e
00000010: e684 253e 4d5f 873e d6b7 0f3e 77ed 7f3e
00000020: 8412 5b3e c35f ba3e c101 7fbe 76e3 2c3e
00000030: fbeb cf3e d0a1 f73e bd8e e23e 0e7a 1f3f
00000040: 7d5a bf3d 3be8 983d 5f70 503f 3f49 d73e
00000050: 9774 c03d 0534 8bbd 3aba ff3e db0d 353e
00000060: 7fce 433f a35b ce3e 76f3 8b3f 5265 cf3d
00000070: dabf 833e b38b af3e 00f7 9a3e 500a 4e3e
00000080: a828 b83c fbc0 7d3e ecce 663e 98b3 723e
00000090: 1c6c 533e 8907 e43e 1f6d a73d a594 933e
000000a0: feb4 d03c 1a39 023f 0f84 2d3e 0d88 953e
000000b0: 5911 313e 592a 683c 3555 813f f2ef d43d
000000c0: 069b 8f3e f008 e73e e521 383e 083c b73e
000000d0: 6b0f 913e 9f07 5b3e 3914 28bd db5b 0a3f
000000e0: 64ea 553d 1fec db3e 0d9f 0f3f 6dcd f73d
000000f0: c5f0 653e 68c3 3a3f 478e 253f 0bda 20be
00000100: 0e34 8f3e f74e 013f 19d6 de3e 9f0b 103f
00000110: ead3 823e fdf8 183f db36 fa3d 9cfe f13d
00000120: bfb8 303f 46d3 973e 1aa1 e13e b93d 183f
00000130: b430 fd3e d25f e63d cc93 463e 1d6c a43e
00000140: 46ed 973e
0.025461797 0.2296892 -0.098337136 0.21925235 0.16163978 0.26439896 0.14034972 0.2499293
0.21393782 0.36401185 -0.24903013 0.16883644 0.40609726 0.4836564 0.44249526 0.62295616
0.09343431 0.074661694 0.81421465 0.4204807 0.09397238 -0.06797031 0.49946767 0.17681067
0.76486963 0.40304288 1.0933673 0.10126747 0.2573231 0.3428627 0.3026657 0.20121121
0.022480324 0.24780647 0.22539872 0.23701322 0.20646709 0.44537 0.0817511 0.28824344
0.025476929 0.5086838 0.16944908 0.2920536 0.17291774 0.014170253 1.0104128 0.103973284
0.2804796 0.45124006 0.1798168 0.35787988 0.28332075 0.21389626 -0.04103491 0.5404641
0.052225485 0.42953584 0.5610207 0.12099729 0.22455128 0.72954416 0.64670223 -0.15708177
0.27969402 0.50511116 0.4352272 0.5626773 0.25552303 0.59754926 0.12217494 0.11816141
0.690319 0.29653376 0.44068223 0.5946918 0.4945122 0.11248745 0.19392318 0.32113734
0.29673213
