code/outputs/EV_Charging_Pricing/20220908-205026/models/dqn_checkpoint.pth (torch, 354981 bytes, 6 tensors)

fc1.weight f4 [256, 5]
000000 8b 92 03 bf d9 16 f5 3d a7 f7 7c 3e 28 7f f1 3e
       -0.5139548 0.119672485 0.24703847 0.47167325
000010 47 8d 91 3e 08 0f 1c 3f ce b8 0e be 8b 96 73 bf
       0.284281 0.60960436 -0.13937685 -0.95151585
000020 7d 85 d0 be c8 af 93 bf a6 c4 a5 bc 7c de 0d 3d
       -0.40726843 -1.1538019 -0.02023537 0.034636006
000030 9c 01 b5 3f 6c 0b f2 3e 4f bf 04 c0 51 be ea 3e
       1.4141116 0.4727434 -2.0741765 0.45848325
000040 37 76 3e be 77 bd a8 bf 3e 6a 4c bf ce d2 a9 bf
       -0.18599783 -1.318282 -0.7984961 -1.3267457
000050 f5 06 ac be e4 14 20 3e c4 15 27 3f cc 45 99 3f
       -0.33599058 0.15632969 0.65267587 1.1974425
000060 0f 0d ad bd 26 88 01 be 03 b0 b6 be e6 16 dc be
       -0.08449756 -0.12649593 -0.3568116 -0.4298622
000070 d0 56 c6 3d 0d a3 83 bd 27 63 db 3d b9 73 c7 be
       0.09684527 -0.06427584 0.10712271 -0.38955477
000080 e5 cc d2 3e c0 23 91 be 6e 85 14 be 7d bd 02 3f
       0.41171947 -0.28347588 -0.14504024 0.51070386
000090 57 54 8b 3e 8a e4 d7 3e 2f 0d dd be 18 33 0f c0
       0.27212784 0.4216655 -0.4317412 -2.2374935
0000a0 3e 5d b5 3d 50 13 fc be 41 dc 1b 3e e0 de 57 3e
       0.08855675 -0.49233484 0.15220739 0.21081114
0000b0 f8 dd ae 3d 92 fa 7d be 83 3f 8f 3e 5b 2a a1 3f
       0.08538431 -0.24802616 0.27978143 1.2591051
0000c0 ec ec ce bd 8b 7e 46 3f 3c c6 96 3b 01 03 b9 bc
       -0.10103783 0.7753684 0.004601268 -0.02258444
0000d0 0b 0a a0 3f 1d 1b f1 be 00 a2 4e 3f ac c7 a6 be
       1.2503065 -0.47090998 0.8071594 -0.32574213
0000e0 b0 49 6a be 53 3a 6f 3e 41 20 55 be 25 82 14 be
       -0.22879672 0.23362093 -0.20813085 -0.14502771
0000f0 0e 40 8c 3e 00 67 0d bc bc 47 8e 3f ee 68 e8 3e
       0.2739262 -0.008630514 1.1115642 0.45392555
000100 3b 21 a0 bf c1 bb 9b bd 0d 55 be 3e 1b 35 10 3f
       -1.2510141 -0.076041706 0.37174264 0.5633103
000110 33 fb 7d 3d 87 ed 86 3f 19 76 84 be 2a 61 22 3e
       0.06200714 1.0541238 -0.2587135 0.15857378
000120 59 32 bb 3f e7 85 62 3f cd 63 25 bf 68 91 68 3e
       1.462474 0.8848557 -0.6460541 0.22711718
000130 2e 06 64 3e a8 4c 34 3e 07 64 17 3f 83 64 20 3f
       0.22267982 0.17607367 0.59137005 0.6265337
000140 a7 e0 5f be 34 3d 1a 3e 9d 49 f1 3f 51 34 ac 3f
       -0.21863042 0.1506241 1.885059 1.3453466
000150 1d eb bd be ef 0f 2d be 1d f7 0f 3e 86 9b a4 3f
       -0.3709344 -0.1690061 0.1405911 1.2859962
000160 5e 25 07 3f a3 ae 74 3f 73 9d d6 be f8 15 8c be
       0.5279139 0.95578974 -0.41917 -0.2736051
000170 ba 4d 40 3e 58 90 89 bd 61 ad a6 3e ed 3b 35 3f
       0.1877965 -0.067169845 0.32554153 0.70794564
000180 33 99 9d 3f 0d e5 29 40 c8 4e 37 3f 58 73 8d 3f
       1.2312378 2.6546052 0.71604586 1.1050825
000190 90 6c 23 3f d4 72 4b 3d 6a 12 02 3e 84 3b 3c 3f
       0.6383753 0.049670056 0.12702337 0.73528314
0001a0 d7 e9 3e 3f f5 b8 72 3f 01 8f 9c 3f 47 9c a6 3e
       0.7457556 0.9481347 1.2231141 0.32541105
0001b0 0b 53 c7 bd 89 e2 9a 3f 18 39 92 3d 6c 7e 42 3f
       -0.09732636 1.2100383 0.07139796 0.75974154
0001c0 c0 7c a0 3f 6c 52 1f 3f ba e6 95 3f 2c 0b 9c be
       1.2538071 0.6223514 1.1711037 -0.30477273
0001d0 54 45 ba be cf ca 9e 3e d1 29 67 be 5a 4f fe 3d
       -0.36381018 0.31014106 -0.22574545 0.12417479
0001e0 99 51 32 3f e6 a8 36 3f 87 e8 89 bf 5b c7 5d 3e
       0.6965576 0.7135147 -1.0774087 0.2165808
0001f0 18 f4 f2 3f 0f 6f c5 3e b0 e4 7c be bc 39 c0 bf
       1.8980742 0.38561293 -0.24696612 -1.5017619
000200 f0 bb 45 bf d7 cf de be 57 27 92 be 32 f1 08 3e
       -0.77239895 -0.43517944 -0.2854564 0.13373259
000210 71 c0 ce 3d 54 60 43 3f 31 92 91 3f 53 85 95 be
       0.10095299 0.7631886 1.1372739 -0.2920328
000220 f4 36 bf be 99 d0 b1 3e 7a 24 ab bd a6 6c 07 be
       -0.37346613 0.3472946 -0.08356567 -0.1322504
000230 11 80 6d be 58 68 f5 be 40 93 a2 be 81 6d 84 3d
       -0.23193385 -0.4793117 -0.31752968 0.06466199
000240 14 9f a0 bc 57 93 81 3e 17 5a 78 3e ce 43 45 3f
       -0.019607104 0.25307724 0.24253117 0.77056587
000250 73 e4 90 3e 5f 99 9c 3f 6c 34 04 3f 63 b4 03 be
       0.28299293 1.2234305 0.5164249 -0.12861781
000260 97 67 73 bf e5 cd 30 bf e4 e2 53 bf 72 6a 11 be
       -0.9507994 -0.6906417 -0.8276808 -0.14200762
000270 10 4a 00 bf 10 0d a5 3e 65 e8 07 bd 88 82 50 3c
       -0.5011301 0.32236528 -0.033180613 0.012726434
000280 5f 99 a5 be 28 1e 46 3e ff be 24 3e 4a 52 64 3f
       -0.32343575 0.19347441 0.16088484 0.89188063
000290 1d cb 09 3f c6 a0 17 3f 5d 3d 12 3f 0b dc 58 be
       0.5382555 0.59229696 0.5712488 -0.2117769
0002a0 48 a7 5b 3f 0c 69 15 40 a7 cf 1f be 0e fe 00 3e
       0.85802126 2.3345366 -0.15606557 0.12596914
0002b0 82 d8 39 3f 3c 58 fa 3e 3d ff 3a 3f a6 a2 31 be
       0.7259599 0.48895442 0.7304571 -0.17347202
0002c0 d0 3f e1 be 9e cc a1 3e 27 02 5d be 5c e2 75 be
       -0.43993998 0.31601423 -0.21582852 -0.2401213
0002d0 13 6f 10 3e 07 ac 8c be 23 6a d2 3e 22 93 d1 be
       0.14104871 -0.27474996 0.410966 -0.40932566
0002e0 c3 53 83 3d d5 4c fa 3e 8b 76 27 3f 98 b0 e7 3f
       0.06412461 0.48886743 0.6541526 1.8100767
0002f0 ce 9e 09 40 3a 46 2d bf ee f6 35 3f 97 4d 9f 3e
       2.1503177 -0.6768528 0.7107991 0.31113884
000300 e7 37 f2 bd 76 f7 b7 3d 92 3d 3e 3f 6c b3 d6 bd
       -0.11827069 0.08982746 0.743127 -0.10483441
000310 4e 5b be be 65 68 04 bf 53 f9 a1 be 63 0d 83 3d
       -0.37179035 -0.51721793 -0.31635532 0.06399038
000320 dd ab 26 3f e9 03 73 3f 5b ba ef 3f 47 b9 86 3f
       0.6510599 0.9492784 1.8728746 1.0525292
000330 73 07 01 40 a9 47 0d bf 61 41 be be 76 13 31 3d
       2.0160797 -0.5518747 -0.37159255 0.04323145
000340 fc e3 c1 bd 32 c3 e2 bb ef 55 85 3e 16 34 11 3f
       -0.09467313 -0.0069202418 0.26042125 0.567201
000350 2d 48 f7 3f 34 46 e7 3f 13 f8 29 bf 54 fa f5 3d
       1.9318901 1.8068299 -0.66394156 0.12010637
000360 f8 9d 94 be 1d 4e fe bc a1 56 1e be de b6 c6 be
       -0.2902677 -0.031043107 -0.15462734 -0.38811392
000370 b9 11 fb 3e ea 69 48 3f 68 31 1a 40 a3 a2 1c 40
       0.4903696 0.7828661 2.4092655 2.4474266
000380 af e7 34 3e 02 28 98 3e 84 87 aa bd ea a7 ae 3f
       0.17666505 0.29718024 -0.08326629 1.3644993
000390 30 24 9c 3e 8c c6 dd 3e a6 92 94 be 24 36 da be
       0.3049636 0.43315542 -0.29018134 -0.4261943
0003a0 4a c4 a3 3e d9 b6 c3 bd 6f 77 aa 3d 04 10 cf 3d
       0.31985694 -0.0955636 0.083235614 0.101104766
0003b0 55 5d db 3e ff 61 32 40 23 08 b4 3f f1 e0 3b bf
       0.42844644 2.7872312 1.4064983 -0.7339011
0003c0 a9 82 a9 3e 2e ab f9 bd 1d 61 9a bf 30 15 2a bf
       0.33107498 -0.12190853 -1.2060887 -0.6643858
0003d0 fe 3e 53 bf 12 b3 d7 be 8b ba 65 be 7f 74 d1 be
       -0.82517993 -0.42128807 -0.22434442 -0.40909192
0003e0 16 8e 65 be 02 f0 a4 3e f1 3d 8b be c1 d3 c5 bd
       -0.22417483 0.3221436 -0.27195695 -0.096595295
0003f0 86 0a 5e bd 39 7e c5 bd 8d 6c 83 3d ef 23 4e 3d
       -0.054209255 -0.09643216 0.06417189 0.050327238

fc1.bias f4 [256]
000000 b2 1a 02 3f c1 80 9b bf 1f 00 56 3e 06 f2 55 bf
       0.50821984 -1.2148668 0.20898484 -0.83572423
000010 32 fb 6e 3d a5 d3 93 3c 7c c1 a2 be 1f dc 12 bf
       0.058345027 0.018045256 -0.31788242 -0.5736713
000020 f2 4b d9 bd 3b 99 12 40 0f a9 e9 3f 3f ca cb be
       -0.106101885 2.2906024 1.8254718 -0.3980274
000030 59 47 52 3d 93 34 1d 40 53 27 b1 3e d9 9b 2e bf
       0.051337574 2.4563339 0.34600314 -0.68206555
000040 13 9e 8a 3e 32 a2 fc 3f dd 27 cd be f6 76 f3 3f
       0.27073726 1.9736998 -0.40069476 1.9020679
000050 4f 47 29 bf e9 c1 81 3f d2 4a 02 40 99 e6 1c be
       -0.66124433 1.0137302 2.0358167 -0.15322341
000060 60 45 80 3f 88 ef ad bf da 28 dc be e3 47 62 3d
       1.0021172 -1.3588724 -0.42999917 0.055244338
000070 58 c9 93 3b 5c 1c 12 40 1a e6 95 bf 1e a3 85 bc
       0.004510086 2.282981 -1.1710846 -0.016313132
000080 9f 32 cb be 8e c3 46 3f ee bb e4 3f 96 05 a5 39
       -0.39687058 0.7764214 1.7869852 0.00031475414
000090 a8 b6 a3 bd 27 2f 51 3f 3c 3f 0b bf a1 4d a2 bd
       -0.07993823 0.81712574 -0.54393363 -0.07924963
0000a0 6e 1e 33 40 e2 ea d8 3a 60 2b 80 3f 1c 00 36 bd
       2.7987323 0.0016549493 1.0013237 -0.044433698
0000b0 b2 82 8e 3f 54 cf 06 40 17 c0 d3 bd a9 6e 66 3f
       1.1133635 2.1064043 -0.103393726 0.90012604
0000c0 d5 30 65 bf 98 78 cb be d7 93 86 be b0 cb f5 3e
       -0.89527637 -0.39740443 -0.26284668 0.48006964
0000d0 5c 4b 3a bf 53 e6 13 bf bf 48 94 3e 2f d2 25 bf
       -0.7277124 -0.5777332 0.2896175 -0.6477384
0000e0 84 5e cb be 35 6a 1e be cf c7 23 be ad 8d 96 bd
       -0.39720547 -0.15470202 -0.1599419 -0.07351241
0000f0 58 3b 9b bd dc 63 58 3f 9b 79 6c 40 00 df e5 3f
       -0.07579678 0.84527373 3.6949222 1.7958679
000100 2e 1c 00 40 7d 14 32 3d fc d2 5c 3f a6 e2 0d 40
       2.00172 0.04347657 0.86259437 2.2169585
000110 12 0c 5c 3f 12 b5 fd bd d1 73 2d 3e 99 0e 79 bf
       0.8595592 -0.12388052 0.16938712 -0.972879
000120 fd d6 84 be f1 af 92 bf c3 bf c4 be a1 5f d7 3e
       -0.25945273 -1.1459943 -0.38427553 0.42065147
000130 d1 f8 60 bf 5a 24 d2 be e0 85 85 3c c1 1d a8 3e
       -0.87879664 -0.4104336 0.016299188 0.328352
000140 64 21 a2 be d0 5b 0a 40 42 16 93 be 8e 8c c0 be
       -0.316661 2.1618538 -0.2872792 -0.37607235
000150 67 70 3d 3f 18 ef 01 40 68 ea 29 bf 67 64 fc bd
       0.7399964 2.0302181 -0.663733 -0.12323838
000160 d0 af a7 be d4 ef 4b 3d 02 05 7d bf 56 f6 2b 3f
       -0.32751322 0.049789265 -0.98835766 0.67172754
000170 9d 85 1e 3d e7 44 d3 be ff e7 16 bf 8e bd 22 40
       0.038701642 -0.41263506 -0.5894775 2.5428195
000180 7c 4c aa be dc d0 2e be 4c 28 b0 bf d9 0e 0d 40
       -0.33261478 -0.17071861 -1.3762298 2.2040312
000190 5b c7 46 bf be c7 0e 40 7c 0d 18 40 9b 7f c8 be
       -0.7764794 2.2309413 2.375823 -0.39159855
0001a0 4b 54 18 be 5d ab eb 3f dd 33 01 3f 99 3e 03 40
       -0.14875905 1.8411671 0.5046976 2.0506957
0001b0 42 8a 82 bf 62 55 cc 3f 1c 86 0c 40 d4 b8 5e 3e
       -1.0198443 1.5963557 2.1956854 0.21750194
0001c0 02 d1 ed 3f 3c 6d b4 be aa 84 2d be cc 27 00 40
       1.8579409 -0.3523959 -0.16945139 2.002429
0001d0 22 9c 03 bc 36 ee ed 3f de 5d 20 bf 22 81 3f 3f
       -0.00803283 1.8588321 -0.6264323 0.74806416
0001e0 1d 37 5f bf 0b 0c 11 40 3c 9d 0e be d6 90 34 40
       -0.8719347 2.26636 -0.13927168 2.82134
0001f0 77 4a f6 3e 5c 8a b3 be 2b 31 b0 3f 94 53 48 be
       0.48103687 -0.35066497 1.3765005 -0.19563133
000200 b7 85 62 3f 30 9d 1b 3f d3 34 36 3f 75 f2 dc 3f
       0.8848528 0.60786724 0.71174353 1.7261492
000210 4f 77 ad be d1 75 1c 40 f7 f8 a1 3e 50 25 a0 3e
       -0.33880088 2.444691 0.31635258 0.31278467
000220 e9 9c 40 40 ba 9e d3 3d ce 8d 00 bf 32 b0 b7 bf
       3.009577 0.10333009 -0.50216377 -1.4350646
000230 06 f6 7f 3f 34 90 82 bf b4 70 13 be a3 35 11 40
       0.99984777 -1.0200257 -0.14398462 2.2688987
000240 0b 87 a0 be 7a 21 a2 be 9b c7 69 3b 7d 8c d0 3c
       -0.3135303 -0.31666166 0.0035671953 0.025457615
000250 5d ac 08 3f 04 b1 01 40 cf 09 03 bf 0e 4b c6 be
       0.53388005 2.0264292 -0.5118684 -0.38729137
000260 b7 7f e7 3f d4 00 24 3f fd 49 39 be 58 53 a2 3f
       1.808585 0.64063764 -0.1809463 1.2681684
000270 ee 6f fa bd 24 1f 04 40 58 77 a9 be 76 a9 47 3f
       -0.1222838 2.0644007 -0.33098865 0.7799295
000280 dd 19 0b 40 cd a8 f8 3f 4c 7d 14 bf 52 3f e3 be
       2.1734536 1.9426514 -0.5800369 -0.44384247
000290 98 ab f0 3f f4 a9 1c 3f cb 34 98 be ee c2 00 40
       1.8802366 0.6119683 -0.29727778 2.0118976
0002a0 03 79 0d 40 b4 71 01 40 cb d0 fb be 56 19 d9 be
       2.210511 2.022565 -0.49182734 -0.42402142
0002b0 67 3d 07 40 ce e4 18 bf f6 d4 99 bd 48 4a c1 be
       2.1131227 -0.5972413 -0.07511322 -0.37751985
0002c0 fc 89 07 40 30 ee 78 3e 33 03 4d 40 74 75 29 40
       2.117797 0.24309611 3.2033203 2.6477938
0002d0 4a 8f c7 be 65 84 08 3f 11 62 4d 40 f4 fe 1c be
       -0.38976508 0.5332702 3.2091105 -0.15331632
0002e0 e7 17 04 bf 0a fe a9 be ca dd 98 3d 79 be 04 40
       -0.5159897 -0.3320163 0.07464178 2.0741255
0002f0 d9 74 1e 40 2b ab 1c 40 4c 3f 42 40 59 28 0b 3c
       2.4758818 2.4479473 3.0351133 0.008493506
000300 f8 04 ae bd a3 c2 7d 3d 1b 5a 52 3f 7c 49 1a 40
       -0.084970415 0.0619532 0.8216874 2.4107351
000310 e2 eb 43 3f 96 a9 82 3b 2c 08 6d be 9e 12 fb 3f
       0.76531804 0.0039875014 -0.23147649 1.9615057
000320 c9 00 59 3f 05 1a 8a be 37 50 d3 3f 7b e2 82 3f
       0.84766823 -0.26972976 1.6508855 1.0225366
000330 90 13 19 3d 30 65 9a bf 95 a7 14 bf 6b 00 11 40
       0.037372172 -1.206213 -0.5806821 2.2656505
000340 03 ce 1c bf bb cf 8b bf 08 5b 70 3f cd b9 18 3f
       -0.6125185 -1.0922769 0.938889 0.5965851
000350 07 77 20 40 68 af cf 3d 35 e1 4e be 99 91 d6 be
       2.5072649 0.10140878 -0.20203097 -0.41907957
000360 f6 d9 fe be e2 1d c5 be 91 d6 65 3f 0a bb d5 be
       -0.49775666 -0.3849936 0.8978053 -0.41744262
000370 cd 34 27 3f 79 ff 05 40 88 95 fa bc 3b 50 e0 3f
       0.6531494 2.0937178 -0.03058888 1.7524484
000380 34 b2 04 be c4 91 15 40 7c ce 67 3f 65 07 1f be
       -0.12958604 2.3370218 0.90549445 -0.15530165
000390 bb ab 6c 3f c7 3e f7 be 94 82 2f bf bd d8 96 3f
       0.9244954 -0.48290083 -0.6855862 1.1784893
0003a0 c8 7e 4d be fe 17 32 3f 2e 46 45 3d a4 dd 85 be
       -0.20067894 0.6956786 0.04816263 -0.2614566
0003b0 99 07 39 40 99 0e 1c 40 a3 53 a3 bd 0d 57 2d bf
       2.8910887 2.438391 -0.07974937 -0.67710954
0003c0 27 e5 13 3d 51 be 15 40 85 97 e2 be 1b 8a f6 bc
       0.03610721 2.339741 -0.44256225 -0.03009515
0003d0 9b 0c 4c 40 ea 5c 58 bd 39 f2 4e be c2 3f 7a bf
       3.1882694 -0.052822985 -0.20209588 -0.97753537
0003e0 06 8d d4 be f1 c2 90 be 0f 63 05 3e dc 4e 10 40
       -0.41513842 -0.28273728 0.13026069 2.2548132
0003f0 8b 14 c5 be 00 5f 64 3f f0 87 4c 3f 51 89 33 be
       -0.38492236 0.8920746 0.79894924 -0.17532851

fc2.weight f4 [256, 256]
000000 75 ee 0e 3f 72 55 9c 3d ee ad 37 40 76 d0 a1 be
       0.55832607 0.07633485 2.8699908 -0.31604356
000010 d1 e8 8f 3d 6b 5e bc bd a0 db 71 3b 62 cd ee 3d
       0.07026828 -0.09197696 0.0036904588 0.116602674
000020 be 51 b1 be e1 4a 9c 3e 0d 34 02 3f 28 c0 58 3d
       -0.34632677 0.30525878 0.50860673 0.05291763
000030 a5 4e 15 3f 90 5c 0b 3e 4c b9 70 3e 41 30 2b be
       0.5832313 0.13609529 0.23508185 -0.16717626
000040 54 c2 8c 3e 68 c2 02 3f e7 57 3c bc 99 5e 70 3d
       0.2749201 0.5107789 -0.011495567 0.058683965
000050 02 3a 6e be 4d 8a 4e bd 5c 90 a6 3d 20 82 bd be
       -0.23264316 -0.050424863 0.08133003 -0.3701334
000060 9b df 2e bd b0 6c 1c bf 87 3b 7c bf 42 b0 8e 3e
       -0.042693716 -0.61103344 -0.9852833 0.2786885
000070 12 fa 25 bf e5 90 37 3e 6f 7e 8a 3c 42 70 00 bf
       -0.648347 0.17926367 0.016905991 -0.5017129
000080 cf 37 83 be 12 76 ee bd e5 b9 1c 3f 3e 84 4f bd
       -0.25628516 -0.11643614 0.6122115 -0.050663225
000090 3d df a9 be 25 14 5b 3d 32 c8 57 be c9 d1 06 bf
       -0.3317813 0.05348601 -0.21072462 -0.52663857
0000a0 7e 19 04 3c fe 89 82 be 2a c0 ed 3c 62 d0 36 3d
       0.008062718 -0.25495905 0.029022295 0.044632323
0000b0 ed 74 31 3c 36 3d 97 3e a7 77 bd be 5f de c2 3d
       0.0108311 0.29538888 -0.3700535 0.0951507
0000c0 23 57 67 be 2f 36 7d bd 4e c1 2c 3d be 69 83 3d
       -0.22591834 -0.06181925 0.042176537 0.06416653
0000d0 f1 94 8e be f9 85 b6 3d b2 75 19 3f 98 1d a2 3d
       -0.27848008 0.08912272 0.59945214 0.07915801
0000e0 07 20 90 3e e0 9a 12 3d 49 db ad be 44 ba 69 3e
       0.28149435 0.03579223 -0.33956364 0.22824961
0000f0 43 f9 a9 3e 1f 5b 3d 3d 21 12 60 bc bd 94 da 3e
       0.33197984 0.046229478 -0.013676197 0.42691603
000100 3e 7c 6d 3f bb 93 88 3e fc d9 53 3e 7e af 23 3f
       0.92767704 0.2667521 0.20688623 0.63939655
000110 08 9a 0f 3e 19 f4 10 3f d8 d0 36 bf d7 48 90 be
       0.14023602 0.56622463 -0.7141242 -0.28180572
000120 96 00 51 bd b7 49 1f bf eb d5 c9 bd ac 66 85 3d
       -0.05102595 -0.62221855 -0.09855255 0.06513724
000130 c0 4d 07 bf 14 1e 0a c0 9e fd 3f bd 1b e1 af 3e
       -0.5285301 -2.1580858 -0.046872728 0.3435143
000140 da d7 79 be e4 eb a4 3e 40 72 c4 ba 08 db 12 bd
       -0.24398747 0.3221122 -0.0014987662 -0.035853416
000150 b6 3b 51 3e fd 03 ef 3e 02 f4 3a be d6 78 c3 be
       0.20432934 0.4668273 -0.18257144 -0.38178128
000160 6e 04 02 be 0a 67 57 3d 40 0b 29 be e9 5a c4 3e
       -0.12697002 0.0525885 -0.16508198 0.3835061
000170 b3 99 bb bd 50 70 b6 3b 1c 31 a8 3c 4e b6 48 3d
       -0.09160175 0.005567588 0.02053123 0.049001984
000180 5d 0a 8d 3e 40 14 9f 3b e9 80 35 be eb bd ac 3e
       0.2754697 0.004854709 -0.17724957 0.33738646
000190 3b 5a 5d bf a9 b1 17 3e f6 ee c8 bc 40 1d 68 3d
       -0.86465806 0.14813866 -0.024528008 0.05666852
0001a0 ce 25 9c 3b ae 29 fb 3d 35 11 1a 3c 7f 2a 07 3f
       0.004765249 0.12263809 0.009403517 0.5279922
0001b0 b8 e5 eb be e6 b7 d6 3f ba df a7 3e d3 ce ff 3e
       -0.460737 1.6774871 0.32787877 0.49962482
0001c0 01 7f 12 3d 18 c9 77 bc 40 75 7b bb 00 d7 38 3f
       0.03576565 -0.015123628 -0.0038369447 0.72203064
0001d0 d4 80 01 bf 40 8e 1e 3f 5c 9d 26 bf e0 6e c7 3d
       -0.505872 0.61935806 -0.6508386 0.097379446
0001e0 79 34 18 bc 88 ed bd 3e fe d4 bf be dd 6b 47 3f
       -0.009289854 0.37095284 -0.37467188 0.7789896
0001f0 0c 97 86 be a9 db c5 be 96 1d bb 3f b1 d3 27 3d
       -0.26287115 -0.3864415 1.4618404 0.04097337
000200 8a 6f d5 3d dc 69 d7 3b 70 40 16 3e a8 f1 11 39
       0.10421665 0.0065738987 0.14673018 0.00013918302
000210 02 a2 79 be e5 af 1a 3e ff 65 45 3e b0 4a ec 3e
       -0.24378207 0.15106161 0.1927719 0.46150732
000220 8f b5 00 3e b4 be 15 bf fe c2 fc bf 27 2d 09 bf
       0.12569259 -0.58494115 -1.9747007 -0.5358452
000230 53 5d ae 3d a7 95 1a 3c 5e a2 3d bd b8 8d bd 3f
       0.08513894 0.009435094 -0.046297424 1.4808874
000240 14 ca 60 bd 3c 51 84 be d7 37 b7 be c8 a0 8b bd
       -0.054880217 -0.25843227 -0.3578479 -0.06817776
000250 1d a0 b8 bd a7 74 58 3e 21 b2 e9 bf 2b fe 99 be
       -0.09014914 0.2113825 -1.8257486 -0.30076727
000260 a0 47 17 40 ba 6b 4a 3e 86 74 48 bd 50 a7 0e 3e
       2.3637466 0.19767657 -0.04893925 0.13931012
000270 24 51 95 be d9 19 72 3f f1 7a 97 be 6e e6 ce 3c
       -0.29163468 0.9457069 -0.29585984 0.025256362
000280 18 5f 66 3f 30 41 1e 3f bc fc 7a 3d 1d 31 80 be
       0.8998885 0.6181822 0.061276183 -0.2503747
000290 e2 d9 3a 3e 70 d1 9f 3e 7f 87 60 bd fc c2 b3 3f
       0.18247178 0.31214476 -0.05481672 1.404388
0002a0 00 f2 88 3e af 62 81 3f 78 40 6d bd 78 29 d4 bd
       0.2674713 1.0108241 -0.05792281 -0.10359472
0002b0 a2 43 2a 3f f2 49 4b bf 13 55 a4 3e 74 4d 3b bf
       0.6650945 -0.79409707 0.32096156 -0.7316506
0002c0 35 84 8c 3e c3 12 e3 be 3e 3f c4 3d 34 a0 1d 3d
       0.27444616 -0.44350252 0.09582375 0.03848286
0002d0 c6 97 03 bd 80 3a 05 3f 8e 6f 43 3f db 75 8c 3e
       -0.032127164 0.5204239 0.76342094 0.27433667
0002e0 aa 9d 6f be 2e 42 2a bf 86 14 27 3d 3f 6e 67 3e
       -0.23399988 -0.6650723 0.040791057 0.2260065
0002f0 50 87 f8 3d 1b 1b 37 3d a9 2c 42 3d c1 4a a0 be
       0.12135184 0.044703584 0.047405872 -0.31307033
000300 98 5d 47 be 84 4c 2f bd 40 d4 84 3c 84 3d d3 3d
       -0.19469297 -0.04279758 0.01621449 0.103144675
000310 78 ba db 3d 43 95 f7 3d c2 b5 c4 be 92 4d 00 3e
       0.107289255 0.12089016 -0.3841992 0.1252959
000320 0a 38 0d 3d b4 e5 8d bd ee 73 cd 3e 8f 67 04 3d
       0.03447727 -0.06928578 0.4012751 0.032325324
000330 7e 1a 1c be 0d 89 29 bf c3 54 e2 bf 4b 72 bf 3e
       -0.15244481 -0.6622475 -1.7682117 0.37391886
000340 f1 6b 79 3c 97 98 5d be 83 dc 54 3e b2 bd b1 3e
       0.015223489 -0.2164024 0.20787244 0.3471504
000350 ea 27 a7 3f 60 70 6f bd a0 7c 80 3f 42 39 07 3d
       1.3059056 -0.05845678 1.0038033 0.03301359
000360 72 97 a3 3d 94 60 b9 3c de 40 02 3e 5a d5 59 bd
       0.0798787 0.02262906 0.12720057 -0.053181984
000370 07 d7 5d 3f 50 2c 86 3d b8 63 ab be ca 94 df 3d
       0.8665623 0.06551421 -0.33474517 0.10917051
000380 1d 89 9d be e2 03 78 3d 10 89 8f 3d f4 0d 12 bf
       -0.30768672 0.060550578 0.070085645 -0.5705254
000390 7c 5d c1 3c e4 ec 0e bf e3 b3 9e be 4e 67 98 3f
       0.023604147 -0.55830216 -0.30996618 1.1906526
0003a0 00 e0 9c 37 a2 0d c3 3e c4 42 d9 3e 1c 89 dd bc
       1.8700957e-05 0.3809634 0.4243375 -0.027042918
0003b0 42 5d 0e 3e c5 85 1c 3e 7a 7b c6 be a1 1f 99 be
       0.13902763 0.15285404 -0.3876608 -0.29906943
0003c0 35 77 30 bf 07 b2 93 3e 4f 24 21 3e 20 fa fb bd
       -0.68931895 0.28846762 0.15736507 -0.12303567
0003d0 08 ed 93 3d 20 a4 84 bc 38 b4 3f 3d 46 b4 94 be
       0.072229445 -0.016191542 0.04680273 -0.29043788
0003e0 84 0b 0d bd 8a bd 65 bd 2e 9a b0 3e ad cc 65 3e
       -0.03443481 -0.05608896 0.3449263 0.22441359
0003f0 eb 26 c0 be 5c 08 e2 3d fb 5a a7 3d ca b2 9c be
       -0.37529692 0.11036751 0.0817165 -0.30605155

fc2.bias f4 [256]
000000 3d ea 83 3f 3a 9d 00 40 cf 7c 97 3f 02 01 e3 3c
       1.0305859 2.0095963 1.1834964 0.027710441
000010 04 ea a7 3e d1 6d 2f 3d b0 05 df 3f fb be 18 3f
       0.32795727 0.04282934 1.7423611 0.59666413
000020 98 33 51 3f 29 4b 50 3f 40 85 65 bd 56 f9 8b 3f
       0.8171935 0.81364685 -0.05603528 1.0935466
000030 9d 84 87 3f 79 2a b7 3f d8 9b b3 bc a5 1d 7d 3f
       1.0587345 1.4309837 -0.021924898 0.9887336
000040 f9 c2 ff 3e 0f a4 46 3f da 97 30 3f 99 a2 63 bd
       0.4995344 0.77594084 0.6898171 -0.055574987
000050 f3 08 22 bd 4b e9 85 3f f6 7d b4 3e 38 24 3c bc
       -0.039559316 1.046182 0.3525235 -0.011483245
000060 82 2e 4f 3d c8 81 c2 3f 2c 95 81 3c a4 39 12 3d
       0.050581463 1.5195856 0.015818201 0.0356995
000070 64 43 5c 3d fb ae 18 3d 59 3d 4c 3f d4 d5 5a bd
       0.053775206 0.03727625 0.7978111 -0.05342658
000080 cf 54 b1 3f 39 82 2d bd 6c 79 6f 3f f6 78 8c 3f
       1.3854007 -0.042360518 0.9354465 1.0974414
000090 f0 7d a5 3f 5f 99 1f 3f ae 80 30 3f 60 88 f5 be
       1.2929058 0.623434 0.6894635 -0.47955608
0000a0 ea 8c 87 3f b6 15 85 bd 18 25 b7 3c bd e8 5c 3f
       1.0589879 -0.06498282 0.022356555 0.8629263
0000b0 7b d1 49 3f 8c 57 eb bc f9 29 08 40 78 f8 89 3f
       0.78835267 -0.028728269 2.1275618 1.0778952
0000c0 2c cf f0 bc d0 7f 63 3c e2 26 a9 3f 95 f3 76 bd
       -0.029395662 0.013885453 1.3214991 -0.06029089
0000d0 8e 64 81 3c c4 27 b9 bc 6a cd 76 3f b6 b5 7d bd
       0.015795019 -0.02260197 0.96407187 -0.06194087
0000e0 d9 cc 05 bf 29 8e 1a 40 5d 43 b1 3f ae 67 b6 3f
       -0.522657 2.4149268 1.3848683 1.425039
0000f0 f4 98 ae 3f c9 55 55 bc 33 a7 0f bf 73 5d 1c 3d
       1.3640428 -0.013020941 -0.561145 0.038175058
000100 ce cc bc 3f 3e 36 f5 b9 b3 1c a4 be 79 ae 31 bc
       1.4750001 -0.00046770455 -0.32053146 -0.01084482
000110 8f 64 7b 3f 0a ba bb 3f e5 fc c5 3f 64 94 1d 40
       0.98200315 1.466615 1.5467802 2.462182
000120 68 f0 92 3f 98 08 f1 bc 34 29 93 3f 52 6c b5 3e
       1.1479616 -0.029423043 1.1496949 0.35434204
000130 10 4a ff 3c f4 fb 6a bd b8 ef 08 3d 7c 6b fc 3f
       0.031163245 -0.057369187 0.03343174 1.9720302
000140 e0 7b 0f 3b 18 6e 23 bf 49 49 a6 bc 68 27 8e 3f
       0.0021893904 -0.63839865 -0.020298617 1.1105776
000150 29 bf b8 be 4e 3e 10 be 4a 0f 3e 3d 0c 78 5f bc
       -0.36083344 -0.14086267 0.0464013 -0.013639461
000160 1c 26 c3 3f 3c dd bd 3b 2f df 94 3f 5e 4c 3a bd
       1.5246005 0.0057941955 1.163061 -0.045482986
000170 1c 62 f0 3c 91 f4 a6 3f 5f c3 74 be d9 d2 d4 be
       0.029343657 1.3043386 -0.23902653 -0.41567114
000180 37 44 f3 3c 6e 51 20 3c 27 fd 46 bd 7b e1 d9 3f
       0.029695613 0.009785039 -0.04858127 1.7021936
000190 0e b0 28 bd 4c f6 09 3f f8 c6 e5 3f be c5 8f 3f
       -0.041183524 0.53891444 1.7951345 1.1232221
0001a0 dd 73 b4 3f db 72 26 3f 71 81 36 3f 15 4f 9b 3c
       1.4097859 0.65019006 0.7129126 0.018958608
0001b0 14 ca 38 bd 82 4c 86 3f 51 43 3d 3e 74 2e 40 38
       -0.04511459 1.0492098 0.1848271 4.581963e-05
0001c0 de 66 bf 3f f4 0b 03 3d 66 50 af 3f cc 77 59 3c
       1.4953268 0.03199382 1.3696411 0.013273191
0001d0 dd c6 70 3e 9a 0c 56 bd 1c b9 40 3f 2b 1f 80 3f
       0.2351336 -0.05225811 0.75282454 1.0009512
0001e0 c2 65 85 3c d3 cb 8a 3f ad bc 7a 3f 11 6e 59 bc
       0.016283873 1.0843452 0.97944146 -0.013270871
0001f0 2d 0e 06 3f 88 86 b2 3f 00 31 3e bb 3b b7 4e 3f
       0.5236538 1.3947306 -0.0029020905 0.8074834
000200 65 85 f1 3c 5f 22 fb 3e d9 d8 a0 3f 79 7a 7a bb
       0.029482553 0.4904966 1.2566177 -0.0038219972
000210 a8 f6 83 bd 10 af 98 bc 65 f4 48 bd a9 c7 44 3f
       -0.0644353 -0.018638164 -0.049061198 0.7686716
000220 d4 16 b2 3c 96 5b 4d bd 48 6c 6e bc d8 1c 4f 3d
       0.0217394 -0.05013617 -0.014552183 0.050564617
000230 54 23 af 3e f1 54 e3 bc cc 7c b4 3f 16 b3 61 3f
       0.3420664 -0.027750464 1.4100585 0.8816389
000240 57 66 b1 3f f0 c0 9c 3b e0 58 0e 3e e2 cd ce 3f
       1.3859357 0.004783742 0.1390109 1.615658
000250 02 56 7d 3f c9 21 52 3f 8c 8e 48 3f b1 99 c2 be
       0.9895936 0.820828 0.7834251 -0.38007882
000260 7f 24 03 bf b5 43 43 bd e9 66 7e bd b1 57 d3 3e
       -0.51227564 -0.047671992 -0.06210986 0.4127784
000270 52 81 e2 3c 6e 54 6c 3c 56 bd a3 3f 99 d8 d3 3f
       0.027649555 0.0144244265 1.2792156 1.6550475
000280 a3 5b 2c 3f c0 9c 18 bf 24 29 e5 3f 89 61 98 3f
       0.67327327 -0.5961418 1.790318 1.1904765
000290 79 00 c5 3f e8 0a 1e bc cf 4b 9b 3f 77 4d 63 bd
       1.5390769 -0.009646155 1.213251 -0.055493798
0002a0 ca 59 99 3e 00 ee 9b 3f 44 6f 66 3f b9 48 06 3e
       0.29951316 1.2182007 0.9001353 0.13113679
0002b0 20 79 71 3c 9b 25 56 3f 78 5a 85 3f 16 1a 30 bd
       0.014738351 0.8365113 1.0418234 -0.042993627
0002c0 ca df 0e 3f 8f 6e 04 bd 2e d1 40 bd 5f 2a f6 3f
       0.55810225 -0.032332 -0.04707449 1.9231681
0002d0 38 b1 13 3d 4b 40 1a 3c b2 e3 2f 3f cb a8 99 3e
       0.03605768 0.009414743 0.6870681 0.3001159
0002e0 72 db 2d 3f 50 89 04 40 ca 64 9c 3f 7c fc 9d bc
       0.6791297 2.070881 1.2218258 -0.019285433
0002f0 53 29 a5 3f 78 20 d3 3f 6b 7f c4 3f b8 f8 be 3f
       1.2903236 1.6494284 1.5351385 1.4919653
000300 ed c2 81 3f 5c 23 1d bd bd 8e d6 bc 86 91 ba 3f
       1.0137612 -0.0383638 -0.02619111 1.457566
000310 60 69 73 3b 9c ba 2b 3f b0 fd 3b bc e7 cf ad 3f
       0.0037141666 0.6708162 -0.011474058 1.3579072
000320 5d 92 88 3f c8 64 91 3f 1d 8f 66 3f d7 5a 7f 3d
       1.0669667 1.1358881 0.90062124 0.06234249
000330 d3 f2 93 bc 36 37 81 3f 11 c5 b1 3f a7 81 bd bc
       -0.018060124 1.0094974 1.3888265 -0.023133112
000340 9b b6 9f 3f c1 ba 3b be 1c b9 94 3f e9 a7 3b 3c
       1.2477602 -0.1833296 1.1618991 0.011453607
000350 08 f0 9f 3f c8 ec 09 bd 1a c1 b9 3f 83 ac 04 40
       1.2495127 -0.033673078 1.4512055 2.0730293
000360 75 e9 e6 3f a3 5e 89 3f 90 64 71 bc c0 ee 56 3b
       1.8039995 1.0732006 -0.014733449 0.0032796115
000370 fd 79 03 3f 6d da eb 3e 63 84 2e 3c fe ba d2 3c
       0.51358014 0.46065083 0.010651681 0.02572393
000380 79 94 a1 3f 05 bb c6 bc 92 33 9a 3f ac 97 01 3c
       1.2623435 -0.0242591 1.2046988 0.007909697
000390 38 b8 2a 3f c8 a7 b5 3f 7d be 91 3f 6a 9b 31 be
       0.66687346 1.4191828 1.1386257 -0.17344442
0003a0 88 14 9e 3c 54 c7 15 be ac 58 ed bb 21 f8 58 bd
       0.0192969 -0.14626819 -0.0072432365 -0.05297101
0003b0 66 c7 a0 3f 1c 94 2a bf 86 99 b3 bd 17 58 2b 3f
       1.2560852 -0.66632247 -0.08769517 0.6693129
0003c0 c0 28 57 bd 9a 42 de 3f b1 fb 2d 40 d0 a7 0b bf
       -0.052529097 1.7364075 2.718487 -0.54552937
0003d0 69 c3 2d 3f 0f d7 94 3e 30 e7 e2 3c 55 27 4f 3f
       0.678763 0.29070327 0.02769813 0.8091939
0003e0 fa b2 ab be b6 e1 ad 3f 70 5b 63 3d 93 11 45 3f
       -0.33534986 1.3584507 0.055507123 0.7697994
0003f0 10 aa 44 3f cb 56 72 3f 25 83 5b 3d 9f 1d 37 3d
       0.76821995 0.94663686 0.053591866 0.044705983

fc3.weight f4 [81, 256]
000000 e2 77 c7 3c bd 88 3c bd 7b f9 42 3a c9 e0 82 ba
       0.024349157 -0.04602884 0.0007437688 -0.0009985204
000010 80 8c 3a 3c 1a 5e 2a bd 17 ae 1d 3d 5e 20 a9 3d
       0.011386037 -0.04159365 0.038496103 0.08258127
000020 24 cb c9 bc f8 58 78 3d f0 79 f8 3c e7 13 f4 3d
       -0.024632998 0.060631722 0.030331582 0.119178586
000030 cf 50 9f 3d 9f ce aa bc 50 e1 82 bc b0 15 ef 3d
       0.07779085 -0.020850478 -0.015976578 0.116740584
000040 87 05 06 3e d1 bb a3 3b 55 b4 43 3e a0 96 7e 3b
       0.13088046 0.0049967547 0.1911176 0.0038847104
000050 50 04 2e 3c 33 fa 97 3d 93 83 53 3d 20 44 f2 3b
       0.010621145 0.074207686 0.05163915 0.007393375
000060 f0 e6 d4 3b 16 9a 10 bd 0c 7f 85 bc 77 d4 08 3d
       0.0064972565 -0.035303198 -0.016295932 0.033405747
000070 50 85 d1 bc b4 4a b3 3c 3d ba dd 3d 18 a0 2e bc
       -0.025576264 0.021886207 0.10826538 -0.0106582865
000080 cd 5a 11 3c 79 37 97 bc 4d e6 c9 bd af 95 77 bd
       0.008871746 -0.018459069 -0.098583795 -0.060445484
000090 5b b2 47 3c 46 f2 83 bd 71 3f d0 39 86 f9 8f be
       0.012188519 -0.06442694 0.0003972012 -0.2812006
0000a0 89 0d c7 3b c8 d4 da 3c 06 fc 64 3d e7 98 39 3e
       0.0060746116 0.02671279 0.05590441 0.18124734
0000b0 15 70 39 3d 30 e7 28 3c ee 12 4e 3d 36 a2 86 bc
       0.045272905 0.010309026 0.05031102 -0.01643477
0000c0 17 12 2f 3d 40 06 ac ba cf b8 4f bd 2e f6 50 bd
       0.04274186 -0.0013124421 -0.050713357 -0.051016025
0000d0 b0 c2 3a 3c e0 1f 0f bb 62 a6 bb 3c 1e 6d 48 3d
       0.011398956 -0.0021839067 0.022906486 0.048932187
0000e0 be 67 4a be aa 56 ba bd cf 79 9e 3b 6b 2c 17 bd
       -0.19766137 -0.09098561 0.004836298 -0.036907595
0000f0 5c bc 86 bc 75 0b 6c 3d a6 21 2c 3e 3e 61 08 bd
       -0.016447239 0.057628114 0.16809711 -0.033295862
000100 58 24 87 3c c4 2f 75 bd 3b 56 a5 bd 46 7e 49 ba
       0.016496822 -0.059860006 -0.08073088 -0.0007686358
000110 be 2d 50 bd 82 d8 f1 3d ef 9d a7 bd 64 9e 9c bd
       -0.050824873 0.11808874 -0.0818442 -0.07647398
000120 91 04 ab bd 54 38 45 bd 8a b7 ca 3d e1 1a 14 3e
       -0.0835048 -0.04814942 0.098982885 0.14463378
000130 8c d3 d4 3c 36 ef 15 3d b7 ec 7f bd f2 ab 2f bd
       0.02597978 0.036605082 -0.06248161 -0.04288859
000140 84 4e 40 bd 37 09 bc bd f0 d8 f8 bb 8e 25 aa bc
       -0.04694988 -0.09181445 -0.0075942203 -0.02076986
000150 d6 2a ff bd 6a 1a a4 be 1e 32 18 bd 70 a6 0b bc
       -0.12459342 -0.32051402 -0.03715717 -0.0085235685
000160 cf c3 88 bc 2e f8 69 3d 6b 4b 4a 3e c8 99 d0 bc
       -0.016694931 0.05712145 0.19755332 -0.025463954
000170 e0 ce 7b 3c 54 ca 10 3d 2f 43 3d bc a3 93 80 be
       0.015369147 0.035349205 -0.011551662 -0.25112638
000180 9a cd 13 3d a0 5e ab bb 10 14 91 bc c5 6d 02 bd
       0.03608475 -0.005229786 -0.017709762 -0.031842966
000190 a8 7d 03 3d 49 58 34 bb 17 59 9d 3c 5b 97 da 3c
       0.032102257 -0.0027518442 0.01920752 0.0266835
0001a0 f4 be a6 3d cd fc 8d 3d 56 8a 24 3d 04 47 a2 3c
       0.0814189 0.069329835 0.04017099 0.019809254
0001b0 4c ed 71 bd 3c a1 90 bb 19 c6 85 bd b8 25 1d bc
       -0.059064195 -0.004413752 -0.06531925 -0.009591512
0001c0 a5 37 95 3c a8 80 8a 3c 0a 31 e2 3c 08 5d 6a bc
       0.01821501 0.016907051 0.027611274 -0.014304407
0001d0 9f 49 e5 bd d8 88 51 bd 95 0d 05 3e 5f ab 38 3d
       -0.11195683 -0.051155895 0.12993462 0.045085307
0001e0 68 f2 68 3d 36 8b 3a bd c2 d2 f8 3d 11 dc 1e bd
       0.0568718 -0.04554292 0.12149574 -0.03878409
0001f0 18 f8 34 3f fe 1e 5e bd 18 7d 36 3d d4 81 3a 3d
       0.7069106 -0.054228775 0.044552892 0.04553397
000200 a0 00 6a 3c 00 f5 3f 3f 40 d5 c9 bd de 63 6e 3d
       0.014282376 0.74983215 -0.09855127 0.05820071
000210 9e 4b 33 3d 80 f0 4b 3a 61 a3 f9 bc 44 5a 08 3d
       0.043773286 0.0007779673 -0.030473413 0.03328921
000220 40 9d 11 bb 6c e7 fd bc b4 cc 60 3d 30 4b 62 bc
       -0.0022218972 -0.03099414 0.05488272 -0.013811871
000230 e2 3c c6 be 70 85 52 bc 4c 0a 98 bc 1d c7 f6 bd
       -0.38718325 -0.012849197 -0.018559597 -0.120496966
000240 bf 9d b6 3d 24 7e 35 3d ac 68 9c bd f6 88 2b bc
       0.089168064 0.04430975 -0.07637152 -0.010469666
000250 8c de b5 bc 1b 51 57 be fc 97 f7 bd 40 80 b9 bc
       -0.022200845 -0.21027033 -0.120895356 -0.022644162
000260 02 68 a2 bd 4c bb 91 be ca 1d 6c bd 1a d7 17 bd
       -0.07929994 -0.2846321 -0.057645597 -0.03707037
000270 30 d1 2b 3d cb 54 75 bd 0b 69 9e 3d b8 f4 e0 3c
       0.041947544 -0.059895318 0.07734879 0.027460441
000280 b9 73 ae 3d 7c 4c b9 bd 48 20 bc 3a ca e9 b3 bc
       0.08518166 -0.09047791 0.0014352882 -0.021962065
000290 51 cd 74 3d 00 5a d3 bb 35 c8 1a 3d 12 de 0d 3d
       0.059766117 -0.006449938 0.03778859 0.03463561
0002a0 cc 54 a3 bd f8 5f 58 3d 17 e7 ca 3d 81 f2 69 be
       -0.07975158 0.052825898 0.09907358 -0.22846414
0002b0 de 4a 5f bc fb be d8 3d 6f 7f c8 3d 4c 2b cf 3c
       -0.01362869 0.10583302 0.09789931 0.0252892
0002c0 8a f7 00 3d a8 f7 e8 3c 28 2b 43 bd 40 52 97 3d
       0.03148607 0.028438404 -0.04764858 0.07388735
0002d0 f2 1e 4c 3d f2 0d 7c bd 68 2c 53 3d ef 7d 85 bd
       0.0498342 -0.061536737 0.05155602 -0.065181606
0002e0 ec e5 b4 3d c3 6b 1c 3c 96 c5 9d 3d 7d f9 6f bd
       0.088329166 0.009547177 0.07703702 -0.05858754
0002f0 34 4f 0c bd 41 6a 68 bd c3 b4 ce 3b 6d d5 2f 3c
       -0.03425522 -0.056741957 0.0063081696 0.010732037
000300 78 cd d5 3d 1c 60 02 3d 70 5c 48 3c 3d df dd bc
       0.10439581 0.03182994 0.01222907 -0.027083987
000310 f5 86 03 3d 3e 47 64 3e c8 38 1f 3d 5c dd 5f 3c
       0.032111127 0.22292802 0.03887251 0.013663616
000320 ce d4 62 3d 85 0e 36 3c 8c 0c fc 3d ce 28 42 3d
       0.055378728 0.01111186 0.123070806 0.047402196
000330 f0 f7 8b bc fa 3b e2 3d e3 f8 9a 3d 82 1f 8e 3b
       -0.017086 0.11046596 0.075670026 0.004337252
000340 15 69 3a 3d 49 42 4c 3d 57 c5 9c bd 86 f4 21 bd
       0.04551037 0.049867902 -0.07654827 -0.039539836
000350 c7 4c 81 3d 6c a2 ff 3c 2e 0f a6 bd 0b 23 a3 3d
       0.06313472 0.031205378 -0.08108364 0.07965668
000360 30 3c 77 3d b1 3b 3e 3d 1c 5d a8 3c e2 3e 0d 3d
       0.060360134 0.046443645 0.02055221 0.034483798
000370 2f 44 51 3d bb 56 1d bd 2a d6 16 3d 6c 47 d7 3c
       0.051090416 -0.03841279 0.036825337 0.026279174
000380 7c 51 2e 3d 60 41 74 3d 35 57 b3 3c 7c 22 c9 bc
       0.04255818 0.05963266 0.02189217 -0.024552576
000390 41 27 2f 3e 65 46 d6 3c 05 e8 c6 3c da 6d 64 3d
       0.17104818 0.026156614 0.024280557 0.055768825
0003a0 7c e7 2b 3d 3c 8c 8a 3d b0 4a 25 bc e0 4c 91 3c
       0.041968808 0.06765029 -0.010088608 0.017736852
0003b0 f6 f4 8b bc 2a 87 b0 3d bb 56 1c 3d fd f2 bf bc
       -0.01708458 0.086195305 0.03816865 -0.023431296
0003c0 26 b6 5b 3d 66 4f b1 3c 79 84 ec 3b c4 2e ba 3b
       0.053640507 0.021644305 0.0072179404 0.0056818444
0003d0 0e 0b 79 3c 2e 49 5a 3d c0 9d b8 3a 72 65 47 3c
       0.01520039 0.053292446 0.0014085099 0.012170183
0003e0 b4 49 51 3c 4e 0b 31 3d d2 b9 b8 3c 2e d1 02 bd
       0.01277392 0.04322367 0.022549544 -0.03193777
0003f0 72 69 c3 3d 2b f4 ee bc 29 7a 91 3c 48 f0 7f 3d
       0.095415965 -0.029169163 0.017758446 0.06248501

fc3.bias f4 [81]
000000 a4 95 e9 3e 87 16 46 3f 3d fb f5 3e 4b cd 2f 3f
       0.4562198 0.77378124 0.48043242 0.6867263
000010 d2 40 1f 3f 7b f5 19 3f 98 4f 60 3f 03 42 e1 bd
       0.6220828 0.601402 0.8762145 -0.10998919
000020 9f 7d d5 3e ad bc f9 3e 63 dc cd 3e a0 ce 1a 3f
       0.41697404 0.4877676 0.40207204 0.60471535
000030 ac f6 00 3f 3f da 02 3f 1e 3f 0a 3f c4 07 e7 3e
       0.5037639 0.5111427 0.5400256 0.45123112
000040 c2 06 10 3f 95 97 7b 3f db 3e 0b 3f 4f c8 26 3f
       0.5626031 0.9827817 0.54392785 0.65149397
000050 7e 73 88 3f 59 86 11 3f b0 7c 43 3f e2 23 25 3f
       1.0660245 0.56845623 0.76362133 0.6450788
000060 26 32 f9 3e bd 19 dd 3e 3b d2 07 3f ea e1 00 3f
       0.48671073 0.431837 0.5305516 0.5034472
000070 36 2a 82 3f c0 3f 10 3f 9a ad 0d 3f cf f8 d4 3e
       1.0169132 0.56347275 0.5534302 0.41596076
000080 0f a6 eb 3e b6 4c ec 3e 7e a9 dd 3e 7c 3f c7 3e
       0.4602513 0.46152276 0.43293375 0.38915622
000090 08 6f 16 3f b2 2f 0e 3f ed e3 37 bd da a0 39 3f
       0.5876317 0.5554153 -0.0448951 0.72511065
0000a0 6f a0 1f 3f 47 a9 34 3e f7 d5 55 3f 9e 0d 34 3f
       0.6235418 0.17642699 0.8352961 0.7033328
0000b0 a6 be 9c 3e f2 ad 4a 3f e2 5c 95 3f 6d 60 f5 3e
       0.30614203 0.7917167 1.166897 0.4792513
0000c0 20 5f 0f 3f 2a 70 de 3e d8 ec 40 3f a6 51 0f 3f
       0.56004524 0.4344495 0.75361395 0.5598396
0000d0 8a 9f b6 3e 61 1a df 3e 35 b8 16 3f d7 6d c1 3e
       0.35668594 0.43574813 0.5887483 0.37779114
0000e0 52 9a 9a be 01 49 84 3f 9b 32 34 3f 41 71 e7 3e
       -0.30195862 1.0334779 0.7038972 0.45203593
0000f0 cc 76 14 3f b5 59 1a 3f 6c 04 44 3f b4 cc 17 3f
       0.5799377 0.6029313 0.7656925 0.5929673
000100 c8 cc 40 3f 96 92 34 3f 5a d3 53 3f a8 4f cf 3e
       0.7531247 0.7053617 0.8274437 0.4049046
000110 06 6a 12 3f 30 8c 37 3f 4f c3 71 3f 5e e6 dd 3e
       0.5719303 0.71698284 0.9443864 0.4333982
000120 e0 2a ea 3e f3 a2 49 3f 1b b1 15 3f d3 97 a5 3e
       0.45735836 0.78764266 0.58473366 0.32342395
000130 6a 87 02 3f 9d fc 1c 3f ae ea 0a 3f d7 85 03 3f
       0.50987875 0.6132296 0.5426434 0.513761
000140 e9 c8 29 3f
       0.6632219
