code/outputs/EV_Charging_Pricing/multi-seed2(2)/models/dqn_checkpoint.pth (torch, 354981 bytes, 6 tensors)

fc1.weight f4 [256, 5]
000000 56 ec ac 3d e9 b1 4d be 17 9d 85 3f 43 3b e7 3d
       0.08443515 -0.20087399 1.0438565 0.112906
000010 a3 40 a8 3e 6a 27 14 3f 6d ec 3f be 9d d9 df be
       0.32861814 0.5787264 -0.18742533 -0.43720713
000020 67 44 4e bf 17 ac b8 be 92 3b d7 3d 3b 50 7c bf
       -0.80573124 -0.36068794 0.10509409 -0.9855992
000030 66 61 6b 3f 8c 4a 29 bf 06 02 ea 3f 83 37 ff 3e
       0.91945493 -0.66129375 1.8281868 0.4984704
000040 3a d2 97 be 3d 71 db 3e 69 8c 3e 3f 6b 23 e4 3e
       -0.29652578 0.4285983 0.74433 0.44558272
000050 29 ab 0c bd 35 c0 cc 3c 54 fb 83 3f c5 f0 07 3f
       -0.03434292 0.024993995 1.0311074 0.5310176
000060 f7 ed b4 bf de a7 f3 bc 59 c4 99 bb b6 4a 9f 3f
       -1.4135121 -0.029743131 -0.004692596 1.2444675
000070 54 79 0a be 32 dc cb 3d bf b2 ec 3e db 4c 1a be
       -0.13522846 0.09954108 0.46230122 -0.1506838
000080 a8 74 81 bf 1d 8e 65 bf f6 1d 00 bf cc b5 b5 bd
       -1.0113726 -0.8966997 -0.50045717 -0.088725656
000090 52 53 3b 3d 44 5b be 3f 62 c0 1d 3f c6 19 b2 3e
       0.045733757 1.4871602 0.6162168 0.3478529
0000a0 3c 8e 5b bd 11 4a 40 3d cd bb 03 3f c7 1d e9 3e
       -0.053602442 0.046945635 0.51458436 0.4553053
0000b0 dd ad 8b bf a9 f6 0c 3f 9e c7 15 3f f5 2a e0 be
       -1.0912434 0.55063874 0.58507717 -0.43782774
0000c0 8c 77 34 3f 59 4e f6 3f 51 95 7b be 93 96 67 3e
       0.70494914 1.924266 -0.24568678 0.22616033
0000d0 af 30 b5 3f ad 89 ba 3e 73 84 c8 be 44 ba 24 3f
       1.4155482 0.36433163 -0.3916355 0.6434672
0000e0 96 16 b3 3e e0 15 40 bf 79 15 94 bf 1c 56 28 bf
       0.3497817 -0.7503338 -1.1569053 -0.6575639
0000f0 07 96 de 3d 1a 93 48 be 47 97 83 3f c1 44 fe be
       0.10868459 -0.19587365 1.0280541 -0.4966183
000100 ab 34 86 3f 33 3e 24 bd 3b af 1c 3d 87 2d a1 3f
       1.0484823 -0.04009838 0.03825305 1.2592019
000110 c1 2d 9a 3e 54 0b 97 bf e6 4c 86 be 11 1a 5a 3e
       0.30113032 -1.1800332 -0.26230544 0.21299006
000120 52 93 b8 3f 7e bd 10 3f 0b fa 80 3f 68 c8 71 3c
       1.4419959 0.5653914 1.0076307 0.014757253
000130 a3 30 43 3c bd 9d a4 3f 85 6e 58 3e 25 2e b1 bf
       0.011913451 1.2860638 0.2113591 -1.3842207
000140 99 c5 bd bd 18 ea 22 3d 9f 9d a2 3f 75 6d 61 3f
       -0.092662044 0.03977403 1.2704352 0.88057643
000150 00 19 10 3f 27 af 21 bd 9c e5 19 3d c4 44 aa 3f
       0.56288147 -0.03947368 0.03757249 1.3302236
000160 3d 2e 17 3f c8 9c a5 bf e2 52 16 be f4 68 82 3d
       0.5905493 -1.2938471 -0.14680055 0.063676745
000170 4b 71 e3 3f c7 a5 bd 3e 56 39 d9 3f b0 65 3d be
       1.7768949 0.3704054 1.6970623 -0.18495822
000180 13 f7 f8 3d 6a b5 9c 3f f4 a4 bf 3e 1e d5 90 3f
       0.12156501 1.2242863 0.37430537 1.1315038
000190 94 60 cc 3d 9e d9 b0 be 2e ff c1 bc c7 fb 96 be
       0.09979358 -0.3454103 -0.02368125 -0.29488966
0001a0 33 6d b0 be 10 73 b9 3d af e5 26 3c ea eb 71 3f
       -0.34458312 0.090551496 0.010186597 0.945006
0001b0 97 6a 4b 3f 86 13 9d 3f b3 72 17 3d 94 de 07 3f
       0.7945952 1.2271583 0.03697462 0.53074
0001c0 92 03 15 3f 7c a7 c4 3f e0 75 2f 40 7d 1d 27 be
       0.5820857 1.5363612 2.7415695 -0.16319843
0001d0 fb 0a 3c 3e e6 b0 db 3f f1 5a 3a 3e be 41 a0 bf
       0.18363564 1.716336 0.18198754 -1.2520063
0001e0 3c a1 fc 3d 15 18 7c bd 60 0b 89 3f b6 74 09 3f
       0.123354405 -0.061546404 1.0706596 0.5369371
0001f0 c8 56 d7 bf e6 96 b0 bd 3c c6 2b 3d 39 67 9d 3f
       -1.6823359 -0.086225316 0.041937098 1.2297126
000200 ba 58 e1 3d 39 3b ee 3e 98 9c 37 be 40 4c fc 3d
       0.110032514 0.46529558 -0.1793083 0.12319231
000210 2d f8 b9 3f 50 94 c8 3e b2 b0 01 3f 38 a8 98 3d
       1.4528862 0.39175653 0.5066024 0.0745396
000220 2f 57 bc 3d 32 e9 7d 3f a0 1f 9c bd e2 44 d7 bf
       0.091963165 0.9918395 -0.076232195 -1.6817896
000230 1f f9 c7 3e 45 6b 08 be 48 8e 6a bf 4c 3c fc be
       0.39057252 -0.1332217 -0.91623354 -0.49264753
000240 55 f5 95 bf 10 a0 d1 3e 5c 7d 12 be 92 99 07 bf
       -1.1715494 0.4094243 -0.14305633 -0.52968705
000250 b1 57 9f bf e1 1d 0a bf 32 4a 79 3e c4 16 3f bd
       -1.2448636 -0.5395184 0.2434471 -0.04665257
000260 29 21 c5 3f ad 48 60 3d db 80 e8 3f 01 09 0b be
       1.5400745 0.05475681 1.8164324 -0.13577653
000270 df c0 1a 3e cb bf c1 3f 32 3a 60 3e d1 64 94 bf
       0.15112637 1.5136656 0.218972 -1.1593267
000280 6e bf 0e be de 97 b5 be 18 e0 01 bc f4 60 59 be
       -0.13940212 -0.35467428 -0.007926963 -0.21228391
000290 54 d3 a7 be 32 51 55 3e e1 45 96 3c 33 6f 0e 3f
       -0.32778418 0.20831755 0.018343868 0.55638427
0002a0 4f 74 88 3d 07 1d f3 3f c9 eb ae 3e 64 8a 1c 3f
       0.06662809 1.8993233 0.34164265 0.6114867
0002b0 05 0f 3c be 6d 64 ca 3e 79 cd 2b 40 82 4b 24 3e
       -0.18365104 0.39529744 2.684416 0.16044429
0002c0 14 be 23 be b2 09 81 3f f4 af fa 3e eb 36 87 3f
       -0.15990478 1.0081084 0.48962367 1.0563635
0002d0 82 e9 08 3f ce 60 37 be d4 03 67 bf dd 00 e2 be
       0.53481305 -0.17908022 -0.90240216 -0.44141284
0002e0 62 f5 1f bf 46 2d ed 3e d2 5c 06 be f1 ad fe be
       -0.624838 0.46323603 -0.13121346 -0.49742082
0002f0 a5 3c 39 bf c5 fd 60 bf 57 86 02 bd 04 cc 43 bd
       -0.7235816 -0.8788722 -0.031866398 -0.047801986
000300 ec 71 6d 3f 95 0b 0a 3d 47 01 c1 3f 31 1a 3e 3f
       0.92751956 0.03370245 1.5078515 0.74258715
000310 31 5d 8e 3e b1 22 64 bf d3 a5 15 bf 4e 6a 97 bc
       0.27805474 -0.89115435 -0.5845615 -0.018483307
000320 68 3f eb 3d 35 50 60 bd 78 6c 63 3f 49 75 11 3f
       0.11486703 -0.05476399 0.88837385 0.5681959
000330 63 66 d3 3e 2e 1a d8 3e eb 5d 2c be 84 8b 6b bf
       0.41289052 0.42207474 -0.16832702 -0.9200976
000340 88 a5 21 bf 1f 49 94 bf 49 e3 99 3d 64 b9 35 bc
       -0.63143206 -1.1584815 0.07514054 -0.011091564
000350 58 10 78 3f 13 f1 9a bd dd 74 8c bf b0 61 b6 3c
       0.9689994 -0.075655125 -1.0973164 0.022263378
000360 43 f0 aa bc de 34 c6 3f 19 05 5f 3f 8b 1d e3 bf
       -0.020866519 1.5484884 0.87117153 -1.7743391
000370 25 4d c0 bd 94 1d 23 3d a7 84 a7 3f 35 da ed 3e
       -0.09389714 0.03982313 1.3087357 0.4645554
000380 2e 94 88 3e 62 bf d9 3e 39 fb 8e be bf d1 b8 be
       0.26675552 0.42528826 -0.27926043 -0.36097524
000390 88 76 88 bd 76 3c 85 bd 84 04 ee bc 51 1d 64 bd
       -0.06663233 -0.06505673 -0.029054888 -0.05569202
0003a0 6c 23 4b be 77 a9 28 bd 98 cd 50 be ff ef aa bd
       -0.19837731 -0.04117724 -0.20390928 -0.08346557
0003b0 68 95 9b 3d db e5 9b 3f c7 a3 26 3f 7d 35 c1 bf
       0.07596856 1.2179521 0.65093654 -1.5094448
0003c0 c8 fd d0 be b1 3a a2 be 70 ca 58 be 45 34 c7 3d
       -0.4081862 -0.31685403 -0.21170974 0.097267665
0003d0 27 d6 95 be 1f 67 62 3d 19 dc 2f bd 72 16 ab 3f
       -0.29264948 0.055274125 -0.04293451 1.3366225
0003e0 b4 24 35 3f 5f 6e 05 c0 01 5c ba 3a 9c a5 60 3b
       0.7075913 -2.0848615 0.0014218093 0.0034278398
0003f0 a0 09 aa 3f 8f e2 a6 be 1a b9 a6 bf f8 ba 14 3d
       1.3284187 -0.32594725 -1.3025239 0.03631112

fc1.bias f4 [256]
000000 8d 08 db 3f e2 4b 27 bf 88 85 35 40 00 1d f0 3d
       1.7111984 -0.65350163 2.836275 0.11724281
000010 01 d3 2d 3f c7 43 ad 3f c5 5c e5 be 16 b8 ab 3f
       0.6790009 1.3536309 -0.4479734 1.3415554
000020 e8 c9 3a 3f f5 1e a3 3e b8 20 c9 3f 4d d9 06 bf
       0.72964334 0.31859556 1.571311 -0.52675325
000030 b6 a3 e8 3f 15 b1 1b 3e 5d 7e c6 3f 2f 86 e5 3e
       1.8174961 0.1520427 1.5507313 0.44828936
000040 bd 83 ae 3f dd 21 ba 3d e7 04 20 40 f3 f0 05 40
       1.3633953 0.0908849 2.5002992 2.0928314
000050 d5 60 90 bd dd 90 fa 3f d3 d4 20 40 0c 09 44 3e
       -0.07049719 1.9575459 2.5129898 0.19144076
000060 62 20 d7 3e b8 cd e3 3f ce c9 ea 3f 37 ff cd 3e
       0.42016894 1.7797155 1.8342836 0.40233776
000070 10 8e 82 bf a7 6f 2d bf 2b 45 3c 40 b0 d7 90 3e
       -1.0199604 -0.6774849 2.9417217 0.28289557
000080 c1 b4 63 be 5a c2 3c 40 1e 2e ae 3f c5 68 1e 40
       -0.22236921 2.9493623 1.3607824 2.4751446
000090 b7 1d ce be 9c 82 3c bf 2d 00 2e 40 93 99 3d bf
       -0.40257046 -0.73636794 2.7187607 -0.7406246
0000a0 7d 99 05 40 2a 98 f9 be a7 ce 2f be be 83 f7 3e
       2.0874932 -0.48748904 -0.17168675 0.483427
0000b0 c5 3e fc 3f 3e 8f 2e bf bd f2 6d bc 1f ef 3e 3f
       1.9706656 -0.6818732 -0.014523205 0.7458362
0000c0 6d 37 18 be a2 91 cb 3e e4 ea 29 3f 62 dd 11 3f
       -0.14864893 0.39759547 0.6637404 0.5697843
0000d0 d8 61 34 3f 94 76 df 3f 9e 05 c0 3e 04 81 96 bc
       0.704618 1.7458062 0.37504286 -0.018372066
0000e0 c8 06 b9 3f 8d 22 29 3f 82 00 b9 3f 1a 3a 55 40
       1.4455194 0.66068345 1.445328 3.3316712
0000f0 d3 b1 01 bf 10 72 ea be 12 ce 00 40 4e d1 0a 40
       -0.50661963 -0.45790148 2.0125775 2.169025
000100 6c 74 fa be e8 1f dc bd af b7 eb 3f 22 57 83 bf
       -0.48916948 -0.10748273 1.8415431 -1.0260966
000110 13 4d a5 3e 6a 76 2b be 2b 36 80 be d9 3a 75 3f
       0.32285365 -0.1674439 -0.25041327 0.9579292
000120 bf 56 27 be 65 70 05 bf 7c 58 82 bf 6d 30 18 40
       -0.16341685 -0.52124625 -1.0183253 2.3779557
000130 b8 47 96 3f 08 cd 64 40 51 ac c4 3f 3c 08 9e be
       1.1740637 3.575014 1.5365087 -0.30865657
000140 c8 4c 19 bd 07 c3 19 be f1 5e 32 3f b5 af 8a be
       -0.03742674 -0.15015803 0.6967612 -0.2708718
000150 32 9f 1b 40 ac 2b 13 40 60 99 2f 40 06 d8 8a 3e
       2.4315915 2.2995405 2.7437363 0.27117938
000160 33 8f 70 be f2 9c 1d 40 00 34 eb bd 8a 39 c4 be
       -0.23492126 2.4627042 -0.114845276 -0.3832515
000170 80 75 8c 3f ce 0e 75 3f 33 5b d0 3f a9 ef a8 3f
       1.0973358 0.95725715 1.6277832 1.3198138
000180 7b fe 2a 3e a3 a6 c1 be 94 15 90 3f b0 3d 0c 3f
       0.16698639 -0.37822446 1.1256585 0.5478163
000190 0f e8 a9 bd 87 90 de bd 92 a5 57 bf 4f 8c 83 be
       -0.08296215 -0.1086741 -0.84237015 -0.25692984
0001a0 4f 63 dd be 4e 78 ab be 0c 0e c0 be de 2c 60 bf
       -0.4323983 -0.33490223 -0.37510717 -0.8756846
0001b0 0a be 14 3f a1 54 8d 3e 4d 77 c0 3f cc 83 49 40
       0.58102477 0.2760363 1.5036408 3.1486692
0001c0 e0 d8 a3 3e 5d 8d 8c be ce ce 07 be f6 fb 0c bf
       0.320014 -0.27451602 -0.13262483 -0.5507196
0001d0 33 82 c5 be 2f 1e 77 3e fe 0b ab 3f 0d f7 6e 3f
       -0.38575897 0.24132608 1.3363035 0.9334572
0001e0 f0 45 ee be d0 48 20 be 12 2b 0c 3f 10 6a 4b 40
       -0.46537733 -0.15652776 0.5475322 3.1783485
0001f0 56 a1 d4 be c8 97 55 bb b6 13 f3 bd 22 26 ef 3e
       -0.4152934 -0.003259169 -0.11868994 0.4670878
000200 8c a9 ca be 56 51 06 40 8b 95 47 40 7e 39 08 3d
       -0.3958248 2.0987144 3.1185024 0.033257954
000210 46 6f b0 bf 90 db c2 3f f8 ca b3 3e fe db 19 bf
       -1.3783958 1.5223255 0.3511579 -0.60101306
000220 ff 6b 99 3f c0 c9 7a be 85 da 29 3d 9f 20 0f 40
       1.1986083 -0.24491024 0.041468162 2.236366
000230 ed 62 97 bf 31 00 25 40 f3 c9 3a 40 53 36 df 3f
       -1.1827065 2.5781367 2.918576 1.7438453
000240 c7 ec 68 3f 97 8b 2e 3d e6 d5 e4 3f 21 3b aa 3f
       0.90986294 0.042613592 1.7877777 1.3299295
000250 0d 77 ef 3f 5e cf 24 40 ac 86 61 40 a2 35 b0 3f
       1.8708206 2.5751567 3.5238447 1.3766367
000260 2a d5 fa bc d5 b1 0a be ee 18 8f bf 9e 48 b1 3f
       -0.030619223 -0.135444 -1.1179483 1.3850286
000270 dc 35 19 40 42 fe 18 be 55 aa be be 56 2e da 3f
       2.3939123 -0.14940742 -0.37239328 1.7045391
000280 2f 82 98 be f9 a1 fa 3f 0a 96 41 40 7a dd 3a 40
       -0.29786822 1.958068 3.0247827 2.9197679
000290 b0 50 14 40 ad 41 45 3f be da 0a 40 e6 23 4b 40
       2.3174248 0.7705334 2.169601 3.174066
0002a0 5c 0e f6 3f 25 1f a3 be 05 82 44 3f 47 28 17 40
       1.9223132 -0.318597 0.76760894 2.3618333
0002b0 ca 60 16 40 ae 7f f8 3f 4a 6b b8 be df dc 49 3f
       2.3496575 1.9413965 -0.36019355 0.7885265
0002c0 f0 4b 06 40 50 4c 27 40 73 78 0b 3f 24 30 db 3f
       2.0983849 2.6140327 0.54480666 1.7124066
0002d0 55 f6 44 3e 16 9a 58 3e a2 e4 ee 3f 4f 6f 31 40
       0.19234593 0.21152529 1.8663523 2.7724187
0002e0 42 95 9b 3c 97 62 14 40 1f 86 36 40 2e 17 7e 3f
       0.01899207 2.3185174 2.851936 0.9925412
0002f0 50 e4 18 bf 3e 93 a2 bf fc 12 08 3e 37 68 07 40
       -0.5972338 -1.2701185 0.13288492 2.1157358
000300 20 05 96 3f 4a dd 14 bf 24 da 00 be b5 30 95 3e
       1.1720314 -0.5815016 -0.12583214 0.29138723
000310 f0 2e 35 be 1e 1f 6f bf 4d ea 86 3f 75 06 4c 40
       -0.17693686 -0.93406856 1.0540253 3.187894
000320 13 f8 69 40 c1 5e 53 3f 2f 3b cd bc 41 91 da bd
       3.6557662 0.8256646 -0.025052635 -0.10672236
000330 32 32 98 3e 35 b5 14 3e 6f 41 6c 3e cb 6a d1 bf
       0.29725796 0.1452225 0.23071836 -1.6360716
000340 bf bf 29 be ce 5b 9c 3f c7 81 14 be ca 80 84 bf
       -0.16577052 1.2215517 -0.14502631 -1.0351803
000350 50 72 35 bf 06 c9 3c 3e ea 56 06 40 da ab 73 be
       -0.7087755 0.1843606 2.0990548 -0.23796025
000360 15 64 ae 3f a5 e4 e8 3e 09 03 c4 3f 1a e6 86 3e
       1.3624293 0.45486942 1.5313426 0.2634743
000370 bb 9d 90 be 20 4b 09 bf 9b 97 0a 40 f8 81 1a 40
       -0.2824534 -0.53630257 2.1655033 2.4141827
000380 64 d1 41 3f 1c c7 47 40 b8 ae d5 bd f0 c8 1e 3f
       0.7571013 3.1215277 -0.104337156 0.62025356
000390 0a f5 c7 3f 25 3a bf 3f b3 1d 4b 3e f6 6c 52 be
       1.5621655 1.4939619 0.19835548 -0.20549378
0003a0 2f 21 b6 bf 86 65 89 3e a0 50 01 40 df 76 64 3f
       -1.4228877 0.2683527 2.020546 0.8924388
0003b0 a5 df ae bc c6 97 de be 3d b5 2e bf 81 ed 95 be
       -0.021346876 -0.4347517 -0.682453 -0.29282764
0003c0 86 cb d3 be d7 c3 25 3f a8 f6 c9 3f 75 65 9d 3f
       -0.41366214 0.6475195 1.5778399 1.2296587
0003d0 a8 04 04 be ef dd 9f bf 4e f5 e3 3f ae 7f 9d be
       -0.12892401 -1.2489604 1.7809236 -0.30761474
0003e0 14 e1 1a 3f 82 91 21 40 f5 6f 8d be fd d8 dc be
       0.6049969 2.524506 -0.2762448 -0.431343
0003f0 3d d3 ce bd 9a cb 7e 3f b0 69 61 be 91 08 f5 3e
       -0.10098884 0.9952942 -0.22012973 0.47858098

fc2.weight f4 [256, 256]
000000 60 fd 04 bf bb ca b4 be 5f e4 53 3e 18 8f 14 bf
       -0.5194912 -0.3531092 0.20692585 -0.58030844
000010 a0 d2 15 bd ca fd af 3d e8 64 dc 3d 94 5e a5 3e
       -0.03657782 0.08593328 0.10761434 0.3229872
000020 d3 60 19 3d 3e a2 66 be 33 47 62 3e 5e 6b a7 bd
       0.037445854 -0.22522828 0.22097473 -0.081747755
000030 be f1 3b be e7 09 7a 3e e6 fa 30 3d 2a 1c 49 3e
       -0.18353936 0.2441784 0.043208025 0.1963965
000040 8b 57 83 3e 3d 2c ef 3d be af 21 3e d0 18 5f 3e
       0.25652727 0.1167836 0.15789697 0.21786809
000050 1c 18 25 3d b3 3f 3b 3e 0f c9 58 bd 1b f4 11 3e
       0.040306196 0.18286018 -0.05292612 0.14253275
000060 86 f6 b0 be 59 26 a1 3e 01 13 92 3d 05 7c c1 3d
       -0.34563082 0.3147457 0.07132531 0.09447483
000070 5e 32 cd 3e 13 b5 16 3f 10 cb 23 3d b9 1c 86 3e
       0.4007749 0.5887005 0.039988577 0.2619379
000080 18 c7 23 bc c6 eb fa 3d 2c 67 ac b7 90 96 50 3d
       -0.009996198 0.122520015 -2.0552041e-05 0.050924838
000090 65 04 b0 be b2 9e a1 bd 0c 33 0c 3d 63 32 04 be
       -0.34378353 -0.07891597 0.03422837 -0.12909846
0000a0 45 bd 03 3d cc 92 53 3e 79 83 2b 3e e1 e9 85 3f
       0.032162923 0.20661467 0.16749372 1.0461999
0000b0 10 f0 ca 3e bc de d8 be 00 81 0b 3c 3a 39 e2 39
       0.39636278 -0.42357433 0.008514643 0.00043148716
0000c0 10 38 35 bd c7 46 bc 3d d9 c7 dc 3e 4c 66 61 be
       -0.04424292 0.09193187 0.43121222 -0.2201168
0000d0 5d 33 40 3e 29 84 86 3f 3e 32 c9 3d e0 c3 a5 3c
       0.18769594 1.0509082 0.09824036 0.020235002
0000e0 cc 83 53 bd f5 ca 88 3d 7d dc 24 bf f0 0a a7 3d
       -0.051639363 0.06679336 -0.6439894 0.08156383
0000f0 16 04 d5 bc d8 91 a8 be d9 8f dc 3d dc 5d 86 3d
       -0.026002925 -0.3292377 0.10769624 0.06560871
000100 a4 8e b1 be 5f 65 69 3f c2 36 03 bf 28 ee ae 3e
       -0.3467914 0.91170305 -0.5125543 0.34166074
000110 07 ea ee bc d9 88 19 40 90 a7 dc 3f fc 43 be bd
       -0.029164327 2.3989775 1.7238636 -0.09290311
000120 41 16 30 3e f1 83 03 bf 04 d6 ce ba f1 34 d9 3d
       0.17195989 -0.513732 -0.0015780334 0.10605801
000130 17 c7 5f 3f 96 bd 1a 3b 68 93 16 bf 55 2a 39 3f
       0.8741316 0.0023611537 -0.58818674 0.7233022
000140 ac 1c 26 3d ff 72 84 3f 89 4b b3 3d 68 91 54 bd
       0.040554687 1.0347594 0.087546416 -0.051896483
000150 6a 0c 3b 3d be b0 05 3d 65 88 44 bc 07 55 91 be
       0.045666136 0.032639258 -0.01199541 -0.28385183
000160 10 46 ed 3f 6f 4d 0b 3e 30 e1 83 bc 0d 68 82 3f
       1.8537006 0.13603757 -0.016098589 1.0188004
000170 01 0c 6a bf 89 dd 1e bc 73 a7 ec be a9 41 44 bf
       -0.91424567 -0.009696373 -0.46221504 -0.7666269
000180 27 42 cc 3d 85 39 0f be c8 1e 95 3d d9 6d f7 bd
       0.09973555 -0.13986786 0.07281262 -0.12081499
000190 12 2d 8f 3e a9 a4 6a 3f 81 25 24 be 3f 7c 08 3e
       0.27964073 0.916575 -0.16029932 0.13328646
0001a0 a0 19 1d bc fa bc 40 3f 40 7e cf 3c fa 72 c1 be
       -0.009588629 0.75288355 0.025328755 -0.37783033
0001b0 67 09 94 bd fe 47 fb 3d e2 2a 98 3d 94 45 8b bb
       -0.07228356 0.12269591 0.07430054 -0.0042502377
0001c0 dd 15 7e 3c eb ac 6a 3f 49 55 68 3f 41 8f d8 3d
       0.015508142 0.916701 0.90755135 0.105741985
0001d0 82 50 94 3f f6 10 08 bf 6c 29 8b 3e cf 10 b0 3d
       1.1587069 -0.5315088 0.2718004 0.08596956
0001e0 45 e8 b4 be 80 2f 19 bc f0 3f 16 3e c0 d5 02 3d
       -0.35333458 -0.009349704 0.14672828 0.03194213
0001f0 42 95 3b 3d 81 9c 55 3f df 37 0e be 15 d2 27 bd
       0.04579664 0.8344193 -0.138885 -0.040971834
000200 45 ad dc 3f cd ca 59 3e 31 2b 70 bd 76 ac 4e 3d
       1.7240378 0.21268769 -0.05863494 0.05045744
000210 db b5 6f be 11 5c 1c bf 4b 57 8c 3f 25 ea 9e 3d
       -0.23409216 -0.6107798 1.096414 0.07759503
000220 e1 1c 99 3d 48 03 92 3f e0 90 cc 3c 05 06 63 bc
       0.07476211 1.1407251 0.024971426 -0.013856416
000230 30 7a 91 be 6a c4 9e bc 4b 2c 7c bd 1a 5e 3f 3e
       -0.28413534 -0.019380767 -0.06156568 0.1868824
000240 cc 8a df 3d 3a 4d 45 bf 72 7f e9 be 95 ff 8e be
       0.10915145 -0.77070963 -0.45605046 -0.2792937
000250 34 b5 c0 3e 0b 17 db 3c 39 63 20 bd 69 1b 14 bf
       0.37638247 0.026744386 -0.039157126 -0.57854325
000260 30 b5 a1 3c 84 75 83 bc f0 2b ca be fb 43 1c 3d
       0.019739717 -0.016047247 -0.39486647 0.03815077
000270 d4 b6 ea 3e 27 eb 94 be b3 e1 c4 3f e5 38 1a 3d
       0.45842612 -0.29085657 1.5381378 0.037651915
000280 a5 3d 70 3c 9c e1 19 3f 9f ac 57 bc 0f 37 fe bc
       0.014663135 0.6010988 -0.013163715 -0.031032113
000290 6d 97 8a 3d 32 2f ca 3d 6b 56 bf 3d 26 30 54 3b
       0.067671634 0.09872283 0.09342655 0.0032377332
0002a0 d6 be dd 3e 57 49 8b 3f 61 0a dd be 3b 07 04 3e
       0.4330966 1.0881757 -0.4317198 0.12893383
0002b0 1f 05 2c 3d 6f 48 9b bc 15 25 20 3f 7a 06 ee 3d
       0.04199707 -0.018955437 0.6255658 0.11622329
0002c0 73 dc f2 bb b0 87 52 3d 1d 3c 40 3a 14 a2 0c bf
       -0.0074115335 0.051398933 0.00073331763 -0.5493481
0002d0 d1 6d b6 3d 20 88 a3 3e 15 c3 1c 3e d6 a5 93 be
       0.089076646 0.31939793 0.15308793 -0.2883746
0002e0 d9 41 f9 3d 24 24 13 3e 53 49 5b 3d 82 c6 74 be
       0.121707626 0.14369255 0.053536724 -0.2390385
0002f0 e8 ea 35 bf d4 a0 a8 be dd 65 5b 3c 0c 30 8c 3e
       -0.71061563 -0.32935202 0.013390985 0.27380407
000300 19 41 e3 be 57 bf aa bd 60 b7 d5 bb 17 ed 52 bd
       -0.44385603 -0.083372764 -0.006522104 -0.051495638
000310 ec b9 62 bd 06 01 9a bd a2 a4 b9 3c 17 e3 53 3d
       -0.05535309 -0.075197265 0.02266151 0.05173024
000320 07 a8 b1 3c 9f 2c 64 3d 93 17 e5 3d eb 62 13 40
       0.021686567 0.055706616 0.11186137 2.3029125
000330 eb 83 88 3e d1 72 e4 3d 96 26 12 3d d1 fc ec 3c
       0.26663145 0.11154712 0.03568133 0.028929146
000340 e4 5d ac bc 5f 76 c9 3d e5 54 0c 40 ca b7 28 bd
       -0.021040864 0.098370306 2.1926816 -0.0411909
000350 de 1a af be e6 60 17 3d 7a 7f 23 3f 6c b7 fe 3c
       -0.34200186 0.036957644 0.6386639 0.031093322
000360 71 16 e4 3e 60 08 32 3e 1f b4 f0 be 76 cf ee 3d
       0.4454837 0.17386007 -0.4701242 0.11660664
000370 12 33 52 bd d5 21 d0 3d f7 9a 36 bd 0b 95 3e 3c
       -0.051318236 0.10162703 -0.04458138 0.011632214
000380 10 1e 37 bc 23 e2 e5 bb 20 02 e2 3b 97 02 a7 3e
       -0.011176601 -0.007015483 0.006897226 0.32619163
000390 db 6f 35 bd bd d9 49 3e a4 cb 26 3d 48 f2 42 bd
       -0.044296127 0.19711967 0.04072155 -0.04759434
0003a0 33 8e 2a 3b bb 27 46 3d 89 c1 74 3c dd cc 3d 3f
       0.0026024699 0.048377734 0.0149387205 0.7414072
0003b0 68 f3 15 3c 78 75 01 bd cd 70 17 3e d0 f4 b6 bb
       0.009152271 -0.031606168 0.14789124 -0.005583383
0003c0 16 5a be 3f e2 24 1b 3e 93 91 37 bf b0 03 7a bf
       1.4871242 0.15150788 -0.71706504 -0.97661877
0003d0 56 67 df 3f 43 2c 61 be 5a 45 01 be b2 41 62 3f
       1.7453411 -0.21989541 -0.12624112 0.88381493
0003e0 80 54 35 3f c2 3b fc be ce 48 5a 3d 00 39 6e bb
       0.7083206 -0.49264342 0.05329209 -0.0036349893
0003f0 f8 3a 06 bd 21 cb 34 be 57 06 02 40 3e 2c 49 3e
       -0.03277108 -0.17655613 2.031637 0.19645783

fc2.bias f4 [256]
000000 ae 35 1c 3f b9 28 70 bd cc 23 52 bd c3 e1 1c 3f
       0.6101941 -0.058632586 -0.05130367 0.61281985
000010 11 a2 94 3b df 54 cd 3e c0 50 88 3e 00 ff ae bc
       0.0045359214 0.40103814 0.26624107 -0.021361828
000020 c2 8b af 3f 18 95 95 3f e4 5c fb 3e 84 81 75 3e
       1.3714526 1.1686125 0.49094307 0.23975188
000030 4a cb 4c 3b 42 5d d2 3e 74 98 6b 3f 06 c3 77 bd
       0.00312491 0.41086775 0.920295 -0.060488723
000040 f6 dd 11 bd aa 64 fe 3e c8 d3 fe be 0a 63 2a bd
       -0.03561207 0.49686176 -0.4977095 -0.041598357
000050 c2 91 32 3f 84 9d 28 3f 57 00 1d 3f fd 75 17 3f
       0.6975366 0.6586535 0.61328644 0.5916441
000060 74 f7 1e 3f e5 88 4a bc cd 5d 1a bd 6c 38 88 3f
       0.62096334 -0.01236174 -0.03768711 1.0642219
000070 2a 2b 27 bd 55 d5 08 3f 8e 2e 27 bd 2a 0c 2c 3f
       -0.04081265 0.5345052 -0.040815882 0.6720606
000080 8c 9c 92 bd 2d df 09 3d b0 6c 52 bb d5 ff f2 3b
       -0.07158765 0.033660103 -0.003210824 0.0074157515
000090 4e d1 23 3f 19 47 bd 3e 2a 59 26 3f a0 22 82 3e
       0.6399125 0.36968306 0.64979804 0.25417042
0000a0 ee 54 1f bc a2 a2 1d 3e be 32 cc be b5 11 97 3e
       -0.009724839 0.1539407 -0.39882463 0.29505697
0000b0 3e e0 38 3f 6e 79 28 3d cb ce 65 3f b3 f0 5b bd
       0.72217166 0.04113143 0.89768666 -0.053696346
0000c0 e3 76 fc 3e 12 55 16 3d 1f 15 9f 3e c4 69 bd 3f
       0.49309453 0.036702223 0.31070802 1.4797902
0000d0 6a 55 77 3f b1 aa 2c 3f 92 c0 53 bd fa 00 bf 3f
       0.96614707 0.67447954 -0.05169732 1.4922173
0000e0 2b db 92 3f 54 da 4d 3d 6f 03 06 bf d7 a1 59 bd
       1.1473135 0.050257042 -0.5234899 -0.053132858
0000f0 95 bc a8 bc 60 19 0e 3f f8 8e c6 3e 01 77 2e 3f
       -0.020597735 0.5550747 0.38780951 0.68150336
000100 03 5f 0e 3c 30 02 08 bd dd d3 da 3e d7 5b c4 3f
       0.008689645 -0.03320521 0.42739764 1.5340527
000110 fd 64 16 3f 9d ec 87 3e 31 cc ab bd dd 9a 29 3d
       0.58747846 0.2654771 -0.08388556 0.041407455
000120 4a 67 df 3e 6b 63 70 bc c3 87 7e bd 27 47 c0 bc
       0.4363349 -0.014672141 -0.06214119 -0.023471428
000130 cd b1 7b 40 8f 93 66 40 fc 63 0b 40 15 f4 8d bd
       3.932727 3.6027563 2.1779776 -0.069313206
000140 63 f6 81 bd a7 89 11 3f c8 0b a9 bd 0e 9f a1 3e
       -0.06345823 0.56850666 -0.082542 0.31566662
000150 44 c7 4f 3d 80 6f 8c be ce 14 05 3f cd 31 12 3f
       0.050727144 -0.27428818 0.5198487 0.5710724
000160 75 a2 8e bd ed 20 8a bc 68 74 f0 3e 04 d3 69 3e
       -0.0696458 -0.016861403 0.4696381 0.22834402
000170 65 56 9e be 17 e2 b8 3e 59 7b 00 3f 95 07 35 3f
       -0.3092529 0.36109993 0.50188214 0.70714694
000180 13 79 23 3f ea 45 a2 3d 69 41 a7 3e 6a 38 98 3c
       0.6385662 0.07923491 0.3266709 0.018581588
000190 fd cb 55 3e cd 8b d4 3e 1f ce 12 bc bf ab 82 3e
       0.20878597 0.4151291 -0.008960276 0.25521657
0001a0 5f a0 a7 3e 62 ec 39 ba 49 b8 db 3d 14 8d 96 3e
       0.3273954 -0.0007092414 0.10728509 0.2940451
0001b0 c4 f8 31 40 2d cd 16 3d bc c3 5c 3c 81 d7 0e 3e
       2.7808084 0.036816765 0.013474401 0.13949396
0001c0 39 70 6c bd 67 38 1b bf 75 71 01 3f 37 91 b5 3e
       -0.05772421 -0.6063294 0.50563747 0.35462353
0001d0 2e e6 05 3f 09 62 37 3f 2b fd 05 3e 14 f6 49 3f
       0.5230435 0.71633965 0.13084857 0.7889111
0001e0 0c 20 0c 3f 28 d5 95 3d fe 80 1c 3d 64 ce 0e be
       0.547364 0.07316047 0.038208954 -0.1394592
0001f0 c9 82 17 bb 45 97 4c 3d 55 d2 f5 3e 1f a5 11 3e
       -0.0023118726 0.04994895 0.48012033 0.14223145
000200 58 25 09 3d 60 ac 1a bc 47 f0 86 3e fd 04 11 3f
       0.03348288 -0.009440511 0.26355192 0.56648237
000210 c7 a5 32 3e ee 08 67 bd b4 85 2c 40 5a 53 ef 3f
       0.17446052 -0.056405 2.6956606 1.8697312
000220 35 e1 84 bd fb 7e 1d 3f a7 cf 82 3f d6 ec af 3f
       -0.06488267 0.6152188 1.021962 1.3744152
000230 e9 2a 82 bc 8a a2 09 3f fc b4 e6 3e e8 95 ba 3f
       -0.015889602 0.5376364 0.45059955 1.4576998
000240 f9 54 fd 3e 05 a3 33 3f ef e3 04 3f 83 04 32 bd
       0.49478891 0.70170623 0.519103 -0.043461334
000250 7d b6 8e 3d c8 a9 e2 3c f5 f3 e1 3e fa b9 2a 3f
       0.069684006 0.027668849 0.44131437 0.6669003
000260 5d 7d 46 3e 1e ce de 3e 9d c7 d1 3e 3b 90 14 3f
       0.1938376 0.4351663 0.40972605 0.5803258
000270 3c 4e 49 bd 39 52 56 3f 69 56 be 3e 5f 0c 91 3c
       -0.049146876 0.8371921 0.371753 0.017706094
000280 54 b7 32 3d ef 2a bf 3e e4 23 9e 3e 40 32 c3 3f
       0.043631867 0.37337443 0.30886757 1.524971
000290 2b 5a 25 be cc 9f b2 3e 56 b2 e2 3e 0e 29 5f bd
       -0.16147678 0.3488754 0.44276685 -0.054482512
0002a0 b0 ef 0f bd 6c 84 13 bf 44 7f 3a 3f f1 d8 a0 3e
       -0.035140693 -0.57623935 0.7285044 0.31415513
0002b0 44 bc bc 3e 75 8d 15 3d e0 3c 0a 40 ff 50 dd 3b
       0.36862385 0.036511857 2.1599655 0.0067540403
0002c0 58 cd 8b 3c b4 8e 0d 3f 6f e6 c4 3c 13 3b a7 3e
       0.017065689 0.5529587 0.02403566 0.32662258
0002d0 27 ac 0d 3d 7c de 26 3f 9b c9 3c 40 e5 91 35 40
       0.034588005 0.65183234 2.949805 2.8370297
0002e0 82 6d bc 3c 90 94 30 3f 0e b0 8f bb 6d 0d 3e 40
       0.023001436 0.6897669 -0.004385001 2.9695694
0002f0 16 4c c2 3e 2e 94 0b 40 32 c2 80 3f cc eb f4 3c
       0.37948674 2.1809192 1.0059264 0.029897593
000300 a7 f0 b9 3e d3 b8 4a 3f ea d2 25 3f 96 f1 aa bc
       0.36316416 0.7918827 0.64774954 -0.02086715
000310 98 ff 2d 3f aa dc 55 bd b7 18 d3 3c fb 7c a6 3e
       0.6796813 -0.052212395 0.02576862 0.32517228
000320 d9 10 e3 3e c5 57 b9 3f a7 da 20 3f 74 82 3d 3d
       0.4434879 1.447991 0.62833637 0.046266988
000330 18 6b 37 bd ea 96 6a 3f da bb 6b bd fb ae 77 bd
       -0.044779867 0.91636527 -0.057552196 -0.06046961
000340 49 bf 09 3f d1 c5 a4 bc 4c ce 1e be 2e 83 d4 3e
       0.53807503 -0.020113857 -0.15508384 0.41506332
000350 62 56 c3 bc 7a cc fc 3b 80 a2 33 3f b2 dc ff 3e
       -0.023844901 0.007714805 0.7016983 0.49973065
000360 aa 15 08 3f 12 70 0c 3d c1 a6 6c 3d bc b9 39 3f
       0.53158057 0.034286566 0.057776216 0.72549033
000370 6f 48 05 3f e5 b8 35 3f 00 fa 74 3f 03 99 66 be
       0.5206365 0.7098525 0.9569397 -0.22519307
000380 4d 18 30 bd 35 66 48 3f 54 f8 cb 3e a7 15 9a 3e
       -0.042991925 0.78280956 0.39837897 0.30094644
000390 7d 34 08 3e 0c 09 68 be c9 fc 34 40 20 62 84 3e
       0.13301273 -0.22659701 2.8279288 0.25856113
0003a0 15 29 28 3f ef c0 92 3e 9f 1e 20 3f 7a 48 ea 3e
       0.65687686 0.28662822 0.62546724 0.4575842
0003b0 d7 40 01 3f d4 e5 34 3f 6b d4 52 3f 05 00 90 bd
       0.5048956 0.7066319 0.82355374 -0.07031254
0003c0 dc a0 54 3f 88 c4 0f bd e5 f0 48 3f d6 7b 2e 3f
       0.8305795 -0.035099536 0.78492576 0.6815771
0003d0 87 de f4 3c 51 4e 84 bd 57 9c 83 3f 1e 0b d3 3f
       0.029891266 -0.0646025 1.0282086 1.6487768
0003e0 c4 f9 87 3c 4f 63 33 3e 90 b8 30 3c 0a 6d 0c bc
       0.01659859 0.17518352 0.010786191 -0.008570919
0003f0 57 2f 04 bd 16 fc 0c be b0 32 c6 3e 80 d4 aa bc
       -0.03227171 -0.13768038 0.38710546 -0.020853281

fc3.weight f4 [81, 256]
000000 84 ce 45 be fc 1d 18 3b e8 f4 75 bc b1 e4 0e be
       -0.1931706 0.0023211231 -0.0150120035 -0.13954426
000010 9e fe 32 3d 33 21 42 be 4a 02 a2 bd 24 c3 89 3b
       0.043699853 -0.18957977 -0.07910593 0.004204171
000020 a9 48 af bd 36 a4 ad bd af 85 06 3f 97 f6 f0 bd
       -0.08558781 -0.084785864 0.52547735 -0.11765783
000030 c0 ce c2 bc c4 c0 8f 3e e7 ed f3 3b be ff 0b bd
       -0.023780227 0.28076756 0.0074441317 -0.03417944
000040 12 ab 49 3d 6b 46 75 bd fa a3 6f be 10 fc 79 3c
       0.04923541 -0.05988161 -0.23402396 0.01525785
000050 e9 13 8d bd d7 2f 08 be bf 4c d7 be 80 97 30 be
       -0.06888563 -0.132995 -0.4205074 -0.17245293
000060 17 f6 81 bb 80 57 6c 3b ac 26 3c 3d 9c 64 93 3d
       -0.003966104 0.0036062896 0.045935318 0.07196924
000070 34 08 fe bc 9b a5 10 bd b0 8e 78 bd 7a 48 41 be
       -0.03100977 -0.035314184 -0.060682952 -0.18875304
000080 64 3d 49 bd fd 19 c7 3c 01 92 5e bd cb d6 c6 bb
       -0.049130812 0.024304384 -0.05433846 -0.006068086
000090 1e 9b 09 3f 6d 2e f8 bd c2 26 48 be ca 9a b3 bd
       0.53752315 -0.1211823 -0.19546035 -0.08769758
0000a0 c3 9e 50 bd f8 16 3b be f1 d9 3b be f8 b4 a7 bd
       -0.050932657 -0.1827048 -0.18344857 -0.08188814
0000b0 2c 52 86 be 7a 31 70 bd f5 40 b3 3c 28 08 02 bc
       -0.26234567 -0.058640935 0.02188156 -0.007936515
0000c0 77 a2 20 be 78 e8 07 3c 33 10 08 be 24 aa ab bc
       -0.15686975 0.008295171 -0.1328743 -0.020955153
0000d0 dd 46 03 be c6 a8 2d be a0 50 2c bd dc 42 be bd
       -0.12820001 -0.16958913 -0.042069077 -0.09290096
0000e0 65 f4 4f bd 4e 8f 6f bd 4c f4 23 bd 50 75 56 bd
       -0.050770182 -0.058486275 -0.0400279 -0.05235797
0000f0 96 32 33 bd 03 23 85 be 75 06 1b be ec 0c 94 3d
       -0.043749414 -0.26003274 -0.15139182 0.07229027
000100 48 53 d4 3c 99 93 f1 3c 24 e0 33 be 39 1e a8 bd
       0.025918618 0.029489325 -0.17565972 -0.082088895
000110 94 fe 51 be 6a a5 d6 bd 78 6e 97 3d b0 e7 51 bd
       -0.2050727 -0.10480769 0.07394117 -0.051246345
000120 85 bd 25 be c0 f5 2d bc c1 3c 26 bd e0 6d 3a bb
       -0.16185577 -0.010617673 -0.040585283 -0.0028446838
000130 6b 69 1d 3d 1c 65 a9 3d aa b5 78 3d 02 e7 92 bc
       0.038430613 0.08271238 0.060720123 -0.017932419
000140 20 67 38 3b 43 8f 13 be 33 02 80 3d 34 92 2e 3f
       0.002813764 -0.14410119 0.062504195 0.6819184
000150 7f 31 72 be a6 b4 d7 3d e5 0d ae be ec a7 bb 3d
       -0.23651694 0.10532503 -0.33994976 0.09162888
000160 36 17 74 bd 02 a7 57 bd 36 4c e4 bd 01 f1 14 be
       -0.05959245 -0.052649505 -0.111473486 -0.1454506
000170 ba 02 5d be f8 cb b2 bd 61 42 f9 bd 24 30 a4 3e
       -0.21583071 -0.0873031 -0.12170864 0.32067978
000180 42 6f 1a 3f 30 08 58 3d 35 94 50 bd 43 8a 7f bd
       0.60326016 0.052742183 -0.05092259 -0.062387716
000190 33 38 0b be c2 19 9c be 02 f3 50 3d cf a4 6a be
       -0.13595657 -0.30488402 0.051013 -0.22914432
0001a0 0e a0 30 3b 6e 4d 77 3d a0 43 2e be 3f b0 5a bd
       0.0026950869 0.060376577 -0.17017984 -0.053390738
0001b0 9f 20 23 be ac 57 ef 3c 10 e8 05 bc f5 f7 05 be
       -0.15930413 0.02921661 -0.008173004 -0.1308287
0001c0 9b 0b 6e bd d2 98 39 3e 86 87 b6 be 9b 89 66 be
       -0.058116537 0.18124703 -0.3565027 -0.2251343
0001d0 a6 7e c2 3e 91 ea 97 be f7 ba b3 bd 48 91 55 be
       0.3798725 -0.29671147 -0.08775895 -0.20856202
0001e0 b3 a0 68 3c 4c f0 54 bd d8 ff 44 3c 6a 21 fa bd
       0.01419847 -0.051986977 0.0120238885 -0.122134045
0001f0 f8 03 37 bd cf cf be 3c 8a 83 7a 3e 24 b3 70 be
       -0.04468152 0.02329245 0.2446424 -0.23505837
000200 30 2f 1b bc 20 7b bf 3c 00 5a fc 3b 5b c7 fb bd
       -0.0094717 0.02337414 0.0077011585 -0.122938834
000210 48 18 1b be c0 ab d5 3c d7 69 03 3e 0d b5 4a bd
       -0.15145981 0.026082873 0.12833343 -0.04948907
000220 80 4b 95 ba 0f 1d 1b be 16 03 04 be 6c ff 9c 3d
       -0.0011390299 -0.15147804 -0.12891802 0.07665905
000230 40 22 e7 3c 47 86 cd bd 86 48 55 3d ff 39 0a bd
       0.028214574 -0.10035377 0.052071117 -0.033746716
000240 dc 7e 45 be 33 a4 22 be c2 5e 80 bd 78 a6 3e 3c
       -0.19286674 -0.1588295 -0.062680736 0.011636369
000250 79 45 f0 bd b0 47 bd bb e2 8e f4 bc 6d 2a 20 be
       -0.11732001 -0.005776368 -0.029853288 -0.15641184
000260 d3 ef 74 3c ee 64 17 be b0 78 12 bd 76 a6 88 be
       0.014949757 -0.14784595 -0.035759628 -0.266895
000270 ab 02 67 ba 64 cd 21 be 22 3e 9a bd c0 d3 8c bb
       -0.0008812348 -0.15801007 -0.07531382 -0.0042977035
000280 32 19 6b 3d 1a ea 4b 3c a2 98 66 3d bf 1b eb bd
       0.057397075 0.012445951 0.056297906 -0.114799015
000290 f6 c8 05 be 3c 1b 47 be 8b 30 95 3e 3e 5a 59 3d
       -0.13064942 -0.19443983 0.29138598 0.053064577
0002a0 2c 46 fd 3c 05 1f 0a 3b 70 34 3f 3e dc dc ac 3e
       0.03091725 0.0021075618 0.18672347 0.33762252
0002b0 ba df 95 3e 7a 73 47 bd 6b 03 b6 3d 91 7f 15 bf
       0.29272252 -0.04869411 0.08887371 -0.58397776
0002c0 6b 47 4c bc ae b7 04 be 40 1b 71 bb 85 7d ca bb
       -0.012468199 -0.12960693 -0.0036789924 -0.006179514
0002d0 ef 12 6a be b4 ec 0e be 71 1f 8e 3d b5 93 71 3c
       -0.22858785 -0.13957483 0.06939591 0.014744689
0002e0 68 53 29 3d e4 94 0a be d8 16 6f 3c 83 87 20 be
       0.041339308 -0.1353336 0.014592849 -0.15676694
0002f0 15 60 38 3c 55 ea 37 be aa 20 f1 bd 46 be 44 3d
       0.0112533765 -0.17960484 -0.11773808 0.04803302
000300 2d 1d 10 be 47 2d 4b bc dd fb 31 be 14 29 71 3c
       -0.1407363 -0.012400932 -0.17381234 0.014719266
000310 16 2e 10 be d8 ba 53 3d a2 ef 6d bd a7 62 33 be
       -0.1408008 0.05169186 -0.05808986 -0.17518102
000320 09 5f d7 bc 4b fd 93 3d fe c2 97 bc da 9f 60 bd
       -0.026290433 0.07226046 -0.018525597 -0.054839946
000330 e0 06 4d bd 5c c2 2f be 66 de 0f bd 0a 20 5d 3d
       -0.050055385 -0.17163986 -0.035124205 0.053985633
000340 2b ad 5b bd 2c 6b aa bc e1 ba 51 be a8 d0 f7 3e
       -0.053631943 -0.020803057 -0.20481445 0.4840138
000350 4c 80 80 3d 06 97 63 3d 0f 56 24 bd f0 af 23 3f
       0.06274471 0.05556395 -0.040121134 0.63940334
000360 b9 a0 38 bd d0 d6 ea bb 00 bf ac ba 55 07 b8 bd
       -0.045075152 -0.007166721 -0.0013179481 -0.089857735
000370 a6 17 66 be 83 ed d3 3d 3b 62 38 3e d8 1a 05 be
       -0.22469959 0.10348036 0.18006222 -0.12998521
000380 bb 5e 5c bd 7b 31 6c bd 16 f1 83 be 85 58 9c 3e
       -0.05380128 -0.057664376 -0.2576987 0.30536285
000390 39 ff 14 bd 17 93 51 3e 53 54 09 3d 4a ff 38 be
       -0.03637621 0.20466267 0.033527683 -0.18066135
0003a0 8f 46 d3 bd 48 b0 6e be c1 a0 c4 bc 13 39 90 bd
       -0.10316192 -0.23309433 -0.024002435 -0.07042136
0003b0 69 6a fb bd cd a7 3e be 4d 38 6b be d8 ce 24 3d
       -0.122761555 -0.18618698 -0.22970696 0.040236324
0003c0 53 7b 89 3d 4e 60 33 3d 9a 26 f1 bd fc 17 2b be
       0.06712975 0.043793015 -0.11774941 -0.16708368
0003d0 1a d0 47 bd 50 55 d5 3b ab cf 0e 3e 51 e8 8d bd
       -0.048782445 0.006510414 0.13946407 -0.069290765
0003e0 39 72 22 3d a4 48 5f bd c2 86 7c bd d0 53 55 3d
       0.039659712 -0.054512635 -0.061651953 0.052081883
0003f0 58 74 4a bd 25 3d 89 3c f7 1c b9 bc 74 35 a3 3c
       -0.04942736 0.016752789 -0.02259682 0.01992295

fc3.bias f4 [81]
000000 42 f3 a2 3e 0c 02 d8 3e a5 41 b7 3e bd ae 36 3e
       0.31826216 0.42189062 0.3579227 0.17840095
000010 01 17 de 3e a2 8e 03 3f cd bf 0f 3f 0d 31 1c 3f
       0.43376926 0.51389515 0.5615204 0.61012346
000020 16 c3 20 3f ca 3d a5 3e 32 47 1d 3f e5 88 5a be
       0.6279768 0.32273704 0.6143676 -0.21341284
000030 4a 27 16 3f 09 2a 9c 3e c6 51 6e 3e 0f 44 26 3f
       0.586537 0.3050082 0.23273382 0.649476
000040 d7 9f 00 3f 6e 2e 42 3f b8 b0 9d 3e 37 b9 cd 3e
       0.50243896 0.75852096 0.30798888 0.4018037
000050 f6 ab 27 3f b2 a5 6f 3f 81 4a 01 3f 73 80 5c 3f
       0.65496767 0.93612206 0.5050431 0.861335
000060 b0 96 7e 3f e0 59 ae 3e cb c9 92 3e 48 48 e8 3e
       0.9944868 0.34052944 0.2866958 0.45367646
000070 5b f0 95 3e 42 14 a6 3e 8b ad be 3e c7 7b 00 3f
       0.2928494 0.3243733 0.37241778 0.5018887
000080 ef 2a 0c 3f cc bf 0d 3f 2d 2e c7 3e d5 a4 b4 3e
       0.5475301 0.55370784 0.38902417 0.35282007
000090 4b 9c ab 3e 42 53 da 3e 7b c8 25 3f 8f 94 54 3f
       0.3351768 0.42641646 0.64759034 0.8303918
0000a0 de cc 52 3f c5 6d 11 3f 26 22 21 3f 0e ec 0f 3f
       0.8234385 0.5680812 0.6294273 0.56219566
0000b0 41 88 fb 3e 46 50 45 3f 39 25 3b 3f 49 51 d9 3e
       0.4912739 0.7707561 0.7310367 0.42444828
0000c0 54 13 ce 3e c3 c6 db 3e 6c 01 44 3f d3 6e 19 3f
       0.4024912 0.4292508 0.7656467 0.5993473
0000d0 6b dc 23 3f 87 0f 3b 3e 37 ab f4 3e 11 85 ad 3e
       0.64008206 0.18267642 0.47786877 0.33890584
0000e0 e4 df 73 3e fc 40 be 3e 6e 41 fe 3e 40 a7 de 3e
       0.23815876 0.37158954 0.49659294 0.43486977
0000f0 45 b1 c8 3e 0b ca a3 3e 2c dd 10 be 23 15 49 3f
       0.39197746 0.31990084 -0.1414687 0.7854788
000100 7e 09 d1 3e d6 2c 9e 3e c3 fb 42 3f 57 2e 3d 3f
       0.40827554 0.30893582 0.7616541 0.73898834
000110 10 ad 71 3e 5d 3b 9e 3e 0c 04 04 3f c5 f7 29 3f
       0.23601174 0.30904666 0.51568675 0.6639369
000120 7c 57 b0 3e f1 5a 16 3f 56 8b 1f 3f fe be f7 3e
       0.34441745 0.58732516 0.62321985 0.48387903
000130 fa fa 70 3f 34 3a de 3e 85 04 79 3f 44 e9 19 3f
       0.9413296 0.4340378 0.9727252 0.6012156
000140 54 c4 1b 3f
       0.6084645
