code/outputs/EV_Charging_Pricing/multi-seed2/models/dqn_checkpoint.pth (torch, 354391 bytes, 6 tensors)

fc1.weight f4 [256, 5]
00000000: 15e5 dbbe acf1 c7be acd3 ad3e 46fe 7ebe
00000010: 4ceb 8cbd 5ff5 063d 7263 f83d a12a c53f
00000020: 2dc3 1c3f 5077 3f3f 9ecd c3bd 9d60 b13c
00000030: ffe2 fa3f 1bde 8c3f bc6f a73e 406d 033f
00000040: 5738 55be b4b9 8bbf e97b a1bf f759 81bf
00000050: ac65 903d f404 9dbd 1451 e73f c49e 813f
00000060: 651e cdbf 5977 10be 113d ff3e 85a2 fb3f
00000070: 839c 293f 26b4 3f3f bfe6 a23e c821 bf3e
00000080: d755 503c e14d 82bc 3e1e 8a3f 89aa 1bbd
00000090: 68fa 0d3f 0668 f53e c953 613e 8c52 823f
000000a0: 6aa2 2abf 5b80 17bf a736 19bf 6401 6bbe
000000b0: 7287 3d3f 6e9a bb3d eab4 033d 50fa b43f
000000c0: 0bfd 9abe 224c ab3d c04a cd3d a2c1 afbe
000000d0: 50e5 9abe e03d 7cbc 850c a3be 9a0c 563d
000000e0: 588b ee3d 47b8 ac3f d8ab 103f f8fc 253f
000000f0: fcd6 7cbf 9282 89bf b826 11bf 2642 46be
00000100: 2c14 c93f 6ec2 0bbd 8002 9ebc 9385 d83f
00000110: 5bd5 8b3f 39c6 13bf adde 60be eb45 c3be
00000120: b20f cc3e 10cd c33c 5eca b2be f64a afbd
00000130: 7eae 08bd e9e9 02bd 77e2 6e3f e98b de3e
00000140: 0836 a23e 5757 5bbe 5fb6 443f 3dbe 883e
00000150: 227b c8be 1f7b 96be 2279 6a3e 3b8c a03f
00000160: ac0d 793f 144d c7bf 3079 a7be a747 74be
00000170: 1c47 9dbd f86a d7be c6bb 31be c0ea 133d
00000180: b930 babe e4fd 533e 9132 b9be a08e 95bc
00000190: e74e 4cbe 7870 65be b7b3 9c3e a2d3 aa3e
000001a0: d2aa e33d 8162 3b3c 91af cd3d b614 c93f
000001b0: e7e9 943f 2f0b 8e3f 7fce b03e f4af 653f
000001c0: f3ec 873f b30c 2c3f 105f b13f 9c51 1b3c
000001d0: 936e efbb d3ff c73f 4d83 0f3f 0acb d1bf
000001e0: b354 683e 90d6 33bd 95d8 173f 05b2 6f3f
000001f0: ca1f 46be e0d0 803d 1ec3 13be 40c8 933e
00000200: 680b e03d 74da 013e fcba 383d 36f4 c6bd
00000210: d256 883f 3deb cc3f dabb 97be 1697 2d3e
00000220: 68cc f93d 2a3b b13f 1330 033f cf07 5b3f
00000230: aa43 ac3d a124 9dbd c1b8 e83f 92b8 833f
00000240: 0d04 a9be a0b0 b7bd 3e8c 883e e8c7 0640
00000250: f3ae 403f d735 8f3f c104 7abe 973d 7d3e
00000260: 0df7 953f 9b47 a23f 1d9a 60bf aaea 003f
00000270: cb10 653e e8a7 4abf 194b 70be 9918 2f3f
00000280: 7967 ed3b 442d 38bd 4e40 b33f ce72 6f3f
00000290: ac81 62bf 39f6 5d3e c1e2 29be 5643 c23f
000002a0: 497e 543f 2900 de3c e06b 8abe c808 963e
000002b0: a72b 1140 f1ff cc3f 3e49 c13e 829f 89be
000002c0: 6630 663e 2c4a 0940 3d62 cb3f c3bc 873d
000002d0: 338e 163f e52a 6cbe 0890 75bf 3309 88bf
000002e0: 94a9 0dbf f372 c1be 2c82 bb3e 2b79 a13f
000002f0: 176f 103f 633b a1bf 8186 c1be e2a9 8abf
00000300: 3374 6cbf 7b2b bbbe 1393 f03f fea8 55be
00000310: a9f9 1c3e a57b be3f b258 4f3f 5168 b0bf
00000320: 13e1 063d d6fe 443d b677 b33f 5cb6 a13f
00000330: 4da6 473f 836b f23d 1118 fb3e 0f98 3abe
00000340: 114c 01be 9314 5e3f 9bc4 babd 58b1 923e
00000350: c999 293f a96a 0140 bb08 b93e ada5 24bf
00000360: bf3d 96bf ebb9 38be 7c0b 2cbf 1b7f 1040
00000370: 7a42 013f 437e 3dbe 4f80 95bf 8d66 6fbf
00000380: 7f72 42bf cf97 e2be 2879 87be 1c28 96bd
00000390: ef37 c8be e44f 473e 6625 db3d dd3c 8e3e
000003a0: df7c 9bbf 6b2f b5bf 6f55 3a3e 502b 253e
000003b0: 9cd9 88be d044 00bd cc21 c8be d34f 4cbe
000003c0: 1970 5dbe aef3 133e c14d ac3f 0f59 aa3f
000003d0: 2585 913e 4ad1 89be 5845 16be cca7 b53e
000003e0: 085a bd3e 4c69 68be 29d0 2bbb 2ae1 723e
000003f0: 4a2e 1b3f eb9e b33e 247c f7bf 3986 9abe
-0.42948213 -0.39051569 0.33950555 -0.24901685 -0.06880817 0.032948848 0.12128343 1.5403634
0.61235315 0.7479143 -0.09560703 0.021652514 1.9600524 1.1005281 0.32702434 0.5133858
-0.20822273 -1.0916047 -1.2615939 -1.010558 0.07050642 -0.0766696 1.8071618 1.0126576
-1.6024901 -0.14108028 0.49851277 1.9658972 0.6625444 0.7488426 0.3181667 0.3733046
0.012715778 -0.015906276 1.0790479 -0.038004432 0.55460215 0.47930926 0.22004618 1.0181441
-0.66654074 -0.5918023 -0.5984902 -0.22949749 0.740348 0.091603145 0.032154955 1.4138889
-0.3027118 0.083641306 0.10024023 -0.34327418 -0.30253077 -0.0153956115 -0.3184549 0.05225811
0.116476715 1.3493737 0.5651221 0.64839125 -0.9876554 -1.0742972 -0.56699705 -0.19361171
1.5709281 -0.03412097 -0.019288301 1.6915764 1.0924486 -0.5772434 -0.21959944 -0.3813928
0.39855725 0.023901492 -0.3492002 -0.085592195 -0.033369534 -0.031961355 0.9331431 0.43466118
0.31681848 -0.21420036 0.76840776 0.2670764 -0.39156443 -0.2939081 0.22897771 1.2542795
0.97286487 -1.5570397 -0.32709646 -0.23855458 -0.07679579 -0.42073798 -0.17356786 0.036112547
-0.36365297 0.2070232 -0.36171392 -0.018256485 -0.19951974 -0.22406185 0.30605862 0.33364588
0.11116566 0.011437059 0.10043252 1.5709445 1.1633881 1.1097163 0.34532544 0.8972161
1.0619186 0.6720688 1.3857136 0.009479906 -0.0073068826 1.5624946 0.56059724 -1.6390088
0.2268856 -0.043905795 0.5931485 0.9363101 -0.19348064 0.0628984 -0.144299 0.28863716
0.109396756 0.1268099 0.045100197 -0.09714548 1.0651495 1.6009289 -0.29635507 0.16952166
0.121971905 1.384618 0.5124523 0.8555879 0.084113434 -0.07673002 1.8181382 1.0290701
-0.33010903 -0.089692354 0.26669496 2.1059513 0.7526695 1.1188306 -0.24415876 0.24730526
1.1716019 1.2678102 -0.8773516 0.5035807 0.22369687 -0.79162455 -0.23466147 0.6839691
0.007245001 -0.044965044 1.4003999 0.93534553 -0.88479114 0.21675958 -0.16590406 1.5176799
0.83005196 0.027099686 -0.27035427 0.29303575 2.2682893 1.6015607 0.37751192 -0.26879507
0.224794 2.145152 1.5889355 0.066278 0.5881073 -0.23063238 -0.959229 -1.0627807
-0.5533688 -0.37783012 0.3662275 1.2615103 0.5641951 -1.2596248 -0.3779793 -1.0833094
-0.92364806 -0.3655661 1.8794883 -0.20865247 0.15329613 1.4881483 0.80994713 -1.3781835
0.03292949 0.048094593 1.4020908 1.2633777 0.7798813 0.118369125 0.490418 -0.18222068
-0.12626673 0.86750144 -0.09119531 0.28650928 0.6625028 2.022135 0.36139473 -0.643153
-1.1737593 -0.18039672 -0.67205024 2.257758 0.5049206 -0.18505196 -1.1679782 -0.93515855
-0.7595596 -0.44256446 -0.26459622 -0.07331869 -0.39105174 0.1946407 0.107004926 0.2778081
-1.2147483 -1.4155096 0.18196653 0.16129804 -0.26728523 -0.031315625 -0.39088285 -0.19952326
-0.21624793 0.14448425 1.3461229 1.3308429 0.28421894 -0.26917487 -0.1467489 0.3547958
0.3698275 -0.22696418 -0.0026216602 0.23718706 0.60617507 0.35082182 -1.933476 -0.3018053

fc1.bias f4 [256]
00000000: 6c22 e2be 2e66 2d40 15df 2240 df28 963e
00000010: 39da 423f 1cf3 2040 5d02 4cbf 1698 223f
00000020: c08d c03f d1e8 7b3f 5c67 c9bd cfe6 2340
00000030: 8b39 4b40 32f5 c43f 9629 5abe bcc2 c63e
00000040: 001e c23f fb68 a13e aed1 1bbe 4e07 0ebe
00000050: ab97 0cbe c4a0 2c40 4969 0140 771d cf3e
00000060: 0304 c23f 8f69 b8be 902b c83f ea1e 0740
00000070: 2405 f43f 5cd2 3b40 ee62 813f 103c 01bf
00000080: 33d9 bf3f 00a2 cd3f 89f5 3140 d266 1f40
00000090: 0d28 82bf e59c c33d 4b2f 2d40 898a 0c3f
000000a0: cf54 1740 5958 713e 2461 ac3f 6c16 4140
000000b0: afeb 82bf 1a21 79be 10a3 aebf 40a5 d13b
000000c0: 72fa 2e40 a097 5c3d ba4e 7ebe 1bce 1a40
000000d0: be62 313f 9418 4d40 4ae9 a6bf caa7 e83f
000000e0: 88f6 5840 5a81 8b3e 7493 cebe 17e1 bd3f
000000f0: 29f8 1540 23bc 753f f2ce 1140 b718 4040
00000100: c1e6 77be aaa9 23be b200 743f 27ba 38be
00000110: e4de 8ebd 43bd 1140 2881 26be 04b6 a8bf
00000120: 13cd e73f 9ea7 ea3f b498 ce3f bf33 bbbd
00000130: b470 853f ffdb 6440 e833 2440 0b24 8f3f
00000140: 9718 4540 1e82 3740 f113 b8bf a152 3540
00000150: d013 753f 569f 44bf 72d5 9abe b310 ed3f
00000160: d02a 5f3f f103 ac3e b565 b23e db62 1940
00000170: 8f26 e03f e9dd 69be 50eb cb3f 9f8d 9340
00000180: dd66 65be b63d 94be 26e7 1d3f 244d bb3f
00000190: cec7 833f 3938 15be ed20 1b40 f955 a43f
000001a0: be36 4c3f f8a5 d83f e8b2 b3be 58d9 403f
000001b0: 6f19 663f 7dba b83f 8632 2340 f6d0 30be
000001c0: 896a d93f 1999 3840 92d4 4940 ad07 223f
000001d0: ee76 3dbe 8bb1 91be 8908 3c40 0b68 8b3f
000001e0: f8cb 41bf 525c d5be 5102 4abe 1482 593d
000001f0: b71e 0740 dac1 f73f 8670 86bd 9e87 74bf
00000200: c719 dcbd af6e 5440 16b7 6cbf b032 91bf
00000210: ec93 56bf 8c76 1a40 3e63 2c40 fa82 c93f
00000220: 5542 c2be 22df 343f 72d0 3d40 709c 1e40
00000230: e0be 973f c00d 79bf a0f2 2bbf 2a7a 7840
00000240: 70a6 863c b631 cd3e c0f9 f63e eec7 8340
00000250: 094f c2be d180 1640 e7a9 5640 e18c f3be
00000260: 7b13 6f40 351c 24be abdc b63f 34d9 3a40
00000270: c2c1 043f 01c7 e63f ecf3 2a40 4bdc 2540
00000280: c9db 0140 de6c a1be 3b1e 8140 c91b 3a40
00000290: f09d 55bf 6f18 b6bf 80b3 4540 9880 4f3d
000002a0: 34c8 acbe 3ae2 863f 32ca d2be 4aee 653f
000002b0: 2762 07bd 7794 6ebe 2174 1240 82c0 ab3f
000002c0: 4071 2f40 6a3e 2abe d223 bd3f 6035 f53f
000002d0: 1f03 a8bf dcf9 a2be 511d 62bf 2f99 0640
000002e0: cb9c c9be 6e5d 4a40 dd53 1940 a020 b3bd
000002f0: f092 3d40 2b78 4340 fcaf 0fbe f812 c7bd
00000300: 0e73 0d40 0b1b 6540 f392 d43f bcbc 44bd
00000310: 0813 94bd e25c 0240 b518 0840 3a27 3140
00000320: c2aa 1c40 9c74 d8be 3705 5ebe a645 aabe
00000330: 1ccc 1040 cf02 df3d 2a51 b13f 23b5 a0bf
00000340: 1a9c 203f f1e6 0840 ad66 abbe 5de9 8340
00000350: e27a e13f 5fa5 95bf b40b b7bd cac2 1640
00000360: 91b3 aabd 2825 0fbe 4fe1 8b40 25e4 7bbf
00000370: adcf 7940 0c95 6f3d 4e87 3fbf 3512 593e
00000380: 3454 6940 337c 673f 563b 1340 0b1a 9b3f
00000390: 60a4 073e acc6 acbd c24f f9be f8ac afbf
000003a0: dc8c 553f 4d7f 7cbe 7d61 adbe 2274 fd3f
000003b0: a2f5 a3bf 58d8 6b3f 3d02 1ebe 3f6c ef3e
000003c0: 536d 9a3f b63b f23f 2428 c93f 8e60 ca3f
000003d0: 3a9f edbc 4357 40be 87e3 0140 8be0 cc3f
000003e0: 9a0a 3c40 d2c1 3340 d298 ee3f e726 0d40
000003f0: 797d a33f 1f80 1640 50ba f13c d0b6 7dbd
-0.44166887 2.7093616 2.5448658 0.29328057 0.7611423 2.5148382 -0.79691106 0.63513315
1.5043259 0.98402125 -0.09834167 2.5609624 3.1753871 1.5387328 -0.21304926 0.38820446
1.5165405 0.31525406 -0.15216705 -0.13869974 -0.13729732 2.6973124 2.022051 0.40452167
1.5157474 -0.36018035 1.5638294 2.1112618 1.9064069 2.9347143 1.0108316 -0.50482273
1.4988159 1.6065063 2.7806113 2.4906507 -1.0168473 0.0955141 2.7060115 0.5489889
2.3645513 0.23568858 1.3467145 3.0169935 -1.0228175 -0.24329033 -1.3643513 0.006397873
2.734036 0.05385554 -0.2483472 2.4188297 0.69291294 3.2046251 -1.3039944 1.8176205
3.390047 0.27247125 -0.40346873 1.4834317 2.3432715 0.959902 2.278256 3.0015085
-0.2420912 -0.1598269 0.9531356 -0.18039761 -0.06976107 2.2771766 -0.16260207 -1.3180547
1.8109459 1.8332403 1.6140351 -0.09140729 1.0425019 3.5759275 2.565668 1.1182874
3.0796258 2.8673167 -1.4381086 2.8331683 0.95733356 -0.7680563 -0.3024097 1.8520721
0.871747 0.33596757 0.3484322 2.3966587 1.7511767 -0.22838558 1.5931187 4.6110377
-0.2240252 -0.28953332 0.6168083 1.4632916 1.029535 -0.14572228 2.4238846 1.2838737
0.7977103 1.692565 -0.35097432 0.7533164 0.8988256 1.4431912 2.5499587 -0.17267212
1.6985637 2.8843443 3.1535993 0.6329296 -0.185024 -0.28455767 2.938021 1.0891126
-0.75701857 -0.41671997 -0.19727446 0.053102568 2.1112497 1.9356034 -0.06564431 -0.95519435
-0.10747104 3.3192556 -0.92466867 -1.1343594 -0.8381946 2.4134855 2.6935573 1.5743096
-0.37941232 0.70652974 2.9658475 2.4782982 1.1855125 -0.97286606 -0.6716709 3.8824563
0.016436785 0.4007699 0.4823742 4.1181555 -0.37950924 2.3516123 3.35412 -0.4756842
3.735564 -0.16026385 1.4286093 2.919507 0.5185815 1.8029481 2.6711378 2.5915706
2.0290396 -0.31528372 4.0349402 2.9079459 -0.8344412 -1.4226207 3.0890808 0.050659746
-0.33746493 1.0537789 -0.41169888 0.89816725 -0.03305259 -0.23298822 2.288338 1.3418124
2.7412872 -0.16625372 1.4776556 1.9156914 -1.3125952 -0.31831253 -0.88325983 2.1030996
-0.39377436 3.1619525 2.3957436 -0.08746457 2.9620934 3.0542095 -0.14031976 -0.09720415
2.2101474 3.5797756 1.6607345 -0.048031554 -0.072301924 2.036919 2.126508 2.7680192
2.4479222 -0.42276466 -0.21681677 -0.33256263 2.2624578 0.108892076 1.3852894 -1.2555279
0.6273819 2.1390955 -0.33476773 4.1222367 1.7615626 -1.1691092 -0.08937779 2.355639
-0.08335031 -0.13979018 4.3712535 -0.98394996 3.9033005 0.05849175 -0.74815834 0.21198352
3.6457644 0.9042389 2.3004966 1.2117323 0.13246298 -0.08436331 -0.48693663 -1.3724661
0.8341806 -0.24657936 -0.3386344 1.9801066 -1.2809336 0.9212699 -0.15430541 0.46762273
1.2064613 1.8924472 1.5715375 1.5810716 -0.02900659 -0.18783288 2.0295122 1.6006025
2.938147 2.8087049 1.8640387 2.2054994 1.2772666 2.35157 0.029507786 -0.06194192

fc2.weight f4 [256, 256]
00000000: f07a e93c 7db6 2b3e 6404 483f 865d 1d3e
00000010: fdba 353f 1ac7 ea3d ecb5 8abe b9e9 24be
00000020: 5cda ff3e 4052 7ebd e2e6 1ebd e05c 883d
00000030: bf0b ea3e 64a8 913e 2c1d bbbc 5bc0 85bf
00000040: 7e06 943f b04b 513f ba2b 703d 9c37 28bd
00000050: 801e e3bc 72a1 093f e0b4 f3bd efcb b13e
00000060: b853 4f3d 48bb 993c 1d59 cf3d fe83 b13d
00000070: 011d 0a3f 6578 793e e569 403a 699c d2bd
00000080: cc5f c53e 04bf 823e 6078 493e 80ff 823e
00000090: 5f23 d23b 7fbf 413d b59b d83d 5f23 613f
000000a0: 3f37 103f d211 09be 1889 a0bd c897 073f
000000b0: ee1d 77bd 60c9 143c 58c7 72be 448b df3c
000000c0: 68a7 b83e c4fb 16bd 5fd5 263d 9801 2a3e
000000d0: 8152 3c3f 410b f53c c07d d8be a661 263d
000000e0: 3d38 8a3e a9b5 b83c a8eb a63c c9e6 9f3e
000000f0: 5eb4 0c3f bec6 05be 3507 9c3e af29 5b3e
00000100: 0607 0e3d 0029 60ba a0d7 c23e 8444 d33c
00000110: 581f 3dbc 8265 4b3f c44a ea3c 2cb8 38be
00000120: 985e 1f3f 2c31 093e f44b 4e3e 6063 afbd
00000130: f209 a03c 8af8 ac3e 58c7 2b3d f038 c63e
00000140: 21da 863e cffe 143c 3f36 62be 0700 4b3e
00000150: 1787 6d3f b3e4 34be 8614 e7bc 7f4a 443e
00000160: 4a0d 0fbe de85 2e40 93b5 d0be 60e9 973e
00000170: b82c a83f 3886 973d 6184 0abf 6527 b2bc
00000180: 6fac 87be 1480 d3bc b4b1 e2bd fba2 a63e
00000190: 7566 ccbe e888 ee3c e661 1b3f a4e7 0abe
000001a0: d977 603f fd2c cc3e a871 b6bc f040 3f3f
000001b0: 6fff c9be f303 8f3e aba3 fc3e f8a2 76bc
000001c0: 6aee 873f b84c 1f3e b92d fc3e 457a d13f
000001d0: d0c6 c53b e4ed 473d 9db6 cd3e b490 89bd
000001e0: 7693 6e3e a40f 743d 3dea 3dbf 9a33 983f
000001f0: d68a b43e 93f8 be3e 84ca 4b3e 89fc 0fbf
00000200: aa66 58bd dd39 b53d dc1f 4dbe 34bc 9abd
00000210: 98d7 e2bd b595 663e 255a 1a3e e188 c63e
00000220: a804 d03c b04f 623f f28a 953c 9cb9 993d
00000230: e6f2 0fbf d7f6 33be eafe ffbd f7bf 943d
00000240: 80bd 3fbc 8482 4c3f fec4 683f 4010 6b3d
00000250: 2a9e 2c3d 1d30 8b3e 9f33 033f 6a0b 84be
00000260: a357 4c3d 93e1 58bd d598 213e 5b94 e93c
00000270: fc10 2ebe a0b1 803e 6884 303d 238f 7d3e
00000280: c657 c33e 40a8 73bc 1a2b f6bb f41f 1a3e
00000290: f477 ae3e b6b7 9abe c44c b83d 00c5 7dbc
000002a0: c013 32bd af55 dd3e 2051 50bc 240f 623f
000002b0: 69f8 babd affd 44bf ca31 443f 0299 97bf
000002c0: ed53 923e e04f b53c a396 a4bf d455 4b3e
000002d0: 914f 8bbe e7b6 b6bd ac37 97be cf01 28be
000002e0: 2abe 32bd 666a a73e 919e 1840 b54d 103c
000002f0: 0688 a53e ed82 a53e fde2 a83d 80f6 9d3b
00000300: 51fc 8b3e 8baf 323e 86a8 973e 08e7 c0bf
00000310: ea2a 463d 21ab 05bc e140 eb3e 213b 163e
00000320: 0e93 9d3e 3830 34bd 441a 55bd bef5 06be
00000330: d53d 023f 1841 29be 8e6d 053f 6731 79be
00000340: 22f8 1c3f bda4 1c3f 0a9a 17bd 1b53 c73f
00000350: bda2 10be 27ae 15be 576f 6bbd c721 f9bb
00000360: 51f8 8bbd 6af8 2a3d 17aa bbbc 9839 a8be
00000370: 7782 a7ba ad2b a0bf 03ca 38be d0b1 fe3f
00000380: e8b9 a53f 04e8 963e de9a 1e40 a16d d93e
00000390: e6b8 543f 4893 d4bc d589 2bbe 088d 98bd
000003a0: 41ae 27bf 6c47 bfbc c0bc ddbc 245b a53e
000003b0: 0cd3 74bd ae8d 00bf 3b40 123e cbde e43d
000003c0: 2ecb 073f 3523 713f 8b39 8a3e eafd 1740
000003d0: f15c 3a3e c9dd ebbd 61d7 233f c42e af3f
000003e0: 1146 493d afe4 733e 5b2f e53e c2e1 453f
000003f0: 9f4d 123f b0b9 ba3e d072 5d3d 1235 4dbd
0.028501004 0.16768833 0.781317 0.15367708 0.70988446 0.11463757 -0.2709192 -0.16104783
0.49971282 -0.06209016 -0.038794406 0.066583395 0.45712087 0.28448784 -0.022841059 -1.0449327
1.1564481 0.81756115 0.05863545 -0.04106866 -0.027724504 0.5376197 -0.118997335 0.347259
0.05061695 0.01876606 0.10124419 0.08667754 0.53950506 0.24362333 0.0007339998 -0.10283739
0.3854965 0.25536358 0.19674826 0.25585556 0.006412908 0.047301766 0.10576574 0.87944597
0.563343 -0.13385704 -0.078386486 0.52965975 -0.060331278 0.009081215 -0.23708856 0.027288087
0.3606522 -0.036861196 0.04073083 0.1660217 0.7356339 0.029912593 -0.4228344 0.04062047
0.2699603 0.02254756 0.020376042 0.31230763 0.5496272 -0.13064095 0.3047425 0.2140262
0.034674667 -0.00085510314 0.38055134 0.025789507 -0.011543117 0.79451764 0.028600104 -0.18039006
0.62253714 0.13397664 0.20146161 -0.08563876 0.019535992 0.3378337 0.041938156 0.38715315
0.26338294 0.009093954 -0.22091006 0.19824229 0.92784256 -0.17665367 -0.028208029 0.19169043
-0.13969913 2.7269206 -0.4076353 0.29670238 1.3138647 0.07398647 -0.54108244 -0.0217473
-0.26498744 -0.025817908 -0.110690504 0.3254622 -0.3992192 0.029118016 0.60696256 -0.13564926
0.87682873 0.39878073 -0.022270992 0.7470846 -0.39452693 0.279327 0.4934362 -0.015053503
1.0619633 0.1555661 0.49253634 1.6365439 0.006035663 0.048810855 0.40178385 -0.06717053
0.2329844 0.05958523 -0.74185544 1.1890748 0.35262173 0.37299022 0.19901472 -0.56244713
-0.052832283 0.08848927 -0.20031685 -0.07555428 -0.110762775 0.22518046 0.1507345 0.38776305
0.025392845 0.88402843 0.01825473 0.07506105 -0.5623001 -0.1757463 -0.12499793 0.07263177
-0.011702895 0.7988665 0.90925586 0.057388544 0.042143025 0.27185145 0.5125064 -0.25789958
0.049888264 -0.0529495 0.15780957 0.028513124 -0.16998667 0.25135517 0.043095022 0.24761634
0.38152903 -0.014871657 -0.0075124623 0.15051252 0.34075892 -0.30218285 0.08999017 -0.015488863
-0.043475866 0.43229434 -0.012714654 0.8830435 -0.09129412 -0.7694959 0.7663847 -1.1843569
0.28579655 0.022132814 -1.2858471 0.1985696 -0.27209142 -0.089216046 -0.29534662 -0.1640694
-0.043638386 0.32698363 2.3846781 0.008807589 0.3233034 0.3232645 0.082464196 0.004820645
0.2734094 0.17449777 0.2962076 -1.5070505 0.04838077 -0.008158476 0.45947936 0.14670993
0.30776256 -0.043991297 -0.052027002 -0.1317968 0.508756 -0.16528738 0.5212029 -0.24335252
0.6131612 0.6118887 -0.037012137 1.5572237 -0.1412458 -0.14617215 -0.05747923 -0.0076029035
-0.06834472 0.041740812 -0.022908254 -0.3285644 -0.001277997 -1.2513329 -0.18045811 1.9898014
1.2947359 0.2947389 2.4782023 0.42466453 0.8309463 -0.025949135 -0.16751797 -0.074487746
-0.65500265 -0.023349486 -0.027067542 0.32296097 -0.059771582 -0.50216186 0.14282314 0.11175307
0.530444 0.94194347 0.26997027 2.3748727 0.18199517 -0.115169115 0.6400052 1.3686147
0.049139086 0.23817705 0.44762692 0.77297604 0.5714969 0.36469793 0.05406457 -0.05009944

fc2.bias f4 [256]
00000000: 712c 2c3f 8432 9ebc 59f6 f03f 548e a4bc
00000010: 350b 983f aec9 d93f e14c ae3c ae23 63be
00000020: aa95 2e3d 125f 4f3c 6c95 0d3f 2419 703f
00000030: b407 5dbd 1bcc c83f c4fa 6f3f 2874 253f
00000040: 0158 4b3d d958 0e3d 51c5 903f 37ba ce3d
00000050: 904f 80bc 73ed 1f3e 20a4 073b e8b9 a23f
00000060: 40c2 b6ba 317f 583d 7141 5abd e073 993b
00000070: d67a 6f3f 8429 d5be 26d8 80bd f55e 473e
00000080: 0758 413f 4c83 053f 9030 813e c048 79bb
00000090: edf4 063f d78a 17bd bc7f 7d3e 6c0a 0440
000000a0: a607 cb3e 305f cf3b e102 abbd e87c 513f
000000b0: e4d1 b53f c7bb 89bc 5976 8f3e 09cd e53e
000000c0: 9f18 8f3e ac72 863f 2445 a7be 3e3a 5ebd
000000d0: 489c 6d3f 90da f63c dd89 223d fc7b 88be
000000e0: 29ff 913f b8ce 603d 643d d7bc 87be db3e
000000f0: f9fd 3f3b 483c 413f 2a0f a53e cc9a f43f
00000100: a64e 49bd 9909 31bd 067f 073d f1f5 b53e
00000110: e1e3 c6be 762b b73a 1149 523f bf24 083d
00000120: c8d0 58bc c528 563f 2353 993f 3260 e03f
00000130: 763f d73e 1d7a e13f 888e 8a3f 721b 703f
00000140: edbb fe3e 0148 3bbd a6c5 673f 4975 18be
00000150: df1b 6b3f fde0 12be 4c9f 0f40 2dfa 523f
00000160: 7018 703e 9612 eb3f 35de 253d 0667 4fbd
00000170: ff89 823f d203 c13e dd97 ab3f 30a3 3dbd
00000180: e50e 9f3f b024 c23e 936f c23f 9d0f 8abd
00000190: bbb9 1f3f 12e0 0e3f d3f2 3a3d 4d05 87bd
000001a0: c968 92bc d60e 02be becc a53c b0cb 6cbc
000001b0: d1d8 fd3e ac8e d33f 087c 87bd 8375 a03f
000001c0: bf3b b73f bec4 2d3f 76b8 b23f 5f07 9fbc
000001d0: 8252 b8be c2dc 5abd 1654 00bd 5749 853f
000001e0: 8a1a 2dbd 18d7 4cbc b514 29bd 6159 94bc
000001f0: f68e d53f bd6a 383f 823e dcbe 9153 453f
00000200: defb 923f 9f61 8f3f 8833 fb3c 6b7a 603c
00000210: 00bd be3b 1b5e 763f 5983 4c3d 9b36 af3e
00000220: 1562 5dbd 10d5 183c 71bc ecbc e90b 8abc
00000230: 2969 c0be 7fea cf3f d80c fb3e 7ebf 853e
00000240: e185 543f 1b30 89bc ade1 763f ad8d 89be
00000250: 1c58 3b3f b5be 523f 6856 cdbc 2555 453f
00000260: db99 0e3f da6c 0abe 5d6b 97be 97ff b53e
00000270: 95da e03f 52d2 783f cbdc 353f a760 0240
00000280: fdbe bebe d12e 503e fd5e d13c ac39 e13f
00000290: 394b f8bc 8daa 91bb 8d2f 9d3f e54b a43f
000002a0: 24fb 1cbd 89c2 383f 077c ec3c 5383 683d
000002b0: 7162 3bba 7aeb af3e 042d 2f3f 625b 843c
000002c0: e00a 3c3e 67f2 d03f 24b9 0240 a359 d03c
000002d0: aa91 be3d 2780 6a3f 0813 10bc 4a3a 0c3c
000002e0: 8f25 b83f c1fe 5a3f 649f 323f aace 0f40
000002f0: c6f6 3c3f 41a6 1cbe d3bf ae3f 76b6 42bd
00000300: 228d 2840 5ba0 1d3f 9833 f13f f0b1 63bd
00000310: 8083 113a c824 0a3f b14e 2d3f 095c 5ebc
00000320: fd96 6c3f 0813 743e 1220 df3c 888e f53c
00000330: 6af0 903b 9e86 9140 dbfa 443f a525 6cbd
00000340: 8ac5 363f b92d 4a3e c43a a8bc bf8d 7d3f
00000350: afc0 c73f d6c9 62bc 92e0 5fbd c043 abbe
00000360: ee89 d63e aaaa 0440 abd0 0abc c963 d2be
00000370: 7319 8fbd d6a9 c6be 6d6d 003d b592 bd3c
00000380: c4e2 5b40 1469 1abe c882 3e3c b577 bb3f
00000390: af8b 94bc ac0e 403f 6244 eb3f 5a6c 94be
000003a0: 004d ccbc 6614 dd3f 9fb8 3d3d cd43 3e3f
000003b0: f0c6 563d 22bd 49bd d581 813f 5981 a33c
000003c0: f1ab b43e 5c50 ba3f 1c86 4bbd cb0d 513d
000003d0: d491 8c3e 025c ca3e 33dc 773b 0038 a63a
000003e0: bf3c 7f3e e074 d23d e5ef 493d 71d7 413f
000003f0: ce7e 5d3f a528 743f 0f23 58bd 729b 30bd
0.6725531 -0.019311197 1.8825179 -0.020087399 1.187842 1.7014673 0.021276893 -0.2218158
0.0426232 0.012656944 0.55306125 0.9378836 -0.053962424 1.5687288 0.9374201 0.64630365
0.049644474 0.0347527 1.1310216 0.100941114 -0.015662938 0.15617923 0.0020697191 1.2712984
-0.0013943389 0.052855674 -0.053285066 0.004683003 0.9354681 -0.41633236 -0.06291227 0.19469817
0.75524944 0.5215347 0.25232363 -0.0038037747 0.5271748 -0.036997642 0.24755758 2.063136
0.39654273 0.006328486 -0.083501585 0.81831217 1.4204679 -0.016813172 0.2801998 0.44882992
0.27948472 1.0503745 -0.32669938 -0.054254763 0.9281659 0.030133516 0.039682258 -0.26657093
1.1405994 0.054884642 -0.02627439 0.42918798 0.0029295667 0.75482607 0.32238132 1.910974
-0.04914727 -0.043222044 0.033080123 0.355392 -0.38845733 0.0013974744 0.8214274 0.03323817
-0.013233371 0.8365596 1.1978496 1.7529356 0.42040604 1.7615391 1.0824747 0.9379188
0.4975275 -0.045722965 0.9053596 -0.1488849 0.918394 -0.14343639 2.2440977 0.8241299
0.23446822 1.8365047 0.040495116 -0.05063536 1.0198363 0.37698227 1.340572 -0.046298206
1.242642 0.37918615 1.51903 -0.06741259 0.6239278 0.55810654 0.04564173 -0.06592808
-0.017872231 -0.12700972 0.02023923 -0.01445286 0.4957948 1.6527915 -0.06615454 1.2535862
1.4315108 0.6787833 1.3962543 -0.019412694 -0.36000448 -0.053433187 -0.03133019 1.0413007
-0.042261638 -0.012502454 -0.041279513 -0.018109025 1.6684253 0.7203787 -0.4301644 0.7708064
1.1483114 1.1201667 0.03066422 0.013701062 0.0058208704 0.96237344 0.04992995 0.34221348
-0.054048616 0.009328142 -0.02889845 -0.016851382 -0.3758023 1.6243438 0.49033237 0.2612266
0.83016783 -0.016746571 0.96438104 -0.26865903 0.7318132 0.82322246 -0.025065616 0.77083045
0.55703515 -0.13518086 -0.295741 0.35546562 1.7566706 0.97195923 0.7104003 2.0371492
-0.37255087 0.20330359 0.02555799 1.7595725 -0.030309306 -0.00444538 1.2280136 1.2835661
-0.038325444 0.7217184 0.028867735 0.056765866 -0.0007148153 0.34359342 0.68428063 0.016156856
0.18363523 1.6323975 2.04255 0.025433367 0.09305127 0.91601795 -0.0087936 0.008558819
1.4386462 0.85544974 0.6977446 2.2469888 0.73814046 -0.15297796 1.365229 -0.04753729
2.633614 0.6157281 1.884387 -0.055589616 0.0005550906 0.53962374 0.676982 -0.013571748
0.9241789 0.23835385 0.027236972 0.02997519 0.004423191 4.547683 0.76945275 -0.057653088
0.7139517 0.19744004 -0.020535834 0.9904441 1.5605677 -0.013842067 -0.054657526 -0.33450127
0.41902107 2.0729165 -0.008472602 -0.41091755 -0.06987276 -0.3880145 0.031354357 0.023141244
3.4357157 -0.15079147 0.01162786 1.4645907 -0.018133013 0.7502239 1.8380244 -0.28988916
-0.02493906 1.727185 0.046318647 0.74322206 0.052435815 -0.049252637 1.0117747 0.019959139
0.3528743 1.4555774 -0.049688444 0.051038545 0.27455008 0.3952332 0.0037820458 0.0012681484
0.24925517 0.102761984 0.049301047 0.7571936 0.86521614 0.9537452 -0.05276781 -0.043116994

fc3.weight f4 [81, 256]
00000000: 9881 833e 8ece 44bd ec78 39bc e58f adbc
00000010: 4145 023d e0c2 2e3d 75a7 01bd 7e1e fcbd
00000020: be3e 533d dc82 673d 754b 92bb a8ed 77bc
00000030: ba87 18bd 67b8 06bd 94b0 be3c 2cf4 72bd
00000040: 18e2 0ebc 88b8 cb3c 25d8 363e b99d 2bbd
00000050: c0e6 14bd 0d87 0dbe 1e2e 5a3d 17bc 90bc
00000060: cc03 a03c b8d7 86bc a491 e4bc 8ab4 4fbd
00000070: 5a10 bdbd f000 cfbe 063a 53bd 27c7 49bd
00000080: 55d9 d1bd 3e91 d13c 1d79 05be 7083 9c3c
00000090: ae66 513c 409d 92bc 7688 efbc ba07 353d
000000a0: d826 143e 9057 a23b 5b79 c3bb e0d3 dd3d
000000b0: 8cd4 a53b 8816 f03c ef41 783d f7eb bc3d
000000c0: 0866 c7bc e6d6 fa3c 4c68 94bc 10d8 94bc
000000d0: 9a6c b3bc df36 ac3c 7618 26bd 3473 aabe
000000e0: b4fb 58bd fa08 7a3d f6d9 5cbd 2191 913c
000000f0: fc31 55bd 4011 143d ab0e c4bc f8eb 25bd
00000100: 086e a4bc f025 d4bb 785f 6abd f493 54be
00000110: 1144 a2be e0a7 773b fdaa fcbb 40c5 a3ba
00000120: 28af 923c faee c9bc 0f92 04bd 438a b8bc
00000130: 00e9 973b 3f15 7fbd b5c9 aa3c ca5d 4a3e
00000140: b6c5 103c 5984 23bd e5d2 11bd fa31 02be
00000150: f1e3 74bb a500 5cbe 4219 5e3c 88be 53bd
00000160: 8182 0e3c b4db dc3c bef0 75bd c0b8 323b
00000170: 877c ff3c 1447 37be f7b1 d03c 14c1 e73c
00000180: a5fc 6cbd 6f4e 0c3d 9871 42bd ee3a 283d
00000190: 1100 68bd 964b cf3d 6d6a 183d 5573 e93d
000001a0: 4cf0 e63c a9ec a3be ada2 a7bb b0e9 debb
000001b0: a53f fcbc 007d 833d cad8 50bd 7006 a73b
000001c0: 9741 9abd 6bbf 1dbc 66ad a1bd 1817 5cbd
000001d0: 70c7 eebd 6a34 4bbd 5418 3bbd 5f55 c73b
000001e0: ae8c 063d 64b4 553d a6f2 4fbd 6044 1dbd
000001f0: 9769 24bd 8d44 3fbc c7c6 a9be bd1d b4bc
00000200: 9499 363d 9ea2 03bd c8ab d23c 716c fbbc
00000210: 48ff 70bc 662c bebc 6cb8 d5bc 154b 16bc
00000220: b0de 253c 805b b53c 50a3 cdbc a4e2 58bc
00000230: f330 91be 68ff 8f3d dfa0 92bd 47d5 a33c
00000240: dbe4 14bd 3e4a 36bd 836d 8bbd 8c2e e3bd
00000250: 4f14 163d 22f6 99bd bc10 4c3d b8fe 8ebc
00000260: 13ea f33c 1efd 93bd 6e13 09be 68f3 a0bb
00000270: a61a 703d 9465 68bd 08fc 443e 979b 72bc
00000280: 7edb a6bd feb7 a6bd ca66 6dbd fd1e 9b3d
00000290: fa85 15bc 4049 45bd 5aff 8c3a 6707 f83a
000002a0: 8248 51bd b7b1 243c f644 563d 1794 9fbc
000002b0: 4293 22bc a68f eb3c 2e88 2abd 82c9 2bbd
000002c0: b767 08bd 89cf 023d dfa2 073d d0be c9bb
000002d0: b80c 5a3c 8bbc b23c 9002 db3b bd3f 05bc
000002e0: 0eb3 553b 7393 003c a690 52bd 9065 883d
000002f0: f790 d83c a033 6e3d 223f 623d fc79 623d
00000300: 73c4 af3c afde 10bd b297 3abd 124b 673d
00000310: 10b0 a53b 482f 473d e782 b13b 8e14 3dbd
00000320: 5d84 93bc 3bdd 2ebd 6cce 17be b064 4c3c
00000330: e6b8 6cbd 0fcc 7a3d 0040 553c 4069 18bb
00000340: 772c a9bc 0acd a5bb 3ecd 0bbd 5fc6 64bd
00000350: a6ee 0fbc bb61 bcbb eaad 4abd 978a 4fbe
00000360: 7097 4dbb 1806 f63d 7f22 163d 999e bbbe
00000370: 3678 093d 49bb 17bd e884 efbc 1ab2 72bd
00000380: d2c1 4fbc 4327 89be ae92 2cbd 95c8 22bd
00000390: 90e5 e9bb c63f 293d df56 243d 3c21 2ebe
000003a0: 247d 6ebd 03e2 78bc 7897 74bd d87a 09bd
000003b0: de37 1ebd 3289 663d ff14 f1bb bab1 f33c
000003c0: cc74 573b 4e1a 263d 406d ddbc 1ca8 dbbc
000003d0: e961 233d f889 08bd a449 f1bc a0c3 9b3b
000003e0: b730 05be a41b b43c 8004 c73c 932b 44bd
000003f0: ae56 aabc 85fc 94bd 08b7 f83c 5987 8fbd
0.2568481 -0.04804855 -0.011320334 -0.021186778 0.031804327 0.042666316 -0.03165384 -0.123105034
0.051573507 0.05652128 -0.0044645616 -0.015132345 -0.037238814 -0.032890704 0.023277558 -0.05931489
-0.008720897 0.024868265 0.1785589 -0.041898463 -0.036352873 -0.13821049 0.053266637 -0.017667813
0.01953306 -0.016460285 -0.027901478 -0.050709285 -0.092316344 -0.40430403 -0.051569007 -0.049262192
-0.10246531 0.025581952 -0.13034482 0.019105643 0.012780828 -0.017897248 -0.029239874 0.04419682
0.14467943 0.004954286 -0.0059653944 0.108314276 0.005060738 0.029307619 0.060609754 0.09224694
-0.024340644 0.03062005 -0.018116139 -0.018169433 -0.021902371 0.021022258 -0.04055067 -0.33291018
-0.052974418 0.061043717 -0.0539188 0.017769398 -0.052049622 0.036149263 -0.023932775 -0.04050824
-0.020071998 -0.006474249 -0.057219952 -0.20759565 -0.31692556 0.003778927 -0.007710813 -0.0012494698
0.017905787 -0.024650086 -0.032365855 -0.022526866 0.00463593 -0.06227612 0.020848135 0.1976234
0.0088362 -0.03992114 -0.035601515 -0.12714377 -0.003736731 -0.21484621 0.013555827 -0.051695377
0.008698107 0.026960231 -0.060044043 0.0027270764 0.031187309 -0.17898208 0.025475485 0.028290309
-0.057858128 0.034254488 -0.047471613 0.041071825 -0.05664069 0.10121839 0.03721087 0.11398951
0.028190754 -0.32016495 -0.005115828 -0.00680276 -0.030792067 0.06420326 -0.050987996 0.005097203
-0.075320415 -0.009628157 -0.07894401 -0.05373296 -0.116591334 -0.049610533 -0.045677498 0.006083175
0.032849006 0.052173987 -0.050768517 -0.038395286 -0.04013976 -0.011674059 -0.33159468 -0.021986837
0.044580057 -0.032137506 0.025716677 -0.030691357 -0.014709301 -0.02321453 -0.026088916 -0.009173174
0.010123894 0.022138357 -0.025102288 -0.013237629 -0.28357658 0.07031137 -0.0715959 0.01999916
-0.036351066 -0.044504397 -0.06807997 -0.110928625 0.03664046 -0.07517649 0.049820647 -0.017455444
0.029774701 -0.07226013 -0.13386318 -0.004911829 0.058619164 -0.056737497 0.19236767 -0.014807603
-0.081473336 -0.081405625 -0.057959355 0.0757427 -0.009126181 -0.04816556 0.0010757253 0.0018923105
-0.05109454 0.010052136 0.05231186 -0.019479794 -0.009922804 0.02875502 -0.041633777 -0.04194022
-0.033302035 0.031936202 0.03311431 -0.00615678 0.013308696 0.02181842 0.006683655 -0.008132872
0.0032607946 0.007847655 -0.05140748 0.066599965 0.026436312 0.058154702 0.05523599 0.055292115
0.021455979 -0.035368618 -0.045554824 0.056468077 0.0050563887 0.048629075 0.005417216 -0.04616218
-0.018007452 -0.04269145 -0.14824837 0.012475178 -0.05779352 0.06122976 0.013015747 -0.0023256093
-0.020651085 -0.005059843 -0.03413128 -0.055853244 -0.008784926 -0.005748955 -0.049482264 -0.20267712
-0.0031370781 0.12012881 0.03665399 -0.36644438 0.033561908 -0.037043843 -0.02923818 -0.059251882
-0.012680488 -0.26787767 -0.042132072 -0.03974207 -0.0071379617 0.041320585 0.04012191 -0.17004865
-0.058224812 -0.015190604 -0.059714764 -0.03356442 -0.038627498 0.056283183 -0.0073572393 0.029747833
0.0032876013 0.04055243 -0.027029634 -0.02681356 0.039888296 -0.033334702 -0.02945406 0.004753545
-0.13006864 0.021985836 0.024294138 -0.047893118 -0.020793285 -0.07274727 0.030360714 -0.070082374

fc3.bias f4 [81]
00000000: 4cf5 213f 82ef 893e 9762 083f 2df2 403e
00000010: a042 363e ab4e 943e 7149 053f e09f 3e3f
00000020: be7c 8f3e a9da 2b3e 333c e23e 2794 af3c
00000030: 4bca 033f 5c81 ae3e 53a7 993e ef6c 7e3e
00000040: 926f b03e 77ad 3a3f 36bf 7f3f d96e bd3e
00000050: b4fe 0e3f 5292 593f 9770 273f 1837 513e
00000060: edea 3f3f 3296 163e 6639 3b3f c6bd aa3e
00000070: 2039 e83e 98c7 d43e bd15 dc3d 3828 c93e
00000080: 49d5 aebd 2bf2 f43e 267e 8e3e e3dd 8c3e
00000090: b9b4 cf3e a965 a63e fbaa 053f 511e 3f3f
000000a0: 00a3 b43e 2b6a ff3e b5ee b43e 97fc ac3e
000000b0: db3a 033f 2aef 783f 9989 363f 392d 083f
000000c0: d490 e83e 4b13 5a3e c0d4 dd3d 341c f73e
000000d0: bbd7 a33e a810 fc3e f947 e33e 48eb 093e
000000e0: 1a6f 603e 0b80 d43e 7fff bb3e 4e72 1a3f
000000f0: f276 7d3e eb68 083f fa25 b23e 0e56 413f
00000100: ecd4 683d 3a5c 223d 52fa 573f f5ac 9d3e
00000110: a75b 263f 235c 8a3f 7074 aa3e eaa7 303f
00000120: 16ed 2b3f 9424 453f 848e 073f 83b2 dc3e
00000130: bae4 f93e 42d7 553e 77b5 063f 2160 8c3f
00000140: c2c1 1a3f
0.6326492 0.26940542 0.53275436 0.18842383 0.17798853 0.2896627 0.5206519 0.744627
0.28024858 0.16782631 0.44186553 0.02143295 0.5148055 0.34083068 0.3001047 0.24846242
0.3446012 0.72920936 0.9990114 0.36998633 0.55857396 0.8498889 0.65406173 0.20431173
0.74967843 0.14705732 0.7313446 0.3334791 0.45356083 0.41558528 0.10746334 0.39288497
-0.08536775 0.4784101 0.2783062 0.27513036 0.40567568 0.32499436 0.5221402 0.74655634
0.3528061 0.49885687 0.3533837 0.3378646 0.5126168 0.97239935 0.7130371 0.53194004
0.45422995 0.21296422 0.108315945 0.48263705 0.32000527 0.49231458 0.44390848 0.13468659
0.21917382 0.4150394 0.36718366 0.60330665 0.24752405 0.5328509 0.347946 0.75521934
0.056843683 0.039638735 0.84366333 0.30796018 0.649836 1.0809368 0.3329196 0.69006217
0.6715864 0.7700894 0.52951837 0.43104944 0.48807317 0.20882896 0.52620643 1.0966836
0.604519
