code/outputs/seed/11/models/dqn_checkpoint.pth (torch, 354391 bytes, 6 tensors)

fc1.weight f4 [256, 5]
0	0xbe7110ef	-0.23541616
1	0x3ec3ec80	0.38266373
2	0x4009db1c	2.1539984
3	0x3fdb31b5	1.7124544
4	0xbf1a44c4	-0.6026118
5	0x3e72e355	0.23719533
6	0xbe6e2a35	-0.23258288
7	0x3ee9fbd6	0.45699948
8	0x3d7c1691	0.06154496
9	0xbd5377d3	-0.051627945
10	0xbdae0da0	-0.084986925
11	0x3dadf596	0.084941074
12	0x3fb2d249	1.3970424
13	0xbd9bdac8	-0.076100886
14	0xbf791557	-0.97298187
15	0xbebec3d1	-0.3725877
16	0x3e0d0cb1	0.13774373
17	0x3e3e0f3a	0.18560496
18	0x3d9971e6	0.074924275
19	0x3fb23e74	1.3925309
20	0xbec8ba83	-0.39204797
21	0x3e92b34a	0.28652412
22	0x3fb9327e	1.4468534
23	0x3f4dd3b4	0.8040116
24	0x3f395432	0.72394097
25	0xbe213a2e	-0.1574485
26	0x3e223b26	0.15842876
27	0x3dc9dd3c	0.0985665
28	0xbe3f6a8c	-0.18692988
29	0xbf2fbfd4	-0.6865208
30	0xbeb44fb0	-0.35217047
31	0xbf0f4166	-0.55959165
32	0xbf2c862a	-0.6739222
33	0xbf23f8db	-0.640516
34	0xbe09346d	-0.13398905
35	0x3e609911	0.2193339
36	0xbe1ca3eb	-0.15296905
37	0x3f85fbdd	1.0467488
38	0x3f1a782b	0.6033961
39	0x3f079656	0.5296377
40	0xbe24bf49	-0.16088594
41	0xbc10076b	-0.008790831
42	0x3e2efc17	0.17088352
43	0x3f584316	0.84477365
44	0x3edda064	0.4328643
45	0xbeb7766b	-0.35832533
46	0x3e7827a5	0.24233873
47	0x3f526bd1	0.82195765
48	0x3f51fd57	0.8202719
49	0x3f7f3e4a	0.9970442
50	0x3de2f0d4	0.110810906
51	0x3d9009a4	0.07033089
52	0x3f080b63	0.53142375
53	0x3f49a61b	0.7876908
54	0x3fbe7ae7	1.4881257
55	0xbf879b8d	-1.0594345
56	0xbfa3eb44	-1.2806172
57	0xbf2f4177	-0.68459266
58	0xbf2bb83e	-0.67078006
59	0x3fb2e4d0	1.3976078
60	0xbd66292a	-0.0561916
61	0x3cbaed3a	0.022818197
62	0x3fa34f77	1.2758626
63	0xbd482890	-0.04886681
64	0xbdba38ff	-0.090929024
65	0x3f1b03e2	0.605528
66	0x3ed6c8bf	0.41950032
67	0xbe831144	-0.2559911
68	0x3f228cc4	0.6349604
69	0x4036ecf1	2.8582118
70	0xbe68223f	-0.22669314
71	0x3e3c382d	0.18380804
72	0x3fa5833e	1.2930677
73	0x3e87470c	0.26421392
74	0xbf1b90b1	-0.60767657
75	0xbe43466a	-0.1906983
76	0xbd4c1d60	-0.0498327
77	0x3edb0c60	0.4278288
78	0xbe900c2a	-0.2813428
79	0x3e565a84	0.20932966
80	0x3eb64df7	0.35606357
81	0x3ecaee49	0.39634922
82	0x3cf532b7	0.02993141
83	0xbdd781cb	-0.10522803
84	0x4011ed80	2.2801208
85	0xbe30646a	-0.17225805
86	0x3e202d94	0.15642387
87	0x3f9cb1c6	1.2241752
88	0x3eaef04c	0.34167707
89	0xbf99918a	-1.199754
90	0xbe8cc42e	-0.27493423
91	0xbe9ddb4e	-0.3083138
92	0x3ebafcec	0.3652109
93	0xbe9cc3de	-0.30618185
94	0xbed871d2	-0.42274338
95	0x3e9c528f	0.30531737
96	0x3ec52420	0.38504124
97	0xbe3018d5	-0.17196973
98	0xbf072a2b	-0.5279872
99	0x40058002	2.085938
100	0xbefa8b03	-0.48934183
101	0x3cfce267	0.030869676
102	0x3f25a363	0.64702433
103	0x3f08bb54	0.5341084
104	0xbdb0a4e1	-0.08625198
105	0xbd1301c5	-0.03589036
106	0x3d94c457	0.07264011
107	0x3f61baa1	0.881754
108	0x3fc15c76	1.5106342
109	0xbf299b3b	-0.6625249
110	0xbdc21b81	-0.09477902
111	0x3d2a46dc	0.041571483
112	0x3fb89856	1.4421489
113	0x3e55760b	0.20845811
114	0x3e0dc8a2	0.13846067
115	0xbd7852d8	-0.06062588
116	0xbe0ebf88	-0.13940251
117	0xbe73d23b	-0.23810665
118	0x3e8c2eac	0.27379358
119	0xbea500d0	-0.32227182
120	0x3ce97596	0.028498452
121	0x3d920dcb	0.07131537
122	0x3f4b09f4	0.7931206
123	0x3f32528d	0.6965721
124	0xbf93ebda	-1.1556351
125	0xbd2d2b18	-0.042277426
126	0xbbb91e20	-0.005649343
127	0x3f961afb	1.1726984
128	0x3f455deb	0.7709643
129	0x3f3c7302	0.7361299
130	0xbdf2aa6b	-0.11848911
131	0x3d9fa703	0.07795527
132	0x3da8c59c	0.08240816
133	0x3f420713	0.75792044
134	0x3f82e583	1.0226291
135	0x3f25feb0	0.6484175
136	0x3ec0cbb1	0.37655404
137	0xbeaff9de	-0.3437032
138	0xbf147eca	-0.58005965
139	0x3f0b8471	0.54498965
140	0xbe646d0b	-0.22307222
141	0x3e3b50e3	0.18292575
142	0x3f64d0e0	0.8938122
143	0x3faf82f5	1.371184
144	0x40316f67	2.7724245
145	0x3e1374c4	0.14400011
146	0xbe7b3e37	-0.24535452
147	0xbdcabf9c	-0.09899828
148	0x3eb919be	0.36152452
149	0xbe329266	-0.17438659
150	0x3ec5978f	0.38592193
151	0xbed5b7ca	-0.41741782
152	0xbd7c0ecc	-0.06153755
153	0x3e6734f9	0.22578801
154	0x3fa0d425	1.2564741
155	0xbeb16e88	-0.3465464
156	0x3f2bec59	0.6715751
157	0x400848a9	2.1294348
158	0x3ffd614a	1.9795315
159	0xbf0974bc	-0.5369375
160	0x3ea4f1c8	0.32215714
161	0xbe901290	-0.28139162
162	0x3f82c9e6	1.0217865
163	0x3e801908	0.25019097
164	0x3f306cec	0.689162
165	0xbdd10dc4	-0.10207704
166	0x3d0213db	0.031757217
167	0x3d85c254	0.06531206
168	0xbe90e50a	-0.28299743
169	0xbe9938bb	-0.29926094
170	0x3ddf7b39	0.10912175
171	0x3f1604a4	0.5860083
172	0xbb3b1d80	-0.002855152
173	0x3f0f91cb	0.5608184
174	0x3e41e4b0	0.18934894
175	0x3eb28f2c	0.34874856
176	0x3edd55d6	0.4322955
177	0xbf30c06a	-0.690436
178	0xbe9bbe2e	-0.30418533
179	0x40241b4e	2.5641665
180	0x3df2ac11	0.11849225
181	0x3f17281e	0.5904559
182	0xbeb114da	-0.3458622
183	0xbe02db2b	-0.12778918
184	0x40182083	2.3769844
185	0x3d861c4a	0.065483645
186	0xbcc0ece8	-0.023550466
187	0x3f4983f3	0.78716964
188	0x3eb9ee0f	0.36314437
189	0xbfb94681	-1.4474641
190	0x3e7aaf5d	0.24480958
191	0xbe1edb5d	-0.15513368
192	0x3f73f149	0.95290047
193	0x3e9f3a97	0.31099388
194	0x3fa0fda6	1.2577407
195	0x3e3e5915	0.1858867
196	0xbde9f5fa	-0.114238694
197	0x3f93ca2a	1.154607
198	0x3f689c94	0.9086392
199	0xbf7d47d3	-0.9893772
200	0xbeda6e48	-0.42662263
201	0xbede91f4	-0.43470728
202	0xbdbf733c	-0.09348151
203	0xbe8ef25a	-0.27919275
204	0xbe521808	-0.2051698
205	0xbe2ad30b	-0.16682069
206	0x3e11e718	0.14248312
207	0x3f8d00b3	1.1015838
208	0x3eb1b7d1	0.34710553
209	0xbf2c8413	-0.6738903
210	0xbe891bba	-0.26778966
211	0xbe7c114a	-0.2461597
212	0xbe66a9f5	-0.22525771
213	0x3dc51910	0.09623921
214	0xbe38d7f6	-0.18051133
215	0x3ef63b11	0.4809194
216	0xbe4f28de	-0.20230433
217	0xbec7912c	-0.38977945
218	0x3e267082	0.16253856
219	0xbdf77880	-0.120835304
220	0xbe7924d2	-0.24330452
221	0xbd1772a6	-0.03697457
222	0xbcd2fa7e	-0.02575421
223	0x3fb18e4f	1.3871554
224	0x3f1ce1ef	0.6128225
225	0x3d080519	0.033207987
226	0xbeda85a1	-0.42680076
227	0xbeab970b	-0.33513674
228	0x3f382bc2	0.7194177
229	0x3fc1651c	1.5108981
230	0xbd620503	-0.05518056
231	0xbc95c55d	-0.018282587
232	0x3fafab4c	1.3724151
233	0x3e02b37e	0.12763783
234	0x3fab674c	1.3390899
235	0xbd0ef903	-0.034905445
236	0xbeb1c5bb	-0.3472117
237	0x3e75ce72	0.24004534
238	0x3db0ec35	0.08638803
239	0x3f8facbc	1.1224589
240	0xbde3fc51	-0.1113211
241	0x3c9fcf15	0.019507924
242	0x3f9b07ee	1.2111795
243	0x3f2d1106	0.676041
244	0x3ff0c670	1.8810558
245	0xbe83cfc5	-0.25744453
246	0x3e883a21	0.2660685
247	0x3f4fc726	0.8116325
248	0x3f7099a4	0.93984437
249	0xbed71dd5	-0.42014948
250	0xbe0df59b	-0.13863222
251	0x3d7b9285	0.06141903
252	0x3f83a564	1.0284848
253	0x3f1690da	0.58814776
254	0x3f24b5fa	0.64340174
255	0x3e1b78f0	0.15182853

fc1.bias f4 [256]
0	0x3ee223aa	0.44167835
1	0x3fba662c	1.456243
2	0x3ee038ae	0.43793243
3	0x3e0e1886	0.13876542
4	0x4014fc94	2.3279161
5	0x3eb39c87	0.35080358
6	0x3dc92bcb	0.09822806
7	0x3fa0a580	1.2550507
8	0xbeac3372	-0.33633
9	0x40294bed	2.6452591
10	0x40202dfb	2.5028064
11	0x3fccb058	1.5991316
12	0x3f95d71e	1.1706274
13	0x3f724cf1	0.94648653
14	0x3fcb5815	1.5886256
15	0xbe94e630	-0.2908187
16	0x3f0bce50	0.5461168
17	0x3e763e6e	0.24047253
18	0x3998d400	0.00029149652
19	0x3f313ad5	0.69230396
20	0x3d82ab37	0.06380313
21	0x3f568415	0.8379529
22	0x3fd6de82	1.6786654
23	0xbec61c3c	-0.38693416
24	0x3f03ef1d	0.5153673
25	0x400650d0	2.0986824
26	0x3f6e20fb	0.93019074
27	0xbf29de54	-0.6635487
28	0x4056426c	3.347804
29	0xbe0fcdde	-0.14043376
30	0x3f56cc57	0.8390555
31	0x3f30a92b	0.6900813
32	0x3fc87d91	1.566332
33	0xbe8cffa1	-0.2753878
34	0xbe12975f	-0.14315556
35	0x3f2ceb7a	0.6754681
36	0x3fbe9fa7	1.4892472
37	0x3e900e69	0.28135994
38	0x4001884f	2.0239446
39	0x3f18d5a8	0.59701014
40	0xbdf3eabc	-0.119100064
41	0x3fc05a20	1.5027504
42	0xbbb0b1c0	-0.005392283
43	0xbf39ff34	-0.72655034
44	0xbe93aa62	-0.2884093
45	0x3fda9372	1.7076247
46	0x3ffa9a2e	1.9578302
47	0x3ff6b387	1.9273537
48	0x400e8355	2.2267659
49	0x3f5e7149	0.8689161
50	0x400c8486	2.1955886
51	0x3e8374e4	0.25675118
52	0x3f8052e8	1.0025301
53	0xbdd24840	-0.10267687
54	0xbf27b6ac	-0.6551311
55	0xbe47ab55	-0.19498952
56	0x3eb904ca	0.36136466
57	0xbe1fd34d	-0.15607949
58	0x3e887ef5	0.2665936
59	0x3fa1551b	1.2604097
60	0x40211208	2.5167255
61	0xbdeca134	-0.115541846
62	0x3f966a51	1.1751195
63	0xbed23db4	-0.410627
64	0x3fce55a9	1.6119891
65	0x40037560	2.054039
66	0x40095f68	2.1464481
67	0x3fc0a15f	1.5049247
68	0xbec89aa6	-0.39180487
69	0x3c580b20	0.013186246
70	0xbed32252	-0.41237122
71	0xbf197171	-0.5993872
72	0x3fa433d6	1.2828319
73	0x4000371c	2.0033636
74	0x3f26d220	0.65164375
75	0x3fe9006f	1.8203257
76	0xbf975c77	-1.1825093
77	0xbec42bd2	-0.38314682
78	0x3fd6b9c1	1.6775438
79	0x3eac01c6	0.33595103
80	0x3f2e9955	0.68202716
81	0x400c2800	2.1899414
82	0x3f0ac13c	0.542011
83	0xbe63b0f0	-0.22235465
84	0x3ca524e0	0.020159185
85	0xbe9ebd96	-0.31004018
86	0x3e198486	0.1499196
87	0xbf4ef8eb	-0.8084857
88	0xbdfc27bb	-0.123122655
89	0x3fd5edca	1.6713192
90	0x3f330aae	0.6993817
91	0x4012f7a3	2.2963645
92	0x401e416b	2.4727428
93	0xbf49b820	-0.7879658
94	0xbe3e0f82	-0.18560603
95	0x3f8a23a8	1.0792131
96	0x4004e384	2.0763865
97	0x3fa56825	1.2922407
98	0x40264cf8	2.5984478
99	0x3e56e050	0.20984006
100	0xbd8fd802	-0.07023622
101	0x3ef646f6	0.48101014
102	0x3f29f6ab	0.6639201
103	0x40136244	2.3028727
104	0x401e3f94	2.4726305
105	0x40136633	2.3031127
106	0x40299d25	2.6502163
107	0x40348bbc	2.8210287
108	0x3fdfc49f	1.7481879
109	0x4017449e	2.363563
110	0x400bf353	2.1867263
111	0xbec053c0	-0.37563896
112	0xbf022e60	-0.5085201
113	0x400ca131	2.1973383
114	0x4024a850	2.572773
115	0x40190864	2.3911371
116	0x401f41bb	2.4883869
117	0x3f0120f7	0.50440925
118	0x3f59e4f1	0.8511496
119	0x3f3958d1	0.7240115
120	0x3fc0b0a1	1.5053903
121	0x3e9e26ae	0.30888885
122	0x3f8b15bc	1.0866008
123	0x4004e822	2.0766683
124	0x3f8ff8d6	1.1247814
125	0x3fbba942	1.4661028
126	0xbeca4336	-0.39504403
127	0xbf2ad353	-0.66728705
128	0x3ff92bf6	1.9466541
129	0x3e9d08b3	0.306707
130	0x401b1a5f	2.4234846
131	0x3ff24edc	1.8930316
132	0x3f683daf	0.9071912
133	0xbe9c6c71	-0.30551484
134	0x3d8af1e8	0.06784421
135	0x4011a3ab	2.2756145
136	0x3eb4f5f4	0.35343897
137	0x400f5956	2.2398276
138	0x3c8e02fc	0.017335407
139	0x3f8d6d37	1.1048955
140	0x3f93f9b9	1.1560584
141	0x3e9952aa	0.2994588
142	0xbf9cf68d	-1.2262741
143	0xbe32fb36	-0.17478642
144	0x3ff42128	1.9072618
145	0x400f6968	2.2408085
146	0xbeea73e7	-0.4579155
147	0x3e198bd2	0.14994743
148	0xbf93e9dd	-1.1555744
149	0x3ff3ea2b	1.9055837
150	0xbe35a8d7	-0.17740189
151	0x3f846f25	1.0346419
152	0x3ee9b42a	0.45645267
153	0xbcfa8ab0	-0.03058371
154	0xbef8b97b	-0.4857901
155	0xbf1b1f31	-0.6059447
156	0x400935d6	2.143911
157	0x3e81cc96	0.253514
158	0xbdcf1388	-0.10111147
159	0xbde4ab51	-0.111654885
160	0x3f8eedf8	1.1166372
161	0x3f1f2636	0.6216768
162	0x3fdd6998	1.729785
163	0xbe84dfbc	-0.25951946
164	0xb906468a	-0.00012805514
165	0x3f60722b	0.87674206
166	0x3ffeacc9	1.989648
167	0xbf911c0c	-1.1336684
168	0xbf72f538	-0.94905424
169	0x3ff91681	1.9459993
170	0x401be0b7	2.4355905
171	0x402a25cc	2.658557
172	0xbf38ddc8	-0.7221341
173	0x3fa210df	1.2661399
174	0x4031c1aa	2.7774453
175	0x401875c4	2.3821878
176	0xbe844126	-0.25830954
177	0x3ea3b93a	0.31977254
178	0x3e017856	0.12643561
179	0x4004a042	2.0722814
180	0x3f147637	0.5799288
181	0xbf1cd0e4	-0.6125624
182	0xbb70484f	-0.0036664193
183	0x3fd27958	1.6443281
184	0x4005679e	2.0844493
185	0xbe0e7ce0	-0.13914824
186	0x3e3efddc	0.18651527
187	0xbfb15958	-1.385539
188	0x3f64c503	0.89363116
189	0x40079897	2.1186883
190	0xbce00a00	-0.027348518
191	0x402b317c	2.6748953
192	0x3fd65f2a	1.6747792
193	0x40137188	2.3038044
194	0x400e4b7c	2.2233572
195	0x4005fae3	2.093438
196	0x3f1dd296	0.61649454
197	0x401ae75d	2.4203713
198	0xbf44ceb2	-0.7687789
199	0xbf34c018	-0.7060561
200	0x3fefa3f0	1.8721905
201	0x3fadedeb	1.3588232
202	0xbe586214	-0.21131164
203	0x3edc686e	0.43048424
204	0x3ec7a435	0.38992468
205	0x3fcb3f53	1.58787
206	0x400dc02e	2.2148547
207	0x3fdd6bdd	1.7298542
208	0x401ae519	2.420233
209	0x404b2302	3.1740117
210	0x3fe1cf46	1.764138
211	0x404e1189	3.2198203
212	0xbf2aab85	-0.6666797
213	0xbc9e32ae	-0.019311275
214	0xbe269f86	-0.16271791
215	0x401d41c3	2.4571388
216	0xbf4b8aa1	-0.79508406
217	0x3f2769ef	0.65396017
218	0x3fac97af	1.348379
219	0x4011dafa	2.2789903
220	0x4028df04	2.6386118
221	0x4006d75e	2.106895
222	0x3fca3966	1.5798767
223	0x3ea29c81	0.31760028
224	0x40095700	2.145935
225	0x3e2321e9	0.15930904
226	0x3f8f31eb	1.1187109
227	0x400b37ad	2.1752732
228	0xbe5ab63f	-0.21358584
229	0x3ff5e47e	1.9210355
230	0x3ffed8b7	1.9909886
231	0x3fb040cd	1.3769776
232	0x3fdcac0a	1.7240002
233	0x3eea29ed	0.45735112
234	0xbf7426d4	-0.95371747
235	0xbf55056c	-0.832114
236	0x40091781	2.1420596
237	0xbed2770d	-0.41106454
238	0x3ff10e17	1.8832425
239	0x3e850dde	0.25987142
240	0xbe8db8a8	-0.27679944
241	0xbf8731a0	-1.0562019
242	0xbdbc9e44	-0.09209874
243	0xbf94f4a8	-1.1637163
244	0x3f2e14c3	0.6800043
245	0x3d34cf97	0.044143286
246	0xbf87b59f	-1.0602301
247	0x3e0968c5	0.13418873
248	0x400e653e	2.2249293
249	0x3eb7ae99	0.35875395
250	0xbfadffa4	-1.359364
251	0x3fe1eae8	1.7649813
252	0xbe875d1d	-0.26438227
253	0xbed984d4	-0.42484152
254	0xbf917f61	-1.1366998
255	0x400f0c2c	2.235118

fc2.weight f4 [256, 256]
0	0x3de0dadd	0.10979245
1	0x3e867fc9	0.26269367
2	0x3d765658	0.060140938
3	0xbe33f9e8	-0.175758
4	0x3e86bb6e	0.26314873
5	0x3e6a324e	0.22870752
6	0x40240243	2.562638
7	0x3fa7702f	1.3081111
8	0x3d8c4e00	0.06850815
9	0x3e7123dd	0.23548837
10	0x3d8d8680	0.069104195
11	0x4033d4b4	2.8098574
12	0x3f2b70ef	0.669692
13	0xbdd45b5e	-0.103689894
14	0x3ec5fcab	0.38669333
15	0xbc43bc50	-0.011946753
16	0xbe1db131	-0.15399624
17	0x3e95d9bc	0.2926768
18	0x3c887400	0.016656876
19	0xbe196e25	-0.14983423
20	0x3fab5cd6	1.3387706
21	0x3da8c206	0.08240132
22	0x3f1f11f4	0.6213677
23	0xbc95b9ec	-0.018277131
24	0x3db27bdd	0.08715031
25	0x3e460c5b	0.1934065
26	0x3e049eb6	0.12951168
27	0x3789fc33	1.6449112e-05
28	0x3e0a3277	0.13495813
29	0x3d6dfea4	0.058104172
30	0x40310377	2.7658365
31	0x3d9d6adf	0.076864
32	0x3f3956b8	0.7239795
33	0x3c9b9e69	0.018996434
34	0x3d093f09	0.03350738
35	0xbdd61ddf	-0.10454916
36	0xbd8bdb14	-0.06828895
37	0xbcfd63e1	-0.030931415
38	0x3eb4e6e3	0.35332403
39	0x3d47373e	0.048636667
40	0xbd555020	-0.052078366
41	0x3ec03906	0.37543505
42	0x3d5068e4	0.05088128
43	0xbd491be1	-0.049098853
44	0xbe79841d	-0.24366803
45	0x4036715e	2.8506694
46	0x3e83f129	0.25769928
47	0x3ffebf8c	1.9902205
48	0x3eb44a21	0.35212806
49	0x3e96ea7d	0.29475775
50	0x3f06f78a	0.52721465
51	0xbdb41e21	-0.08794809
52	0x3cfe5b0b	0.031049272
53	0xbe731160	-0.23737097
54	0xbe5454bf	-0.20735453
55	0xbde9b7be	-0.11411999
56	0x3e5851cf	0.21124958
57	0x401eea43	2.4830482
58	0x3d56e8ba	0.05246804
59	0x3dac7b16	0.08421914
60	0x3e4bea7f	0.19913672
61	0xb7e02000	-2.6717782e-05
62	0x3fa56baf	1.2923487
63	0xbc3f5530	-0.011678025
64	0x3ff1547c	1.8853908
65	0x3d3f6c10	0.046733916
66	0x3edb6761	0.4285231
67	0x3ed5dfc4	0.41772282
68	0xbd187034	-0.03721638
69	0x3d5ef774	0.05443521
70	0xbd7d46b6	-0.061835013
71	0xbea16838	-0.31524825
72	0x3e520009	0.20507826
73	0x3f469c5c	0.77582335
74	0x3ed72250	0.42018366
75	0x3fb73175	1.4311968
76	0x3b20bb32	0.002452564
77	0xbc4e9260	-0.012608141
78	0xbc192138	-0.009346299
79	0xbb3ecfd2	-0.002911557
80	0x3f6c3d24	0.92280793
81	0x3ddb04da	0.10694285
82	0x3d5c8493	0.05383737
83	0xbcec5a00	-0.02885151
84	0x3d4a8b00	0.049448967
85	0x3c869010	0.016426116
86	0x3f316d68	0.69307566
87	0xbf8fb97e	-1.1228483
88	0x3e2cf9b3	0.16892128
89	0x3ed272c4	0.41103184
90	0x3f019593	0.5061886
91	0x3c96419b	0.01834183
92	0x3e39234f	0.18079875
93	0x3d7938ae	0.06084507
94	0x400acaaf	2.1686208
95	0x402e5eef	2.7245443
96	0x3f25a81c	0.6470964
97	0x3df43681	0.11924458
98	0x3ec705aa	0.3887151
99	0x3e71d10e	0.23614904
100	0xbe4168ff	-0.18887709
101	0x3ceea356	0.029130619
102	0x3e37fb55	0.1796697
103	0x3dd6cf58	0.104887664
104	0x3ecec566	0.40384978
105	0x3e202771	0.15640046
106	0x3e39fc46	0.18162641
107	0x3ea2e8c4	0.3181821
108	0x3fc9fe7a	1.5780785
109	0x3e890c2a	0.26767093
110	0x3d9c2dfd	0.07625959
111	0x3d177326	0.03697505
112	0x3e286fe0	0.16448927
113	0x3d2e6866	0.04258003
114	0x404a122d	3.1573594
115	0x3f456b92	0.77117264
116	0x3e0081db	0.12549536
117	0x3fe57870	1.792738
118	0x3e7715a4	0.24129349
119	0x40368cb4	2.8523378
120	0x3eafd717	0.34343788
121	0xbc531bb3	-0.012885022
122	0x3e4532d7	0.19257675
123	0x3eb0b535	0.3451325
124	0x3e326f29	0.17425217
125	0x3ed9860a	0.42485076
126	0xbd99f7ae	-0.07517944
127	0x3e1ef0f5	0.15521605
128	0x3f789d9d	0.971155
129	0xbea8f017	-0.32995674
130	0x3e01d55d	0.12679048
131	0x3db70a8e	0.0893756
132	0x3fe9ce7b	1.8266138
133	0xbdc5bfe6	-0.09655742
134	0xbd204a1c	-0.039133176
135	0x3e6359eb	0.2220227
136	0x3ef49323	0.47768506
137	0x3ec4a689	0.38408306
138	0x3f147b7e	0.58000934
139	0x3db8e11e	0.09027313
140	0x3ef88843	0.4854146
141	0xbf23ca47	-0.63980526
142	0xbe1f312d	-0.15546103
143	0xbd6fb58e	-0.058522753
144	0x3fb0b217	1.3804349
145	0x3ee5c100	0.4487381
146	0x3cba584b	0.02274718
147	0x3e53a766	0.20669326
148	0xbcf3266a	-0.029681403
149	0x3f51b296	0.81913126
150	0x40194832	2.3950315
151	0xbe0524d5	-0.13002332
152	0x3dc402fe	0.09570883
153	0xbe205d11	-0.15660502
154	0x3ea0acc7	0.3138182
155	0xbda51407	-0.080604605
156	0x3ef881ac	0.48536432
157	0xbe22624e	-0.15857813
158	0x3d777a6e	0.060419492
159	0x3e584802	0.21121219
160	0x3e688efa	0.22710791
161	0xbb917cc0	-0.00443992
162	0x3e8ff511	0.28116658
163	0x3ceb22f8	0.028703198
164	0x402d1649	2.7044852
165	0x402f0a83	2.7350166
166	0x3ec0a277	0.3762395
167	0xbe40d489	-0.18831076
168	0xbe5c5894	-0.21518165
169	0x403ec6a0	2.980873
170	0x3e9b40b4	0.30322802
171	0x3ec0eac9	0.37679127
172	0xbd30d891	-0.043175284
173	0x3d90de4f	0.07073652
174	0x3e47fada	0.19529286
175	0x3f041368	0.5159211
176	0xbcf00288	-0.029298082
177	0x3d19e0a7	0.03756776
178	0x3e6b1cb8	0.22960174
179	0x3de63af5	0.11241714
180	0xbd6f5fb2	-0.05844087
181	0x3d794b78	0.06086299
182	0x402a8b3c	2.6647482
183	0x3e4ff29e	0.20307395
184	0x3e0f8ef3	0.14019375
185	0x3d735a88	0.05941251
186	0xbdd37f1b	-0.10326978
187	0xbe2200aa	-0.15820566
188	0x3f7aef28	0.98021173
189	0x3f2a3eaa	0.6650187
190	0x3d45ef48	0.0483239
191	0x3f0048ab	0.5011088
192	0x3f0903e1	0.53521544
193	0x3ea0148d	0.3126568
194	0x3e4a938f	0.19782852
195	0x404eac1a	3.2292542
196	0x3ddcb902	0.10777475
197	0x3e968075	0.2939488
198	0xbe5433b2	-0.20722845
199	0xbdefb0df	-0.11703657
200	0x3f3646dc	0.7120187
201	0x3ef564d5	0.4792849
202	0xbe02050b	-0.12697236
203	0x3e83e509	0.25760677
204	0x3ed5dfa2	0.4177218
205	0x3ff3264b	1.8996061
206	0x3dcb339e	0.099219546
207	0x3dc04f77	0.09390157
208	0x3d8180c6	0.0632339
209	0x3e370e7f	0.17876624
210	0x3fba244c	1.4542327
211	0x4012f1d6	2.2960105
212	0x3d65f7bd	0.056144465
213	0x3f8d46a2	1.103718
214	0x3cdb3050	0.026756436
215	0x3ea46cc6	0.32114238
216	0xbd488052	-0.0489505
217	0x3e41269c	0.18862385
218	0x3f95c969	1.170209
219	0x3df7724d	0.12082348
220	0x4027b6c9	2.6205313
221	0x3e903ba2	0.28170496
222	0x3f3935f4	0.7234795
223	0x3ee88ee7	0.45421526
224	0x3f0fb4b3	0.561351
225	0xbe6a4d25	-0.22880991
226	0xba88e5c0	-0.0010444447
227	0x3e2752aa	0.16340128
228	0xbd06e340	-0.032931566
229	0x3ed0edf3	0.4080654
230	0x3d9c968d	0.07645903
231	0x3f9452ff	1.1587828
232	0x3b8d9e68	0.004321862
233	0x3ce06ca2	0.02739555
234	0x3dbd15fa	0.09232707
235	0xbe495fd2	-0.19665459
236	0x3c61dfee	0.013786299
237	0xbbed2820	-0.0072374493
238	0x3e3f7691	0.18697573
239	0x3dae01a3	0.08496406
240	0x3d780a1c	0.060556516
241	0x3b4e8f53	0.0031518533
242	0xbcfb2960	-0.030659378
243	0xbe3a1e86	-0.18175706
244	0x3dcc1087	0.0996409
245	0x3f6d262c	0.9263637
246	0xbe017618	-0.12642705
247	0xbf0bff16	-0.54686105
248	0x404376f0	3.0541344
249	0x3c0000b9	0.007812672
250	0xbdf2d24b	-0.118565165
251	0x403956ce	2.8959231
252	0x39cab000	0.00038659573
253	0x3ba9e130	0.005184315
254	0xbe8eb473	-0.27872047
255	0x3de668d8	0.11250466

fc2.bias f4 [256]
0	0x3f8ec529	1.1153919
1	0x3ef6a9b2	0.48176342
2	0x3f302bd6	0.6881689
3	0x3f2d7bfd	0.67767316
4	0x3d479a38	0.04873106
5	0x3f226c92	0.63446915
6	0x402cd852	2.7007031
7	0x3ee8bd4f	0.4545693
8	0x3ed14ec7	0.40880415
9	0x3f26cca3	0.65156
10	0xbadfefad	-0.0017084979
11	0x3fc04d05	1.5023504
12	0x3dab1f70	0.083556056
13	0xbc4286a0	-0.011872917
14	0xbca83d70	-0.020537108
15	0x403d40b1	2.9570735
16	0x3f196c1c	0.59930587
17	0xbc916b08	-0.017751232
18	0x3f2b6a6d	0.6695927
19	0xbc9fbba1	-0.019498648
20	0x3f27b21c	0.6550615
21	0x3ebfc033	0.37451324
22	0x3f01e73b	0.50743455
23	0x3f7c07cf	0.98449415
24	0x3d2f2367	0.04275837
25	0x4029ccdf	2.6531293
26	0x3e367b81	0.1782055
27	0x3e95a825	0.29229847
28	0x3eeaee74	0.4588505
29	0xbd8025c0	-0.062572
30	0x3f226066	0.6342834
31	0x3fcb1258	1.5864973
32	0xbd4f22a6	-0.050570153
33	0x3ea02a52	0.31282288
34	0x3f015cf0	0.50532436
35	0x3cc36c4e	0.023855355
36	0x3eac0446	0.3359701
37	0x3d191066	0.037369154
38	0x402aaeb3	2.6669128
39	0x3d52347a	0.051319577
40	0x3f2aec31	0.6676665
41	0x3ecaf48e	0.39639705
42	0x3fba31eb	1.4546484
43	0x3ecdb903	0.40180215
44	0xbe30c4e3	-0.17262606
45	0x3f9055fc	1.127624
46	0x3ecc2d5b	0.39878353
47	0xbd1a4254	-0.03766091
48	0x3f634242	0.88772976
49	0xbcc93cc4	-0.024565108
50	0xbce03b60	-0.027372062
51	0xbd03ca02	-0.03217507
52	0x3ed9ca52	0.4253717
53	0x3c1ed8c2	0.009695234
54	0x3b7f0dd0	0.0038918145
55	0x3ccc47de	0.024936613
56	0x3ebddeb1	0.37083963
57	0x3f3290c0	0.6975212
58	0xbde04247	-0.109501414
59	0x3f6be4f6	0.9214624
60	0x3f329431	0.6975737
61	0x3f23cc74	0.63983846
62	0x3c9ac7e4	0.018894143
63	0x3e9f7c97	0.31149742
64	0x39c0b9f6	0.00036759645
65	0x3d7e2366	0.062045477
66	0xbd688faf	-0.056777652
67	0x3c463ae9	0.012099006
68	0xbd6fc408	-0.05853656
69	0x3e8e4b41	0.2779179
70	0x3edbe218	0.42945933
71	0x3f9aa047	1.2080163
72	0x3e16a99b	0.14713137
73	0xbcf34830	-0.029697508
74	0x3f57bd4d	0.84273225
75	0xbcd7bf6e	-0.026336398
76	0xbd8856a8	-0.06657153
77	0x3c7a3628	0.015271701
78	0x3f0455dc	0.5169351
79	0xbce1408c	-0.027496599
80	0x3d428299	0.04748783
81	0x3dc0156f	0.09379088
82	0x3ba2965b	0.0049617714
83	0x3ee94f5e	0.45568365
84	0xbd62ba33	-0.055353355
85	0xbbb8c468	-0.005638648
86	0x3ee41555	0.44547525
87	0xbd1004a8	-0.03516069
88	0xbc46b5d8	-0.012128316
89	0x3f39a603	0.7251894
90	0xbd430513	-0.04761226
91	0xbca9f618	-0.02074723
92	0x3f0068ee	0.5016011
93	0x3ecca397	0.3996856
94	0x3ed672f6	0.41884583
95	0x3ee627c3	0.4495221
96	0x3d5fa18e	0.05459743
97	0xbd1282d8	-0.035769314
98	0x3b55dce7	0.0032632889
99	0x3f6db414	0.928529
100	0xbee35d1e	-0.4440698
101	0xbbd23ca5	-0.006415921
102	0x3f02824c	0.5098007
103	0xbb16dabd	-0.0023018562
104	0x3bab779e	0.0052327653
105	0x3f93b200	1.1538696
106	0x3f5a8c9e	0.85370815
107	0x3ed19e6e	0.40941185
108	0x3f178780	0.5919113
109	0x3e88ebab	0.267423
110	0x3eff6818	0.49884105
111	0x3f37850d	0.71687394
112	0x3f5877b4	0.8455765
113	0x40453382	3.0812688
114	0x3f042147	0.5161328
115	0x3e13c611	0.14431025
116	0xbcb882c5	-0.022523293
117	0xbc9beae8	-0.01903291
118	0x3f6f98e6	0.9359268
119	0xbb071d15	-0.00206167
120	0xbcaac36f	-0.020845143
121	0x3f14caf5	0.5812219
122	0x3f57a975	0.84242946
123	0xbd6e5883	-0.05818988
124	0x3f07efb0	0.5310011
125	0xbc24a342	-0.010048689
126	0x3f4b8cd6	0.79511774
127	0x3d0f4c60	0.034984946
128	0x3f9571f0	1.1675396
129	0x40374a72	2.8639188
130	0xbd9b2d6c	-0.07577023
131	0xbe1491b0	-0.145087
132	0x3e9b6f56	0.3035838
133	0x3ee303a0	0.44338703
134	0x3f8cbe5f	1.0995597
135	0xbe8bb151	-0.2728372
136	0x3d1fb34c	0.03898935
137	0x3ec08307	0.37599966
138	0x3e9c0981	0.30476
139	0xbd4964fe	-0.04916858
140	0x3f190522	0.5977346
141	0x3f0a381e	0.5399188
142	0x3d036706	0.032080673
143	0x3ef7535a	0.4830578
144	0x3f04caf7	0.518722
145	0x3eda322e	0.4261641
146	0x3f53c654	0.827245
147	0x3eb507dd	0.35357562
148	0xbdb585f9	-0.08863444
149	0xbd5df63f	-0.054189917
150	0x3fa6bcff	1.3026427
151	0x3f44f993	0.7694332
152	0x3ec5b25d	0.38612643
153	0x3ebe8acf	0.37215278
154	0x401337b4	2.3002748
155	0x3f10ed38	0.5661197
156	0x3ed99e7d	0.4250373
157	0x3f4581ca	0.7715117
158	0x3c93b54d	0.018030787
159	0x3f04359b	0.51644295
160	0x3c6fb417	0.014630339
161	0x3f0d2ec6	0.55149496
162	0x3f21a41b	0.6314103
163	0x3f9ec908	1.24051
164	0x3f2cf2ec	0.6755817
165	0x3e5eb797	0.21749721
166	0x3f87a9b0	1.059866
167	0x3f0010c5	0.5002559
168	0x3f9b8486	1.2149818
169	0x3ead01de	0.33790487
170	0xbcc5e37c	-0.024156325
171	0x3e4cced3	0.20000772
172	0x3f2f4618	0.6846633
173	0x3fa46879	1.2844383
174	0x3f3f634f	0.7476091
175	0x3fac1de5	1.3446623
176	0xbd33221f	-0.043733712
177	0x3c830ce1	0.015997352
178	0x3ecb3be7	0.3969414
179	0xbcfcea6d	-0.030873502
180	0x3e86ac5a	0.2630337
181	0x3f109f03	0.5649263
182	0x3eed8962	0.46393877
183	0x40019daf	2.0252492
184	0xb9baaf97	-0.0003560751
185	0x3eb79748	0.35857606
186	0xbe8579ce	-0.26069492
187	0x3eacafc8	0.3372786
188	0x3ee42e7a	0.4456671
189	0x3f501bcf	0.8129243
190	0x3f13b55a	0.57698596
191	0x3f1aaa00	0.6041565
192	0x3d5b66f0	0.053564966
193	0x3ee47707	0.4462206
194	0x3f38e9dd	0.7223185
195	0x3f81f93a	1.0154183
196	0x3f5c45b2	0.86043847
197	0x3f7e1cf2	0.9926292
198	0x3ec605fc	0.3867644
199	0x3f89e0e7	1.077176
200	0x3f1f07c2	0.6212121
201	0x3c823bf4	0.015897729
202	0x3f44d0e8	0.76881266
203	0xbd21c734	-0.039496616
204	0xbd5caad3	-0.05387385
205	0x3ed6388d	0.4184002
206	0x3f4d3b8d	0.8016899
207	0x3f3309a3	0.6993658
208	0x3b95e564	0.0045744646
209	0x3e397b27	0.18113385
210	0x3ddc4669	0.10755617
211	0x3f829a22	1.0203288
212	0x3f60ffcb	0.8789031
213	0x3cbce83e	0.02305996
214	0x3d02a177	0.031892266
215	0x3fc3ce80	1.5297394
216	0x3efe24d1	0.49637464
217	0x3fcc0d51	1.5941564
218	0x3deb83e1	0.11499763
219	0x3f86e121	1.0537454
220	0x3d8fee80	0.07027912
221	0xbd0dbacf	-0.034601983
222	0x3b22e900	0.0024858117
223	0x3f8a95ca	1.0826962
224	0xbd50d303	-0.050982486
225	0xbc99bc53	-0.018766558
226	0x3e948cdd	0.2901372
227	0x4060a882	3.510285
228	0x3d4313ff	0.04762649
229	0x3f96619f	1.1748542
230	0xbd0a8858	-0.033821434
231	0x3f7a2012	0.97705185
232	0x3fba4124	1.4551129
233	0xbbc594f0	-0.0060297176
234	0x3ec12e1c	0.3773049
235	0x3b9ca588	0.004780475
236	0xbc4d88f8	-0.012544863
237	0x3f9916f8	1.1960135
238	0xbe41b92d	-0.18918295
239	0x3c34b5c0	0.011029661
240	0x3f8226d4	1.0168099
241	0xbd061859	-0.032738063
242	0x3c67ebd4	0.014155347
243	0x3e865e08	0.26243615
244	0xbd34d0f2	-0.04414458
245	0x3fadeacb	1.3587278
246	0x3cfc841d	0.030824715
247	0x3ed2982e	0.4113173
248	0xbd6894ee	-0.056782655
249	0x3ea0530c	0.3131336
250	0xbc81dee4	-0.015853353
251	0xbd89c98a	-0.06727894
252	0xbbd23a50	-0.006415643
253	0x3f96ad2d	1.1771599
254	0x3fa2bce1	1.2713891
255	0x3f26efb6	0.6520952

fc3.weight f4 [81, 256]
0	0xbd02bc00	-0.031917572
1	0xbc8ac874	-0.016941287
2	0x3e031490	0.12800813
3	0xbd80cd04	-0.062891036
4	0x3cea0cb4	0.02857051
5	0xbd7c11b3	-0.061540317
6	0x3cbe80ca	0.02325477
7	0x3eb345ec	0.35014284
8	0xbdb0a395	-0.08624951
9	0x3d04d417	0.032428827
10	0x3a70381e	0.00091636356
11	0xbdf3cf36	-0.11904757
12	0xbd76f0b5	-0.06028815
13	0xbb93aa30	-0.004506372
14	0x3d78a058	0.06069979
15	0x3de1c2af	0.11023461
16	0xbd632258	-0.055452675
17	0x3d49ea3e	0.049295656
18	0xbe6bc8de	-0.23025844
19	0x3cabb93c	0.02096235
20	0xbde4bb9b	-0.111685954
21	0xbd8f66c1	-0.070020206
22	0x3f14e296	0.5815824
23	0x3a1a7672	0.00058922835
24	0xbd1ea72e	-0.038733654
25	0x3d43c894	0.047798708
26	0xbdd7d033	-0.10537758
27	0xbe4b8dbc	-0.19878286
28	0x3f0b80a2	0.54493153
29	0x3cac42ec	0.021028005
30	0xbdab8c06	-0.08376317
31	0x3be58f20	0.007005587
32	0xbd783bf8	-0.060604066
33	0xbdd4ad7f	-0.10384654
34	0xbe0dd4fb	-0.13850777
35	0xbd3a4adf	-0.04548156
36	0xbc607069	-0.013698676
37	0x3c97151c	0.018442683
38	0x3de9e32e	0.11420284
39	0xbd1995e0	-0.037496448
40	0xbdbb0622	-0.09132029
41	0xbe75f204	-0.24018103
42	0xbdb751db	-0.089511596
43	0xbcdb5b13	-0.026776826
44	0xbef73af6	-0.4828717
45	0x3e59878c	0.21243113
46	0xbda6cec9	-0.0814491
47	0x3be1f450	0.0068955794
48	0x3cd536c9	0.0260271
49	0x3d6a6f0c	0.05723481
50	0x3c950b5a	0.01819389
51	0xbd1972d6	-0.03746303
52	0xbc87d5c9	-0.016581433
53	0x3c28c052	0.010299759
54	0x3be9aae0	0.0071309656
55	0x3cbc81f0	0.023011178
56	0xbe0a8365	-0.13526686
57	0xbded29d2	-0.11580242
58	0xbed27b97	-0.41109917
59	0xbe115a6b	-0.14194648
60	0xbd2fd052	-0.04292328
61	0xbd75837b	-0.059939843
62	0x3c36e318	0.011162542
63	0xbc92da1d	-0.01792627
64	0x3d4ac358	0.0495027
65	0x3c1b4390	0.009476557
66	0x3c8b5040	0.01700604
67	0xb9f9af00	-0.00047623366
68	0x3d65e776	0.05612894
69	0xbd094577	-0.033513512
70	0x3f0b56f6	0.54429567
71	0xbd2cd95e	-0.042199485
72	0x3ca4e731	0.020129772
73	0x3c220990	0.009889975
74	0xbe076a31	-0.13224103
75	0x3d6a1886	0.057152294
76	0xbd5612cc	-0.05226402
77	0x3d31f36c	0.043445036
78	0xbd1881c2	-0.03723312
79	0xbba81370	-0.0051292703
80	0x3ca17efb	0.01971387
81	0x3c6c35a9	0.01441709
82	0x3d2f6494	0.04282053
83	0xbdc379ab	-0.09544691
84	0x3c7d4260	0.01545772
85	0x3d1a5004	0.037673965
86	0x3c8d2c15	0.017232934
87	0xbb498da0	-0.003075458
88	0x3cfe1f6c	0.031020842
89	0xbd301006	-0.04298403
90	0xbd0f0f60	-0.034926772
91	0x3c95049c	0.018190674
92	0xbd04ef48	-0.03245476
93	0x3e03048f	0.12794708
94	0x3ec4913a	0.3839205
95	0xbdfd1652	-0.12357773
96	0xbe740191	-0.23828723
97	0xbcc11a7f	-0.023572205
98	0xbdabdc4a	-0.08391626
99	0xbdc0ae2b	-0.0940822
100	0xbf51c950	-0.81947803
101	0xbe79aeb2	-0.24383047
102	0x3ed05272	0.406879
103	0xbcc9d954	-0.024639763
104	0x3c990b18	0.018682048
105	0x3de17b77	0.11009877
106	0xbc8110fb	-0.015755167
107	0xbbdd9664	-0.0067623127
108	0xbdfa8bce	-0.12233697
109	0xbe68e0db	-0.22742026
110	0x3c94498d	0.018101478
111	0x3d36f10b	0.04466347
112	0xbd51ff37	-0.051268782
113	0x3d725fda	0.059173442
114	0x3f1e233d	0.6177252
115	0xbd50c49f	-0.050968762
116	0x3ca75ec5	0.020430932
117	0xbd598730	-0.05310744
118	0xbd22d8f7	-0.039757695
119	0x3c804ddd	0.015662128
120	0xbc89f524	-0.016840525
121	0xbdc4600a	-0.095886305
122	0x3c7eb3a1	0.015545757
123	0xbc8c6d88	-0.017142072
124	0xbcc2c540	-0.023775697
125	0x3d431f02	0.047636993
126	0x3d4f9846	0.05068233
127	0x3d64e2ee	0.05588048
128	0x3cb241a8	0.021759823
129	0x3cfcc117	0.030853791
130	0x3e02c509	0.12770475
131	0xbef1c824	-0.47223008
132	0xbda85eb6	-0.0822119
133	0x3f19bd80	0.6005478
134	0xbdb73d5b	-0.089472495
135	0xbe2adb3d	-0.16685195
136	0xbd3726de	-0.0447148
137	0xbe255e54	-0.16149265
138	0x3e874656	0.2642085
139	0xbaf8b240	-0.0018974021
140	0xbd7a543c	-0.06111549
141	0x3dbbc996	0.09169309
142	0x3cef90f8	0.029243931
143	0xbd8bba08	-0.06822592
144	0xbdfdf08a	-0.12399395
145	0x3f06774f	0.525258
146	0xbe14c1e3	-0.14527087
147	0x3d5636ff	0.052298542
148	0x3e12aea8	0.14324439
149	0x3d7861f6	0.060640298
150	0xbd1b7cbd	-0.037960757
151	0xbd03b8c4	-0.032158628
152	0xbd492113	-0.049103808
153	0xbd9a4417	-0.07532518
154	0xbbc3b7af	-0.0059728245
155	0xbe33fb58	-0.17576349
156	0xbe1174e2	-0.14204744
157	0xbe11e99e	-0.14249274
158	0x3d015707	0.031577136
159	0xbdaaafb5	-0.08334295
160	0x3c856a11	0.016285928
161	0x3f0930b1	0.5358992
162	0xbd94c369	-0.07263834
163	0x3c843a18	0.016140983
164	0xbd4a8ee0	-0.049452662
165	0xbe73e7df	-0.2381892
166	0xbd8f71d3	-0.07004132
167	0xbdf155b6	-0.11783926
168	0xbdfa52af	-0.12222802
169	0x3d53c38d	0.051700164
170	0xbeee360d	-0.46525612
171	0xbd233670	-0.039846838
172	0xbcae343b	-0.02126514
173	0x3d91b843	0.07115223
174	0xbda86e61	-0.08224178
175	0xbd1594ca	-0.03651885
176	0xbce7a790	-0.028278142
177	0x3cb9a5c0	0.022662044
178	0x3eb76f64	0.35827172
179	0x3cb6146c	0.022226535
180	0xbe662286	-0.22474107
181	0xbd0d1145	-0.034440298
182	0x3de154ac	0.11002478
183	0x3c30b5b3	0.010785508
184	0x3d584648	0.0528014
185	0x3e97cacb	0.29646906
186	0xbf3d55ce	-0.7395905
187	0x3ecd4541	0.400919
188	0xbe0e9837	-0.13925253
189	0xbdfc3430	-0.123146415
190	0xbea5571f	-0.3229303
191	0x3d6acb09	0.057322536
192	0xbd5ab91a	-0.053399183
193	0xb95d59f2	-0.0002110971
194	0xbd4e526c	-0.050371572
195	0xbdf9ff69	-0.12206919
196	0xbd34568b	-0.044027846
197	0xbde21bcf	-0.1104046
198	0x3eb46a90	0.3523755
199	0xbd91fe40	-0.071285725
200	0xbdbe1f17	-0.09283274
201	0x3d3845a8	0.044988304
202	0xbe0d74f7	-0.1381415
203	0x3d20376e	0.039115362
204	0x3d481974	0.0488524
205	0xbd3726fb	-0.04471491
206	0xbca9b086	-0.020714056
207	0xbce27c70	-0.027647227
208	0x3bc7f220	0.0061018616
209	0x3cc3d33e	0.023904439
210	0x3bdf2a46	0.0068104593
211	0xbdbbc470	-0.09168327
212	0xbc4e4a5f	-0.012590974
213	0x3cb51596	0.02210502
214	0xbe9b42a5	-0.30324283
215	0xbd7a001d	-0.061035264
216	0xbe1ab67a	-0.15108672
217	0x3d8d121e	0.06888221
218	0x3ccd23af	0.02504143
219	0xbd34a615	-0.0441037
220	0xbd4fcb24	-0.05073084
221	0x3d37f694	0.04491289
222	0xbd310822	-0.043220647
223	0xbd150f7b	-0.036391716
224	0xbd4c4374	-0.049869016
225	0x3c71e9c3	0.014765206
226	0xbb335e1c	-0.0027369326
227	0x3dc8429a	0.09778328
228	0x3d220a5c	0.03956066
229	0xbcc694db	-0.024240902
230	0xbc4e05b8	-0.012574606
231	0xbcd09feb	-0.02546688
232	0xbce839d0	-0.02834788
233	0xbd5a04bc	-0.05322717
234	0xbe09f641	-0.13472845
235	0xbd625b5e	-0.055262916
236	0xbc931b54	-0.017957367
237	0x3ce5aa46	0.028035294
238	0xbdd1d21f	-0.102451555
239	0xbd0cff62	-0.03442324
240	0xbd903e9b	-0.07043191
241	0xbd12ca48	-0.03583744
242	0x3d6d9c0e	0.058010153
243	0xbd99cbf4	-0.07509604
244	0x3d32971d	0.043601144
245	0x3e08d76a	0.13363424
246	0x3e6c2887	0.23062335
247	0xbcfbe453	-0.030748522
248	0x3d6b0eb1	0.057387058
249	0xbd9253c9	-0.07144887
250	0xbcbe72dc	-0.023248129
251	0x3d23d5be	0.039998762
252	0x3d34cd73	0.044141244
253	0xbcd44e63	-0.025916284
254	0x3c9234c0	0.017847419
255	0xbdc1afaf	-0.09457337

fc3.bias f4 [81]
0	0x3f86b6de	1.0524557
1	0x3f1226d6	0.5709051
2	0x3dd8ac82	0.10579778
3	0x3f15f5e6	0.58578336
4	0x3ec82e47	0.39097807
5	0x3e9aa33c	0.30202663
6	0x3e2a51e3	0.166328
7	0x3f07c277	0.53031105
8	0x3eff02a9	0.49806717
9	0x3ea6a8be	0.32550615
10	0x3e7560c7	0.23962699
11	0x3f21552d	0.6302059
12	0x3edc3a94	0.43013442
13	0x3f1ccc49	0.61249214
14	0x3f334714	0.7003033
15	0x3eb73b63	0.35787496
16	0x3eedd6e7	0.4645302
17	0x3f11c727	0.5694451
18	0x3f5732f6	0.84062135
19	0x3f6db06c	0.92847323
20	0x3f42be44	0.7607157
21	0x3efa0b53	0.48836765
22	0x3efc4e45	0.49278465
23	0x3f42e25a	0.76126635
24	0x3eea7aba	0.45796758
25	0x3f3a7d2b	0.7284724
26	0x3d9676b4	0.073468596
27	0x3e8812ab	0.26576743
28	0x3f50e840	0.81604385
29	0x3ef512cb	0.478659
30	0x3ee1b192	0.44080788
31	0x3ecbd26d	0.3980898
32	0x3f3282ad	0.69730645
33	0x3f09d072	0.5383369
34	0x3f37da13	0.7181713
35	0x3ead3dd7	0.33836243
36	0x3f43ad9b	0.76436776
37	0x3f3b7c8d	0.73236924
38	0x3f202c96	0.6256803
39	0x3ec4bb7d	0.38424292
40	0x3eed7d6b	0.4638475
41	0x3f0bb61f	0.5457477
42	0x3f2ff9db	0.68740624
43	0x3f55415e	0.8330287
44	0x3f3e58a7	0.7435402
45	0x3f1ab9e2	0.60439885
46	0x3f9c3cee	1.2206094
47	0x3f14f88f	0.5819177
48	0x3f23209a	0.6372162
49	0x3f3b64e2	0.7320081
50	0x3ea9feea	0.33202296
51	0x3f50b686	0.8152851
52	0x3ecb3048	0.39685273
53	0x3f1acfe0	0.6047344
54	0x3f4a0743	0.7891733
55	0x3f064157	0.5244345
56	0x3efb6b17	0.4910514
57	0x3ef43aa0	0.47700977
58	0x3f308165	0.6894744
59	0x3edbf8f0	0.42963362
60	0x3f203803	0.6258547
61	0x3e6ff705	0.23434074
62	0x3f3a94fb	0.72883576
63	0x3f0ce25b	0.5503289
64	0x3f2f45ea	0.68466055
65	0x3e7e8fb0	0.248595
66	0x3f58b944	0.8465769
67	0x3f1a8e8c	0.6037376
68	0x3f6ad854	0.9173634
69	0x3f4b2108	0.79347277
70	0x3f487083	0.7829668
71	0x3f47d750	0.78062916
72	0x3ee122ca	0.43971854
73	0x3f431650	0.7620592
74	0x3f33ebb7	0.7028155
75	0x3f0a8b23	0.54118556
76	0x3f5979c5	0.8495143
77	0x3f1f90e7	0.6233048
78	0x3f23dcad	0.640086
79	0x3f2c347f	0.672676
80	0x3efab42a	0.4896558
